JSP/trained models/A2C_rwd2.pt (torch_old, 27312 bytes, 16 tensors)

0.0.weight f4 [5, 5]
000000 54 92 75 3f 82 04 9a 3f 72 c9 5c 3f 1d 31 7e 3f
       0.95926404 1.2032626 0.8624488 0.9929369
000010 f0 97 8f 3f 74 b6 83 3f 74 54 71 3f 2a 52 7f 3f
       1.1218243 1.0290055 0.9426949 0.9973475
000020 7b 4d 84 3f 43 a7 72 3f 96 39 79 3f e6 94 66 3f
       1.0336145 0.9478647 0.97353494 0.9007095
000030 9e 26 73 3f 54 db 94 3f 3c 20 96 3f e0 13 66 3f
       0.949808 1.1629434 1.1728587 0.89874077
000040 82 11 92 3f 57 83 83 3f f4 0c 73 3f 40 5b 7b 3f
       1.1411593 1.0274457 0.9494164 0.9818611
000050 44 c9 7d 3f 65 a1 9b 3f bc 37 8e 3f 9c c8 80 3f
       0.9913523 1.2158629 1.1110759 1.0061221
000060 dc a3 7a 3f
       0.9790628

0.0.bias f4 [5, 5]
000000 d0 13 72 bd 62 2f 12 3e 78 53 58 3e 26 f0 78 bb
       -0.059100926 0.14275888 0.21125591 -0.0037984936
000010 47 d0 bd bd 0d 90 26 3d ff 28 85 bd 06 fa 3f 3e
       -0.092682414 0.04066472 -0.0650196 0.1874772
000020 84 0d c2 bd 27 39 0b be 9c 49 5b 3e 8a 8d 00 be
       -0.09475234 -0.1359602 0.21414798 -0.12553993
000030 85 c1 06 3e cd 9f 03 3d c6 78 cc bd 69 5e 57 3e
       0.1315976 0.03213482 -0.09983973 0.21032108
000040 5c 65 4d 3d 78 3b f6 bd 12 60 8f bd 32 60 e9 bd
       0.050145492 -0.120230615 -0.07000746 -0.11395301
000050 e6 ef 02 bd c6 eb 9b 3c 48 95 7a bd 43 bd 3d be
       -0.031967066 0.019033324 -0.061177522 -0.18529229
000060 d0 bc 59 bb
       -0.0033224113

0.2.weight f4 [48, 25]
000000 51 f3 80 bd 34 ac 01 bd 94 a2 8e 3d 8d 26 c1 3d
       -0.06296409 -0.031658366 0.06964603 0.09431181
000010 21 fd 1b 3d a8 ee 35 be 4e 4b 9d bd 5f 9b 92 3e
       0.0380832 -0.17766821 -0.07680379 0.28634164
000020 0a b4 9b be 61 5b f1 bd 3f b2 ca 3d 14 94 54 3e
       -0.30410796 -0.11785007 0.09897279 0.20759612
000030 e8 77 cc bc 75 2a 43 3c 75 9e f0 3d e0 69 30 bd
       -0.02495952 0.011911978 0.11748973 -0.04306972
000040 d5 cb cf 3d 81 00 2a be bc c1 36 bd 54 13 f5 bc
       0.101463 -0.16601755 -0.044618353 -0.029916443
000050 5a 70 28 be 88 38 97 bd 0d 7f 15 3d ac af 3c be
       -0.16449109 -0.07383829 0.03649812 -0.18426389
000060 11 34 15 be 80 d9 94 3d 05 63 99 3d 4d 40 5d 3c
       -0.14570643 0.07268047 0.074895896 0.0135041
000070 c7 42 88 be 23 df 99 bd ab 6b 14 bd 78 ee a2 3e
       -0.26613447 -0.07513263 -0.036235493 0.31822562
000080 65 7e 66 3d c4 c4 90 be 96 2b 08 3d 1e 55 a5 bd
       0.056272883 -0.2827512 0.03324469 -0.080728754
000090 ca 55 d3 bd c4 89 df 3d 92 21 e6 bd 6c ea e3 be
       -0.10319097 0.109149486 -0.11236872 -0.44514787
0000a0 82 44 e1 bd 22 41 7b 3e a2 1c 76 be b3 fc 7f be
       -0.10999395 0.24536565 -0.2403436 -0.24998741
0000b0 21 90 b5 3d 56 71 dd 3d b6 fa ec 3e 24 a5 e9 3d
       0.08865381 0.10812633 0.46285027 0.11408451
0000c0 7f dd a9 3d 76 6a eb bd 48 81 75 3d 31 21 82 be
       0.082942 -0.11494915 0.059937745 -0.25415948
0000d0 f5 f7 8a 3c f0 92 c4 3d 7b 1e 8e be 86 c8 c9 3e
       0.016963938 0.095983386 -0.2775763 0.394108
0000e0 e2 3f 94 bd 9b df 0a bd dc 0d b5 3d ff 48 89 3d
       -0.07238747 -0.033904653 0.08840534 0.06703376
0000f0 0a 5e ef 3c d8 91 cb be 2f e7 62 be 02 cc af 3e
       0.029219646 -0.39759707 -0.22158502 0.34335333
000100 e8 4d d3 be ea 6f 6e 3d 30 40 c4 3d 72 67 2b bc
       -0.41270375 0.0582122 0.09582555 -0.010461675
000110 f4 60 b9 3d aa 61 a3 3d e0 af 6b be da 96 bd 3c
       0.090516955 0.07977612 -0.2301631 0.02314322
000120 68 ac 9c 3e 1a bd e5 3d ea 47 1a 3e ea 2e 12 be
       0.30600286 0.11217709 0.15066496 -0.14275709
000130 f2 0c 36 bd 02 78 d8 3c 84 e7 13 bb ac 18 ad be
       -0.04444594 0.026424412 -0.0022568414 -0.33807886
000140 52 70 99 3e 48 ff 65 bd db 2f 34 bb fb 3b a3 bd
       0.29968506 -0.05615166 -0.0027494344 -0.07970425
000150 e6 2f 8d 3e 1f 3f 1b 3e 80 b1 f2 bd 3a 24 5e be
       0.27575606 0.15160798 -0.11850262 -0.21693507
000160 82 74 5c 3e 5c a8 67 be 3a 0c 32 3d c1 1f a1 3d
       0.21528819 -0.22622818 0.04346869 0.07867385
000170 12 17 f4 3d 52 ff 63 bb 87 2c 40 bd a2 ca 39 3e
       0.11918463 -0.0034789634 -0.046917465 0.18143705
000180 54 2b eb 3e 4c 74 11 3e 58 ab 54 3e b0 a5 5a be
       0.45931494 0.1420452 0.20768487 -0.21352267
000190 64 5b ef 3d aa 86 b2 be 88 0c cd bc 88 91 88 3d
       0.11687353 -0.34868366 -0.02503039 0.06668383
0001a0 44 b4 da be 53 e0 86 bc e8 e7 ac bd 21 b1 83 bd
       -0.42715657 -0.016464388 -0.0844267 -0.06430269
0001b0 da 03 27 bd 9a 01 4f 3d c1 6e b2 bd 75 0f 83 bd
       -0.040775158 0.050538637 -0.08712531 -0.063994326
0001c0 31 f0 8f 3c 03 d4 90 3e 26 86 04 be 0e 07 b3 be
       0.017570587 0.28286752 -0.12941799 -0.3496632
0001d0 26 1a e2 3c 94 c6 65 3e a5 43 94 3d dd 9d 8d be
       0.02760036 0.22439033 0.07239465 -0.27659503
0001e0 e0 65 ee bd 4e 2b 43 3e b0 98 f6 3d 24 2a 07 3d
       -0.11640525 0.19059488 0.120408416 0.032999173
0001f0 38 ce e6 bd b2 ce 05 bd f0 62 db 3d 4b 31 17 be
       -0.11269802 -0.032667823 0.1071223 -0.14764898
000200 5a 48 49 3e d4 bd 25 bd 26 f8 4a be 24 b9 d0 3c
       0.19656506 -0.040464237 -0.19821224 0.025478907
000210 71 4e 26 bd 6d 33 8c be b4 39 4f 3e 77 e0 12 3d
       -0.04060215 -0.27382985 0.20236856 0.035858598
000220 d5 49 04 be 3e c3 3c bd 4a a0 1f be 16 ab 42 be
       -0.1291879 -0.046084635 -0.15588489 -0.19010577
000230 ec b4 10 3b 1c 2c c6 bc f6 2d 59 be 74 10 2f be
       0.0022080494 -0.024190955 -0.21208939 -0.1709612
000240 e5 9a 5f 3d f6 99 cf bd b1 b2 4c 3e 82 34 a9 3e
       0.05459108 -0.101367876 0.1999004 0.33047873
000250 4d 21 8b 3d 3c d5 35 be 1a a6 c5 3d 68 76 cc 3d
       0.06793461 -0.17757124 0.09650822 0.09983522
000260 1a 82 10 3e 81 cd 43 be 1f 0d c6 3d 9a 77 53 bd
       0.1411213 -0.19121362 0.096704714 -0.051627733
000270 b8 f0 fd bd 5d 13 58 3e 3c 89 9a bd 1e 72 2e 3d
       -0.12399429 0.21101137 -0.07545707 0.0425893
000280 67 03 e6 bd 03 1a 09 be db 21 29 3e cb 2a 9c be
       -0.11231118 -0.13388829 0.16516821 -0.30501398
000290 9a 59 78 3e f6 97 68 be 19 d0 76 be 4e 5c 96 bd
       0.2425293 -0.22714218 -0.2410282 -0.073418245
0002a0 bf ac 4d 3d 36 99 f8 3d dc 6b 1d be 5c 80 94 be
       0.05021357 0.12138598 -0.15373176 -0.2900418
0002b0 a0 51 29 3e 8f f7 07 bc 56 65 08 3e 5e 86 2b be
       0.16535044 -0.008298769 0.13319907 -0.16750476
0002c0 bc c4 b8 3e 3a c0 c8 3d 9a 6f 3b 3e 4e 1d c7 3e
       0.36087596 0.09802289 0.18304291 0.38889545
0002d0 86 9d a9 3c ce 72 2c be 10 60 1f 3e 81 b3 40 be
       0.020704996 -0.1684067 0.15563989 -0.18818475
0002e0 4e 80 aa 3b 88 5a 84 3e 3a 02 9d bc 86 14 b6 3d
       0.0052032834 0.2585032 -0.0191661 0.08890633
0002f0 4a d4 67 be 8c 39 0c 3c 38 25 d6 3e 68 a3 ec 3d
       -0.22639576 0.008558642 0.4182527 0.11554605
000300 3a 9e 86 be be 5b a2 bd d2 37 57 3e 26 73 e2 3c
       -0.26292592 -0.07927655 0.21017388 0.027642798
000310 d6 32 39 be 40 e4 e3 bc e1 bd 22 be 14 65 f7 bd
       -0.18085799 -0.027818799 -0.15892746 -0.12079826
000320 2c 81 2d be f8 9e a2 be 9c 5c 73 bd b9 75 92 bd
       -0.16943806 -0.3176191 -0.05941449 -0.0715136
000330 c8 d5 04 be 2a b0 e9 bd db 36 12 3c b2 37 4e be
       -0.12972176 -0.11410554 0.008924211 -0.20138434
000340 46 8a 8d bd 6a 06 63 3d 9c 26 76 3c ce cc 19 bd
       -0.06911139 0.05542604 0.015023854 -0.037548833
000350 d4 39 1d 3e de 37 06 3e 3e 8a 20 3e 11 12 45 bd
       0.15354091 0.13107249 0.15677735 -0.048112933
000360 32 85 54 3d d9 b8 a6 3e 08 e4 b5 bd af b9 5c be
       0.051884837 0.32562903 -0.08881384 -0.21555208
000370 c0 ef b3 3d 8b 0e 75 3d 5c bf 18 bc 81 98 37 be
       0.08785963 0.059828322 -0.009322967 -0.1792927
000380 8b 4e 4b 3d 58 f7 aa 3d 52 ef 5b be 45 83 fc 3c
       0.04963545 0.08347958 -0.21478012 0.030824313
000390 7c 7b 64 39 28 40 57 bd 83 d9 b7 bd da 16 31 bd
       0.00021789776 -0.05255142 -0.08977034 -0.043234684
0003a0 8c 08 78 3d d6 87 06 3e 40 78 3b bd a6 66 92 be
       0.060555026 0.13137755 -0.045768976 -0.2859394
0003b0 a4 bb 05 3d 3e df 08 bc 56 55 80 3e 79 2d 9d be
       0.03264965 -0.008354006 0.25065106 -0.30698755
0003c0 b8 77 50 bd 86 7e 71 3e 91 98 a6 3c 1e 17 4a 3e
       -0.050895423 0.23583421 0.020336421 0.19735381
0003d0 9a 11 97 bd aa e5 c7 bd 02 12 9b 3e e9 93 96 3e
       -0.07376404 -0.09760602 0.30287176 0.29409721
0003e0 f8 87 0e 3e f4 b7 df 3c 45 95 34 3c d3 e8 35 be
       0.13919055 0.027309395 0.011021917 -0.17764597
0003f0 db 3a ab 3d fa 34 12 3e 06 4b 48 be 16 dc 4a be
       0.08360835 0.14278021 -0.19559869 -0.19810519

0.2.bias f4 [48]
000000 50 33 72 3e fa b3 40 3e 80 92 55 be ac 3e 6e 3e
       0.23652387 0.18818656 -0.20856667 0.23266095
000010 11 68 47 be 43 16 00 bd ad a0 95 be bc 39 46 3e
       -0.19473292 -0.03127123 -0.29224148 0.19357961
000020 2c 55 d9 3c 64 be a3 bd a4 40 8d 3d 90 d1 62 be
       0.02652987 -0.079952985 0.06897095 -0.22150254
000030 1a 94 2d 3d b9 c6 9c 3e 01 40 66 be c8 c4 07 be
       0.04237757 0.30620363 -0.22485353 -0.1325866
000040 1e ea 14 bd ee ae 9d 3c 96 3d 03 3c 2f e8 11 be
       -0.036356084 0.019248452 0.008010289 -0.14248727
000050 87 81 83 3d ea c1 6e bd 47 26 6b be 53 02 29 3e
       0.0642119 -0.0582904 -0.2296382 0.16504793
000060 a9 7c c9 3d b2 20 32 bd ca 2b ef bc b8 96 20 be
       0.0983823 -0.043488212 -0.029195685 -0.15682495
000070 7b de 85 3e c0 3b 31 bb 96 cd 6e 3e 2e b5 25 3e
       0.26146302 -0.002704367 0.23320612 0.16182396
000080 da ff b5 3e 89 9f db 3e f6 3b 88 3d 12 63 d2 bd
       0.35546762 0.42895153 0.06652062 -0.102728024
000090 bc d2 b4 bd d4 e7 9a bd d5 1c c0 3e 1b 11 56 be
       -0.08829257 -0.07563749 0.37521997 -0.20904963
0000a0 ae 3a 40 3e 52 af db bc 48 ef 99 bb 6f 34 12 be
       0.18772385 -0.026816998 -0.004697714 -0.14277814
0000b0 2e 68 15 3e 8d a3 32 be 40 e8 b3 3d e6 52 3d 3a
       0.14590523 -0.17445202 0.087845325 0.00072221307

0.4.weight f4 [36, 48]
000000 59 9c c9 bc 46 62 1e be a2 0d 5e bd 0e aa 55 3d
       -0.024610685 -0.15467176 -0.05421222 0.05216413
000010 b3 98 2e 3d 8c 3f c5 bd 63 de b3 bc b8 72 51 be
       0.042626094 -0.09631261 -0.021956628 -0.20453918
000020 1a 99 5f 3e 1b ab 16 3d a4 07 12 3e 1f 1d 7b 3c
       0.21835747 0.036784273 0.14260727 0.015326767
000030 40 f4 97 3c f8 80 8d be 3e 3e e2 bd 5a ce d1 3d
       0.018549085 -0.27637458 -0.11047028 0.102444366
000040 ea 9b 47 3d 66 37 16 be c6 fd 6b 3d 6a d0 ac 3d
       0.048732676 -0.1466957 0.057615064 0.08438189
000050 54 62 c0 3d f0 a4 ab 3d 61 6e 96 3e 83 15 31 3e
       0.093937546 0.08381069 0.29381087 0.17293362
000060 09 54 a1 3c 32 1a 4a 3e e4 82 0f 3d 91 76 0e 3e
       0.019693391 0.19736555 0.035036936 0.13912417
000070 5d be 11 be 99 28 e7 bb ea 62 2a be 06 cb 21 bd
       -0.14232774 -0.0070544 -0.16639295 -0.03950026
000080 6a f2 8b 3c 86 ba 2e be ee 04 13 3d 84 48 cc 3d
       0.017083365 -0.1706334 0.035893373 0.09974769
000090 19 31 9b 3d 50 4d d4 bd 88 9a 10 3e 7c 25 12 3e
       0.07577724 -0.10366309 0.14121449 0.14272112
0000a0 4a 25 b1 bd 08 64 4d bd 60 d7 f0 bd 1e 9a e0 3e
       -0.086496904 -0.050144225 -0.117598295 0.43867582
0000b0 9f 66 57 be cf dc 38 3e 3c 50 26 be 05 48 96 3c
       -0.2103524 0.18052982 -0.16241544 0.018344888
0000c0 7b 6e 0f bc 96 84 84 3e 8e 8a 73 bc 5c ee fd 3d
       -0.008754368 0.25882405 -0.014864577 0.12398979
0000d0 38 51 40 3d f2 c6 40 3d 20 78 4f 3d 04 85 20 bd
       0.046952456 0.04706473 0.05065167 -0.039189354
0000e0 32 ef fa bd cb 38 8d 3c 28 6d da 3d e5 a0 41 bd
       -0.12252654 0.017238995 0.10665351 -0.04727258
0000f0 ba 56 2b 3d 0e 99 56 3d 74 e5 00 3d 6d 2d 3c be
       0.041830756 0.052392058 0.031468824 -0.18376704
000100 1e 4f 7b be ce 82 bd 3d 10 b5 50 3d 0c 9a b3 3d
       -0.245419 0.09253465 0.050953925 0.087696165
000110 e2 6d 06 3e b5 cd 1a be 48 6b 91 bd 8f ac e4 3d
       0.13127854 -0.15117534 -0.071005404 0.111657254
000120 ba 03 ee bb 48 27 4c bd 1c 8f 23 bd 23 5e 0e be
       -0.007263628 -0.04984215 -0.0399314 -0.13903098
000130 f6 3b 21 3d ad 97 3c 3d ba 13 7e 3e 45 ac 6f 3b
       0.039363824 0.046043087 0.24812213 0.0036571187
000140 16 25 0d bd b3 be 07 3e d2 ed 39 3e 86 58 1c be
       -0.034459196 0.1325634 0.18157127 -0.15268144
000150 fe 4c 30 be 84 d3 db 3d 72 0a d2 3d 96 2f be 3b
       -0.1721687 0.10733703 0.102558985 0.0058040125
000160 bd b3 77 3d 68 70 03 3d 9e f2 0c 3e ce 7b 84 be
       0.060474146 0.03208962 0.13764426 -0.25875705
000170 c6 1e 38 be 22 e9 76 be 97 41 0f 3e 47 f4 2f 3d
       -0.17980489 -0.2411237 0.13989864 0.04295757
000180 4c 77 30 be 03 49 6b be bc 4b c3 bd a6 90 2f bd
       -0.17233008 -0.2297707 -0.095359296 -0.042862557
000190 77 61 16 3e 07 4f 21 3d 8f cb aa 3d c9 6e a3 bd
       0.14685617 0.039382007 0.08339607 -0.07980115
0001a0 7a fa 95 bd ba 77 25 be 9e b2 03 3e f4 db 04 3e
       -0.07323165 -0.16158953 0.12861106 0.1297453
0001b0 75 35 97 3d da 51 a1 bd 94 bc ba bd c8 f3 0f 3e
       0.07383243 -0.0787694 -0.09118 0.14057839
0001c0 14 42 96 3e 3b ec 9b 3d 02 9f 60 bd f3 81 13 be
       0.2934729 0.07613417 -0.05483914 -0.1440504
0001d0 64 21 2a bd 68 48 e3 3d 14 8d 89 3e 03 a3 42 bb
       -0.04153575 0.11097795 0.26865447 -0.0029699213
0001e0 4b a1 17 be 24 b6 b8 3d 3c 03 27 bc 40 67 c9 3d
       -0.14807622 0.090191156 -0.010193642 0.098341465
0001f0 1d c6 5c be 98 1b db 3d c9 e3 8e be de 1e c8 bd
       -0.21559949 0.106986225 -0.2790816 -0.097715124
000200 9d cd 66 bd ad 10 14 be 78 51 03 bd 65 e7 75 3d
       -0.05634843 -0.14459486 -0.032060117 0.06003513
000210 4b 30 c0 bd 7e 18 6e bd 53 46 d4 3c f6 0b 40 3d
       -0.09384211 -0.058128826 0.02591244 0.046886407
000220 6b 3c 06 3d 9b 32 c3 3d bf 7c 90 3d a9 7c 73 3e
       0.032772463 0.095311366 0.070550434 0.23778023
000230 03 c7 f7 3d f3 05 ac 3e 30 ce 9b 3d 3a ea f3 3b
       0.12098505 0.3359829 0.076076865 0.0074436935
000240 86 cd 5b 3d 11 c8 b6 3e 2e 1a 44 bc 2e 1f ae 3d
       0.0536628 0.35699514 -0.011969132 0.08502041
000250 d6 c2 00 be 70 ec ad bd 4b ba 8d bd e0 ed 86 3d
       -0.12574324 -0.084923625 -0.06920298 0.0658834
000260 ba 29 03 be 94 c2 3d bd c7 de 00 be 58 47 19 be
       -0.12808886 -0.046328142 -0.12584983 -0.14968622
000270 d2 85 79 3e e0 84 d1 3e c7 d4 2e be 2b e3 15 bc
       0.24367455 0.40921688 -0.17073356 -0.009148399
000280 e7 a1 bd bd c0 0f 69 3e e4 a4 bb 3d f5 e8 91 bd
       -0.09259396 0.22759914 0.0916231 -0.07124511
000290 50 05 ba 3d 48 46 1c be a6 7e 97 be 92 87 09 bd
       0.090830445 -0.15261185 -0.29588813 -0.033576556
0002a0 28 51 24 3e d0 74 6a bd 9e a3 db bd 10 72 f4 bd
       0.16046584 -0.057240307 -0.10724567 -0.11935818
0002b0 2b 08 d6 3e 34 8f 6d bd 09 dd b9 3e 06 33 e5 3c
       0.41803107 -0.057997897 0.3630145 0.027978431
0002c0 47 ee c9 3d f3 1e 5c 3e dc ce 91 3e ec a8 98 be
       0.09859901 0.21496181 0.28478134 -0.29816377
0002d0 b3 70 83 bd 27 17 6d 3a da 4a 7d 3d 0c 40 e0 be
       -0.0641798 0.00090442825 0.061838962 -0.43798864
0002e0 f0 5a 37 3e cf bc d5 3d 94 08 d3 bb f5 8a 11 bf
       0.17905784 0.10436403 -0.0064402316 -0.56852657
0002f0 72 df b8 3e 22 08 a3 be 84 df 89 bd 64 cd f8 3d
       0.36107975 -0.31842142 -0.06732085 0.1214855
000300 e6 da e0 3d 48 17 c1 be 60 3a e8 3d 1c bc a2 3d
       0.109792516 -0.37713075 0.11339259 0.07946035
000310 65 03 53 3c de bf 5a bc ad 82 69 3e 96 6d a3 bd
       0.012879227 -0.013351409 0.22803755 -0.07979886
000320 fb b5 3e 3e d3 8e 1d bd 6c 79 f7 bc 64 47 6e 3e
       0.18624108 -0.038466286 -0.030209266 0.23269421
000330 d8 1a 81 be 3c a6 03 bf c2 2e a8 3e a3 99 57 bd
       -0.25215793 -0.5142553 0.32848173 -0.052636754
000340 e7 fe 8e 3e ab 42 84 be 90 dc 82 3d f4 c9 e5 bc
       0.2792885 -0.25832114 0.06389725 -0.0280504
000350 46 8c be bd 03 be 5d 3e 42 35 3a 3e 8c bd 3b 3d
       -0.09304099 0.21654515 0.18184379 0.045835063
000360 9a be d8 bd 4e ac f7 3d f9 0c 07 3e f2 04 13 3e
       -0.10583229 0.120934114 0.13188542 0.14357355
000370 2e bc 83 be 90 a6 08 3d 9c e1 30 be 25 b8 2b bd
       -0.25729507 0.03336197 -0.17273563 -0.04192366
000380 e1 b5 90 be ef 86 9b be 8a 93 4e be 0d 23 7c 3e
       -0.28263763 -0.30376384 -0.20173469 0.24622746
000390 46 a9 66 3e 6e ec a0 bc 9e 62 d4 bd 4e ff a1 3e
       0.2252551 -0.019643988 -0.10370372 0.31640095
0003a0 55 c3 bb bd dc eb f0 3d 24 a0 ee 3c fd 17 b7 3e
       -0.09168116 0.117637366 0.029129095 0.3576049
0003b0 ce 52 bb be 34 1e 5b 3e 10 7e b2 bd 60 aa ef bd
       -0.36586612 0.2139824 -0.08715451 -0.11702418
0003c0 e4 22 34 3e a2 f1 ce 3d 80 33 07 be 24 1a 1e 3e
       0.17591435 0.101046816 -0.1320324 0.1543966
0003d0 e4 a4 ef bd 3d de 1b 3e bb 52 82 3c ee 31 8c 3e
       -0.11701372 0.15221496 0.01590859 0.27381843
0003e0 27 90 28 be 31 33 d8 bd cb d1 c9 bd 83 eb ae 3d
       -0.1646124 -0.10556639 -0.09854468 0.08541014
0003f0 4e ab 68 3d 67 7d 10 3e ab f1 10 be 3f 09 cf 3d
       0.056803994 0.14110337 -0.14154689 0.101091854

0.4.bias f4 [36]
000000 c4 c6 06 3e 50 7b 06 3c ba 07 7d be c4 ba 23 3e
       0.1316176 0.008208111 -0.24709979 0.15989214
000010 70 a6 ce bd a9 f8 37 3e 34 2a 3f 3e ba c1 2c 3d
       -0.10090339 0.1796595 0.18668443 0.04217694
000020 99 3a 54 bd 76 ec 6b 3e b8 0e ad bd 81 f8 ea bd
       -0.051813696 0.23039421 -0.08450073 -0.114731796
000030 68 4f 32 3e e3 74 88 3d c8 ef 7b 3c 7e 71 c2 bd
       0.17413104 0.06662919 0.0153769925 -0.09494303
000040 34 7d 52 bd bb 37 31 3e 1c f5 28 bd b8 48 85 bd
       -0.051388934 0.17306416 -0.04124938 -0.065080106
000050 8b d7 97 3d 69 fd 21 3d 46 25 2a be e4 1c 8e 3b
       0.074141584 0.03954831 -0.16615781 0.00433694
000060 50 4a 90 3e c6 e1 d1 3d 82 72 b6 bc d7 51 8e be
       0.28181696 0.10248141 -0.022271398 -0.27796814
000070 d2 3b a7 3d d4 ff dc bc fd a9 84 bd 92 45 27 be
       0.08165707 -0.026977457 -0.06477735 -0.16335133
000080 18 6f 2a be 58 6b 1e 3e c3 a7 55 bd 2f 7b 0d be
       -0.16643941 0.15470636 -0.052161943 -0.13816522

0.6.weight f4 [36, 36]
000000 44 c5 fd bd 39 43 91 bd a4 85 cc bd c5 cf b0 3e
       -0.12391141 -0.070929 -0.099864274 0.34533516
000010 22 b7 c3 be f6 c0 f9 3d ed c6 9d 3d 68 cf 0a be
       -0.38225657 0.121950075 0.07703958 -0.13555682
000020 32 25 dd bd 1e 22 21 3d 44 a6 19 3e fc 3e 8b bb
       -0.1079811 0.039339177 0.15004832 -0.0042494517
000030 d2 35 2a 3e 34 ee b0 3d 22 72 27 3e 38 48 26 be
       0.16622093 0.08639184 0.16352132 -0.16238487
000040 89 9c fc bb 0e e1 a1 3d ec 37 de bd 8c 74 48 3d
       -0.00770909 0.07904254 -0.1085051 0.048939273
000050 0e 6b cd bd b8 09 7d 3e 0a 0c 8f be 9d e3 3b 3e
       -0.10030185 0.24710739 -0.27938873 0.18348546
000060 8a 96 93 3e 04 c8 5a 3d 5c 46 ba 3d 4c 40 ca be
       0.2882579 0.053413406 0.09095451 -0.3950218
000070 ee 8c a5 bd 1c 9a b5 bd b5 36 34 3c d1 6c 4e bd
       -0.08083521 -0.08867285 0.010999371 -0.050396744
000080 14 28 08 be c4 e4 13 3d 83 b8 0c 3e ee 57 03 3c
       -0.13296539 0.03610684 0.1374226 0.00801657
000090 e6 27 3d 3e d2 f7 91 bd 58 d0 be bd d8 21 bd be
       0.18472251 -0.07127346 -0.09317082 -0.36939883
0000a0 3c c8 59 3e b8 35 27 be 02 72 52 bd 42 fb 6e 3d
       0.2126779 -0.16329086 -0.051378258 0.058345087
0000b0 14 e8 da 3a 54 f1 86 3c 1e 8a 9f bd b2 a0 f0 bd
       0.0016701245 0.016472496 -0.07790016 -0.117494
0000c0 22 80 15 3d 91 b7 71 3d e4 f6 75 bd 84 da b7 3d
       0.03649915 0.059012953 -0.060049906 0.089772254
0000d0 7e e7 94 bd d6 5b 3c 3d 34 06 16 3d e2 29 29 be
       -0.07270716 0.04598602 0.03662701 -0.16519883
0000e0 31 ce 9d bd 42 4e 11 be e1 70 5c 3e 9e 2f ed 3d
       -0.077053435 -0.14190009 0.21527435 0.11581348
0000f0 90 1f f7 bd 60 29 86 bc f8 e1 1d be f7 80 ba 3e
       -0.12066567 -0.016377151 -0.15418231 0.36426517
000100 42 f0 45 3e 76 8d ee bd 13 24 90 bd 28 82 5b bd
       0.19329932 -0.11648075 -0.070381306 -0.053590924
000110 9e 33 e1 bd 26 00 1f 3e 54 bb 73 3c 8b 7a a2 bd
       -0.10996173 0.155274 0.0148762055 -0.079335295
000120 56 a5 ad 3c 9e 08 68 bd c2 8d c9 3c 90 6e fe 3e
       0.021197002 -0.056648843 0.024603728 0.49693727
000130 86 34 10 bf 6e 90 c5 3e 88 f9 99 bc a6 5e d2 bd
       -0.56330144 0.38586754 -0.018795744 -0.10271959
000140 d9 a8 55 3d dc 02 c9 ba ef 5d 1c 3d a9 b7 38 bc
       0.05216298 -0.0015335935 0.03817552 -0.011274257
000150 3a 7d bc 3d e5 22 b1 3d d7 b1 02 3d 9a 5d 88 bd
       0.092035726 0.08649234 0.031907883 -0.06658478
000160 56 98 7d bd 0e ff 2a 3e 95 83 14 be 68 4c 49 bd
       -0.061912857 0.16698858 -0.1450332 -0.049145132
000170 9a fd 46 3c 83 ef 88 3e 5f 9f 95 bc e5 88 e8 3c
       0.012145424 0.26745233 -0.01826447 0.028385589
000180 1d e9 42 bc f6 d1 59 3c bc 59 55 bd 02 ce 0a bf
       -0.011896399 0.0132946875 -0.05208753 -0.5422059
000190 9e 15 f7 3a 22 e2 d5 3d e0 c7 27 bd 91 70 85 bd
       0.0018851047 0.10443522 -0.0409621 -0.06515611
0001a0 ba 4c 45 be 60 55 a7 bd a2 f3 86 3e fa 63 18 bd
       -0.1926755 -0.08170581 0.26357752 -0.03720472
0001b0 5e 09 93 bd cf 5e 21 bd 38 33 a0 3e f0 a8 97 be
       -0.07179521 -0.039397057 0.31289077 -0.29621077
0001c0 ea 00 5e 3e fe 34 b2 be 50 0f 1b 3d 85 b1 08 3e
       0.21680036 -0.34806055 0.0378564 0.13348968
0001d0 5b 25 7a 3e 9e 4b 00 be 00 53 d2 bd 0b 03 93 3d
       0.24428312 -0.12528846 -0.10269737 0.07178315
0001e0 03 64 63 be ee d0 8a bd 24 a6 90 bb ad ae 07 3e
       -0.2220612 -0.067781314 -0.0044143368 0.13250227
0001f0 a2 3c 15 be 73 27 ee be 0f 16 8f 3e ad 96 7c bd
       -0.14573911 -0.46514472 0.27946517 -0.061667133
000200 f6 a7 1d be c1 bf ae 3d 9e fb 83 3e 6f da 86 bc
       -0.15396103 0.08532668 0.25777906 -0.01646158
000210 1a 55 f3 bd 76 17 dc bd be a5 da 3c cf 49 20 3e
       -0.11881466 -0.10746662 0.02669036 0.15653156
000220 42 1e bb 3c a2 e1 e0 3d 35 01 83 be 6c 2d 6f 3d
       0.022841576 0.10980536 -0.25586858 0.058392927
000230 ad b1 14 3e 46 8f 91 be d0 2a 40 be 35 7b 53 3e
       0.14520903 -0.2842962 -0.18766332 0.20652469
000240 1d fa 8c 3d b8 55 2c 3e a0 5f 21 3d 82 e1 6f 3d
       0.06883643 0.16829574 0.039397836 0.05856467
000250 da c8 ed bd d8 36 60 3c 79 5e 18 be 80 79 1a 3e
       -0.11610575 0.013684951 -0.14879788 0.15085411
000260 5a 7d 98 3d f4 4e 74 3e ec 8d d9 bd 45 b6 44 be
       0.07445784 0.23858243 -0.106227726 -0.19210155
000270 3a 66 1a 3e 32 1d f4 bd 79 26 1c 3e bc a5 ca bc
       0.15078059 -0.11919631 0.15249051 -0.024737231
000280 5e 0c 6b 3d e0 19 72 3e 2a 74 2d bd 7b 56 66 bc
       0.05738484 0.23642683 -0.04234711 -0.0140587045
000290 14 92 3d 3e 2c 6e 4a bc d1 a4 2f 3e 25 bd c6 bd
       0.18512756 -0.012355369 0.17152716 -0.09704045
0002a0 0f 9e 9c 3d a0 39 28 bc 58 b0 92 3e e4 1f 1b bd
       0.07647335 -0.010267645 0.28650165 -0.03787221
0002b0 90 e2 ff 3c 70 aa 7d bc 4d 57 90 3c 24 e2 02 3e
       0.031235963 -0.01548253 0.017619753 0.12781578
0002c0 af 8c e8 3d 54 e6 12 3e 43 d0 5f 3d 2c 51 40 3e
       0.11354958 0.14345676 0.054641973 0.18780965
0002d0 a0 f8 e3 3d ad f9 4f be 48 9d 8c bc 12 a9 c2 be
       0.11131406 -0.20310088 -0.017164841 -0.38019615
0002e0 1a aa f0 3e 05 83 80 be ca 4a c0 3c b6 d5 0c 3e
       0.47004777 -0.2509996 0.023473162 0.13753399
0002f0 f8 bf b3 3d 6c b4 23 be ba 91 ef 3c 80 dd 86 3d
       0.087768495 -0.15986794 0.029244293 0.065852165
000300 c3 67 dc 3d dc 2b 3b be 15 ec a3 bd 82 e0 f4 3c
       0.107619785 -0.1827845 -0.080040134 0.02989221
000310 72 e1 7b 3e 43 dc 48 be eb 85 4a bd 16 2f 7d bd
       0.2459772 -0.19615273 -0.04944412 -0.061812483
000320 d2 21 b5 3d 1c e4 1c be 0d 71 4a 3e 92 57 40 be
       0.08844341 -0.15321392 0.19769688 -0.18783405
000330 bc db 5b be 8b 4b f9 3d 1a d5 7c 3d a4 ce f4 3e
       -0.21470541 0.12172612 0.061726667 0.47813904
000340 20 76 3b be 32 58 c9 bc a4 88 20 be 26 a1 59 3e
       -0.1830678 -0.024578188 -0.15677124 0.2125288
000350 c7 07 01 3e 96 3d 47 be 4f 0b 5b bd 24 06 62 3e
       0.12600623 -0.19457087 -0.05347758 0.22072655
000360 d4 a7 9b bd 5c 4e 4d 3e 61 60 1c bc 82 33 a3 3b
       -0.0760037 0.20049423 -0.009544463 0.0049805054
000370 f2 27 8b 3d ec 52 dc bd 80 2a a8 be 94 e5 87 3e
       0.06794728 -0.107580036 -0.32844925 0.26542342
000380 dc a0 0b be 31 e1 35 3e 96 99 87 be fe c8 cf bd
       -0.13635582 0.17761685 -0.26484364 -0.10145758
000390 b7 51 87 3d e2 6f 95 be 2d 33 22 be 56 5d 56 be
       0.06607383 -0.29186922 -0.15839835 -0.20934042
0003a0 29 06 b5 3e d5 c5 07 3e 8d 86 0b be 6e 25 17 3d
       0.35356262 0.1325906 -0.13625546 0.03690093
0003b0 8e 22 28 3e 64 9a e8 3d da 52 cb bc 6b 3b 4d bc
       0.16419432 0.11357573 -0.02481978 -0.012526373
0003c0 ce 08 a9 3d ac cf 8c be a4 05 52 3e 86 5a 3d 3e
       0.082536325 -0.2750219 0.20509964 0.18491563
0003d0 75 0a 45 3d b6 59 89 bc 9c 96 b3 3e 27 a7 1f 3e
       0.048105676 -0.01676641 0.35075843 0.15591107
0003e0 66 1f 19 3e 30 b7 a9 3d a7 50 54 3d 7b 1a 11 3e
       0.14953384 0.08286893 0.05183473 0.14170258
0003f0 ea 3c 88 bd a8 41 78 be 3a 18 52 3e 86 62 6e bd
       -0.066522434 -0.24243796 0.20517054 -0.058199428

0.6.bias f4 [36]
000000 c7 d6 54 bd de 3b 23 3e b2 28 df 3d 20 8d 70 be
       -0.05196264 0.15940806 0.10896434 -0.23491335
000010 d6 15 3f 3d ff 11 ce 3c 86 c7 e7 bd 29 13 af bd
       0.046651684 0.025155066 -0.11317353 -0.085485764
000020 3e fb c0 be ca 3b cd 3b e4 ab fa 3d 7a 72 62 3e
       -0.37691683 0.006263231 0.12239817 0.22113982
000030 de 54 cd bd 5a 3d 8c bd a7 58 00 be 24 3a f7 bd
       -0.10025953 -0.068476394 -0.12533818 -0.12071636
000040 83 9a 06 3e e1 d6 21 3d c9 1e 2e 3d 74 4f 74 3e
       0.13144879 0.039511565 0.042509828 0.23858434
000050 1a 80 ec 3c 30 ab 00 3e 3d 3a 01 be c9 df cf bd
       0.028869677 0.12565303 -0.12619872 -0.101501055
000060 51 1f e0 3d aa 91 56 3e ba 05 2f 3d ec d3 96 3e
       0.10943473 0.20954004 0.04273007 0.2945856
000070 e2 50 21 be cd ff 99 bd 4e 2e 65 3d e7 1e 41 be
       -0.1575351 -0.07519493 0.055952363 -0.18859445
000080 1e 77 79 3d 18 2f 04 3e 50 8e 39 3e c8 b8 5f 3e
       0.060904615 0.1290859 0.18120694 0.21847832

0.8.weight f4 [24, 36]
000000 8c 89 21 bd 0b 3e 86 be 8e df c3 3d a4 02 52 3e
       -0.039437816 -0.2621921 0.09564124 0.2050882
000010 c0 db e4 bd 54 d0 68 3d d5 e9 e7 bd 83 02 82 bc
       -0.111747265 0.056839302 -0.11323897 -0.015870338
000020 1f 39 dd 3e 78 e7 a2 bd 38 11 ed 3c c2 83 c4 3d
       0.43207642 -0.079543054 0.028938875 0.09595443
000030 08 a4 8b 3d d9 06 a5 3e cf 92 0d bc d8 83 73 bb
       0.06818396 0.32231787 -0.008640959 -0.0037157442
000040 18 de 89 be 30 ac 1c be e2 19 50 be 8c 94 bd bd
       -0.26927257 -0.1530006 -0.20322374 -0.09256849
000050 61 8d 38 be c6 c1 94 be 0a 83 f3 3d 3f 62 ed 3d
       -0.18022682 -0.29054087 0.11890228 0.115910046
000060 5c cf ce bd f8 01 e9 bd 42 e7 c7 bd a2 8b fe be
       -0.100981444 -0.11377329 -0.09760906 -0.49715906
000070 1c 6c 5f be 74 74 87 bc 34 ee 95 bc 2c e3 e0 3c
       -0.21818584 -0.016535021 -0.01830206 0.027452074
000080 74 cf e9 3d f8 1a 3b be 22 47 ce 3d 7a 2b 77 3d
       0.11416522 -0.18272007 0.10072161 0.060344197
000090 48 28 7d 3d 32 24 cf bc 2a 8a 64 3e a4 39 6e 3d
       0.061805993 -0.025285814 0.2231833 0.05816044
0000a0 46 33 14 be 48 cd 9d bb 11 c6 2d be 84 b2 52 3e
       -0.14472684 -0.004815731 -0.16970088 0.20575911
0000b0 28 2b 24 3d 8c bd 5f 3d 3e 97 d2 bb 83 85 ad 3b
       0.04008022 0.054624125 -0.006426721 0.005295457
0000c0 a5 10 b4 3e 4d 69 0a bd 98 a3 75 be 7a 75 78 3d
       0.3516895 -0.03379183 -0.23988187 0.06065891
0000d0 8a b8 32 be 3c f9 83 3c 03 2d 00 3e 56 8a 54 3e
       -0.17453209 0.016110055 0.1251717 0.20755896
0000e0 d8 65 a2 be ea 31 b4 3d 2a 9c 5a 3d 04 dd b5 bd
       -0.31718326 0.08798583 0.053371586 -0.08880046
0000f0 ae a9 f4 3d d6 49 98 3c 57 7b fe 3c 41 bf 38 3e
       0.11946426 0.018589895 0.031064672 0.18041708
000100 98 e1 10 be 06 47 99 bd 85 c0 04 3e 9b 68 57 3d
       -0.14148557 -0.0748425 0.12964065 0.052589994
000110 9c ce 87 3e 1a fd 59 3e 88 95 d1 bd ce be ba bd
       0.26524818 0.21287957 -0.10233599 -0.09118424
000120 f8 6f cc 3e 83 2a 07 3e 99 dd 94 3e 8a 99 48 be
       0.39929175 0.1319981 0.29075316 -0.1958982
000130 cc 70 53 bd cd fa 9e be 5b d0 33 bc 2a ea 05 3e
       -0.051621243 -0.3105072 -0.010974969 0.13077608
000140 40 c7 ff bd 7a df b1 3c 72 01 03 be 84 1a 26 3e
       -0.12489176 0.021713007 -0.1279352 0.16221052
000150 88 0d 13 3e 56 23 74 3c f6 6f e8 3d fa c2 f0 3d
       0.1436063 0.014901003 0.1134948 0.11755939
000160 c2 92 f8 bc 98 14 57 3e 25 f9 8a be ce a0 2d 3e
       -0.030343417 0.2100395 -0.27143207 0.16955873
000170 b6 bd 81 bd 3c e5 1a be 08 cf c3 be d2 ca a6 3e
       -0.063350126 -0.15126508 -0.3824389 0.32576615
000180 a0 be f6 3d 67 3c 50 3d ca aa d0 bd 24 52 d0 3c
       0.120480776 0.050838854 -0.101888254 0.025429793
000190 f9 e5 98 bd 22 c3 90 3e be bd f5 3d 5c a0 40 bc
       -0.07465739 0.28273875 0.11999081 -0.011756983
0001a0 f2 23 05 be d1 a8 97 3e 8c 04 a8 3d 4b 10 a3 bb
       -0.13001993 0.29620984 0.08203992 -0.0049763075
0001b0 ff 5e e3 3c e0 a1 8d bd a4 36 bf 3c 1f 3a 99 3d
       0.027755259 -0.06915641 0.023341484 0.07481789
0001c0 5f 01 b6 3d dc a1 94 be 24 fd bf be bf a2 ca 3e
       0.0888698 -0.2902974 -0.37497818 0.3957729
0001d0 40 1f f2 bd e8 92 8c 3d 26 ac bf 3d 04 ef 38 3e
       -0.11822367 0.06863958 0.093590066 0.18059927
0001e0 98 8b 62 3e 4c 74 bb bd a2 58 33 bd 63 ea a1 3e
       0.22123563 -0.09153041 -0.0437857 0.31624135
0001f0 f6 3e 06 3e c2 b8 fa 3d 78 b6 09 bd 30 03 b8 3d
       0.13109955 0.12242271 -0.03362128 0.08984983
000200 bc 19 be be 13 8a b0 3c 00 d2 94 3d a8 f5 1b be
       -0.3712901 0.021550214 0.07266617 -0.15230429
000210 c5 46 9d 3e 8a 76 56 3e 3d c2 53 3e 32 c5 47 3d
       0.30718055 0.20943657 0.20679565 0.048772044
000220 8c 73 a3 be 24 b1 45 3d d0 ce 08 bd da 33 7d 3e
       -0.31924093 0.048264638 -0.033400357 0.24726811
000230 72 2d 08 3e 39 4b a0 3d 0b 79 85 be 8d 68 2b be
       0.13298586 0.078268476 -0.2606891 -0.16739102
000240 a6 9e 41 be 2b da c5 3d 1a 4a e5 bd 10 d8 42 3e
       -0.18908176 0.09660753 -0.111957744 0.19027734
000250 6f 4f 00 bd 62 b7 55 3e 12 5f 18 bd 3a a1 13 be
       -0.031325754 0.20870736 -0.03720004 -0.14416972
000260 f0 53 13 bd 0a ab b2 3e 54 34 21 3e 24 83 0c 3e
       -0.03596872 0.34896117 0.15742618 0.13721901
000270 f2 9c 49 bd b8 90 bb bd b6 9d 72 ba 2a fc 18 be
       -0.04922194 -0.09158462 -0.0009255068 -0.14939943
000280 5d 10 31 3e 1e f1 1a bd 11 da 80 3e 93 36 3e 3e
       0.17291398 -0.037827604 0.2516637 0.18575506
000290 b8 d6 af 3d d2 a3 fa 3d e0 d8 85 3e c0 6b ae be
       0.08585876 0.122382775 0.26142025 -0.34066582
0002a0 a1 2b aa 3c e8 f0 91 bb 2c c0 7b 3d 96 16 d5 3c
       0.020772757 -0.004453767 0.061462566 0.026011746
0002b0 28 62 5c be 74 e1 86 be 50 6e 4a be 64 ca 68 3e
       -0.21521819 -0.26343882 -0.19768643 0.22733456
0002c0 34 ad 40 3e c0 b3 e7 3a d0 70 69 be 5f 21 1f bd
       0.18816072 0.0017677471 -0.22796941 -0.038850185
0002d0 e0 fd c4 bd 7d d9 5e bc a0 6c f7 3d 1b d6 ee 3d
       -0.09618735 -0.013601658 0.120812654 0.11661931
0002e0 bf 2e 28 be b1 16 1d be 28 2d b4 be 68 fb bc 3e
       -0.16424082 -0.15340687 -0.351907 0.36910558
0002f0 59 f0 b0 3b d6 34 e2 3d 1c 02 1d be e4 83 a4 3e
       0.0053997454 0.11045234 -0.15332836 0.32131875
000300 34 8a 9e 3e 93 f1 1e 3e dc 2b 29 bd 2f 20 93 3e
       0.30964816 0.15521841 -0.041301593 0.28735492
000310 0c d8 a4 3d 85 a4 02 3e a0 25 17 bd fe 56 09 3e
       0.0804902 0.12758072 -0.036901116 0.13412091
000320 8d e4 96 be be b9 5a bc a4 1f cc 3d 14 d9 1f 3c
       -0.29471245 -0.013349948 0.099669725 0.009756345
000330 d1 77 2e 3e c2 24 29 3e 72 cb fe 3d 08 d0 21 3d
       0.17037894 0.16517928 0.12441148 0.039505035
000340 42 8d 7e be 8f 6a 16 3e 1a 99 04 bc d0 af 89 bd
       -0.24858573 0.14689086 -0.008093143 -0.06722987
000350 c7 ad f4 3d c8 0a 1a bc 26 d2 90 3c 4a 97 9a bd
       0.11947208 -0.0094019845 0.017678332 -0.07548387
000360 7a 47 ad be 56 26 89 3a 17 1b cd be b3 a1 8a bc
       -0.33843595 0.0010463696 -0.4005973 -0.016922807
000370 5d 19 a8 3e 4b 02 91 3d 72 f8 53 bd 20 aa a9 bc
       0.3283185 0.070805155 -0.051750608 -0.020711005
000380 72 13 1b 3c c9 ea cb ba 7a 52 4c be af d5 9f 3d
       0.009465085 -0.0015557642 -0.19953337 0.07804429
000390 de 2a 3c bd 31 4b df bd 8e ed aa 3d 91 c6 3a 3d
       -0.04593932 -0.109030135 0.08346091 0.045599524
0003a0 ec 76 07 3e c9 32 0c be c9 14 bf 3e c6 8f d9 bd
       0.13228959 -0.13691248 0.37320545 -0.10623126
0003b0 ab e2 95 3d e1 2c 26 3d 32 e0 1a bd 1e 85 ce be
       0.07318624 0.040570144 -0.037811466 -0.40335935
0003c0 90 5f 56 be 22 9d 1c bd 4c 46 67 be c9 7b 01 3e
       -0.20934892 -0.03823579 -0.2258541 0.12644877
0003d0 0a c5 25 bc 79 c2 3f be 67 24 b9 be e5 2c d8 bb
       -0.010117779 -0.18726529 -0.36160585 -0.0065971487
0003e0 1a f7 d9 3d ab c4 39 be 9c 3d fb bc 61 ff 0d 3e
       0.10642834 -0.18141429 -0.030669026 0.1386695
0003f0 b1 ed 24 3e 6e e4 7b bd 6a f6 5c 3e ac 11 1e bd
       0.16106297 -0.061497144 0.21578375 -0.038591072

0.8.bias f4 [24]
000000 42 e9 c0 be 88 c2 cf 3d 48 32 9c bd ae 4a ea bc
       -0.37677962 0.10144526 -0.07626778 -0.028600063
000010 26 0b 2f 3e 1e ab ac bd a6 7a 26 be ec 61 69 3d
       0.17094097 -0.084310755 -0.16257724 0.05697815
000020 9a 8b d6 be c6 68 36 be c0 f8 ed bd 3e 7c a4 bd
       -0.41903383 -0.17813405 -0.11619711 -0.0803151
000030 30 af 12 bd 57 6f f3 3d 18 8b 3e 3d 80 83 e2 bd
       -0.035811603 0.11886471 0.04651937 -0.11060238
000040 76 c6 bd 3b 00 7f 8e 3d e6 89 28 be 60 81 25 3e
       0.0057914807 0.06957817 -0.16458854 0.16162634
000050 54 3a 8f 3e 08 4a 9b be ca 56 c6 bc f4 a2 21 bd
       0.27974188 -0.3032992 -0.024211306 -0.039462045

0.10.weight f4 [24, 24]
000000 dc bf 07 3d 18 a3 4b 3e 2c 17 6b 3d 7c 2c 2d 3e
       0.033141956 0.19886434 0.057395145 0.169115
000010 10 7a 92 be ac d9 44 3e ae 72 d6 3d 3f 5a 06 bc
       -0.2860875 0.1922366 0.10471092 -0.008200227
000020 71 af c0 bc c4 c0 bb bc 99 23 ae 3c c8 76 c2 bd
       -0.023521157 -0.022919066 0.021257209 -0.09495312
000030 70 96 16 bd 6f e9 3f be 00 ea 4e be 66 53 88 3d
       -0.036764562 -0.18741392 -0.20206451 0.06656532
000040 72 7c 8e 3e ff 34 31 be fa b7 20 bd 42 c2 7a 3e
       0.2782932 -0.17305373 -0.039237954 0.24488166
000050 ac 43 0f 3e 91 0f 65 bd a9 f3 bd 3d 8e e3 30 3e
       0.13990659 -0.05592305 0.0927499 0.17274305
000060 e7 ea c6 be 74 b7 26 be 1d 73 19 be 54 9e ad bd
       -0.3885109 -0.1628092 -0.14985318 -0.08477464
000070 fa 86 1f 3e 3c 5d 63 be 30 3c 3a 3e 03 58 07 3d
       0.15578833 -0.22203535 0.18187022 0.03304292
000080 e6 66 14 be 18 15 a3 3e a4 13 16 be d0 0e 7f be
       -0.14492378 0.3185203 -0.1465593 -0.24907994
000090 bd 98 56 bd 92 7c bd 3e 95 c1 08 3e e0 05 9d be
       -0.052391756 0.37009102 0.13355096 -0.30668545
0000a0 aa 41 c5 be ff cc 36 3e 0c cb 86 3e d0 31 08 be
       -0.3852666 0.17851637 0.26326787 -0.13300252
0000b0 2e 8e 39 3e 02 ee 46 be 84 3c a9 3d da 07 35 be
       0.18120643 -0.1942673 0.082634956 -0.17678776
0000c0 30 e4 64 be 06 a2 29 be 5b e2 8c be de bd e9 bd
       -0.22352672 -0.16565713 -0.27516446 -0.114131674
0000d0 9d d7 92 3d 32 9a 10 be 3e 92 3b 3e c3 ec 38 be
       0.07170031 -0.14121321 0.18317506 -0.18059067
0000e0 da 09 bd bd e2 87 d1 3e 5f 8c 11 be e1 7b 21 be
       -0.09230395 0.40923983 -0.14213704 -0.15769912
0000f0 62 b9 18 be d0 57 c0 3e b5 6c c1 3e d0 a5 88 bd
       -0.14914468 0.37566996 0.3777825 -0.06672251
000100 16 40 11 bf eb e6 b0 3e 34 8c df 3c c2 2a c3 bd
       -0.5673841 0.34551176 0.027288534 -0.0952964
000110 7d 52 83 3d ca 0c 81 bd 66 31 88 bd a9 14 9b 3d
       0.06412218 -0.063012674 -0.06650047 0.075723
000120 28 7e be 3d 5f ba 9a bd 11 14 fc be 64 d9 db bd
       0.09301406 -0.07555079 -0.4923406 -0.10734823
000130 3b 1b 68 3e c9 ee 09 3d 0b cc 8c bd e2 bb 19 be
       0.22666638 0.03367499 -0.068748556 -0.15013078
000140 ba 00 0c bc 36 53 e4 3e 58 5e 23 be 92 96 60 bc
       -0.008545095 0.44594735 -0.15953958 -0.013707774
000150 bb 35 c1 3b 18 6a a3 3e 5e 4a a2 3d 18 40 a5 3c
       0.0058962977 0.3191688 0.07924341 0.020172164
000160 ad 9b 19 bf c3 67 17 3f 88 df 64 3d 9e c4 e9 3d
       -0.6000317 0.591427 0.05587724 0.11414455
000170 a8 78 8a 3e 0f e5 54 bc 09 44 55 3e 40 18 1d 3e
       0.27045178 -0.012994065 0.20826735 0.15341282
000180 13 f8 c0 3e e0 f3 3e 3d 76 32 46 3e 18 6f 3b 3e
       0.37689266 0.046619296 0.19355187 0.18304098
000190 5e ba d6 3c 84 3a c9 3d 80 e9 ec bd 3e 9c 02 3d
       0.026211914 0.09825614 -0.11567974 0.031887285
0001a0 ea 83 11 3e 8c f0 fe 3d 83 2c b9 3e 44 23 c2 3d
       0.14210477 0.124482244 0.36166772 0.09479383
0001b0 a0 d9 63 bd 75 58 9f be 57 77 8b bd 1a 28 b5 3e
       -0.055627465 -0.31122175 -0.06809872 0.35382158
0001c0 10 a1 0d 3d eb 78 83 be 36 08 a0 bc c4 9a 30 3e
       0.03457743 -0.2567819 -0.019535165 0.17246538
0001d0 00 14 6f bc 14 66 92 3e b5 70 db 3d 68 55 59 3e
       -0.014592171 0.28593504 0.107148565 0.21223986
0001e0 44 bd c7 bc b6 66 7e 3e 70 45 6e 3e a9 a2 97 3e
       -0.024382241 0.24843869 0.23268676 0.29616287
0001f0 55 cc 8d be f0 37 66 3e 1f ea a5 3d 92 f4 a0 bd
       -0.27694955 0.22482276 0.08101296 -0.07859148
000200 b2 69 ad be ce eb 53 3d ce 9b 49 bd ea 47 1c be
       -0.33869702 0.051738553 -0.049220853 -0.15261808
000210 08 92 18 be dc 4b 94 be ac 9e b1 bc e8 30 b3 bd
       -0.14899457 -0.28964126 -0.021682106 -0.087495625
000220 a6 f8 9d 3e 73 fd 99 be 76 7e a0 be 92 18 97 3e
       0.30853766 -0.3007618 -0.31346482 0.29510933
000230 19 b0 cb 3d c2 49 0c bd 5d 51 98 3e 05 9e 19 3e
       0.09945697 -0.03425003 0.29749575 0.15001686
000240 33 39 06 bf 86 18 ab bd 86 91 bf 3d e7 05 cc bd
       -0.5243103 -0.08354287 0.09353928 -0.09962063
000250 22 6a fa 3d 74 a7 26 be bd 52 b7 3d 2e f9 00 3c
       0.122272745 -0.16274816 0.08951328 0.007871909
000260 08 f8 9e bd e6 b2 b3 be 3e 1b 81 bd 27 1e 1d be
       -0.07762152 -0.35097426 -0.06304024 -0.15343533
000270 b5 68 d0 bd 6e f1 a5 bd aa 79 71 be 48 e5 99 be
       -0.10176221 -0.0810269 -0.23581567 -0.3005774
000280 14 5e 56 bd 70 10 34 bd e0 00 d1 bd cf 92 cb 3d
       -0.052335814 -0.04396099 -0.10205245 0.09940111
000290 62 69 0e bb 90 9d a3 3d 04 9a 7e be 82 6c 37 bd
       -0.0021730294 0.07989037 -0.2486344 -0.044781215
0002a0 be 2d 98 be 98 59 31 3e be 5e 11 bf fd f5 8c be
       -0.297224 0.17319334 -0.5678519 -0.27531424
0002b0 cb de bc 3e 62 27 61 3d 59 93 c3 bd 3c 74 38 be
       0.36888728 0.0549692 -0.09549589 -0.1801309
0002c0 34 69 84 bb 10 8d 1a 3f 96 f2 69 3c 44 e5 59 3d
       -0.0040408615 0.60371494 0.014279028 0.05319716
0002d0 fb 47 8d 3e d6 9b 13 3f f8 c2 a7 3e 52 ee 32 be
       0.2759398 0.5765966 0.32765937 -0.17473724
0002e0 74 b4 c3 be 0e 57 07 3f 88 8d 79 3d 18 42 8f bd
       -0.38223612 0.5286721 0.06092599 -0.06995028
0002f0 44 cf 77 bd ea f9 aa bd 5c d5 ae 3d 2c a0 a3 3d
       -0.0605004 -0.083484486 0.08536789 0.07989535
000300 58 1c 3e 3e c6 86 fa bc fd 72 00 3f b8 a2 67 3e
       0.185655 -0.030581843 0.5017546 0.22620666
000310 9e 4b b2 be 6a 82 73 3d 00 e9 f2 bd c5 ec b7 3d
       -0.34823316 0.059450544 -0.118608475 0.08980707
000320 ac d1 1e bd 9d bc 66 be de 66 a8 3e 2e 32 72 3e
       -0.038774177 -0.22532888 0.3289098 0.23651955
000330 ee 18 51 3c c8 05 18 bf 84 07 0d bf 3f 77 72 bc
       0.012762291 -0.5938382 -0.5508959 -0.014798938
000340 ac bc db 3e a0 ba b2 be b8 9f 20 be 7f ee a2 bd
       0.42917383 -0.3490801 -0.15685928 -0.07955646
000350 a4 a5 36 be ac 09 b8 3b bc c0 d0 3c ae d0 67 3e
       -0.17836624 0.0056163874 0.025482528 0.22638199
000360 ff dc 50 be 86 a7 d1 bd d6 d2 fe be 5f 67 fb bd
       -0.20396803 -0.10237031 -0.4977023 -0.12275576
000370 36 7a e5 3e ea 3d 1a be 30 7f 6e 3e 14 65 03 be
       0.44819802 -0.15062681 0.23290706 -0.12831527
000380 78 1b 27 be d2 a4 eb 3e ac 0a 8f be 6f 57 4a be
       -0.16319072 0.46024185 -0.2793783 -0.19759916
000390 8e c8 86 3e 92 77 3d 3f 31 43 02 3f 87 5e a8 be
       0.26324886 0.74010575 0.50883776 -0.3288462
0003a0 36 70 3b bf 22 8b fc 3e fc c2 cd 3d d5 1f 1b be
       -0.73218095 0.493249 0.10046956 -0.15148862
0003b0 4c d8 4d 3e 1e 94 72 be d8 9e 0d 3e fe 99 3b be
       0.20102042 -0.23689315 0.13830125 -0.18320462
0003c0 3c f5 83 3d e2 8c 53 3d 25 d1 0a bf 96 93 8c be
       0.06443259 0.05164803 -0.5422538 -0.2745635
0003d0 f0 c7 a8 3e 6c 2e e7 3c f8 08 70 3e e4 29 7c be
       0.3296504 0.028220378 0.23440921 -0.24625355
0003e0 ec 79 86 3b 2c 03 c4 3e 80 ea b7 be 65 93 04 be
       0.0041038897 0.3828367 -0.35921097 -0.12946852
0003f0 06 30 99 bd 62 df 1e 3f 9a e6 bf 3e f6 f6 45 bd
       -0.07479863 0.62059605 0.37480623 -0.048331223

0.10.bias f4 [24]
000000 1c 59 c9 3d 4a 7b 50 3e b4 44 bf bd a0 9a e5 3c
       0.098314494 0.20359531 -0.09339276 0.028027833
000010 26 3d cf be 7a c1 a4 3e 66 08 29 3f 08 18 a8 bd
       -0.4047634 0.3217886 0.6602844 -0.082077086
000020 7c 14 fb bd 80 56 17 be 54 76 e8 3d 4a 56 bc 3e
       -0.122597665 -0.14779091 0.11350694 0.36784583
000030 34 a1 04 3f d7 ae e4 3d c7 d4 45 be 21 a3 14 bf
       0.51808476 0.111661606 -0.1931945 -0.58061415
000040 d0 da b8 be c6 7e e9 be bd 2e c1 bd d2 3b a1 be
       -0.3610444 -0.45604533 -0.09432743 -0.31490952
000050 73 b1 86 be ae 34 5e bd 9e a4 50 be ce a6 29 3e
       -0.26307258 -0.054249458 -0.20375296 0.16567537

0.12.weight f4 [12, 24]
000000 38 2d 37 3e b0 ff 2f be b0 98 ca bd 1c 1b 15 bd
       0.17888343 -0.17187381 -0.09892404 -0.036402807
000010 e6 11 a0 3e 16 dd 35 3e e9 34 8a 3d d6 3e 0b bf
       0.31263655 0.17760119 0.06748373 -0.54392755
000020 f5 af 2d 3f 70 1d fa be a3 33 28 bf a1 3b ea 3c
       0.67846614 -0.48850584 -0.6570379 0.028592886
000030 0a 07 cc bc e4 27 e3 3d 02 7c a5 ba f2 e8 ff 3d
       -0.0249057 0.11091593 -0.0012625458 0.12495603
000040 da 83 8c bd c9 9f a3 bd 32 52 31 bf 42 82 e9 3e
       -0.06861086 -0.07989461 -0.69266045 0.4560719
000050 d4 07 97 3e 10 aa 17 be 4e a9 02 be 27 a0 b9 be
       0.2949816 -0.14810967 -0.12759897 -0.36255
000060 b4 69 aa bd d5 34 d0 be d6 c5 d1 be a9 8c 0d bf
       -0.083209425 -0.40665308 -0.4097125 -0.55292755
000070 f6 b7 fd 3d c7 4b 0c 3e fe 40 14 be 1a 4d f6 be
       0.123886034 0.13700782 -0.14477918 -0.481057
000080 05 22 ea 3e 91 d2 d9 be 9b db e6 be 4e 55 80 3e
       0.4572908 -0.42543462 -0.4508942 0.25065082
000090 58 60 5f be b6 9e cc 3e 61 48 3e 3d ca 22 b0 3d
       -0.21814096 0.39964837 0.046455745 0.086003855
0000a0 8a cb c9 bb ea b2 af 3d b2 9c 1c bf d2 6c b1 3e
       -0.006158297 0.08579047 -0.611766 0.34653336
0000b0 fb c8 40 3e 00 d8 87 be 60 fe 5c be 3a cd 9a be
       0.18826668 -0.26531982 -0.21581411 -0.302347
0000c0 5a 10 00 3e 47 0f bd 3d 6f b6 21 3f ac 42 e8 3e
       0.12506238 0.092314295 0.63168997 0.45363367
0000d0 b5 f6 92 bd 08 95 0a be fd 3f 1c be 10 5e 34 3f
       -0.07175962 -0.13533413 -0.15258785 0.7045603
0000e0 f7 d0 96 be e4 e3 0a 3f 8e af 04 3f 5c 12 b1 be
       -0.29456303 0.54253983 0.51830375 -0.3458432
0000f0 6a 20 01 3d 5c c7 be bd 3a c7 ba 3c 66 02 9e bd
       0.031525053 -0.093153685 0.022800077 -0.07715301
000100 fe bf 44 3d de ff c1 3c 73 77 9d 3e aa 9f bd be
       0.04803466 0.023681577 0.30755195 -0.37035877
000110 7a f1 9a bc 1a e5 fa 3e 8a ca 3b 3e e0 96 e5 3e
       -0.018913973 0.49002916 0.18338981 0.4484167
000120 20 80 42 3b d1 03 f1 3e 8e ea ce 3e 8f 93 9f 3e
       0.002967842 0.47073224 0.40413326 0.31167266
000130 16 2b b1 be a0 70 57 be 86 62 b9 3d 82 4f fd 3e
       -0.34603184 -0.21039057 0.09051995 0.49474722
000140 9f d3 02 bf 94 b6 18 3f 3c 6d 4f 3f 27 36 69 3d
       -0.5110416 0.5965359 0.81026053 0.05693641
000150 af 5a 49 3e 84 62 e5 bd 35 d2 c1 3b d0 b3 9d be
       0.196635 -0.11200431 0.005914951 -0.3080125
000160 0d 99 1c 3e 70 76 86 3d b1 55 5a 3f a4 cd bd be
       0.15292759 0.06565559 0.85287005 -0.37070954
000170 7b ce 39 be bb 24 bb 3e 88 b7 1d bd b2 84 ba 3e
       -0.18145172 0.3655146 -0.038505107 0.36429363
000180 06 99 b4 bc bc c5 6c be f8 41 bc 3c 45 4e ae 3d
       -0.022045624 -0.23122305 0.022980675 0.085110225
000190 b4 aa 13 3e 18 55 e4 bd 4d 9f 1b bf 46 1c 38 3c
       0.14420587 -0.11149043 -0.6078995 0.01123721
0001a0 fc ca b8 3d 9a cd 42 3e 47 0e ff 3c 45 8e 0c be
       0.09023091 0.19023743 0.031134738 -0.13726147
0001b0 34 e6 87 be 42 51 da bc 7b 43 c6 3e de d1 10 3f
       -0.2654282 -0.026650075 0.3872336 0.5657023
0001c0 40 ee 31 3e 29 16 76 3e a6 07 2b bc 8e cd a3 3e
       0.17376041 0.24031891 -0.010438835 0.31992763
0001d0 03 b3 6b 3d 44 69 97 3e 32 05 6a 3e 74 74 7d 3d
       0.057543766 0.295725 0.22853544 0.061878636
0001e0 ce ab 73 3e 4a b2 0f be 73 ab d9 be 64 e5 ab be
       0.23796007 -0.14032856 -0.42513618 -0.3357345
0001f0 ba 49 49 3e 03 fd 9a 3e d1 b0 90 3c 48 f3 3a bf
       0.1965703 0.30271158 0.017662438 -0.7302747
000200 bc f7 bb 3e cc d2 37 bf e6 ee b9 be f2 2a 0c 3e
       0.36712444 -0.71806026 -0.36315078 0.13688257
000210 36 d2 07 be 68 6a e5 3d 3a 2b 16 3e 1c e9 e3 3d
       -0.13263783 0.11201936 0.14664927 0.111284465
000220 5c 77 24 be 24 47 ef 3d dc 30 ff be f6 29 c1 bd
       -0.16061157 0.11683491 -0.49841964 -0.094318315
000230 5c 22 23 3e 09 95 32 be bf f4 8b 3d 56 e4 fe be
       0.15931076 -0.17439665 0.06833791 -0.49783581
000240 39 3e 85 3d a8 e3 ca be 76 1e e1 be ba 7a bc be
       0.06506009 -0.39626813 -0.43968552 -0.36812383
000250 92 ed 3d 3e 6a ec ea 3d 2b 4e cc 3d 87 f6 a8 be
       0.18547657 0.11470874 0.09975847 -0.33000585
000260 ce 97 6c 3e cd b8 34 bf 59 05 03 bf c0 cc 16 3e
       0.23104784 -0.70594484 -0.51180035 0.14726543
000270 8c ce 45 be f4 18 f7 3e f5 03 94 bc c4 5e 29 3e
       -0.19317073 0.48261225 -0.018068293 0.16540056
000280 dc e7 ba bd a8 29 fb bc 4e 0b ee be 56 8c ad 3e
       -0.09126255 -0.030659512 -0.46493 0.3389613
000290 02 fd fd 3d ee b3 0b bf ff 8a 5a 3c 40 71 bb be
       0.12401773 -0.54571426 0.013338803 -0.3660984
0002a0 38 66 2b be 3b b5 a4 3e 5b d2 6e 3e c5 10 df 3e
       -0.16738212 0.32169518 0.23322432 0.43567482
0002b0 30 8c ee bd fc 31 2e be c5 d5 74 bc 83 2e 15 3f
       -0.116478324 -0.17011255 -0.014943545 0.58274096
0002c0 ac a3 45 be be 28 af 3e 37 2d 15 3f 94 87 d3 bd
       -0.19300717 0.3421077 0.5827212 -0.10328594
0002d0 44 38 63 3d 86 72 8d be 05 ff 9c be d8 60 26 be
       0.05547358 -0.27626437 -0.30663314 -0.1624788
0002e0 59 35 75 3e 72 b6 b0 3d 6d 48 fb 3e ce 8f 20 bd
       0.23946132 0.08628549 0.49078694 -0.039199643
0002f0 81 e8 29 be 01 f0 9a 3e 98 68 38 3e 8a 85 06 3f
       -0.165926 0.30261233 0.1800865 0.52547514
000300 13 80 b4 3c a5 04 00 3f ee bb 89 3e de fb 23 3e
       0.022033727 0.50007087 0.2690119 0.16014048
000310 9a b2 07 be 2b 25 8b be 12 00 f5 3d 14 86 05 3f
       -0.13251725 -0.27176794 0.11962904 0.5215771
000320 af 83 ef be a2 42 0b 3f 87 3b f4 3e 8c 38 85 be
       -0.46780154 0.5439855 0.47701666 -0.26019704
000330 d5 3a c3 3e 14 73 48 be 60 0d 0a be 99 2c c2 3d
       0.38130823 -0.19575149 -0.13481665 0.094811626
000340 88 e1 fe 3d b1 88 1d be 40 9b 06 3f 21 64 26 bd
       0.124453604 -0.15384175 0.5258064 -0.040622834
000350 6b 93 97 be b8 8f 95 3d ec ba b2 3d 3b 7a c0 3e
       -0.29604658 0.07302803 0.08727059 0.37593254
000360 0a de ca 3c c6 06 eb be 5e 8e dc bd 04 ce 66 be
       0.02476408 -0.45903605 -0.10769342 -0.22539526
000370 96 c5 ac 3e c4 7b f8 3d 85 9a 12 3e 6d 3c c1 be
       0.33744496 0.121329814 0.14316757 -0.37741414
000380 43 02 2a 3f 5b cb 41 bf e8 13 61 bf 7f 4b 18 3e
       0.664097 -0.7570092 -0.87921 0.1487255
000390 df f2 50 be de 22 1d 3d c4 86 94 3e d4 68 a6 3e
       -0.20405148 0.03836333 0.29009068 0.32501853
0003a0 20 90 d9 bd ab 5e 3b be 16 63 6d bf f4 0f b5 3e
       -0.10623193 -0.18297832 -0.9272932 0.35363734
0003b0 5d 20 87 ba 82 ce a6 be b7 b2 94 3d 48 3f bc be
       -0.0010309328 -0.32579428 0.0726065 -0.3676703
0003c0 8e da 71 bc fd db a5 be ea c5 48 3e 17 2f 88 3e
       -0.01476158 -0.323944 0.19606748 0.26598427
0003d0 b6 ca bb 3e 5e f1 b8 bc 10 37 2c bf c2 7f 39 3e
       0.36678094 -0.02257603 -0.6727152 0.18115142
0003e0 6c 73 e6 bd a4 15 48 bd da 96 a8 bb 80 48 5e be
       -0.11252484 -0.048848763 -0.005144936 -0.21707344
0003f0 b9 77 13 bf 68 ea bf bd 34 ca c3 3e 42 75 f4 3e
       -0.5760456 -0.09370881 0.38240206 0.4774571

0.12.bias f4 [12]
000000 09 c2 ef bd 17 fa 1b 3e 45 05 0e 3e 70 31 34 be
       -0.11706931 0.1523212 0.13869198 -0.17596984
000010 b8 44 2c bf b9 16 9f 3b 84 0a b3 bc ca aa d3 bc
       -0.67292356 0.0048550037 -0.0218556 -0.025838275
000020 ec 26 21 3e 5c 51 bb 3d e9 27 54 bf 8f 15 d7 bc
       0.15737504 0.091463774 -0.828734 -0.026255397

1.0.weight f4 [4, 12]
000000 83 08 c8 3e 32 e9 33 3f b9 b6 0c bf 79 4b ee be
       0.39068994 0.702777 -0.5496631 -0.46541956
000010 c7 26 4c 3e 83 a4 21 3f 56 2b d8 3e a0 25 dd be
       0.19936667 0.6314165 0.42220563 -0.43192768
000020 0c 27 59 bf 12 7c 04 3f f6 53 e3 3e 92 19 36 3f
       -0.84825206 0.51751816 0.44399995 0.7113277
000030 83 6d 47 3f cc c1 83 3f ee 4e 85 bf e2 da e3 be
       0.77901477 1.0293517 -1.0414712 -0.44502932
000040 97 a2 00 bf 6a 0b 1f 3f af 53 66 3f 9b 9f 73 bf
       -0.5024809 0.6212679 0.8997144 -0.95165414
000050 4b 20 37 bf ab 3c 4f 3f 34 b8 ee be b1 97 80 3f
       -0.7153365 0.80951947 -0.4662491 1.0046293
000060 23 f3 a3 3d 16 e4 f7 be 18 6e 15 3f db 58 aa 3e
       0.08005359 -0.48416203 0.58371115 0.33270916
000070 29 47 84 3f b3 70 37 bf f0 37 54 bf 9e a0 45 3f
       1.0334216 -0.7165634 -0.82897854 0.7719821
000080 ce d3 fc 3d 38 fa c4 3c b2 ff 4b 3f 7e 6a 17 bf
       0.12345086 0.024045095 0.79687035 -0.5914687
000090 dc 80 8a bf e2 22 46 bf d0 d7 5e 3f af 7d 85 3f
       -1.0820575 -0.77396977 0.87048054 1.042898
0000a0 6b 1b 19 bf 31 d3 7a bf 09 4a 63 bf 0b 59 8d 3f
       -0.5980746 -0.979785 -0.88784844 1.1042799
0000b0 88 35 70 3f 28 eb 86 bf a9 77 3a bf 82 47 25 bf
       0.9383168 -1.0540514 -0.72838837 -0.6456224

1.0.bias f4 [4]
000000 34 02 bb bd 25 e8 f0 3e f0 d7 4a bf c5 eb 9a 3e
       -0.091312796 0.47052112 -0.79235744 0.30258003
