JSP/trained models/Abstracted_state_rwd10.pt (torch_old, 27029 bytes, 14 tensors)

4.0.weight f4 [48, 25]
0.023973169 0.06487299 0.16657497 0.06969507 -0.14945984 0.18914317 -0.12086225 -0.120249815
0.06267094 0.034628995 -0.084625565 0.032139335 -0.2739894 0.16065072 0.073999725 0.23043616
0.13217205 -0.20609432 -0.023664476 0.21327242 -0.016716218 0.20537134 0.051135514 0.101598755
-0.01900738 -0.09984221 -0.08115978 -0.111642554 -0.015160394 -0.21307607 -0.017171273 0.20178056
0.22535174 -0.12342186 -0.12217076 -0.29592124 -0.14514951 0.34205303 0.083874896 -0.18222558
-0.28116614 -0.11054502 -0.01807762 0.2507765 -0.15935321 0.09029245 -0.13320854 -0.25110283
0.25688332 0.26812935 -0.058926303 -0.02480315 -0.13628048 -0.019980568 0.19669893 -0.2496658
-0.2099698 0.071995154 0.12893535 0.31786355 0.031235285 0.107243985 0.030281035 -0.09430247
-0.13310473 0.03125342 0.15689406 -0.020296525 0.19218034 0.12813793 -0.10233361 0.06422309
-0.115967944 -0.53162724 0.14198123 -0.12738115 0.10049592 -0.009580268 -0.019115482 0.17171383
-0.22767705 -0.14919233 -0.17853403 -0.0062844236 -0.1691212 -0.042170286 0.06211432 0.27906665
-0.17327143 0.060663868 -0.12655513 -0.068111 -0.028980078 0.08604456 0.00851909 0.07005495
-0.07345156 0.03728464 0.10340826 0.07257231 -0.030946737 0.16061968 -0.19815099 -0.29556072
0.25013998 0.19616641 -0.18945599 0.10399738 0.05485704 0.065322 -0.17987904 0.16230029
-0.25351837 0.054819867 0.0044551603 -0.2593946 0.15131618 0.117083065 0.057738617 0.20396091
0.04018091 0.09988907 -0.065604396 0.28169602 -0.07836177 0.011148324 0.09576786 -0.19205686
0.0834877 0.043769732 -0.078054056 0.09366804 -0.036554933 0.14345832 0.040520623 -0.13690355
-0.06541534 0.15321253 0.08891542 -0.228811 0.23843749 -0.021545801 -0.13466477 -0.09293394
0.1767075 -0.046855096 -0.021070365 -0.098356485 0.11283525 0.043868657 0.13361697 0.18482362
0.111595355 0.14821774 0.097438194 -0.28366777 0.16243519 0.11953096 -0.104193695 -0.05442295
0.24692172 -0.1733062 -0.03390443 0.010840686 0.15372673 -0.05888246 0.11064151 -0.058898285
0.10259368 0.09446495 -0.06646317 0.18298034 -0.10020817 -0.03586122 -0.17450297 0.019634131
-0.024007041 0.16949546 -0.006485739 -0.035864025 0.055721346 -0.0821618 -0.13269788 0.20759723
-0.15289266 -0.09247531 0.08752587 -0.31368735 -0.1925409 0.1257683 -0.13428672 -0.10117665
-0.14665315 -0.12452165 0.06383657 0.17433544 -0.09439765 0.09356772 -0.3187888 0.019356543
0.13206583 -0.020785883 0.05527532 -0.26322597 0.22099328 -0.0003099546 -0.056916628 0.44231823
-0.22313336 -0.090233855 -0.32938936 -0.18378861 -0.40447694 0.27980906 0.19725254 -0.119728416
-0.19211997 -0.04469238 -0.05569824 0.08252061 -0.22507267 -0.09450891 0.13176316 0.45851472
-0.07373124 -0.07234162 0.19207503 -0.2066078 0.17389904 -0.12361723 -0.18972929 -0.09339969
0.1161944 0.03336768 -0.017562384 0.18660668 0.20350318 0.103531934 -0.030861063 0.09579592
0.052375108 -0.029960405 -0.043820616 0.12025955 -0.08198336 -0.043044474 0.1704522 -0.03085573
0.14181954 -0.011058817 0.09052908 0.08577172 0.16189317 0.09886795 -0.0023818114 -0.24697304
00000000: 6163 c43c 21dc 843d a192 2a3e 4abc 8e3d
00000010: 000c 19be bfae 413e a186 f7bd 8945 f6bd
00000020: 9f59 803d 22d7 0d3d 2b50 adbd 89a4 033d
00000030: 5748 8cbe 9f81 243e 2b8d 973d 75f7 6b3e
00000040: 1c58 073e 640a 53be 01dc c1bc 1664 5a3e
00000050: 73f0 88bc dd4c 523e 7973 513d 0213 d03d
00000060: 5db5 9bbc 137a ccbd 1937 a6bd daa4 e4bd
00000070: 4d63 78bc 9d30 5abe c5aa 8cbc 909f 4e3e
00000080: 9bc2 663e 9ac4 fcbd aa34 fabd fd82 97be
00000090: 13a2 14be 9321 af3e 9ac6 ab3d 5899 3abe
000000a0: 02f5 8fbe 6d65 e2bd 8417 94bc c765 803e
000000b0: 7d2d 23be 3feb b83d d267 08be 8d90 80be
000000c0: 3686 833e 4048 893e b55c 71bd fa2f cbbc
000000d0: 1c8d 0bbe 4aae a3bc 726b 493e 64a8 7fbe
000000e0: 5302 57be 3272 933d a107 043e 03bf a23e
000000f0: 24e1 ff3c bca2 db3d ef0f f83c a721 c1bd
00000100: 9b4c 08be 9603 003d d6a8 203e e644 a6bc
00000110: ecca 443e 9736 033e 4994 d1bd 6587 833d
00000120: 9a80 edbd b918 08bf 8763 113e 3470 02be
00000130: ced0 cd3d 8ef6 1cbc 1298 9cbc c0d5 2f3e
00000140: 2c24 69be e0c5 18be a0d1 36be 91ed cdbb
00000150: 1c2e 2dbe c0ba 2cbd 966b 7e3d d3e1 8e3e
00000160: 116e 31be ad7a 783d ab97 01be c87d 8bbd
00000170: a167 edbc 2138 b03d a793 0b3c f878 8f3d
00000180: c66d 96bd c7b7 183d b6c7 d33d cba0 943d
00000190: 0384 fdbc 7c79 243e 18e8 4abe bc53 97be
000001a0: 5912 803e d9df 483e c000 42be 94fc d43d
000001b0: c7b1 603d 8ac7 853d 3632 38be 0c32 263e
000001c0: 29cd 81be cc8a 603d 98fc 913b 5ecf 84be
000001d0: a1f2 1a3e 3fc9 ef3d 547f 6c3d 21db 503e
000001e0: bd94 243d a492 cc3d 995b 86bd 763a 903e
000001f0: 237c a0bd 76a7 363c f121 c43d 8eaa 44be
00000200: 99fb aa3d e447 333d ceda 9fbd 08d5 bf3d
00000210: a0ba 15bd bde6 123e f4f8 253d 7230 0cbe
00000220: 7af8 85bd bfe3 1c3e 4a19 b63d 6e4d 6abe
00000230: f528 743e d280 b0bc 90e5 09be 2654 bebd
00000240: d0f2 343e 21eb 3fbd c29b acbc 206f c9bd
00000250: 2b16 e73d 9faf 333d e3d2 083e 6742 3d3e
00000260: 1b8c e43d 64c6 173e ad8d c73d e73c 91be
00000270: 6955 263e a6cc f43d 8163 d5bd 99ea 5ebd
00000280: 0cd9 7c3e 2e77 31be 5fdf 0abd 229d 313c
00000290: 8a6a 1d3e bc2e 71bd 0498 e23d 543f 71bd
000002a0: a31c d23d d776 c13d d81d 88bd 335f 3b3e
000002b0: f139 cdbd 37e3 12bd e8b0 32be c2d7 a03c
000002c0: 6aaa c4bc 3890 2d3e 5286 d4bb 28e6 12bd
000002d0: 113c 643d 7244 a8bd f4e1 07be 5e94 543e
000002e0: e58f 1cbe b263 bdbd c340 b33d a19b a0be
000002f0: 7129 45be 68c9 003e 7582 09be b435 cfbd
00000300: 3e2c 16be 3505 ffbd bfbc 823d fd84 323e
00000310: 8e53 c1bd 6fa0 bf3d 4938 a3be 9d91 9e3c
00000320: 443c 073e 2847 aabc 6068 623d 8ec5 86be
00000330: 104c 623e 6781 a2b9 6921 69bd 8977 e23e
00000340: 127d 64be 87cc b8bd b9a5 a8be 1533 3cbe
00000350: 9a17 cfbe 2243 8f3e 92fc 493e 2c34 f5bd
00000360: 19bb 44be 5b0f 37bd d623 64bd 9100 a93d
00000370: 7379 66be e38d c1bd ecec 063e 71c2 ea3e
00000380: 6800 97bd d827 94bd 51af 443e ff90 53be
00000390: 9712 323e 082b fdbd 6548 42be 5648 bfbd
000003a0: 54f7 ed3d 8cac 083d fdde 8fbc d215 3f3e
000003b0: 2363 503e 8d08 d43d 57d0 fcbc a730 c43d
000003c0: 4887 563d 866f f5bc 3f7d 33bd a44a f63d
000003d0: e4e6 a7bd 674f 30bd 068b 2e3e 28c5 fcbc
000003e0: 2439 113e 0a30 35bc 4f67 b93d 15a9 af3d
000003f0: 53c7 253e 487b ca3d 2a18 1cbb 80e6 7cbe

4.0.bias f4 [48]
-0.10647049 0.24485691 -0.16129592 -0.08788451 0.101063594 -0.19344158 -0.030382868 -0.12718266
0.10101682 -0.061459202 0.06427219 -0.11505497 0.12164837 0.12185838 -0.17707168 0.08716263
-0.05813868 0.0988158 0.10813127 -0.08226019 -0.029566899 0.041071467 0.19651711 0.15714052
0.056476783 -0.09161877 0.1560324 -0.23094013 0.14303982 -0.10009883 -0.044986892 0.14865728
0.11598034 -0.09741652 0.0737601 -0.16641794 -0.06686699 0.00043571056 0.006931831 0.026205517
0.17692418 0.0064733233 -0.18920124 -0.09072319 0.11722963 0.15838744 -0.20082992 0.12280637
00000000: 330d dabd c5bb 7a3e c22a 25be cbfc b3bd
00000010: 6efa ce3d 8d15 46be 7ee5 f8bc 2c3c 02be
00000020: e8e1 ce3d a5bc 7bbd 23a1 833d f1a1 ebbd
00000030: c822 f93d e390 f93d 4752 35be 5282 b23d
00000040: d322 6ebd f05f ca3d ed73 dd3d 0878 a8bd
00000050: 4836 f2bc 8e3a 283d c83b 493e 72e9 203e
00000060: 3354 673d 9fa2 bbbd f5c6 1f3e 927b 6cbe
00000070: 0879 123e 9e00 cdbd 2d44 38bd 9d39 183e
00000080: 1a87 ed3d 5082 c7bd 890f 973d 7769 2abe
00000090: 8ff1 88bd 1570 e439 6a24 e33b f4ac d63c
000000a0: 9d2b 353e 2c1e d43b f8bd 41be 14cd b9bd
000000b0: 1716 f03d 5130 223e 5ca6 4dbe e881 fb3d

4.2.weight f4 [36, 48]
0.11944957 0.069426484 -0.06178315 -0.059625868 -0.029826246 -0.13754998 0.11910479 0.11478822
0.03542523 -0.1377127 0.005913297 -0.048239626 0.18555264 -0.0798308 0.116423145 -0.016414944
0.001302185 -0.10165784 -0.03222837 0.05951984 0.05620288 0.04407422 0.063127995 -0.00023555009
-0.07662201 0.04833408 0.13540657 -0.2039713 -0.012444475 -0.00012446615 -0.08131509 -0.074276626
0.0061729746 -0.12549269 -0.06293116 0.002932163 0.047791846 -0.07781926 -0.051729858 -0.20825996
0.08594659 0.12094964 0.020328732 -0.20872554 -0.026658302 0.004225086 -0.06436464 0.13736758
-0.023340128 -0.028902257 -0.2313955 -0.016446711 -0.08072665 0.11789342 -0.14945486 0.10871225
-0.16273667 0.019258328 -0.138166 -0.0029415034 0.10323439 0.20964022 0.067513734 -0.112291425
0.050080676 -0.058094535 0.066924535 0.0822472 -0.03557374 -0.09925068 -0.13144286 0.18513769
0.19575894 -0.18283837 0.058121048 -0.008238752 0.040678047 0.1203918 -0.10708302 -0.18095969
-0.0147338575 0.02388006 -0.061715864 -0.037300773 0.06492857 -0.039935865 0.053637158 -0.02546848
-0.07325719 0.09862886 0.13569698 -0.16127208 -0.005984685 -0.12018151 0.11875824 0.061930183
-0.018868597 -0.060155142 -0.10283281 -0.16097945 -0.076409094 -0.0004395343 -0.06582773 -0.04368174
-0.08048689 0.026351457 -0.12431415 0.13216005 -0.076311246 0.012687761 -0.12732938 -0.1488851
-0.14954323 -0.054871894 -0.054438103 -0.06032602 0.15081504 0.033613335 0.16730665 -0.1605857
0.08313201 -0.019281453 0.08412386 -0.13458611 0.05206402 0.14075209 0.073553845 -0.100481
-0.09164556 -0.16855136 -0.06474756 -0.018291093 0.1159393 0.06447716 -0.07286684 0.18917014
0.13667062 -0.007304354 -0.13422355 0.17127028 0.16631015 0.1136769 -0.028108362 0.07181516
-0.1488702 0.09512689 0.11717302 0.11187419 -0.14993939 -0.104751 0.089398436 0.1202527
0.15280539 -0.09653799 0.094976075 -0.06311404 0.02284341 -0.13511212 -0.05214743 -0.18267521
-0.1545217 -0.026327562 -0.007027887 -0.042461786 0.029144319 -0.058511253 0.09166909 0.13647914
-0.20289375 -0.08178512 -0.090052694 -0.010440304 -0.13761854 -0.24340087 -0.0055086953 0.09924554
0.10212577 0.013585323 0.1408894 -0.19801061 -0.18429236 0.03218419 -0.12732047 0.121146835
0.08708139 -0.028668443 -0.08663237 0.082491815 -0.09148342 -0.11223483 0.07460334 -0.087586485
-0.068980336 0.14448291 -0.09312625 -0.10617593 0.035862636 -0.017806416 -0.06011796 -0.09561656
-0.12423554 -0.087463744 0.10606492 -0.061524075 -0.12865816 -0.13904257 0.06784112 0.11151838
-0.09223223 0.014394581 -0.007787692 0.02673695 0.07947753 -0.03391676 0.10733654 -0.16394834
-0.093628444 -0.1359793 -0.0140864765 0.016035441 0.042353436 -0.036431298 0.12969749 0.089393
-0.0669775 0.03824747 -0.037000213 0.0063390243 0.0365023 0.13195339 -0.06105402 -0.042870265
0.12728958 0.12279834 -0.012184586 0.18112887 0.07024649 0.09368999 -0.09542541 0.024934597
-0.1648274 -0.12940511 -0.036103874 0.19115318 -0.015457839 0.053551108 0.17271961 0.1392559
0.09592198 0.03542594 -0.045967333 -0.16448481 -0.02179045 -0.23174815 -0.101283245 0.105994545
00000000: faa1 f43d 792f 8e3d 5410 7dbd 413a 74bd
00000010: 2c56 f4bc e7d9 0cbe 36ed f33d 1616 eb3d
00000020: 0c1a 113d 8f04 0dbe 55c4 c13b ea96 45bd
00000030: 8301 3e3e 557e a3bd 426f ee3d a278 86bc
00000040: 14ae aa3a fc31 d0bd e501 04bd 13cb 733d
00000050: fe34 663d 2b87 343d 4049 813d fffd 76b9
00000060: 00ec 9cbd f5f9 453d 05a8 0a3e dadd 50be
00000070: e9e3 4bbc 2183 02b9 8788 a6bd 581e 98bd
00000080: aa46 ca3b 2881 00be 0de2 80bd 8829 403b
00000090: 62c1 433d b45f 9fbd b0e2 53bd 1942 55be
000000a0: c404 b03d 72b4 f73d 7188 a63c 26bc 55be
000000b0: 8362 dabc 9772 8a3b 9cd1 83bd 16aa 0c3e
000000c0: cc33 bfbc 6dc4 ecbc f1f2 6cbe 41bb 86bc
000000d0: 0454 a5bd 1b72 f13d b20a 19be 87a4 de3d
000000e0: 71a4 26be a4c3 9d3c 637b 0dbe 3dc6 40bb
000000f0: 8d6c d33d edab 563e a444 8a3d 0cf9 e5bd
00000100: 6521 4d3d 89f4 6dbd bb0f 893d 3871 a83d
00000110: c5b5 11bd f143 cbbd f598 06be bc94 3d3e
00000120: 0875 483e fb39 3bbe 5610 6e3d d5fb 06bc
00000130: 069e 263d fa8f f63d 584e dbbd 7f4d 39be
00000140: 4766 71bc 1ea0 c33c c6c9 7cbd b2c8 18bd
00000150: 45f9 843d ca93 23bd a3b2 5b3d 46a3 d0bc
00000160: de07 96bd eefd c93d 26f4 0a3e 8224 25be
00000170: 2d1b c4bb b921 f6bd 8537 f33d 81aa 7d3d
00000180: 5192 9abc 3d65 76bd 029a d2bd ccd7 24be
00000190: 5f7c 9cbd 4c71 e6b9 b0d0 86bd a0eb 32bd
000001a0: 50d6 a4bd 03df d73c 6b98 febd f754 073e
000001b0: 1249 9cbd 54e0 4f3c a262 02be 5675 18be
000001c0: dc21 19be 5ac1 60bd 7dfa 5ebd 6b18 77bd
000001d0: 426f 1a3e 23ae 093d 6f52 2b3e 9470 24be
000001e0: 1e41 aa3d 23f4 9dbc 2149 ac3d f1d0 09be
000001f0: 1541 553d 5121 103e 66a3 963d fcc8 cdbd
00000200: abb0 bbbd ba98 2cbe 5e9a 84bd 34d7 95bc
00000210: 9571 ed3d 9a0c 843d 363b 95bd d1b5 413e
00000220: 62f3 0b3e 5d59 efbb e671 09be 7a61 2f3e
00000230: 354d 2a3e 6fcf e83d 8243 e6bc d413 933d
00000240: 6e71 18be e3d1 c23d 69f8 ef3d 4c1e e53d
00000250: b689 19be b187 d6bd 8716 b73d 0c47 f63d
00000260: 0479 1c3e b6b5 c5bd d182 c23d ef41 81bd
00000270: 1a22 bb3c d55a 0abe 8b98 55bd 360f 3bbe
00000280: f03a 1ebe e6ac d7bc 304a e6bb 69ec 2dbd
00000290: 11c0 ee3c 7fa9 6fbd 01bd bb3d 30c1 0b3e
000002a0: 61c3 4fbe f57e a7bd 8c6d b8bd cf0d 2bbc
000002b0: e0eb 0cbe 143e 79be 4982 b4bb 3f41 cb3d
000002c0: 5127 d13d f994 5e3c 5045 103e 4bc3 4abe
000002d0: 23b7 3cbe 92d3 033d 4c60 02be d51b f83d
000002e0: ba57 b23d 15da eabc 506c b1bd 78f1 a83d
000002f0: a95b bbbd 60db e5bd a3c9 983d 8b60 b3bd
00000300: 9045 8dbd 54f3 133e fab8 bebd c472 d9bd
00000310: b3e4 123d c3de 91bc 403e 76bd 9dd2 c3bd
00000320: 346f febd 3120 b3bd 9138 d93d ab00 7cbd
00000330: f7be 03be 2d61 0ebe 49f0 8a3d c063 e43d
00000340: 40e4 bcbd 40d7 6b3c e52f ffbb 7307 db3c
00000350: 1ec5 a23d 4dec 0abd 43d3 db3d 13e2 27be
00000360: 45c0 bfbd 283e 0bbe f7ca 66bc c25c 833c
00000370: cc7a 2d3d fc38 15bd 6bcf 043e ad13 b73d
00000380: 802b 89bd 61a9 1c3d 898d 17bd 97b7 cf3b
00000390: 7083 153d ca1e 073e c813 7abd bb98 2fbd
000003a0: 3358 023e b27d fb3d dca1 47bc d979 393e
000003b0: 64dd 8f3d 8ae0 bf3d 666e c3bd a443 cc3c
000003c0: 84c8 28be c682 04be a8e1 13bd a9bd 433e
000003d0: e042 7dbc 6858 5b3d 69dd 303e 1999 0e3e
000003e0: be72 c43d ca1a 113d 3e48 3cbd b56e 28be
000003f0: e381 b2bc 634f 6dbe 976d cfbd ab13 d93d

4.2.bias f4 [36]
-0.10482184 0.036382962 -0.02093454 0.13915616 -0.14841294 -0.06266043 0.08618664 0.052540462
0.15537159 -0.1204405 0.08306056 0.009388866 -0.07638113 0.06793219 0.028445233 -0.0021714673
0.110575385 0.0902792 -0.15206298 -0.1152937 0.107992314 -0.0045532715 -0.04959235 0.10634584
0.07647411 0.07037662 -0.018763237 -0.08811468 0.007834078 0.09354428 0.028391987 0.07079189
-0.04601002 -0.075021535 -0.098288596 -0.05400102
00000000: d5ac d6bd 4d06 153d ea7e abbc f47e 0e3e
00000010: 90f9 17be 1d54 80bd 9f82 b03d ab34 573d
00000020: bb19 1f3e 82a9 f6bd a81b aa3d c2d3 193c
00000030: b66d 9cbd 0820 8b3d fa05 e93c 2d4f 0ebb
00000040: 5975 e23d 4de4 b83d 66b6 1bbe 1a1f ecbd
00000050: 132b dd3d 9c33 95bb 5921 4bbd d9cb d93d
00000060: 759e 9c3d 9e21 903d 5cb5 99bc 7875 b4bd
00000070: 815a 003c 2594 bf3d 5096 e83c 57fb 903d
00000080: 0175 3cbd e4a4 99bd 884b c9bd 2c30 5dbd

4.4.weight f4 [36, 36]
-0.105292305 -0.014478671 0.12391944 0.020314746 0.03454798 0.0425775 0.116758615 -0.001069801
-0.058115143 0.015273396 -0.023755625 -0.05618703 -0.06600848 -0.105392806 0.03604894 0.026822181
-0.077479005 0.029903367 0.018100385 0.02165799 -0.13563843 0.12927067 0.1470123 -0.012798429
-0.0060339677 -0.12983304 -0.030037424 -0.16071154 0.14504708 0.006134456 -0.123336144 0.1443556
-0.1349031 -0.11806696 0.09843559 0.17345561 -0.11384439 0.07796644 -0.059015412 -0.13416976
-0.17375922 0.15137243 -0.007709554 -0.015638134 -0.06635855 0.08447907 -0.013688054 -0.05573846
-0.07698063 0.12948047 0.01944464 0.16527922 -0.13954371 -0.07464707 -0.06525409 -0.16285314
-0.074718595 0.0054261405 -0.10553936 0.0272676 0.14629737 -0.1082349 0.031908758 -0.17417656
-0.039270222 -0.13846219 -0.16038236 0.21174265 -0.12315839 0.00848925 -0.10063385 -0.040879633
-0.14036864 -0.09048791 -0.13044417 -0.006537949 -0.09997121 0.113369174 -0.11559478 0.017692415
0.030323979 0.08865189 0.10563922 -0.08360463 -0.14076866 -0.118298426 0.15115622 -0.07156151
0.13884628 -0.06902604 -0.1381072 -0.019643042 -0.089335985 -0.14600004 -0.11103132 -0.032243166
0.13548097 0.013355152 -0.09802092 -0.10289457 0.15899307 0.15566371 0.057817403 -0.048536398
-0.01271308 -0.13704677 0.024353834 -0.056692604 0.16274242 0.0052988017 -0.17588058 0.12311729
0.10018099 0.09324863 0.14260775 0.14695653 0.051706247 0.08928986 0.13922152 -0.14330126
-0.034311753 -0.16732754 0.14666209 -0.12814938 0.059561327 -0.04307779 0.0019724462 0.038024835
-0.078786746 -0.10619195 -0.054754697 -0.117583044 0.04411266 0.10994071 -0.03678829 0.052945323
0.008260649 0.1343473 -0.087577276 0.09338375 0.07947954 -0.1449211 0.15171266 -0.10945159
0.078925245 0.17251281 -0.22431979 -0.13007478 0.030763432 -0.04301559 0.16820586 -0.064282164
0.06441984 0.06688455 0.112074375 -0.16765815 0.10049198 -0.1047918 0.07599457 -0.03124453
-0.023002239 -0.09465504 0.043142326 -0.00020545634 0.14688241 0.12005283 0.06756734 0.012277402
-0.037277292 -0.037825648 -0.06810071 -0.1499654 -0.084139735 0.109815545 -0.119854644 0.18596712
-0.09656203 -0.0065356093 0.19417149 -0.10944361 0.0789633 -0.027956724 -0.01856084 -0.11022014
-0.108644366 0.08873068 0.10434707 -0.032554097 0.12186097 0.006876638 -0.086240575 0.09213724
-0.05513565 -0.013706239 -0.06916062 0.15946278 -0.07037975 -0.11678694 -0.16123599 -0.16834618
0.0936261 -0.07070316 0.044901356 0.04382127 -0.047047794 -0.1508833 -0.06653342 0.066449754
-0.10854075 -0.12145889 0.11875413 -0.11580483 -0.08537853 0.022858674 -0.057413418 0.048575543
-0.10086294 -0.03694651 -0.060369696 0.08777716 0.04025023 -0.039704032 -0.12874141 -0.094417565
-0.12023416 -0.10778983 -0.10392753 -0.08118296 -0.055196643 -0.06850518 -0.15388063 -0.10667011
-0.057315744 0.09619869 -0.06713449 0.012802586 0.09478165 -0.04902462 -0.1262959 0.026869884
0.13091175 -0.18909809 -0.121102765 0.03015532 -0.11767835 0.11671366 -0.121356376 -0.024204098
-0.015092571 -0.18740372 -0.13673167 0.120146915 0.08326109 0.02288569 0.0133217545 -0.06875561
00000000: 7ea3 d7bd f337 6dbc 7ac9 fd3d 1c6b a63c
00000010: 2f82 0d3d bf65 2e3d 241f ef3d 9138 8cba
00000020: 250a 6ebd 443d 7a3c 289b c2bc 5f24 66bd
00000030: 742f 87bd 2fd8 d7bd 0ea8 133d 31ba db3c
00000040: 50ad 9ebd e8f7 f43c 4247 943c 196c b13c
00000050: cde4 0abe 885f 043e 648a 163e 80b0 51bc
00000060: 97b8 c5bb f4f2 04be 0b11 f6bc 9191 24be
00000070: 3987 143e 8c03 c93b a997 fcbd f4d1 133e
00000080: 0a24 0abe 17cd f1bd 9998 c93d 599e 313e
00000090: 3f27 e9bd deac 9f3d 25ba 71bd cc63 09be
000000a0: f0ed 31be 6001 1b3e 6da0 fcbb 8b1b 80bc
000000b0: fee6 87bd 5d03 ad3d dc43 60bc 034e 64bd
000000c0: 05a8 9dbd 8796 043e 5e4a 9f3c f53e 293e
000000d0: 8ce4 0ebe 90e0 98bd f0a3 85bd f9c2 26be
000000e0: 1006 99bd c4cd b13b 0525 d8bd 4d60 df3c
000000f0: face 153e 42aa ddbd c2b2 023d 575b 32be
00000100: d0d9 20bd 08c9 0dbe 463b 24be 11d3 583e
00000110: 773a fcbd 7f16 0b3c 1f19 cebd 6771 27bd
00000120: ccbc 0fbe ba51 b9bd 2893 05be 4b3c d6bb
00000130: b5bd ccbd 192e e83d f5bc ecbd afef 903c
00000140: fe69 f83c 1f8f b53d 6059 d83d e738 abbd
00000150: a925 10be 7246 f2bd b2c8 1a3e d78e 92bd
00000160: b82d 0e3e 865d 8dbd f96b 0dbe 72ea a0bc
00000170: c9f5 b6bd 0981 15be 6464 e3bd 6911 04bd
00000180: 86bb 0a3e 91cf 5a3c 31bf c8bd 63ba d2bd
00000190: 14cf 223e 4f66 1f3e f1d1 6c3d 1ace 46bd
000001a0: 864a 50bc fd55 0cbe b181 c73c 8136 68bd
000001b0: f3a5 263e 92a1 ad3b 0a1a 34be eb24 fc3d
000001c0: b12b cd3d 23f9 be3d c407 123e c67b 163e
000001d0: eec9 533d 9add b63d 1690 0e3e 91bd 12be
000001e0: 7b8a 0cbd e957 2bbe 962e 163e 9739 03be
000001f0: 94f6 733d 5672 30bd 2844 013b eebf 1b3d
00000200: f25a a1bd 2a7b d9bd 7646 60bd 61cf f0bd
00000210: 7aaf 343d 9828 e13d 51af 16bd 32dd 583d
00000220: ac57 073c 5792 093e b75b b3bd fb3f bf3d
00000230: 2bc6 a23d 3266 14be 905a 1b3e 2828 e0bd
00000240: 8fa3 a13d 33a7 303e 16b4 65be 5332 05be
00000250: 9803 fc3c 1e31 30bd 283e 2c3e 5ea6 83bd
00000260: 8dee 833d c4fa 883d 4087 e53d 94ae 2bbe
00000270: bdce cd3d 159d d6bd 0ba3 9b3d 87f4 ffbc
00000280: 316f bcbc 80da c1bd 02b6 303d c46f 57b9
00000290: 5868 163e 42de f53d bf60 8a3d 2827 493c
000002a0: 13b0 18bd 11ef 1abd 6378 8bbd 8890 19be
000002b0: 7451 acbd f9e6 e03d 5a76 f5bd 2a6e 3e3e
000002c0: 50c2 c5bd aa28 d6bb e4d4 463e f923 e0bd
000002d0: 83b7 a13d 8005 e5bc e70c 98bc 19bb e1bd
000002e0: f080 debd 6eb8 b53d ebb3 d53d 7257 05bd
000002f0: 3f92 f93d 6c55 e13b e69e b0bd 73b2 bc3d
00000300: ebd5 61bd 2290 60bc 15a4 8dbd 364a 233e
00000310: 4223 90bd fe2d efbd 0c1b 25be f162 2cbe
00000320: 0abf bf3d d1cc 90bd 7cea 373d ef7d 333d
00000330: 30b5 40bd 2781 1abe ac42 88bd cf16 883d
00000340: 9d4a debd 70bf f8bd 5e35 f33d 152b edbd
00000350: f0da aebd 1d42 bb3c 552a 6bbd 26f7 463d
00000360: 3b91 cebd 3955 17bd 3746 77bd 83c4 b33d
00000370: 6ddd 243d b2a0 22bd cad4 03be ff5d c1bd
00000380: 543d f6bd eac0 dcbd f5d7 d4bd 4043 a6bd
00000390: e015 62bd 724c 8cbd e292 1dbe dc75 dabd
000003a0: eac3 6abd d203 c53d cf7d 89bd f0c1 513c
000003b0: e21c c23d 0ace 48bd b653 01be 3b1e dc3c
000003c0: bb0d 063e eea2 41be ba04 f8bd 4a08 f73c
000003d0: 5901 f1bd 9207 ef3d b189 f8bd ac47 c6bc
000003e0: d546 77bc c3e6 3fbe 6303 0cbe 960f f63d
000003f0: ca84 aa3d c57a bb3c 7d43 5a3c becf 8cbd

4.4.bias f4 [36]
-0.00416843 0.023846895 0.10670618 -0.03160501 -0.075994164 -0.0954204 -0.08499629 -0.118220285
-0.11416777 0.049246926 -0.037171304 -0.104879156 0.13881762 0.19410764 -0.06256425 0.094066665
0.05736083 -0.04935362 -0.0836421 0.071316466 -0.08046834 0.02748993 0.0684431 0.13874763
0.07327714 0.0077942 -0.105393685 -0.15557715 0.013073391 -0.11029499 -0.04532937 -0.18087134
0.003340656 -0.038515337 0.118640535 -0.075112216
00000000: 5397 88bb 905a c33c c588 da3d 4174 01bd
00000010: d4a2 9bbd c56b c3bd 8912 aebd 7a1d f2bd
00000020: cbd0 e9bd 25b7 493d f040 18bd e2ca d6bd
00000030: 3526 0e3e 27c4 463e af21 80bd 06a6 c03d
00000040: 31f3 6a3d 0527 4abd 8d4c abbd 5e0e 923d
00000050: 96cc a4bd 9032 e13c e52b 8c3d dc13 0e3e
00000060: 5312 963d 7d66 ff3b a5d8 d7bd 9e4f 1fbe
00000070: c731 563c 57e2 e1bd 4aab 39bd 5636 39be
00000080: e8ee 5a3b 42c2 1dbd cff9 f23d 6fd4 99bd

4.6.weight f4 [24, 36]
0.005506641 -0.07699894 -0.015813421 0.08484706 -0.03068979 -0.00084130286 0.082333036 -0.16449997
0.05982036 -0.11282765 0.06356619 0.12844238 -0.04294859 0.05087691 0.02683087 -0.034303978
-0.10335011 0.028585082 0.02538322 0.15101448 -0.08421475 -0.06429202 0.028323472 0.04212378
-0.14780335 -0.03636697 -0.13488065 0.021378493 0.05112174 -0.00011343942 0.04502085 -0.09975247
-0.038384844 -0.07180037 -0.06595515 0.015114751 0.009190319 -0.19873439 0.106493875 0.11223905
0.027188713 -0.13312411 -0.040723454 0.058053833 -0.070749834 0.071521156 0.16709583 -0.0901166
0.13103501 0.06518394 0.030387513 -0.1386317 -0.14212194 -0.1277417 -0.12135798 -0.13186648
0.035134684 -0.1055052 0.11131984 0.0074291225 0.1268548 0.10936782 0.10914883 0.17324075
0.06152929 0.0639636 -0.12559032 0.11903714 -0.0676649 -0.1213636 -0.15416627 -0.22337428
-0.045301158 0.02190072 0.2172851 0.25361103 0.2525519 0.0733171 -0.16173685 -0.15181588
-0.115422845 -0.040387888 -0.08037635 0.15435606 0.030364426 0.22475591 0.1426544 -0.22284618
-0.16191195 0.1363397 0.0001820006 -0.16587548 -0.14706218 0.011159106 -0.059784293 0.011925512
0.107118405 -0.114468366 -0.12464946 0.08197427 -0.15063846 0.052319832 0.20952563 0.1700692
-0.16176131 -0.013972143 -0.08944908 -0.09984661 0.011065602 -0.03413713 0.10800815 -0.051027555
0.19993478 -0.054798365 0.03956318 0.053493094 0.027907688 0.044550877 -0.00995707 0.040872462
-0.20523438 -0.09691072 0.11893694 -0.14337713 0.10500363 0.0037337188 0.15626672 0.09113694
-0.064403415 -0.18381907 -0.086305924 -0.06574615 0.16161977 0.030239265 0.13709137 0.1364701
0.038017396 -0.22245023 0.0045944997 0.1706992 -0.1285395 -0.027110387 -0.019606909 -0.17179109
-0.05704166 -0.044393454 0.06794355 0.015235956 -0.03297661 -0.027979411 -0.097873114 -0.004800064
-0.09076524 -0.07158462 -0.13923013 0.070855364 -0.19530645 0.07616512 -0.1234082 -0.16377644
-0.050649773 0.008062318 -0.07521717 0.051527586 -0.08049239 -0.19614652 0.06340633 0.11309203
-0.04267245 0.108521886 0.008290761 0.049812462 -0.07998587 -0.031540163 0.024613233 -0.08967734
-0.14914952 -0.103108086 0.11722241 -0.1066904 0.14789587 -0.10946254 -0.15769464 -0.012740603
-0.16886339 -0.15940784 -0.091010295 0.096370615 -0.050482906 0.14075002 0.101813026 0.1704462
0.021981364 -0.097554736 0.012615942 -0.17498112 0.10539462 0.035666917 -0.0034560985 0.00084854395
0.060005255 -0.13119853 -0.015754769 0.058339573 -0.07466356 0.18110201 0.17990418 0.11171827
-0.025886886 0.13077019 -0.05619856 0.13811468 0.08319472 -0.08136537 -0.08865086 -0.13141045
0.015582062 -0.08799339 0.038993604 0.06606119 -0.18020177 -0.07141343 0.01780346 -0.08843211
-0.04309553 0.011348422 0.05102552 0.051345654 0.061520103 -0.1946237 -0.0011333305 0.110690325
0.1500299 -0.1819245 -0.1847681 -0.1873127 -0.040048733 0.060049277 0.1285252 0.120354265
0.10477432 0.15012902 0.03554604 -0.17416984 0.0048363283 0.087481156 0.03585996 0.14828663
-0.12969585 0.16610944 -0.18046564 -0.093386754 0.13169739 -0.14829126 0.11392038 -0.12394103
00000000: 0e71 b43b 9fb1 9dbd 268b 81bc 4cc4 ad3d
00000010: 2869 fbbc e18a 5cba 399e a83d ae72 28be
00000020: 3206 753d 2f12 e7bd fe2e 823d 6686 033e
00000030: dcea 2fbd 4f64 503d 6acc db3c 5482 0cbd
00000040: 39a9 d3bd 432b ea3c 78f0 cf3c 8aa3 1a3e
00000050: c878 acbd 89ab 83bd a006 e83c fc89 2c3d
00000060: c359 17be 88f5 14bd 271e 0abe f321 af3c
00000070: 0865 513d 53e6 edb8 c867 383d 064b ccbd
00000080: 6d39 1dbd 130c 93bd 7e13 87bd dca3 773c
00000090: fe92 163c 0781 4bbe 7619 da3d 96dd e53d
000000a0: ddba de3c b051 08be a3cd 26bd dbc9 6d3d
000000b0: 4ae5 90bd af79 923d 2b1b 2b3e 0d8f b8bd
000000c0: 0b2e 063e 287f 853d 3cef f83c 78f5 0dbe
000000d0: 6a88 11be b8ce 02be 888a f8bd 0208 07be
000000e0: 63e9 0f3d 1c13 d8bd a8fb e33d ff6f f33b
000000f0: 3ae6 013e 3cfc df3d 6c89 df3d 0666 313e
00000100: 2306 7c3d 59ff 823d c09a 00be bec9 f33d
00000110: e593 8abd 7b8d f8bd c3dd 1dbe 3abc 64be
00000120: b58d 39bd 2469 b33c fc7f 5e3e 4ed9 813e
00000130: 7c4e 813e 4727 963d 589e 25be 9f75 1bbe
00000140: d062 ecbd c56d 25bd 5b9c a4bd 840f 1e3e
00000150: d1be f83c 6a26 663e ff13 123e ca31 64be
00000160: 3fcc 25be a29c 0b3e 6ad7 3e39 43db 29be
00000170: 7897 16be afd4 363c 60e0 74bd 3963 433c
00000180: e560 db3d 646e eabd 3748 ffbd 20e2 a73d
00000190: f840 1abe 524d 563d e38d 563e 9f26 2e3e
000001a0: c2a4 25be 6aeb 64bc 1431 b7bd 617c ccbd
000001b0: 804c 353c 60d3 0bbd 6033 dd3d 4502 51bd
000001c0: b4bb 4c3e 4074 60bd 000d 223d 931b 5b3d
000001d0: aa9e e43c fb7a 363d fb22 23bc e269 273d
000001e0: f628 52be 2179 c6bd 3695 f33d 74d1 12be
000001f0: 250c d73d 68b1 743b 6204 203e 01a6 ba3d
00000200: f0e5 83bd 113b 3cbe 29c1 b0bd eba5 86bd
00000210: a77f 253e 56b8 f73c ae61 0c3e d1be 0b3e
00000220: 21b8 1b3d fec9 63be 758d 963b c5cb 2e3e
00000230: dc9f 03be 9a16 debc ab9e a0bc 01ea 2fbe
00000240: 84a4 69bd e9d5 35bd fd25 8b3d 3ba0 793c
00000250: 7b12 07bd 1435 e5bc b371 c8bd db49 9dbb
00000260: 20e3 b9bd f59a 92bd 5892 0ebe 9e1c 913d
00000270: 6afe 47be 75fc 9b3d 70bd fcbd 03b5 27be
00000280: 2376 4fbd d017 043c 760b 9abd 970e 533d
00000290: 32d9 a4bd a2da 48be 2edb 813d cb9c e73d
000002a0: 4fc9 2ebd b940 de3d f9d5 073c 2708 4c3d
000002b0: a2cf a3bd 4230 01bd b1a1 c93c c1a8 b7bd
000002c0: a7ba 18be 552a d3bd 4e12 f03d 7f80 dabd
000002d0: 0472 173e e52d e0bd b47a 21be f6bd 50bc
000002e0: 86ea 2cbe cf3b 23be 9b63 babd f55d c53d
000002f0: 2ac7 4ebd c620 103e 5983 d03d 7389 2e3e
00000300: 4312 b43c c7ca c7bd 19b3 4e3c 402e 33be
00000310: 22d9 d73d 7917 123d b67f 62bb d270 5e3a
00000320: 12c8 753d e858 06be 2510 81bc 7af5 6e3d
00000330: 35e9 98bd ce72 393e cd38 383e 8ccc e43d
00000340: bc10 d4bc 9fe8 053e 7630 66bd ef6d 0d3e
00000350: fe61 aa3d e3a2 a6bd 958e b5bd 7690 06be
00000360: e84b 7f3c e135 b4bd c2b7 1f3d 174b 873d
00000370: d086 38be 3441 92bd 90d8 913c e51b b5bd
00000380: f084 30bd bbee 393c 2300 513d d24f 523d
00000390: 81fc 7b3d 6f4b 47be 438c 94ba 9cb1 e23d
000003a0: 70a1 193e 6b4a 3abe d933 3dbe e7ce 3fbe
000003b0: 240a 24bd 3bf6 753d 1c9c 033e 4c7c f63d
000003c0: eb93 d63d 6cbb 193e b998 113d 9459 32be
000003d0: 107a 9e3b 5229 b33d e5e1 123d 73d8 173e
000003e0: fdce 04be 9818 2a3e fccb 38be 8e41 bfbd
000003f0: aedb 063e aad9 17be 174f e93d cbd4 fdbd

4.6.bias f4 [24]
0.049779586 -0.05240658 -0.034351397 -0.19355957 -0.23316573 -0.18573238 -0.15612778 -0.16144688
0.02002916 0.1950829 0.047625992 -0.11087508 -0.19361314 0.066556275 -0.043697525 -0.068907164
0.04944095 -0.112266704 0.17199785 -0.04205768 0.01646717 0.029669615 0.047421053 0.04221314
00000000: aee5 4b3d 48a8 56bd 0db4 0cbd 7b34 46be
00000010: ffc2 6ebe a130 3ebe f6df 1fbe 5552 25be
00000020: 3114 a43c d0c3 473e 7913 433d 7912 e3bd
00000030: 8642 46be a84e 883d 2dfc 32bd 331f 8dbd
00000040: 9882 4a3d 16ec e5bd 3420 303e ad44 2cbd
00000050: 29e6 863c b10d f33c 943c 423d afe7 2c3d

4.8.weight f4 [24, 24]
-0.07544224 0.15101638 0.05257483 0.05317147 0.1760637 0.085503645 0.028564226 0.11245227
-0.07616364 -0.10555978 0.21280384 0.27345163 0.15155494 0.24462812 -0.13269378 0.0124102235
0.050198626 -0.21028168 -0.16776566 0.014703733 0.06932113 -0.114324324 -0.3128089 0.17294374
0.094103545 0.14288175 -0.030276455 0.0047080102 0.16904102 0.22637376 -0.023094187 -0.07033066
-0.20154725 -0.20164897 0.16265033 0.08300744 0.024216695 0.21741126 -0.13254166 0.14858916
-0.11466069 0.10973282 -0.08347275 -0.01653717 0.20204477 0.105967455 -0.16300985 0.041723102
0.0066733886 -0.11228056 0.20534971 0.15956627 0.18445751 -0.1807855 -0.21080233 -0.012244305
-0.2012049 0.13545212 0.015488762 0.04952387 -0.17332616 0.20196325 -0.15769675 -0.06392552
-0.17453642 -0.13503948 -0.15214898 0.19619422 0.103079 0.095023304 -0.21354488 -0.042981304
0.12401682 0.2154335 0.055399805 -0.027499935 0.1918834 -0.19041543 -0.1723084 0.09610941
0.03710795 -0.17097199 -0.19868885 -0.042200245 0.10406767 -0.10539441 -0.14931409 0.0038882478
0.050599206 -0.18211825 0.11043928 -0.057902824 -0.03902651 0.12454685 0.16843694 0.08571065
-0.1735408 0.10984946 -0.15117225 0.045445014 0.0012801146 -0.015638245 0.057240717 0.20502433
0.097046345 0.15075202 -0.14933361 -0.0068019805 -0.07396481 0.15521425 -0.14090481 -0.068203405
0.030605882 -0.1954386 0.19131164 0.04264765 -0.1784148 0.11927372 0.0440371 -0.0338124
-0.14486924 0.04184378 0.12919542 0.18116714 0.18508717 0.16509847 0.011820494 0.23169078
0.14466918 -0.19657025 0.06756114 0.20799355 -0.17824984 0.062440146 0.1460259 0.041320942
-0.051753033 0.10769291 0.12893602 -0.20240384 -0.056233365 0.074140705 0.083520465 -0.096281454
-0.16646498 -0.1361675 -0.11402509 0.06454449 0.18279849 -0.17592393 -0.12233574 0.104860574
0.20236063 0.03520849 0.1196782 -0.12682892 0.14840001 0.15561149 0.17541048 -0.067164324
-0.08123397 0.07429079 -0.16022319 -0.14357287 -0.23859748 -0.1087053 0.20592509 0.08294086
0.08152863 -0.10544535 -0.019237 0.035982545 -0.16575958 -0.019022055 -0.22446853 -0.0008029803
0.04832331 0.12655833 0.14195962 -0.19373383 0.092417754 0.15355955 0.16266026 -0.120711066
-0.029610602 -0.13586336 0.13483123 0.04360907 0.018829323 -0.038858864 0.050838508 -0.21274935
0.04916476 0.037962817 -0.15639156 -0.16372818 -0.12677512 -0.22040123 0.1944291 -0.0030553397
-0.16362639 -0.10847938 -0.026894588 -0.21381143 -0.14205544 -0.08904585 0.08365774 -0.0422536
0.12443772 -0.060555734 0.04089571 0.15923627 0.001348259 -0.076023705 0.028153397 -0.17406063
0.14979477 -0.030239128 0.21462896 -0.04911629 0.09496464 -0.14394431 -0.075896636 -0.15639035
-0.105224565 0.15396474 0.041176178 -0.2757072 -0.18848012 0.16929471 -0.043577556 0.20411853
-0.080128536 -0.047884844 0.23273124 -0.09999364 0.21814208 -0.07247679 0.14352727 0.014308114
0.061653193 -0.07619989 -0.041228373 0.20163964 0.04048298 0.085042335 0.1750568 0.18664746
0.027951395 -0.20344806 -0.16604386 -0.020061443 0.017869543 -0.14670132 0.15278716 0.070785604
00000000: 7681 9abd 0aa4 1a3e b458 573d 54ca 593d
00000010: 0b4a 343e 891c af3d 86ff e93c 604d e63d
00000020: affb 9bbd ba2f d8bd 40e9 593e da01 8c3e
00000030: 3831 1b3e cb7f 7a3e e1e0 07be 4054 4b3c
00000040: 139d 4d3d 1554 57be c3ca 2bbe ede7 703c
00000050: 3df8 8d3d df22 eabd 7d28 a0be 2a18 313e
00000060: 5cb9 c03d 984f 123e 5406 f8bc a745 9a3b
00000070: 1719 2d3e 86ce 673e 0530 bdbc 8509 90bd
00000080: 6762 4ebe 117d 4ebe cf8d 263e ceff a93d
00000090: 1762 c63c 0fa1 5e3e 00b9 07be c227 183e
000000a0: 39d3 eabd 9abb e03d c3f3 aabd f678 87bc
000000b0: d3e4 4e3e 7705 d93d 0eec 26be d8e5 2a3d
000000c0: 71ac da3b 5af3 e5bd 3247 523e 5765 233e
000000d0: 6ee2 3c3e d61f 39be 91dc 57be 569c 48bc
000000e0: a808 4ebe f6b3 0a3e 94c4 7d3c 8bd9 4a3d
000000f0: 6a7c 31be 74cf 4e3e 427b 21be 62eb 82bd
00000100: adb9 32be ca47 0abe f1cc 1bbe 23e7 483e
00000110: 151b d33d 949b c23d 82ab 5abe 2a0d 30bd
00000120: 88fc fd3d 999a 5c3e e8ea 623d 8b47 e1bc
00000130: 157d 443e 43fc 42be 9d71 30be 03d5 c43d
00000140: 81fe 173d 4813 2fbe 1775 4bbe 2ada 2cbd
00000150: 6e21 d53d 06d9 d7bd cbe5 18be f9d1 7e3b
00000160: 1d41 4f3d 357d 3abe fd2d e23d 832b 6dbd
00000170: 43da 1fbd 6b12 ff3d bc7a 2c3e 1189 af3d
00000180: aeb4 31be c1f8 e03d e6cc 1abe 8d24 3a3d
00000190: 85c9 a73a c71b 80bc 3e75 6a3d e6f1 513e
000001a0: 3cc0 c63d bd5e 1a3e e9ea 18be 26e3 debb
000001b0: dd7a 97bd 7cf0 1e3e 5a49 10be 3aae 8bbd
000001c0: 30b9 fa3c 0e21 48be 33e7 433e 4daf 2e3d
000001d0: 5fb2 36be c845 f43d 3f60 343d df7e 0abd
000001e0: 9a58 14be 6264 2b3d ce4b 043e e183 393e
000001f0: 7e87 3d3e 930f 293e bfaa 413c 5940 6d3e
00000200: 2824 143e b649 49be 7f5d 8a3d 43fc 543e
00000210: 2087 36be 3dc1 7f3d d087 153e 2640 293d
00000220: fdfa 53bd 1a8e dc3d ce07 043e f442 4fbe
00000230: f554 66bd 15d7 973d c70c ab3d 362f c5bd
00000240: cc75 2abe 7e6f 0bbe fd85 e9bd e72f 843d
00000250: 872f 3b3e 6725 34be 298b fabd 24c1 d63d
00000260: a037 4f3e c736 103d d819 f53d 71df 01be
00000270: 2cf6 173e 9e58 1f3e ce9e 333e 738d 89bd
00000280: ff5d a6bd c525 983d 8c11 24be c404 13be
00000290: e652 74be e2a0 debd 07de 523e e6dc a93d
000002a0: 7bf8 a63d bbf3 d7bd ea96 9dbc 6f62 133d
000002b0: e1bc 29be 24d4 9bbc 14db 65be 197f 52ba
000002c0: aaee 453d 8298 013e dd5d 113e 2962 46be
000002d0: 8545 bd3d b73e 1d3e 6990 263e 5d37 f7bd
000002e0: ef91 f2bc c41f 0bbe 3311 0a3e 6d9f 323d
000002f0: f43f 9a3c 792a 1fbd 0a3c 503d f7da 59be
00000300: fd60 493d e67e 1b3d 1c25 20be 5ca8 27be
00000310: 56d1 01be dcb0 61be 6c18 473e 183c 48bb
00000320: ad8d 27be 702a debd 0a52 dcbc 62f1 5abe
00000330: fb76 11be ac5d b6bd c054 ab3d 1c12 2dbd
00000340: 34d9 fe3d 4a09 78bd 4382 273d d50e 233e
00000350: 11b8 b03a 51b2 9bbd f4a1 e63c f33c 32be
00000360: cd63 193e 0cb8 f7bc b2c7 5b3e 2a2e 49bd
00000370: d27c c23d 2366 13be b26f 9bbd cb24 20be
00000380: fa7f d7bd efa8 1d3e 5aa8 283d 7e29 8dbe
00000390: ef00 41be 985b 2d3e 617e 32bd 7304 513e
000003a0: 6e1a a4bd e622 44bd 1951 6e3e 77c9 ccbd
000003b0: a360 5f3e b66e 94bd d0f8 123e 946c 6a3c
000003c0: 0f88 7c3d b00e 9cbd 15df 28bd 9f7a 4e3e
000003d0: 7bd1 253d ad2a ae3d 1742 333e 8320 3f3e
000003e0: 53fa e43c b054 50be 6707 2abe e557 a4bc
000003f0: 2663 923c df38 16be 3d74 1c3e 0bf8 903d

4.8.bias f4 [24]
-0.10441389 -0.108466424 -0.24963403 -0.1358456 -0.26304308 0.119190365 0.21991497 0.21064837
0.26669714 0.13973992 -0.32330605 -0.18197753 -0.114364445 -0.23958534 -0.06825795 0.08462844
0.058514263 0.15646431 -0.1824286 -0.13149297 -0.03915985 -0.073039494 0.031163156 0.03284169
00000000: f3d6 d5bd a523 debd 10a0 7fbe 1c1b 0bbe
00000010: 95ad 86be 141a f43d 6431 613e 35b4 573e
00000020: 878c 883e fb17 0f3e 5f88 a5be 5158 3abe
00000030: e837 eabd dc55 75be d3ca 8bbd ad51 ad3d
00000040: a7ac 6f3d 2e38 203e 90ce 3abe 18a6 06be
00000050: 1466 20bd bb95 95bd e049 ff3c 0285 063d

4.10.weight f4 [12, 24]
0.038475312 -0.033785265 0.021978937 -0.019076701 -0.14654396 -0.100664176 -0.055564523 -0.0135438405
-0.15650608 -0.24412158 0.16790909 -0.006243057 0.09476188 -0.0070700534 0.15582836 0.14988041
-0.007802926 -0.08586807 -0.1320632 -0.1275093 -0.20323247 0.18196782 0.106062084 -0.06667267
0.13113372 -0.1695828 0.14916639 0.11590736 0.15710784 0.07423748 -0.1818692 0.19393782
-0.22984332 -0.12248468 -0.030720511 -0.14097254 -0.101627305 0.17228907 0.19067574 -0.21051434
-0.1052348 0.042655405 -0.0861748 0.08068961 -0.022805817 -0.06898907 -0.19296443 0.03125257
-0.057239912 0.15207365 -0.013216068 -0.21559912 -0.07953273 -0.17747058 0.004612961 0.14011659
0.12880719 0.27784732 -0.13796802 -0.054723773 -0.11961472 -0.076643825 -0.09462707 -0.009114934
0.26054767 0.071727835 -0.2233695 0.07052698 -0.17633274 -0.12639078 -0.15725428 -0.10256061
-0.21670082 -0.17781016 0.01275717 0.042936172 -0.08153974 0.14014 -0.039870355 0.061788607
0.23847677 -0.07119312 -0.22962604 -0.13347988 -0.15250683 -0.11354922 0.11170379 0.10797769
-0.13636911 0.09794157 -0.29694018 0.12929899 0.21236731 -0.09731602 -0.24454457 0.060365576
-0.2059378 -0.2997589 -0.21078011 0.034083895 0.19929904 0.17835553 0.039288945 -0.014418022
-0.019322617 -0.2938893 -0.21713729 0.19722003 -0.36241013 0.12759437 -0.26869565 -0.1391202
0.1653594 -0.050916616 0.035745226 -0.1813973 -0.29669863 -0.009610576 0.073183164 -0.13017951
-0.14457275 0.08397304 0.016249286 0.023908569 -0.079842955 0.052772153 0.21785553 0.24987061
0.0069430713 0.053853076 -0.24048874 0.055838685 0.038477004 0.021306561 -0.29394528 -0.12742044
-0.16429247 0.27306286 -0.038990494 -0.22743137 0.20187657 -0.036313746 0.010390243 -0.005248379
0.024056815 -0.23770608 0.09644451 0.08187952 -0.21467791 -0.16079599 0.07969062 0.18189824
0.15106167 -0.045326054 0.09491815 -0.094033524 -0.17101343 -0.19855984 -0.3717161 -0.061003406
-0.14596178 -0.02645264 -0.14790864 0.061556302 -0.1069066 -0.20242815 0.1680265 -0.23874074
0.080639735 0.1645382 -0.013348747 -0.012091984 0.09881633 -0.029335855 0.20867689 -0.21210168
0.1764743 -0.18415467 -0.09199973 0.047463458 -0.16618268 0.1694595 0.047408953 0.17077357
-0.058709998 -0.08886453 -0.046605133 0.122489445 -0.011434479 -0.15807568 -0.11322826 -0.020706184
0.2256707 0.08174595 0.039473455 0.15135925 -0.1630635 0.1468852 0.083424985 -0.038179595
0.12007095 0.0048089754 0.0823809 0.121470176 0.23864144 -0.15529647 0.36403987 -0.051460464
-0.09010085 -0.18809657 -0.1345843 -0.103329964 -0.12622681 -0.02479726 0.084776364 0.18899652
-0.025795363 0.008014473 -0.16103403 0.15838373 0.17674057 0.19810797 -0.17171471 -0.10112208
-0.17705 0.12158213 -0.13540086 -0.08131219 0.31140462 -0.12858336 0.32622147 0.15417334
0.17319317 0.06810649 -0.20856528 0.17539975 -0.0019948573 0.038657222 0.06760816 -0.15220913
0.31350347 0.2629183 0.25073323 -0.13178936 0.23818907 0.20811838 -0.06730321 -0.11948902
-0.25650603 -0.27462536 0.10544196 0.07507279 -0.009337235 0.23242803 -0.06693395 -0.11851763
00000000: 4a98 1d3d 6b62 0abd 2c0d b43c be46 9cbc
00000010: 9f0f 16be 0529 cebd a097 63bd fce6 5dbc
00000020: 2143 20be 02fb 79be 5cf0 2b3e 8f92 ccbb
00000030: 8412 c23d e8ab e7bb 7891 1f3e 407a 193e
00000040: b0af ffbb 99db afbd 933b 07be cc91 02be
00000050: 2c1c 50be c655 3a3e 1437 d93d ae8b 88bd
00000060: eb47 063e 1da7 2dbe 13bf 183e d760 ed3d
00000070: e1e0 203e d209 983d eb3b 3abe a397 463e
00000080: 0c5c 6bbe 3fd9 fabd 95a9 fbbc 1b5b 10be
00000090: fa21 d0bd 8c6c 303e 8040 433e 1291 57be
000000a0: 5885 d7bd 6fb7 2e3d 6a7c b0bd 9840 a53d
000000b0: 44d3 babc 244a 8dbd 7898 45be b202 003d
000000c0: 6674 6abd 32b9 1b3e 3588 58bc 04c6 5cbe
000000d0: 0ee2 a2bd d9ba 35be 5228 973b b97a 0f3e
000000e0: 08e6 033e 0142 8e3e 7d47 0dbe 0926 60bd
000000f0: 90f8 f4bd 70f7 9cbd d6cb c1bd ce56 15bc
00000100: 8166 853e 0be6 923d f9ba 64be 7370 903d
00000110: 9290 34be 966c 01be 4407 21be 4c0b d2bd
00000120: d2e6 5dbe de13 36be 7303 513c d7dd 2f3d
00000130: 4ffe a6bd dc80 0f3e 194f 23bd 0d16 7d3d
00000140: 4133 743e b3cd 91bd 1723 6bbe f3ae 08be
00000150: c02a 1cbe 7e8c e8bd f5c4 e43d 6823 dd3d
00000160: 58a4 0bbe 9795 c83d 8b08 98be f466 043e
00000170: d176 593e 9f4d c7bd e469 7abe e541 773d
00000180: 5ce1 52be 007a 99be bed6 57be 8e9b 0b3d
00000190: 0c15 4c3e d5a2 363e 72ed 203d 9139 6cbc
000001a0: 774a 9ebc a978 96be 3d59 5ebe 0cf4 493e
000001b0: d28d b9be 19a8 023e 7a92 89be 8775 0ebe
000001c0: f953 293e f18d 50bd 9669 123d 37c0 39be
000001d0: e2e8 97be ad75 1dbc 0ee1 953d c74d 05be
000001e0: e10a 14be 0ffa ab3d 391d 853c e7db c33c
000001f0: b484 a3bd 9d27 583d 8515 5f3e 15de 7f3e
00000200: b482 e33b 0b95 5c3d ae42 76be 1bb7 643d
00000210: 109a 1d3d 198b ae3c ff7f 96be 817a 02be
00000220: 493c 28be e5ce 8b3e 7fb4 1fbd c5e3 68be
00000230: bbb8 4e3e b9bd 14bd d63b 2a3c 98fa abbb
00000240: cc12 c53c 3969 73be b384 c53d 73b0 a73d
00000250: 87d4 5bbe b4a7 24be d634 a33d 8843 3a3e
00000260: e9af 1a3e d0a7 39bd 7264 c23d a694 c0bd
00000270: 251e 2fbe 4553 4bbe 9351 bebe b5de 79bd
00000280: 0177 15be 35b3 d8bc 5d75 17be 7622 7c3d
00000290: d9f1 dabd 5349 4fbe 240f 2c3e 7478 74be
000002a0: 7226 a53d b47c 283e b4b4 5abc 751d 46bc
000002b0: 3760 ca3d bf51 f0bc 65af 553e 2f31 59be
000002c0: aeb5 343e 0b93 3cbe 5b6a bcbd 0b69 423d
000002d0: cb2b 2abe cb86 2d3e e42f 423d 44df 2e3e
000002e0: e579 70bd 9bfe b5bd 06e5 3ebd bfdb fa3d
000002f0: ae57 3bbc 97de 21be 38e4 e7bd 04a0 a9bc
00000300: 3816 673e 6c6a a73d ebae 213d ebfd 1a3e
00000310: 1efa 26be 1369 163e b8da aa3d 3562 1cbd
00000320: c2e7 f53d 9c94 9d3b 51b7 a83d 5bc5 f83d
00000330: 6c5e 743e 0a06 1fbe 6f63 ba3e 35c8 52bd
00000340: cb86 b8bd 639c 40be 77d0 09be a99e d3bd
00000350: 9a41 01be a023 cbbc 3b9f ad3d 4e88 413e
00000360: cc50 d3bc 234f 033c 1be6 24be 582f 223e
00000370: 7bfb 343e d1dc 4a3e fbd5 2fbe 1819 cfbd
00000380: 984c 35be 0d00 f93d 86a6 0abe 0187 a6bd
00000390: 6d70 9f3e 5bab 03be 8006 a73e 9edf 1d3e
000003a0: 8d59 313e 6a7b 8b3d 2392 55be fe9b 333e
000003b0: 27bc 02bb 0957 1e3d 2676 8a3d b6dc 1bbe
000003c0: 8783 a03e 3a9d 863e 1b60 803e caf3 06be
000003d0: d6e7 733e fc1c 553e 44d6 89bd a9b6 f4bd
000003e0: c254 83be b29b 8cbe f4f1 d73d c3bf 993d
000003f0: 34fb 18bc 9d01 6e3e ab14 89bd 5fb9 f2bd

4.10.bias f4 [12]
-0.23804772 -0.09206772 0.43825558 0.43139383 0.30690533 0.52864903 0.35235113 0.06501803
-0.21884514 -0.080668874 -0.27275613 -0.080182046
00000000: c8c2 73be 008e bcbd 0963 e03e a7df dc3e
00000010: b222 9d3e 8b55 073f 5e67 b43e 2c28 853d
00000020: f118 60be b935 a5bd b1a6 8bbe 7c36 a4bd

4.12.weight f4 [4, 12]
-0.21865794 -0.08697057 0.39523253 0.6013777 -0.21866798 0.29557055 -0.05216866 -0.12613207
0.17554404 0.26670662 -0.6296954 -0.19869646 0.1698444 -0.35292113 0.19724663 -0.061014783
0.7223592 0.19570555 0.17338136 0.17996089 -0.14232744 -0.29779753 -0.58420855 -0.5431853
-0.3519322 0.12349924 0.22580047 0.5077217 0.43787754 0.66902417 0.62186474 -0.06104655
-0.3538097 -0.20236064 -0.33224323 -0.29130247 -0.016276792 -0.16935372 0.56549156 0.35806042
0.2125551 0.55779123 0.45879158 0.09311818 -0.44910318 -0.2604869 -0.27356377 0.21624285
00000000: dee7 5fbe a01d b2bd eb5b ca3e e4f3 193f
00000010: 80ea 5fbe 0655 973e ceae 55bd c428 01be
00000020: d1c1 333e c58d 883e b833 21bf 1677 4bbe
00000030: b1eb 2d3e 14b2 b4be 05fb 493e a3ea 79bd
00000040: 88ec 383f 0967 483e e28a 313e ab47 383e
00000050: 49be 11be eb78 98be b18e 15bf 310e 0bbf
00000060: 7530 b4be 2bed fc3d 3d38 673e 0dfa 013f
00000070: 7c31 e03e 2b45 2b3f 8732 1f3f f20b 7abd
00000080: 8c26 b5be a137 4fbe c91b aabe 9925 95be
00000090: e856 85bc 106b 2dbe 0ec4 103f b253 b73e
000000a0: 0ba8 593e 68cb 0e3f bbe6 ea3e bfb4 be3d
000000b0: daf0 e5be 8a5e 85be 8d10 8cbe c46e 5d3e

4.12.bias f4 [4]
1.2806034 0.9550864 0.75124425 0.7977356
00000000: d0ea a33f 8b80 743f 8b51 403f 6638 4c3f
