JSP/trained models/Abstracted_state_rwd12.pt (torch_old, 27029 bytes, 14 tensors)

4.0.weight f4 [48, 25]
-0.02310522 0.12519003 0.13459389 0.18286742 0.06437267 0.015845414 -0.020205732 -0.13061953
0.0365004 -0.020949485 0.092034884 0.13667801 0.087451845 0.10253702 -0.027093569 -0.013154578
0.048996087 0.18435259 -0.17572367 0.058557045 -0.026998986 0.124370486 0.103938386 0.1272953
-0.09034324 0.2400507 0.14328806 -0.21172309 0.11589375 0.027007645 -0.15345943 0.16882385
-0.20146808 0.062451717 0.098569594 0.038169317 0.22118378 0.120922714 -0.004863922 0.0051234607
-0.053613998 0.14352442 -0.08145662 0.05350299 0.18685558 -0.14940709 -0.062339365 -0.17033114
0.01849614 0.06590572 0.05296509 0.09509514 -0.07472249 0.12478211 -0.0086201755 -0.12781346
-0.07677415 0.12075079 -0.041963063 -0.044061564 -0.16795836 -0.09285101 -0.096257396 0.13629448
-0.0049177622 -0.1651883 -0.13897368 -0.16146122 -0.07065395 -0.11050483 -0.10910992 -0.18588276
0.028848687 -0.077341475 0.08932897 0.08627355 -0.0609007 -0.20085919 -0.14067043 0.15919857
-0.054148737 0.00038628682 -0.061877336 -0.055195056 -0.04983188 -0.11510363 -0.026780697 -0.06570925
0.10285016 -0.014046153 0.11724265 -0.14990544 0.12955362 0.051035497 0.14511845 -0.04621121
-0.1619872 0.1988407 -0.18445952 0.19723898 -0.1859477 -0.035472114 -0.1311437 -0.11143609
0.065576985 -0.01728234 -0.17210303 -0.03483762 0.0020490226 0.14157179 0.053225365 0.080733955
-0.1790366 -0.09684173 -0.02821166 -0.104298875 -0.12978086 -0.1845736 -0.14050764 0.06057702
-0.075753644 -0.087307096 -0.16710134 0.105213515 -0.20766976 0.0705514 -0.12849015 -0.12020703
0.05927523 0.0049064416 -0.103510864 -0.19018957 -0.14296363 -0.17710246 -0.128869 0.1740019
0.005074966 -0.04830084 0.042503517 0.16674182 0.08334593 0.17212923 0.13228576 0.1097793
0.10431548 0.13776872 -0.08794707 0.04267271 -0.097209185 0.07860533 0.20190613 0.1856886
0.090609595 0.12244139 0.036132604 0.1137114 0.032350987 0.03221511 -0.19319068 -0.05952155
-0.10452958 -0.10206741 0.15158407 -0.09672639 0.008721976 0.035166655 0.121177696 -0.10858195
-0.09362626 -0.06439222 -0.15885393 0.14047252 0.17309465 -0.16479412 -0.15021893 -0.07925955
-0.12488866 0.08962127 0.110430576 -0.03330897 -0.034144595 -0.083571434 0.07382704 -0.16165319
-0.0892751 -0.11367499 -0.09866481 -0.029139861 -0.023247806 -0.10103775 0.009082184 0.053781725
-0.19229259 -0.12832336 -0.12511526 0.05185782 0.05844816 0.10746051 -0.15887262 -0.100364715
0.16466491 0.17944695 -0.17695446 -0.105406664 0.040904023 0.1814192 -0.11421279 0.1442742
0.06936254 -0.17487979 0.16943744 0.012761732 0.0060886536 -0.03507349 -0.18940736 0.18827862
-0.038564555 0.10920247 -0.06899332 0.0104491 -0.19256738 -0.033655334 -0.100196674 0.123482406
-0.03640324 0.12288633 -0.035719838 0.12216581 -0.18509677 0.054098032 0.019488348 0.112496585
-0.14322798 0.1531328 -0.15936601 0.027363582 0.0070844283 -0.05713135 -0.09332753 -0.19760393
0.04152472 0.02050544 0.12775958 0.1833644 -0.11090487 -0.1662366 0.03041718 -0.069103375
0.031318314 0.116578504 -0.018367099 0.16049467 0.029122801 -0.030294258 -0.12499888 0.123427145
00000000: 2947 bdbc d131 003e fbd2 093e 9941 3b3e
00000010: d2d5 833d 3ece 813c 7e86 a5bc 20c1 05be
00000020: 7281 153d 419e abbc c97c bc3d 52f5 0b3e
00000030: f419 b33d eefe d13d 55f3 ddbc 4d86 57bc
00000040: 1fb0 483d edc6 3c3e e8f0 33be 83d9 6f3d
00000050: fa2c ddbc f4b5 fe3d a6dd d43d b359 023e
00000060: e005 b9bd dacf 753e 1bba 123e f0cd 58be
00000070: b459 ed3d 233f dd3c 7824 1dbe 29e0 2c3e
00000080: a64d 4ebe 5fcd 7f3d dbde c93d 6e57 1c3d
00000090: 007e 623e 54a6 f73d 8961 9fbb b4e2 a73b
000000a0: 5a9a 5bbd 11f8 123e bad2 a6bd f425 5b3d
000000b0: 1257 3f3e 2cfe 18be 9057 7fbd 496b 2ebe
000000c0: 3885 973c 94f9 863d ecf1 583d 3ec1 c23d
000000d0: 1b08 99bd c38d ff3d a33b 0dbc 88e1 02be
000000e0: c43b 9dbd 314c f73d 76e1 2bbd e679 34bd
000000f0: 47fd 2bbe ac28 bebd 9922 c5bd c890 0b3e
00000100: 2e25 a1bb 1f27 29be 1e4f 0ebe 1756 25be
00000110: 05b3 90bd 5b50 e2bd 0675 dfbd 0d58 3ebe
00000120: 1554 ec3c 3565 9ebd 1bf2 b63d 30b0 b03d
00000130: 0373 79bd 08ae 4dbe e90b 10be f304 233e
00000140: 11cb 5dbd 8a86 ca39 1773 7dbd 3614 62bd
00000150: 831c 4cbd 74bb ebbd 3163 dbbc 9292 86bd
00000160: 1ba3 d23d d621 66bc ea1c f03d d080 19be
00000170: b4a9 043e 990a 513d ee99 143e f747 3dbd
00000180: f9df 25be e59c 4b3e f5e2 3cbe 04f9 493e
00000190: 1369 3ebe 354b 11bd 894a 06be 9b38 e4bd
000001a0: 3a4d 863d b293 8dbc c73b 30be e4b1 0ebd
000001b0: e548 063b 32f8 103e d702 5a3d d857 a53d
000001c0: 5f55 37be f554 c6bd 241c e7bc a69a d5bd
000001d0: 46e5 04be dd00 3dbe 3ce1 0fbe 9c1f 783d
000001e0: ba24 9bbd 10ce b2bd 9d1c 2bbe 2f7a d73d
000001f0: 62a7 54be 417d 903d ec92 03be 1a2f f6bd
00000200: 95ca 723d 37c6 a03b 81fd d3bd 0ec1 42be
00000210: 0f65 12be 595a 35be 3cf6 03be 8e2d 323e
00000220: e64b a63b 1ad7 45bd 2b18 2e3d 5ebe 2a3e
00000230: 45b1 aa3d a542 303e eb75 073e f8d3 e03d
00000240: 5ba3 d53d 3e13 0d3e 981d b4bd 94c9 2e3d
00000250: 9c15 c7bd d5fb a03d 7bc0 4e3e 2725 3e3e
00000260: 8691 b93d 8dc2 fa3d c8ff 133d 86e1 e83d
00000270: 7882 043d fef3 033d c7d3 45be decc 73bd
00000280: 9b13 d6bd b808 d1bd db38 1b3e 7c18 c6bd
00000290: 9ee6 0e3c e90a 103d 032c f83d 3760 debd
000002a0: 20bf bfbd 11e0 83bd 9baa 22be 07d8 0f3e
000002b0: b93f 313e cabf 28be fed2 19be d552 a2bd
000002c0: a0c5 ffbd 5b8b b73d 6d29 e23d fd6e 08bd
000002d0: 34db 0bbd 8027 abbd a232 973d 6a88 25be
000002e0: ddd5 b6bd 6fce e8bd c710 cabd b8b6 eebc
000002f0: 2f72 bebc e1ec cebd 71cd 143c 3a4a 5c3d
00000300: 59e8 44be 3367 03be 371e 00be de68 543d
00000310: 5667 6f3d 4214 dc3d 81af 22be 048c cdbd
00000320: eb9d 283e f1c0 373e 8d33 35be 73df d7bd
00000330: fa8a 273d f4c5 393e 65e8 e9bd 9ebc 133e
00000340: f30d 8e3d b013 33be 0281 2d3e 9516 513c
00000350: 5483 c73b 38a9 0fbd 01f4 41be 1ccc 403e
00000360: def5 1dbd 8ba5 df3d 5f4c 8dbd b432 2b3c
00000370: 6230 45be 2dda 09bd ea33 cdbd 58e4 fc3d
00000380: 901b 15bd d4ab fb3d f74e 12bd 1132 fa3d
00000390: 028a 3dbe e695 5d3d 07a6 9f3c 9c64 e63d
000003a0: 5baa 12be d8ce 1c3e d830 23be 9729 e03c
000003b0: 7e24 e83b 9002 6abd 8122 bfbd af58 4abe
000003c0: d315 2a3d 06fb a73c 68d3 023e e1c3 3b3e
000003d0: 1822 e3bd ed39 2abe 732d f93c 1286 8dbd
000003e0: a247 003d b6c0 ee3d 9976 96bc b758 243e
000003f0: f192 ee3c aa2b f8bc 6aff ffbd 5fc7 fc3d

4.0.bias f4 [48]
0.06401026 0.039581835 -0.1895797 0.12770094 0.1748156 -0.12210206 0.17170443 -0.031229423
0.070919864 -0.14139235 -0.047720533 0.07431944 0.09239538 0.18618622 -0.0033998499 -0.08220442
0.076199144 -0.0056780833 -0.15236962 -0.03755503 -0.1826411 0.102440275 -0.1286897 -0.093445204
-0.13272095 0.06547412 -0.03898056 -0.05407163 0.11197776 0.15854761 -0.20604394 -0.13973683
-0.1601873 0.045626655 0.10673892 -0.16904819 0.069497414 -0.13678303 -0.12949695 -0.065849535
-0.008523375 -0.13704887 -0.050957926 -0.09668295 0.12176168 0.08216187 0.056720644 0.16995363
00000000: d017 833d 9020 223d 2e21 42be 09c4 023e
00000010: dc02 333e a510 fabd 49d3 2f3e d9d4 ffbc
00000020: 6f3e 913d 28c9 10be 9b76 43bd ca34 983d
00000030: ca39 bd3d 9aa7 3e3e 04d0 5ebb ca5a a8bd
00000040: 4c0e 9c3d 370f babb c806 1cbe 4ed3 19bd
00000050: 4506 3bbe 35cc d13d 3cc7 03be 3360 bfbd
00000060: 00e8 07be 4c17 863d 14aa 1fbd 377a 5dbd
00000070: 9954 e53d 4e5a 223e 2ffd 52be 2c17 0fbe
00000080: 2408 24be 04e3 3a3d ef99 da3d f81a 2dbe
00000090: a954 8e3d da10 0cbe d99a 04be 1fdc 86bd
000000a0: a0a5 0bbc 8a56 0cbe 42b9 50bd b601 c6bd
000000b0: 305e f93d 7c44 a83d e853 683d 5308 2e3e

4.2.weight f4 [36, 48]
-0.023758875 0.115395136 -0.13433558 -0.010358515 0.105234705 0.005716374 -0.12993906 0.0026051428
-0.035748422 -0.09015198 0.007971838 0.0016176583 -0.046510708 0.044420853 0.12050119 -0.107318304
-0.1126617 -0.04316377 -0.0909172 0.12245516 -0.051782954 0.08811192 0.07341016 0.044037398
0.04520565 -0.044796973 0.10829616 0.013140687 0.07453552 -0.060877163 0.04341845 0.00071912963
-0.11266783 -0.13747014 0.0621749 -0.13079417 0.11696972 -0.008226831 -0.12613949 -0.12801038
0.13463391 -0.077462494 -0.13392095 -0.099547744 -0.014385859 -0.07067996 -0.041237023 0.056452565
-0.087179735 -0.016403211 0.12975629 -0.107765414 -0.040367752 -0.11428227 -0.13020238 0.004293427
-0.010610847 0.07348218 0.12645675 -0.047800094 0.059897125 -0.01461351 -0.08568353 0.10445622
-0.06548403 0.012248346 -0.1141491 -0.13830224 0.07061922 0.101162836 -0.13726221 0.027671939
0.06258768 -0.056460522 0.12793417 -0.0196568 0.11804632 0.11977443 -0.077329665 0.12799801
0.11603112 -0.03942422 0.12699002 -0.071611874 0.07295409 -0.096723 -0.034576654 0.006165048
0.14459449 0.0100161135 0.07745467 -0.025374774 -0.06183362 -0.012973447 0.020081818 -0.05140204
-0.09727863 -0.110420085 -0.022208644 0.1332357 -0.009281753 0.07622259 0.070749015 0.14243165
0.11242774 0.059220925 -0.03830887 -0.107278965 0.04936976 -0.1415913 0.11588082 -0.015163173
-0.10090593 0.03350103 -0.12992334 -0.10394814 -0.0538619 0.1084317 0.020181494 -0.13466373
-0.021931728 0.015858524 0.14343713 -0.079413906 -0.11603749 0.08094849 -0.04108844 -0.10927013
0.043829683 0.024220068 0.10773941 0.030532144 -0.11993742 -0.06662999 -0.12429259 0.019849068
0.06813376 -0.08356316 -0.011806933 0.12141149 -0.12256335 0.078402385 0.08518203 0.049523126
-0.059162393 0.103767 0.13694648 0.08508462 0.0088210935 0.027226241 0.09662448 -0.033656303
0.12070353 0.003534748 0.083987325 0.10697983 -0.0127546955 0.061772812 0.092446536 -0.14532936
-0.12355527 -0.10308054 -0.11725608 0.06669842 0.12773977 -0.014841982 -0.04552921 0.1724568
0.12420206 -0.16386521 0.011476646 -0.14359298 0.007841624 0.090933196 -0.15371592 -0.07674956
0.065051846 0.038438316 0.08036974 0.049189508 -0.0013364853 0.15426876 0.0050982013 0.029074635
0.034106832 0.051565282 -0.040659647 0.00400648 -0.038565874 0.077013336 0.06300894 0.03396397
-0.008231407 -0.14143324 -0.020870294 -0.07746538 -0.016923998 0.031126322 -0.14441383 0.020627784
-0.050960544 -0.12844858 0.06457049 0.0024493115 -0.058891784 -0.110169366 -0.0024940183 -0.0013588906
0.08712504 0.0075256187 -0.04922907 0.12077217 -0.029071542 -0.06327787 0.036333427 0.029868169
0.0897869 -0.008180477 0.02870831 -0.075311214 0.14653091 0.006699349 0.068634145 -0.12029242
0.08683787 0.09550784 -0.07916786 0.09067357 -0.056755118 0.06147306 0.09159132 -0.060912617
-0.12301759 0.16047557 -0.07217192 -0.0931495 0.046395373 0.002356294 -0.11945102 0.023988437
-0.123313926 0.15562657 -0.14505489 -0.058880277 0.08180351 0.010869406 -0.105422564 0.08133595
0.010134758 0.056366947 -0.055186506 0.036275826 0.08498613 -0.05861716 -0.037738826 -0.061381005
00000000: f9a1 c2bc 4954 ec3d 448f 09be c3b6 29bc
00000010: 4b85 d73d 6c50 bb3b bf0e 05be 0bbb 2a3b
00000020: f06c 12bd 9aa1 b8bd 509c 023c 9b07 d43a
00000030: 0382 3ebd a4f2 353d 54c9 f63d b3c9 dbbd
00000040: 2dbb e6bd 7ecc 30bd cc32 babd c5c9 fa3d
00000050: 5d1a 54bd 0674 b43d 1158 963d 8f60 343d
00000060: 8f29 393d 087d 37bd 61ca dd3d 094c 573c
00000070: 14a6 983d 555a 79bd 8bd7 313d f983 3c3a
00000080: 64be e6bd f9c4 0cbe 1cab 7e3d e8ee 05be
00000090: d28d ef3d d5c9 06bc b62a 01be 2715 03be
000000a0: 79dd 093e a8a4 9ebd 9322 09be b0df cbbd
000000b0: aab2 6bbc a8c0 90bd 27e8 28bd ce3a 673d
000000c0: 4a8b b2bd 0760 86bc d5de 043e 1db4 dcbd
000000d0: a858 25bd d30c eabd c653 05be e0af 8c3b
000000e0: 1ed9 2dbc d37d 963d e17d 013e 08ca 43bd
000000f0: b056 753d 816d 6fbc d97a afbd 25ed d53d
00000100: 7e1c 86bd 49ad 483c 01c7 e9bd 1a9f 0dbe
00000110: cfa0 903d 762e cf3d 778e 0cbe 43b0 e23c
00000120: f82d 803d 2643 67bd 2d01 033e 4c07 a1bc
00000130: 45c2 f13d 4c4c f53d 045f 9ebd e911 033e
00000140: b9a1 ed3d 4a7b 21bd ac09 023e 3fa9 92bd
00000150: f468 953d b516 c6bd 40a0 0dbd 2c04 ca3b
00000160: 9410 143e a01a 243c 8ea0 9e3d c2de cfbc
00000170: 4045 7dbd 958e 54bc a082 a43c f28a 52bd
00000180: 053a c7bd ed23 e2bd e7ee b5bc f06e 083e
00000190: 7e12 18bc 971a 9c3d dce4 903d 9ad9 113e
000001a0: 8440 e63d a491 723d c3e9 1cbd 13b5 dbbd
000001b0: f237 4a3d 4ffd 10be ec52 ed3d f56e 78bc
000001c0: c5a7 cebd 6038 093d a00a 05be c3e2 d4bd
000001d0: 4c9e 5cbd 7011 de3d a953 a53c 4ae5 09be
000001e0: 2baa b3bc bce9 813c 2fe1 123e c2a3 a2bd
000001f0: 10a5 edbd 52c8 a53d 5a4c 28bd 05c9 dfbd
00000200: c186 333d 2a69 c63c 7ba6 dc3d 8c1e fa3c
00000210: c0a1 f5bd 4e75 88bd 1d8d febd 839a a23c
00000220: b689 8b3d 2923 abbd de71 41bc 96a6 f83d
00000230: 7e02 fbbd 6e91 a03d eb73 ae3d c3d8 4a3d
00000240: 4454 72bd cb83 d43d b33b 0c3e d840 ae3d
00000250: 5986 103c 9109 df3c 0ee3 c53d 31db 09bd
00000260: 6a33 f73d 3ba7 673b 8c01 ac3d 3e18 db3d
00000270: 12f9 50bc 7d05 7d3d 9c54 bd3d 38d1 14be
00000280: 8c0a fdbd e41b d3bd f523 f0bd 2e99 883d
00000290: 37ce 023e c92b 73bc d67c 3abd 8498 303e
000002a0: a65d fe3d 48cc 27be 8b08 3c3c 0a0a 13be
000002b0: 287a 003c 2f3b ba3d b567 1dbe e02e 9dbd
000002c0: e739 853d 7f71 1d3d e498 a43d f07a 493d
000002d0: 012d afba a1f8 1d3e d00e a73b ee2d ee3c
000002e0: 9bb3 0b3d 1e36 533d bb8a 26bd ca48 833b
000002f0: 40f7 1dbd 2bb9 9d3d d50a 813d ce1d 0b3d
00000300: 06dd 06bc e0d3 10be 2ef8 aabc 2ba6 9ebd
00000310: 32a4 8abc a1fc fe3c 38e1 13be 99fb a83c
00000320: 01bc 50bd 0688 03be 883d 843d a184 203b
00000330: 8338 71bd 7aa0 e1bd af72 23bb cd1c b2ba
00000340: 9d6e b23d 7799 f63b 6ca4 49bd 6657 f73d
00000350: 7127 eebc d497 81bd 5cd2 143d 17ae f43c
00000360: 32e2 b73d 6807 06bc b12d eb3c c43c 9abd
00000370: 330c 163e 3686 db3b 0f90 8c3d df5b f6bd
00000380: 0ed8 b13d 9d99 c33d c222 a2bd 11b3 b93d
00000390: 0e78 68bd 2dcb 7b3d 3b94 bb3d 827f 79bd
000003a0: a5f0 fbbd b553 243e dfce 93bd 2ac5 bebd
000003b0: 1309 3e3d 0e6c 1a3b bda2 f4bd 6683 c43c
000003c0: 038c fcbd 925c 1f3e 4589 14be 722c 71bd
000003d0: 9988 a73d 9815 323c c9e7 d7bd 7693 a63d
000003e0: 420c 263c 07e1 663d 3f0b 62bd f695 143d
000003f0: 350d ae3d 8c18 70bd 0794 1abd a66a 7bbd

4.2.bias f4 [36]
0.021475354 -0.080570236 0.021444404 0.12022206 -0.13246222 0.07856383 -0.10625843 -0.03564241
-0.061922316 0.008512824 0.13096568 -0.11247033 -0.074216574 0.10086348 0.02335702 0.07138085
-0.105839334 -0.0010664829 -0.060489442 -0.008710449 -0.08317122 0.09346658 0.14690387 -0.037864372
0.10716327 -0.040515307 -0.13119635 0.06003781 -0.086976 -0.010412915 0.106248416 -0.050739344
0.043237876 0.078536585 0.12505104 0.18628831
00000000: 15ed af3c 0202 a5bd 2dac af3c fc36 f63d
00000010: 2da4 07be 13e6 a03d 059e d9bd c7fd 11bd
00000020: 41a2 7dbd 5f79 0b3c de1b 063e d856 e6bd
00000030: dcfe 97bd 8391 ce3d 3957 bf3c 2030 923d
00000040: 4bc2 d8bd 3ac9 8bba c7c3 77bd 45b6 0ebc
00000050: ac55 aabd 686b bf3d f86d 163e ac17 1bbd
00000060: 6b78 db3d 61f3 25bd 5658 06be 35ea 753d
00000070: 7920 b2bd ee9a 2abc c598 d93d 0fd4 4fbd
00000080: 331a 313d cad7 a03d 610d 003e 5dc2 3e3e

4.4.weight f4 [36, 36]
0.14005509 -0.045314383 0.07049565 -0.15820338 0.1734714 -0.141587 -0.001886838 -0.13711439
-0.117745586 0.04809075 0.14074245 -0.11466436 -0.082137346 0.03891824 0.10190297 -0.010303264
-0.043383542 0.002179239 0.10982497 -0.08082919 0.13470167 0.14303407 0.07996554 -0.15187797
-0.02377471 -0.04929941 -0.06306262 -0.13930373 0.12485213 0.10087289 -0.06921256 -0.08247904
0.11225859 -0.035675596 -0.063903905 -0.09072414 0.06270732 0.14113696 -0.11158645 0.07923304
0.13356672 -0.11866487 -0.010312287 -0.13435653 0.15233587 -0.021424074 0.15443897 -0.050658092
-0.067007266 0.00027860198 -0.117660776 0.015471961 -0.021136597 -0.1065202 0.15649544 -0.11306638
0.12255478 0.0066012475 0.009028337 0.16139483 -0.093005374 -0.14642604 -0.1302767 -0.121375926
-0.04142638 0.094359554 -0.0750765 0.09137849 0.011594349 0.0010093601 0.037568558 -0.14905402
-0.05393785 -0.123445794 -0.12316191 -0.12536241 0.091710284 -0.085518 0.09413295 0.013337277
0.10186148 -0.04177565 -0.021955019 -0.051893163 -0.0583905 -0.04451958 0.086382315 0.13636577
-0.13175002 0.16354632 -0.1377403 0.08219519 0.11445346 0.11027086 -0.062296644 0.10460834
0.044010613 -0.11611008 0.14530678 -0.041523013 0.04114219 -0.07291119 0.13701583 -0.02749825
0.09703398 0.037140887 0.017611995 0.031527676 0.05821527 -0.020412369 0.14834492 -0.13959065
-0.02402123 -0.08171039 -0.09459322 0.05049521 -0.14583105 -0.16492628 -0.15061393 0.031413358
0.08169699 0.0635695 0.0144537 -0.14622068 0.04712879 0.027533313 0.069333464 0.062681556
0.1449498 0.06592225 -0.086684294 0.101780295 -0.12214163 -0.10025453 -0.14722817 0.05713652
0.11371063 0.023347283 0.09772467 0.04268881 -0.12843625 -0.07119908 0.050619707 -0.13843657
-0.051192008 0.114101395 -0.11800575 0.12427452 -0.1308243 0.141864 0.087976284 0.17005067
0.14287716 -0.014784566 0.07464326 -0.13126202 0.15136763 0.15942293 0.060621016 -0.12688643
0.13953182 -0.014544648 0.05387984 -0.15692896 0.08425408 0.0026221313 0.043209508 0.1296288
0.071301565 -0.15610002 -0.15688168 -0.060044535 0.057740454 -0.19457309 0.08377481 -0.10858585
-0.079525284 0.18091938 -0.06234964 0.081604235 0.06876941 0.06433498 -0.14354904 0.082723565
-0.15953998 0.16547112 0.005232703 0.09939356 0.01090923 0.0743689 0.12978548 -0.07447976
-0.08402903 0.07094958 0.022439856 0.087596595 -0.014163189 0.082937665 -0.023235206 -0.11089135
0.08548418 0.10428234 0.047557358 -0.054642074 0.143564 0.07059736 -0.15215202 -0.06598923
0.0014425131 -0.17180094 0.06811062 -0.0116623435 0.08543615 0.09450198 0.1674991 0.11504071
-0.124587655 -0.0924174 -0.0510253 0.02285552 0.02613281 0.009145941 -0.14980498 0.16497849
-0.0804646 -0.02282291 -0.103537954 0.002021635 -0.044146948 0.11880711 -0.08506941 0.14882094
-0.17745848 0.07817548 -0.15341534 -0.19899711 0.1891606 0.14992087 0.01750047 -0.11164885
-0.0055746776 -0.14512992 -0.18997046 0.087956265 -0.17889331 0.09280032 0.15033159 0.08485899
0.13939597 0.13242172 0.16876435 0.009957065 -0.025987454 -0.08199144 0.04611596 0.04726264
00000000: 9a6a 0f3e 939b 39bd 0660 903d 1100 22be
00000010: 7da2 313e 2ffc 10be c74f f7ba b767 0cbe
00000020: 9924 f1bd cefa 443d ca1e 103e 26d5 eabd
00000030: a037 a8bd bc68 1f3d 81b2 d03d 05cf 28bc
00000040: f1b2 31bd 90d1 0e3b eaeb e03d c689 a5bd
00000050: 3cef 093e 8677 123e f9c4 a33d e685 1bbe
00000060: 2ec3 c2bc 2eee 49bd fa26 81bd a3a5 0ebe
00000070: 79b2 ff3d 7296 ce3d 51bf 8dbd c5ea a8bd
00000080: d5e7 e53d 9320 12bd 0de0 82bd 94cd b9bd
00000090: b26c 803d 3586 103e 7087 e4bd ef44 a23d
000000a0: b7c5 083e 9106 f3bd def4 28bc c294 09be
000000b0: effd 1b3e 8a81 afbc 4025 1e3e dc7e 4fbd
000000c0: 1b3b 89bd 5311 9239 22f8 f0bd 1c7e 7d3c
000000d0: a826 adbc 4327 dabd 5740 203e 598f e7bd
000000e0: 00fe fa3d 474f d83b 97eb 133c b044 253e
000000f0: 9a79 bebd b5f0 15be 4167 05be f193 f8bd
00000100: b5ae 29bd 953f c13d b5c1 99bd a524 bb3d
00000110: 39f6 3d3c 814c 843a 7de1 193d 9ea1 18be
00000120: efed 5cbd 26d1 fcbd 503c fcbd 015f 00be
00000130: 9ad2 bb3d 1024 afbd c7c8 c03d 9884 5a3c
00000140: c09c d03d f21c 2bbd 03db b3bc ed8d 54bd
00000150: e02a 6fbd 2a5a 36bd 36e9 b03d 78a3 0b3e
00000160: 7ae9 06be b078 273e cb0b 0dbe f455 a83d
00000170: 9366 ea3d b0d5 e13d c42a 7fbd e63c d63d
00000180: 7944 343d 1fcb edbd 4dcb 143e 0914 2abd
00000190: b784 283d 7652 95bd e14d 0c3e 0344 e1bc
000001a0: c0b9 c63d 0b21 183d 0847 903c 2a23 013d
000001b0: 2373 6e3d d737 a7bc bbe7 173e daf0 0ebe
000001c0: 2cc8 c4bc c757 a7bd 17ba c1bd 11d4 4e3d
000001d0: bc54 15be 6fe2 28be 8a3a 1abe 4bab 003d
000001e0: c050 a73d ba30 823d 36cf 6c3c e0ba 15be
000001f0: 1e0a 413d 8b8d e13c b4fe 8d3d 305f 803d
00000200: b86d 143e 3f02 873d 8987 b1bd 3072 d03d
00000210: 6425 fabd 3f52 cdbd fbc2 16be fc07 6a3d
00000220: 1ee1 e83d cd42 bf3c df23 c83d 76da 2e3d
00000230: cb84 03be d3d0 91bd 9c56 4f3d 51c2 0dbe
00000240: b6ae 51bd fead e93d 00ad f1bd a483 fe3d
00000250: cef6 05be cc44 113e e92c b43d c321 2e3e
00000260: 644e 123e f73a 72bc 91de 983d 8d69 06be
00000270: 1e00 1b3e c43f 233e be4d 783d 84ee 01be
00000280: 6ee1 0e3e ad4c 6ebc 1bb1 5c3d fcb1 20be
00000290: 678d ac3d 10d8 2b3b 74fc 303d 6abd 043e
000002a0: 8e06 923d afd8 1fbe 97a5 20be 42f1 75bd
000002b0: 4181 6c3d 2b3e 47be 2192 ab3d 4262 debd
000002c0: 27de a2bd ee42 393e 5662 7fbd 1f20 a73d
000002d0: fad6 8c3d 0fc2 833d 85fe 12be f96a a93d
000002e0: 735e 23be 4371 293e 1877 ab3b da8e cb3d
000002f0: a1bc 323c b94e 983d 7ce6 043e d888 98bd
00000300: 6917 acbd 034e 913d cad3 b73c d865 b33d
00000310: b80c 68bc 39db a93d c257 bebc 011b e3bd
00000320: 5412 af3d fb91 d53d 81cb 423d 5ed0 5fbd
00000330: 7102 133e 5995 903d bdcd 1bbe 5d25 87bd
00000340: b512 bd3a 96ec 2fbe 957d 8b3d 6a13 3fbc
00000350: 26f9 ae3d 418a c13d e284 2b3e 779a eb3d
00000360: d027 ffbd 5545 bdbd e8ff 50bd 803b bb3c
00000370: 7a14 d63c dbd8 153c 7a66 19be 1ff0 283e
00000380: a0ca a4bd 1df7 babc b50b d4bd 687d 043b
00000390: 6ed3 34bd 2451 f33d df38 aebd 8464 183e
000003a0: adb7 35be 771a a03d e918 1dbe e6c5 4bbe
000003b0: 51b3 413e db84 193e 255d 8f3c 27a8 e4bd
000003c0: c9ab b6bb f09c 14be 9e87 42be 6a22 b43d
000003d0: cf2f 37be 180e be3d 86f0 193e 8dca ad3d
000003e0: d1bd 0e3e 8f99 073e 90d0 2c3e f522 233c
000003f0: a4e3 d4bc 21eb a7bd 17e4 3c3d 7896 413d

4.4.bias f4 [36]
-0.17226063 -0.14018703 0.022094052 -0.026969774 0.0678634 0.19418514 0.057008374 0.12105528
0.068952896 -0.054265447 -0.028127115 -0.043779936 0.16743737 0.049693808 -0.1393212 0.16165608
0.08816461 0.12476566 -0.21930012 0.064334765 -0.18413949 -0.076908074 -0.019313416 -0.01473926
-0.17896608 -0.0833542 -0.16322726 -0.07290533 -0.024165051 -0.12322198 0.058081556 -0.065902345
-0.029284483 0.069514446 -0.05542023 0.17525034
00000000: 1765 30be 308d 0fbe 96fe b43c b7ef dcbc
00000010: f7fb 8a3d 78d8 463e 9d81 693d d5eb f73d
00000020: 2d37 8d3d 7245 5ebd d66a e6bc 9752 33bd
00000030: b474 2b3e bc8b 4b3d 37aa 0ebe 2c89 253e
00000040: a68f b43d 2385 ff3d 3690 60be f2c1 833d
00000050: 108f 3cbe fb81 9dbd 2b37 9ebc f07c 71bc
00000060: e242 37be 9bb5 aabd 0c25 27be 644f 95bd
00000070: c9f5 c5bc ce5b fcbd ede6 6d3d cff7 86bd
00000080: 03e6 efbc 975d 8e3d 5300 63bd d374 333e

4.6.weight f4 [24, 36]
0.06333415 -0.005451462 0.09614297 -0.14175394 0.10233508 0.11672589 0.13715763 0.1283499
-0.082115375 0.05110631 0.00061330874 -0.09447309 -0.083100304 -0.08381171 -0.16083659 0.042839877
0.09574735 0.0272563 0.11439982 0.11625651 -0.1111059 -0.12401314 0.100535974 0.13104281
-0.018268296 -0.10171898 0.048053447 -0.112569936 -0.07725044 -0.09030477 0.068082124 -0.15365475
-0.09244413 0.11938543 0.019273993 -0.07063715 0.18339302 0.079360716 0.12102616 0.03422938
-0.12129969 -0.16765098 -0.059732355 -0.007622264 -0.035466474 0.12520762 0.07670706 -0.05892444
0.027239578 0.030715981 0.13753816 -0.07942457 -0.16347112 -0.17298815 0.1823571 -0.1076895
0.13561362 0.0026172125 -0.015190272 0.07318894 0.13097036 -0.17724931 -0.034754984 -0.093074635
0.1671285 0.12842967 0.09502602 0.08302791 -0.15967418 0.16736864 -0.08783453 0.12207173
-0.18368813 0.1501374 0.10704951 -0.0785023 0.22867626 -0.02999737 0.15507841 0.0822271
-0.006551633 0.14531408 0.0016840571 0.1327814 -0.071025945 -0.07656126 -0.15438181 0.15156446
-0.095845945 0.070382655 -0.14641006 -0.13468513 -0.15257192 0.056118615 -0.0126956515 -0.022793237
-0.15884572 0.0808859 -0.19723211 0.17935844 -0.17463152 -0.051099308 -0.14283381 -0.114963025
-0.01619933 0.10220302 0.18098839 0.068715535 -0.1239457 0.015782578 0.0814502 -0.009481647
0.003735791 -0.13359752 -0.11462935 0.04981842 -0.12423263 -0.039044224 -0.14163606 0.023305964
0.031674348 0.12748234 0.10369736 -0.03258852 -0.16801324 -0.14727543 0.20679535 -0.06201329
0.09480411 0.09205847 0.09587879 -0.13584018 0.1757321 -0.11408108 0.054883175 0.019016398
-0.14576578 0.16782025 0.12165131 0.14524671 0.14994176 0.18296352 0.13201508 -0.02365896
-0.06317052 0.14861561 0.10338277 0.01469044 0.07860458 0.18498564 0.12307014 0.170225
-0.10654034 0.073019885 0.091400936 -0.09031285 0.057022322 -0.18548311 0.11360208 -0.13819075
-0.020473385 0.17341182 -0.1539325 -0.0974601 -0.11382879 -0.0041844407 0.1092292 0.11913874
-0.0987701 -0.06199773 -0.08260428 0.021099038 0.12614593 0.08699037 0.037927616 0.17194812
-0.06862191 -0.18625104 0.06545003 0.13947369 -0.07228169 -0.14857431 0.045045786 -0.14724675
-0.0018812666 -0.18202166 -0.17430337 -0.16465417 0.05325696 -0.16679741 -0.012580099 0.06984611
-0.07024529 -0.037023365 0.090758 -0.11305954 -0.13957186 0.09094388 0.14101097 0.10663736
0.16182984 -0.07845537 -0.1297511 -0.023921961 0.003388868 -0.18352374 0.18045725 0.008709507
-0.14702748 0.16959493 0.048118472 -0.08609203 -0.053418506 0.098616466 0.11265784 -0.16450962
-0.005837177 0.0662379 0.14821813 0.18395095 -0.07924154 -0.17570342 -0.19307375 -0.15678047
-0.15786345 0.02409099 -0.10570672 -0.0694454 0.09055934 0.181339 -0.09984221 0.049363285
0.046299912 -0.15731354 0.13570866 0.03515992 0.1517239 -0.124251194 0.1549213 -0.08472661
0.12216111 0.058431383 0.15198724 -0.08908569 -0.021756016 0.02421517 -0.07150665 -0.060469694
-0.10731043 0.07410031 -0.005605356 -0.13074201 0.04291938 -0.11266056 0.07860747 0.015328551
00000000: 56b5 813d 2ea2 b2bb 9be6 c43d f227 11be
00000010: 0e95 d13d fc0d ef3d 0d73 0c3e 286e 033e
00000020: 1b2c a8bd da54 513d 74c6 203a 1b7b c1bd
00000030: 7e30 aabd 79a5 abbd 59b2 24be de78 2f3d
00000040: 3017 c43d 9b48 df3c 744a ea3d e517 ee3d
00000050: 7d8b e3bd 9afa fdbd cee5 cd3d 1630 063e
00000060: 65a7 95bc 0a52 d0bd b1d3 443d 118b e6bd
00000070: 7b35 9ebd b5f1 b8bd a46e 8b3d ac57 1dbe
00000080: 5953 bdbd 5980 f43d 7ee4 9d3c 36aa 90bd
00000090: 61cb 3b3e df87 a23d 90dc f73d 1b34 0c3d
000000a0: f96b f8bd b3ac 2bbe eaa9 74bd 2fc4 f9bb
000000b0: 4b45 11bd 6d36 003e 9718 9d3d c15a 71bd
000000c0: 8925 df3c 15a0 fb3c ced6 0c3e 59a9 a2bd
000000d0: f964 27be ce23 31be d2bb 3a3e 508c dcbd
000000e0: 4cde 0a3e 8a85 2b3b 9ee0 78bc 15e4 953d
000000f0: 181d 063e d880 35be 3e5b 0ebd ea9d bebd
00000100: bc23 2b3e 1183 033e 019d c23d 890a aa3d
00000110: a181 23be af62 2b3e 97e2 b3bd be00 fa3d
00000120: be18 3cbe 9ebd 193e c63c db3d d0c5 a0bd
00000130: 1c2a 6a3e 0bbd f5bc e0cc 1e3e af66 a83d
00000140: 15af d6bb 37cd 143e 94bb dc3a d9f7 073e
00000150: 0d76 91bd 26cc 9cbd 4416 1ebe b733 1b3e
00000160: e14a c4bd c824 903d 85ec 15be e6ea 09be
00000170: d03b 1cbe a2dc 653d 6c01 50bc e2b8 babc
00000180: 74a8 22be 82a7 a53d 37f7 49be bda9 373e
00000190: 9bd2 32be 824d 51bd 0743 12be bc71 ebbd
000001a0: 75b4 84bc d14f d13d 0555 393e bbba 8c3d
000001b0: 3ed7 fdbd 774a 813c 5dcf a63d e958 1bbc
000001c0: 2cd4 743b cacd 08be cbc2 eabd 660e 4c3d
000001d0: ad6d febd d6ec 1fbd 0b09 11be 26ec be3c
000001e0: f6bc 013d bb8a 023e 485f d43d 8a7b 05bd
000001f0: aa0b 2cbe 5fcf 16be 29c2 533e a601 7ebd
00000200: a828 c23d 2789 bc3d 195c c43d b019 0bbe
00000210: 1ef3 333e 57a3 e9bd 2ecd 603d 47c8 9b3c
00000220: a043 15be 12d9 2b3e 5224 f93d 8ebb 143e
00000230: 558a 193e ca5a 3b3e f62e 073e 6fd0 c1bc
00000240: 8c5f 81bd b12e 183e 59ba d33d 2cb0 703c
00000250: 70fb a03d e06c 3d3e 330c fc3d 764f 2e3e
00000260: d231 dabd 738b 953d 6a30 bb3d f2f5 b8bd
00000270: 3d90 693d 49ef 3dbe 35a8 e83d e081 0dbe
00000280: cdb7 a7bc de92 313e 7ba0 1dbe 2999 c7bd
00000290: 121f e9bd a21d 89bb 8fb3 df3d 03ff f33d
000002a0: fa47 cabd 55f1 7dbd 6f2c a9bd e4d7 ac3c
000002b0: 662c 013e 0228 b23d fd59 1b3d 2b13 303e
000002c0: a589 8cbd 98b8 3ebe aa0a 863d 31d2 0e3e
000002d0: 6c08 94bd dd23 18be ee81 383d dac7 16be
000002e0: d594 f6ba e363 3abe 957c 32be 1a9b 28be
000002f0: f823 5a3d f1cc 2abe c21c 4ebc 7a0b 8f3d
00000300: c3dc 8fbd d0a5 17bd 55df b93d c38b e7bd
00000310: edeb 0ebe c940 ba3d 2e65 103e b064 da3d
00000320: b9b6 253e 36ad a0bd 79dd 04be fdf7 c3bc
00000330: c517 5e3b a6ed 3bbe c9c9 383e 52b2 0e3c
00000340: 5f8e 16be 4baa 2d3e e017 453d 0551 b0bd
00000350: 5dcd 5abd 6ef7 c93d 27b9 e63d 3675 28be
00000360: ca45 bfbb bca7 873d 7ec6 173e a35d 3c3e
00000370: 6349 a2bd 99eb 33be 20b5 45be 0f8b 20be
00000380: f5a6 21be 785a c53c c47c d8bd 6439 8ebd
00000390: 2d77 b93d eeb0 393e 137a ccbd 2831 4a3d
000003a0: faa4 3d3d cd16 21be 36f7 0a3e d903 103d
000003b0: 835d 1b3e 6977 febd b0a3 1e3e 2585 adbd
000003c0: 9b2f fa3d bf55 6f3d 8ba2 1b3e 8f72 b6bd
000003d0: ac39 b2bc e45e c63c 1472 92bd 12af 77bd
000003e0: 92c5 dbbd e7c1 973d 22ad b7bb 3ce1 05be
000003f0: 3bcc 2f3d 94ba e6bd f4fc a03d 9a24 7b3c

4.6.bias f4 [24]
-0.040586323 -0.058630284 0.09948757 -0.03835032 0.18864834 0.0017031335 -0.06860217 0.017061092
-0.033037342 -0.06070792 -0.15701145 -0.29431447 -0.08077639 0.13413392 0.18166044 -0.18655391
0.03910749 0.08376892 -0.18893565 -0.029693367 0.109463066 0.21366186 -0.0043142303 -0.017177366
00000000: d83d 26bd 4f26 70bd 24c0 cb3d 3a15 1dbd
00000010: 082d 413e ad3b df3a 4b7f 8cbd b4c3 8b3c
00000020: 2a52 07bd dea8 78bd 9cc7 20be 63b0 96be
00000030: 186e a5bd 675a 093e 3205 3a3e fd07 3fbe
00000040: 2d2f 203d 0a8f ab3d 5978 41be 813f f3bc
00000050: 2c2e e03d 2dca 5a3e 635e 8dbb 8cb7 8cbc

4.8.weight f4 [24, 24]
0.08857472 0.13510124 -0.18504365 0.13837205 0.018528664 -0.14921314 -0.0028471493 0.22803876
0.19248511 0.006674926 0.12044178 -0.0024688384 0.19373219 0.023878166 -0.18407404 -0.13227655
0.056175202 0.042404577 0.16628529 0.10281404 0.17286323 -0.21530116 -0.16348849 0.061195496
-0.056725267 0.052102048 -0.2026865 0.08032273 -0.20126957 0.005055787 0.15454142 0.13631973
-0.00429707 -0.012541914 -0.04549206 -0.07611656 0.00984745 -0.14152217 0.0763932 0.2056842
-0.053232 0.050819788 0.11452935 0.052460857 -0.15777978 0.08283568 -0.20840792 -0.09065365
-0.048736535 -0.01205101 0.17162469 0.021953795 0.16557957 -0.23850703 -0.23201697 -0.19213407
0.024713969 -0.09246728 0.13427253 0.0429466 0.16300039 0.14964072 0.09488966 0.10404518
-0.1753498 0.00307268 0.005661644 0.031016646 0.15602647 0.1448924 -0.12158336 0.14176084
0.19132665 0.091203414 -0.052058075 -0.06992868 -0.017441746 0.22353709 -0.1116541 0.16321355
0.04316532 0.08319725 0.12823483 0.19360399 0.08034295 0.11839855 -0.1814514 0.09883153
0.11175479 -0.199116 0.059144616 -0.124208406 0.008444737 -0.08150532 -0.09939128 -0.16183324
-0.045392 -0.21440206 0.12245863 -0.16702813 0.025885005 -0.09886962 -0.15678787 -0.23520923
-0.20412624 0.07218428 -0.08345733 -0.16417646 -0.0659911 0.19777118 0.2217777 -0.021670023
-0.17040177 0.117499985 -0.19196066 -0.011469476 -0.018114727 0.21347253 0.03802871 -0.083342776
0.15423408 0.21617109 -0.2608935 0.10463956 0.06391839 0.18294173 0.043772846 0.23631525
0.040454 0.16335994 0.07479073 0.07413878 -0.05276951 -0.0778312 0.047937464 -0.115131594
-0.19118339 -0.053627256 0.123931386 0.05938667 -0.046681076 -0.2421684 0.007948355 -0.16302748
-0.055146392 0.08211536 -0.14467746 -0.179081 -0.13898441 0.11987926 0.14610207 -0.04394795
-0.14930938 -0.13614407 0.1992456 -0.16312559 0.14671628 -0.07344415 -0.016112726 -0.034641452
-0.13653661 0.053434342 0.12453584 0.043522466 -0.15454914 -0.22890672 -0.16225518 0.20157209
0.035449393 -0.014616101 -0.06896858 0.23537897 -0.21450253 0.09618369 -0.01901401 0.16301464
0.19555236 0.040093895 0.06886006 0.15506937 -0.17766908 -0.23896049 -0.22421503 0.1323876
0.10277904 0.07133121 0.034376983 0.16368562 -0.1901731 -0.24527293 -0.018947018 0.01847194
0.08097114 0.1667949 -0.0031548636 0.20334733 -0.22686353 -0.14347865 0.2280536 0.13331503
-0.15127644 -0.08782421 0.17944159 -0.001641713 -0.049945123 0.08857132 -0.18152604 0.2028484
0.06458657 -0.007975329 0.16184454 -0.19397359 -0.09857261 -0.058161177 -0.12687694 0.04340295
0.03663871 -0.07110993 -0.15496565 -0.03479213 0.06443486 0.041452363 0.2269897 0.17903447
0.12892026 0.0678356 0.059984688 0.24698532 -0.063401125 0.019587988 -0.01768122 -0.09874485
-0.077562846 -0.13985506 0.15491995 -0.15381758 -0.20699562 -0.017721172 0.059396423 0.15141673
-0.10822552 0.112235114 -0.15314747 -0.043016672 -0.14550915 0.03627897 -0.116595276 0.12737152
0.10808596 0.15190649 0.04486994 -0.05024407 -0.13130113 0.08034249 -0.043594096 0.01753271
00000000: aa66 b53d fb57 0a3e 157c 3dbe 67b1 0d3e
00000010: 6dc9 973c 54cb 18be 3d97 3abb fe82 693e
00000020: d11a 453e 56b9 da3b 2eaa f63d 3ccc 21bb
00000030: bb61 463e 259c c33c e87d 3cbe 8173 07be
00000040: f817 663d 6cb0 2d3d b146 2a3e 2b90 d23d
00000050: 0f03 313e e877 5cbe 8769 27be 21a8 7a3d
00000060: c158 68bd f568 553d 0d8d 4fbe 3e80 a43d
00000070: 9c19 4ebe 04ab a53b 1b40 1e3e 6697 0b3e
00000080: 70ce 8cbb 9a7c 4dbc e255 3abd 00e3 9bbd
00000090: 3357 213c 30eb 10be 0a74 9c3d e19e 523e
000000a0: cc09 5abd 6928 503d 5d8e ea3d 32e1 563d
000000b0: 0691 21be c1a5 a93d e368 55be 9fa8 b9bd
000000c0: f69f 47bd 9971 45bc 62be 2f3e 72d8 b33c
000000d0: b18d 293e 303b 74be db95 6dbe cbbe 44be
000000e0: f374 ca3c 7c5f bdbd bd7e 093e c6e8 2f3d
000000f0: 93e9 263e 6b3b 193e 8355 c23d a415 d53d
00000100: e68e 33be 045f 493b 5085 b93b 9f16 fe3c
00000110: 67c5 1f3e ac5e 143e b200 f9bd c129 113e
00000120: 22eb 433e dbc8 ba3d d93a 55bd c536 8fbd
00000130: fee1 8ebc e8e6 643e e8aa e4bd 7421 273e
00000140: 1ece 303d 5263 aa3d fe4f 033e 2040 463e
00000150: d88a a43d f07a f23d 65ce 39be 2f68 ca3d
00000160: b2df e43d 11e5 4bbe a041 723d fa60 febd
00000170: cb5b 0a3c 43ec a6bd a88d cbbd 9db7 25be
00000180: f6ec 39bd 378c 5bbe 97cb fa3d 6c09 2bbe
00000190: ca0c d43c 287c cabd 008d 20be b0da 70be
000001a0: 7806 51be 5ad5 933d adeb aabd e01d 28be
000001b0: 5826 87bd 8784 4a3e b219 633e 5585 b1bc
000001c0: cd7d 2ebe d5a3 f03d 5691 44be 78ea 3bbc
000001d0: 5665 94bc 8b98 5a3e fec3 1b3d 9eaf aabd
000001e0: 8aef 1d3e f45b 5d3e d593 85be 444d d63d
000001f0: a5e7 823d 1455 3b3e 284b 333d a0fc 713e
00000200: 18b3 253d d447 273e e22b 993d 13d6 973d
00000210: d724 58bd f765 9fbd 135a 443d 1dca ebbd
00000220: 94c5 43be 41a8 5bbd bdcf fd3d 703f 733d
00000230: a834 3fbd fefa 77be d139 023c adf0 26be
00000240: 2fe1 61bd 192c a83d 5426 14be 0261 37be
00000250: ee51 0ebe 4283 f53d c89b 153e c402 34bd
00000260: 8fe4 18be 5a69 0bbe 0a07 4c3e 650a 27be
00000270: cb3c 163e e369 96bd d6fe 83bc 32e4 0dbd
00000280: 41d0 0bbe f8dd 5a3d a50c ff3d 9d44 323d
00000290: 2142 1ebe 8666 6abe 3926 26be ea68 4e3e
000002a0: 6233 113d 5f78 6fbc 663f 8dbd 2f07 713e
000002b0: 8da6 5bbe f4fb c43d 45c3 9bbc 4fed 263e
000002c0: e13e 483e 7f39 243d 8106 8d3d 81ca 1e3e
000002d0: e2ee 35be 0fb2 74be a098 65be 9d90 073e
000002e0: d17d d23d 1916 923d e1ce 0c3d 349d 273e
000002f0: bdbc 42be d428 7bbe c736 9bbc 7752 973c
00000300: 32d4 a53d 48cc 2a3e d4c1 4ebb 483a 503e
00000310: ea4e 68be 11ec 12be e286 693e bc83 083e
00000320: 36e8 1abe 2edd b3bd 89bf 373e bf2e d7ba
00000330: 4293 4cbd e164 b53d f6e1 39be 7eb7 4f3e
00000340: f745 843d f4aa 02bc 93ba 253e 03a1 46be
00000350: 70e0 c9bd 6a3a 6ebd 07ec 01be 4bc7 313d
00000360: 7912 163d 15a2 91bd 51af 1ebe 3182 0ebd
00000370: 6df6 833d f4c9 293d fd6f 683e d054 373e
00000380: ac03 043e 64ed 8a3d 81b2 753d b8e9 7c3e
00000390: 73d8 81bd fd76 a03c 35d8 90bc bd3a cabd
000003a0: 45d9 9ebd 2a36 0fbe 56a3 1e3e 5b82 1dbe
000003b0: a9f6 53be fe2b 91bc aa49 733d fd0c 1b3e
000003c0: 57a5 ddbd 86db e53d b1d2 1cbe 4032 30bd
000003d0: 5a00 15be 4299 143d 81c9 eebd ae6d 023e
000003e0: 2c5c dd3d 608d 1b3e 8bc9 373d bacc 4dbd
000003f0: ce73 06be 9a8a a43d b98f 32bd c2a0 8f3c

4.8.bias f4 [24]
-0.23762117 -0.35999447 0.29133496 -0.30780956 0.2515704 -0.4323645 0.06888506 -0.15081066
-0.45642292 -0.10713047 -0.07174727 -0.08691288 0.32011852 -0.06516104 0.12117389 0.29320037
-0.22300722 0.22089729 -0.23984322 -0.012117145 -0.21506381 0.051907595 -0.17228375 0.19953364
00000000: f752 73be 3251 b8be db29 953e 3799 9dbe
00000010: d6cd 803e e15e ddbe 9c13 8d3d 1c6e 1abe
00000020: 44b0 e9be 3867 dbbd 3cf0 92bd 61ff b1bd
00000030: 93e6 a33e 2773 85bd 042a f83d 5c1e 963e
00000040: 015c 64be e632 623e 7699 75be fd86 46bc
00000050: b039 5cbe 0f9d 543d 276b 30be 8c52 4c3e

4.10.weight f4 [12, 24]
0.0949842 0.31151712 -0.0009908393 0.18507402 -0.23491675 0.20680724 -0.043985378 0.0062583648
0.21806861 -0.00093613804 -0.039415605 0.14979802 -0.02188957 0.1664682 -0.24360648 -0.17585602
0.042027775 -0.2750825 0.38406947 -0.16316639 -0.086607344 -0.25833678 0.08488676 -0.030673107
-0.31904665 -0.17298496 0.09402606 -0.2295339 0.36444584 -0.3003621 -0.20205276 -0.22519423
-0.03303526 -0.05388412 -0.00085974846 -0.016459843 0.07869258 -0.016714072 0.24035081 0.03195869
-0.12018517 0.03503135 -0.29227668 0.043945737 0.12801209 0.3186694 -0.27803946 0.028761826
0.024313396 0.18914147 -0.2338902 0.012751359 -0.3268284 0.22030279 0.05616014 0.15874857
0.39609587 0.22515598 0.056588165 -0.021871457 -0.15386455 0.12556677 -0.31827557 -0.17917243
0.047767557 -0.085889176 -0.002946553 -0.04457568 0.114335485 -0.028607108 -0.054963414 -0.22603971
-0.2582727 -0.19721617 0.041777134 -0.23147811 0.34246302 -0.31422532 -0.066038206 -0.22385219
-0.20343348 -0.08049049 -0.15517642 -0.0003452517 0.028835779 -0.21326764 0.029150687 0.29594806
-0.12559938 0.057574186 -0.19901818 0.050098147 0.05676778 -0.04037865 -0.2655424 0.15178238
0.011019435 -0.2931469 0.09336449 -0.021092363 0.4052093 -0.06703407 -0.069021255 -0.031286404
-0.374336 -0.035937306 -0.15489236 0.011232791 0.13199274 -0.21650805 0.34852046 0.18064569
-0.07264356 0.1963469 -0.16209206 0.073011555 -0.10359539 0.13152969 0.05530524 0.10778127
-0.2680188 0.014874297 0.31790003 -0.058541413 0.1823251 -0.2254699 0.119361594 -0.06787459
-0.25086907 -0.056642316 -0.21325871 0.024873795 -0.050189495 0.11218174 0.17266762 0.16172785
-0.13442366 0.2777727 -0.16796076 0.28822368 -0.2507389 0.23791945 -0.15500936 0.13318369
-0.28854266 -0.08573976 0.23859029 -0.29605845 0.2735509 -0.31925806 0.11082937 -0.21269944
-0.25734523 -0.20874904 -0.10939507 -0.027547384 0.023559948 -0.23544517 -0.04448445 0.24397844
-0.2635209 0.026048563 -0.10308815 0.18986814 0.13398194 -0.029622646 -0.1498551 0.32968843
0.05719634 0.31422696 -0.22037147 0.16684292 -0.23586474 -0.038408153 0.18161489 0.29705742
0.27725294 0.24900194 -0.09410958 -0.09451611 -0.16782345 -0.026943367 -0.09295668 -0.0011822813
0.09023159 -0.1552748 0.19710386 -0.25445473 0.16880415 -0.24325581 0.2828413 -0.2308668
-0.062098924 0.02567672 0.08571604 -0.2172683 0.22743204 -0.31981236 -0.13346991 -0.26016963
-0.21851918 -0.10700172 0.11484726 0.06806926 0.23745653 -0.22215186 0.30554858 0.058004264
-0.2889576 0.33067784 -0.16710098 -0.056040604 0.044869907 0.12455106 -0.0071784877 0.12971461
0.11276251 -0.030919615 0.004213874 0.21800539 0.01772376 0.30330884 -0.022351565 0.26429617
0.24143751 0.12524287 0.20638807 0.15351443 -0.2181976 0.10194473 -0.0016100782 -0.14570248
0.012239576 -0.1788807 0.33698165 -0.15612815 0.034883715 -0.25068873 0.2696892 -0.31698933
0.22543122 0.08583833 -0.11973805 0.12323522 -0.11606533 0.0006802893 0.17960803 0.26676044
0.31474826 0.15634707 0.10246003 0.062372055 -0.024367746 0.09047006 -0.19333903 0.042962022
00000000: 1487 c23d 2c7f 9f3e 0ddf 81ba 0b84 3d3e
00000010: 048e 70be 47c5 533e 032a 34bd f812 cd3b
00000020: 614d 5f3e 2967 75ba 4272 21bd a764 193e
00000030: c151 b3bc a476 2a3e fa73 79be 9a13 34be
00000040: 5125 2c3d 9dd7 8cbe c1a4 c43e 1715 27be
00000050: 315f b1bd b844 84be 1cd9 ad3d 2b46 fbbc
00000060: 155a a3be f822 31be bc90 c03d ef0a 6bbe
00000070: a598 ba3e 10c9 99be ebe6 4ebe 5199 66be
00000080: fb4f 07bd 98b5 5cbd be60 61ba cbd6 86bc
00000090: 9329 a13d f3eb 88bc 861e 763e 1ee7 023d
000000a0: a423 f6bd 087d 0f3d 4aa5 95be 7200 343d
000000b0: 9a15 033e a328 a33e 305b 8ebe ec9d eb3c
000000c0: e32c c73c 4dae 413e ea80 6fbe 13eb 503c
000000d0: 0d56 a7be 0e97 613e 2d08 663d fc8e 223e
000000e0: 14cd ca3e 4a8f 663e fec8 673d c52b b3bc
000000f0: ab8e 1dbe 9394 003e 04f5 a2be fa78 37be
00000100: eaa7 433d aae6 afbd f51a 41bb fd94 36bd
00000110: b928 ea3d 7459 eabc 5121 61bd f476 67be
00000120: 523c 84be 09f3 49be 801e 2b3d 9908 6dbe
00000130: 5057 af3e 24e2 a0be 0a3f 87bd 8239 65be
00000140: de50 50be 33d8 a4bd 91e6 1ebe e602 b5b9
00000150: 0339 ec3c d562 5abe 6ccd ee3c 8186 973e
00000160: 209d 00be e9d2 6b3d 6ccb 4bbe b733 4d3d
00000170: 5585 683d 1564 25bd 2cf5 87be d76c 1b3e
00000180: dc8a 343c 5a17 96be e235 bf3d e4c9 acbc
00000190: 9877 cf3e 2949 89bd 045b 8dbd 2c26 00bd
000001a0: f8a8 bfbe ff32 13bd 1a9c 1ebe bd09 383c
000001b0: 1b29 073e 49b4 5dbe 4671 b23e 2ffb 383e
000001c0: 26c6 94bd 290f 493e 76fb 25be 1587 953d
000001d0: d229 d4bd b8af 063e bf87 623d 6dbc dc3d
000001e0: c339 89be 53b3 733c cbc3 a23e 1fc9 6fbd
000001f0: 6eb3 3a3e 95e1 66be da73 f43d d501 8bbd
00000200: e971 80be c601 68bd 7e60 5abe 21c4 cb3c
00000210: 8093 4dbd 8abf e53d c8cf 303e fc9b 253e
00000220: 5ba6 09be 3938 8e3e e8fd 2bbe 0e92 933e
00000230: d960 80be 28a1 733e c6ba 1ebe 4e61 083e
00000240: ddbb 93be 5498 afbd 0351 743e f994 97be
00000250: dd0e 8c3e cb75 a3be 82fa e23d e2cd 59be
00000260: c1c2 83be 4fc2 55be 860a e0bd 0dab e1bc
00000270: cb00 c13c 8a18 71be 5435 36bd 7cd5 793e
00000280: 36ec 86be cc63 d53c e11f d3bd cb6c 423e
00000290: 9032 093e 31ab f2bc 9e73 19be eccc a83e
000002a0: b646 6a3d 5be2 a03e 0fa9 61be dfd8 2a3e
000002b0: 8786 71be de51 1dbd 41f9 393e e917 983e
000002c0: 19f4 8d3e 5dfa 7e3e 86bc c0bd aa91 c1bd
000002d0: e9d9 2bbe 56b8 dcbc 1260 bebd c7f6 9aba
000002e0: 57cb b83d 5b00 1fbe 98d5 493e e447 82be
000002f0: ffda 2c3e 0d18 79be 93d0 903e 5968 6cbe
00000300: 715b 7ebd fc57 d23c e48b af3d 957b 5ebe
00000310: f2e3 683e 72be a3be 56ac 08be f434 85be
00000320: 7ec3 5fbe b823 dbbd 0a35 eb3d e567 8b3d
00000330: ce27 733e c77b 63be dd70 9c3e e195 6d3d
00000340: 40f2 93be 9b4e a93e 851c 2bbe d58a 65bd
00000350: 82c9 373d a014 ff3d 8539 ebbb e8d3 043e
00000360: 08f0 e63d 224b fdbc 8a14 8a3b ce3c 5f3e
00000370: 6b31 913c 4c4b 9b3e a11a b7bc d451 873e
00000380: 653b 773e ab3f 003e 6557 533e e332 1d3e
00000390: 316f 5fbe 66c8 d03d 4209 d3ba 0833 15be
000003a0: 8188 483c 812c 37be dc88 ac3e 0fe0 1fbe
000003b0: 3ae2 0e3d 465a 80be b414 8a3e 6d4c a2be
000003c0: 71d7 663e 02cc af3d 3939 f5bd bf62 fc3d
000003d0: a9b3 edbd 7155 323a 2beb 373e d394 883e
000003e0: af26 a13e 7219 203e 90d6 d13d d779 7f3d
000003f0: de9e c7bc 5e48 b93d abfa 45be f2f8 2f3d

4.10.bias f4 [12]
-0.20815484 0.31786475 -0.570526 0.46953243 0.39262643 0.4190082 0.17456344 -0.24568598
0.38936776 -0.40628332 -0.38808283 0.48672828
00000000: 8b26 55be 2bbf a23e fe0d 12bf 8e66 f03e
00000010: 5506 c93e 3e88 d63e c2c0 323e 1b95 7bbe
00000020: 365b c73e 5e04 d0be cbb2 c6be 7334 f93e

4.12.weight f4 [4, 12]
1.1818463 -1.251908 1.3397841 -1.7237558 -1.0952965 -1.5787972 -1.281056 1.5391687
-1.6283207 1.7062238 1.3476708 -1.4964063 1.1874342 -1.4545687 1.6104219 -1.2875832
-1.2618155 -1.5498426 -1.4428936 1.2810742 -1.572381 1.3928546 1.5428457 -1.6117795
1.0762197 -1.5974805 1.5201288 -1.6640476 -1.4327785 -1.3309911 -1.3225528 1.621823
-1.1840901 1.5498564 1.6079051 -1.3436978 0.87550306 -1.6427363 1.5085247 -1.6721663
-1.4461156 -1.3070436 -1.5976717 1.6377265 -1.506396 1.1618478 1.2216765 -1.4481221
00000000: bd46 973f 853e a0bf 0c7e ab3f 08a4 dcbf
00000010: ad32 8cbf 0716 cabf a5f9 a3bf 7b03 c53f
00000020: d06c d0bf 8b65 da3f 7a80 ac3f 3e8a bfbf
00000030: d8fd 973f 4f2f babf 4e22 ce3f 87cf a4bf
00000040: 2c83 a1bf 3e61 c6bf bdb0 b8bf 3dfa a33f
00000050: c843 c9bf 0f49 b23f f87b c53f ca4e cebf
00000060: 91c1 893f 3e7a ccbf 9593 c23f 83ff d4bf
00000070: 4965 b7bf eb5d aabf 6949 a9bf e597 cf3f
00000080: 4490 97bf b261 c63f d6cf cd3f 4afe abbf
00000090: f820 603f 2f45 d2bf 5617 c13f 8c09 d6bf
000000a0: 511a b9bf 344d a7bf 8280 ccbf 06a1 d13f
000000b0: 96d1 c0bf 6eb7 943f e55f 9c3f 115c b9bf

4.12.bias f4 [4]
-1.8104517 -1.7866063 -1.7416859 -1.9624902
00000000: e2bc e7bf 84af e4bf 90ef debf e132 fbbf
