JSP/trained models/Abstracted_state_rwd3.pt (torch_old, 27029 bytes, 14 tensors)

4.0.weight f4 [48, 25]
000000 92 3c e3 bd 89 26 e8 bd 4a 76 44 3e 73 a4 62 bc
       -0.11095537 -0.11335475 0.19185749 -0.013833153
000010 91 3b ea 3d 39 b5 f5 3d 7e f1 bf bd 3f 62 97 3d
       0.11437143 0.11997456 -0.09372233 0.07391786
000020 1d d6 33 be 15 f6 4d 3d ab ca 3c be 98 2a 09 bd
       -0.17562146 0.05028351 -0.18436687 -0.033487886
000030 cc e1 e4 bd 01 70 de bd 75 12 c3 bb aa 30 ac bd
       -0.1117588 -0.10861207 -0.005953128 -0.084077194
000040 47 1a 90 3d ba c9 b9 3a 18 bf 0b be f5 98 19 be
       0.07036262 0.0014174499 -0.13647115 -0.14999755
000050 ca a2 06 3e a1 d7 38 3d 02 ec 38 3e 0d 03 8d 3d
       0.13148037 0.045127515 0.1805878 0.068853475
000060 61 ef 5a 3d c9 8e b7 3d 5d 6e 02 bd 7d 49 b2 bd
       0.053450946 0.08962781 -0.031843532 -0.08705423
000070 c8 e5 13 3d 56 72 53 be ef db fb 3c ab ef 15 be
       0.03610781 -0.20649084 0.030744521 -0.14642207
000080 e0 cf 47 be 9c 26 52 be e5 5a 09 be 96 74 21 3e
       -0.19512892 -0.20522541 -0.1341358 0.1576713
000090 53 10 70 3c e3 fd 16 3e 0f 32 0b 3e d9 d2 ec bd
       0.0146523295 0.14745288 0.13593315 -0.115636535
0000a0 82 40 22 3e 5a e6 e7 bd 3d 22 47 3e 87 81 08 3e
       0.1584492 -0.11323233 0.19446655 0.13330661
0000b0 fd 90 28 3d 4b bc c3 3d e5 96 5f bc c6 ca 3f be
       0.041153897 0.095573984 -0.013646816 -0.18729696
0000c0 a5 75 be bd 62 27 af bd ea b9 18 3e a6 f0 e3 3c
       -0.09299783 -0.085524336 0.1491467 0.027824711
0000d0 34 7e 00 be 1b 6c a5 3c fa 02 0c 3e 2e 1d 57 3e
       -0.12548143 0.02019315 0.1367301 0.21007225
0000e0 96 93 0f 3e 04 11 20 3e 52 9f 52 3d c6 b3 21 3e
       0.14021143 0.15631491 0.05142147 0.15791234
0000f0 04 bc 35 3e 6d 23 dc bd 6a 67 c1 bd f4 10 1f be
       0.17747504 -0.107489444 -0.09443553 -0.15533811
000100 98 78 1b 3d 06 de 73 3d bd 2b a5 bd 04 76 c0 3d
       0.037956804 0.05953791 -0.08064983 0.0939751
000110 f6 06 87 bd 80 37 00 3e 9f c2 c3 bd d9 eb 06 3e
       -0.065931246 0.12521172 -0.095586054 0.13175906
000120 86 29 cc 3d 27 36 21 be b1 06 e6 bc 3b 45 c2 bd
       0.099688575 -0.15743314 -0.028079363 -0.09485861
000130 71 3f 23 3e 29 e4 0d 3e c5 4e a8 3c d0 dd 38 3e
       0.1594217 0.13856567 0.020545373 0.18053365
000140 af 25 fa 3d 2c a1 dc 3d 3b b4 d0 bd 4d 5c 7f 3d
       0.12214219 0.107729286 -0.10190626 0.062343884
000150 a0 63 42 3e f6 81 be bc 72 3f d1 bd a2 4e c6 3d
       0.18983316 -0.02325533 -0.10217179 0.09682967
000160 98 02 fa bd 25 98 01 bd fc c1 75 bc 8f 0e 37 be
       -0.12207526 -0.031639237 -0.014999863 -0.17876647
000170 ab a9 42 be 3e 9d 1d 3d fa 6c 3c be fc e0 2f 3e
       -0.19010036 0.038480036 -0.18400946 0.17175668
000180 02 93 b6 bd 7a 6e 85 bd 92 46 9e bc e7 36 e5 3d
       -0.08914758 -0.06515212 -0.01932076 0.111921124
000190 2a 42 32 3e b0 55 24 bd ad 44 67 bc 0b 6a f8 bd
       0.17408052 -0.04012078 -0.014115495 -0.12129601
0001a0 3f 01 a0 3c 2f 23 3d 3e 26 45 4e bc 60 83 1a be
       0.019531844 0.18470453 -0.012589728 -0.15089178
0001b0 aa 6f c1 3d a3 e1 3f bd 94 bd 1d 3e 91 58 0c be
       0.09445126 -0.046846043 0.1540435 -0.1370566
0001c0 79 64 29 3d e1 77 2c 3b 2b 52 ce bd 66 c6 38 bd
       0.041355584 0.002631657 -0.10074266 -0.045111082
0001d0 00 2d fe bd 98 2b fb 3d 5e 46 9f bd d6 81 d7 3d
       -0.12410927 0.12264174 -0.07777093 0.10522811
0001e0 ff b9 b7 3d 0b b0 1a 3e be cf 2f 3e 70 91 a5 3d
       0.08971023 0.15106218 0.17169091 0.080843806
0001f0 95 6e 0a be b3 8d 19 3e 52 43 3f be 00 6a 16 be
       -0.13518746 0.1499546 -0.18678024 -0.14688873
000200 0c 13 50 3d 01 88 27 be 4a 82 b0 3c 2c 8c 39 bd
       0.050799415 -0.16360475 0.021546502 -0.045299694
000210 17 88 c6 bd b1 15 96 bc 98 a4 28 bb f2 ac 27 3e
       -0.09693926 -0.01832089 -0.002573287 0.16374567
000220 8e 2f 07 3e 32 bb 02 3e 53 03 d3 bd 45 6e 1a 3e
       0.13201734 0.12766722 -0.103033684 0.15081127
000230 25 81 a4 3c 2b 34 b7 bc da 2c cf 3d 1e 61 ab 3d
       0.020081112 -0.022363743 0.10115977 0.08368133
000240 35 fc cd 3d 77 a5 20 be e7 0f 2d 3e fd 5a 27 be
       0.1005787 -0.1568812 0.16900598 -0.16343303
000250 79 ae ad 3d a5 e1 47 be 5d a1 8c 3d 9b 4c 48 3e
       0.08480544 -0.1951967 0.06866715 0.19560473
000260 5d 5b 01 3e 6a cd d2 3c de 4c 9b bd 87 45 ba bc
       0.12632509 0.025732715 -0.07583021 -0.022738231
000270 86 ac 43 be e3 64 37 3e 2e bf 61 3d 4c 57 15 3e
       -0.19108781 0.17909579 0.055113964 0.14584082
000280 cc 89 25 be 61 f3 1a be 6a 34 3a 3e fd 19 12 be
       -0.16165847 -0.15131904 0.18184057 -0.14267726
000290 16 34 1d 3d ea 39 fc 3d 40 67 d1 bd 54 9e f8 3d
       0.03837975 0.12315734 -0.102247715 0.12139574
0002a0 79 8d 17 be 54 0c 16 3e 62 92 e4 bc 6f c6 d4 3d
       -0.14800061 0.1465314 -0.027901832 0.10389411
0002b0 c2 92 4b 3b 8f 00 06 3e 4a 95 1e ba 51 02 40 3e
       0.0031062816 0.1308615 -0.00060494675 0.18750884
0002c0 1f 24 33 3e 3f 81 28 3e 33 01 e6 3d a3 d0 db bd
       0.17494248 0.16455553 0.112306975 -0.10733154
0002d0 b5 ce 35 3e 32 7e 79 bc 4b 22 34 3c bb 99 97 3d
       0.17754634 -0.015227841 0.010994504 0.07402369
0002e0 63 89 c5 bc 6b c0 c8 bd 94 ab 68 3d 86 4b 3c 3e
       -0.024113363 -0.09802326 0.056804255 0.18388185
0002f0 e8 ec 44 be 08 13 93 bc 64 cd 79 bc 6e b5 e4 bc
       -0.19230998 -0.01795341 -0.015246723 -0.027918544
000300 42 1e d2 3d b1 3b b8 3d 12 57 01 3c b3 38 0e 3e
       0.102596775 0.0899576 0.007894294 0.13888817
000310 be 61 e0 3d 01 da 18 3e df fa 01 be b7 40 3f be
       0.10956143 0.14926912 -0.12693356 -0.1867703
000320 4e 85 84 bc 0e fa 21 3d 5a 5c f4 3d 4f 9e 73 3d
       -0.016176846 0.03954511 0.11931677 0.059477147
000330 c0 a6 18 bc 99 9b e9 3b af e4 05 bc 83 67 db 3d
       -0.0093171 0.0071291444 -0.008172198 0.10713103
000340 44 27 1f 3e 5f 8c ff bc f9 cd 6d 3d a1 91 48 bd
       0.15542322 -0.031194864 0.05805776 -0.048967008
000350 05 b2 16 bd 57 38 3f 3e 64 67 37 3d 78 d3 43 be
       -0.036790866 0.18673836 0.044776335 -0.19123638
000360 47 fe 8b 3d 10 ab 32 bd 26 d6 16 be 8e 52 5d bb
       0.06835609 -0.04362017 -0.14730129 -0.003377113
000370 0c 41 09 be 35 5b eb bd 50 f0 ee 3d b6 1d d5 bd
       -0.1340372 -0.11492006 0.1166693 -0.104060575
000380 91 a0 4c bc f5 13 f4 3d 69 7c f5 bc 02 dd 49 3e
       -0.012489454 0.11917869 -0.02996655 0.19713214
000390 e9 13 92 bc 4c b1 84 bd bb 1f 39 3e 86 ed 42 bd
       -0.01783176 -0.06479129 0.1807851 -0.0475898
0003a0 92 1d fa bc dd cf 7e bd 28 f5 05 3d 69 98 1a 3d
       -0.030531678 -0.062209953 0.032704502 0.037743006
0003b0 ab c4 33 3e eb 43 b0 bd 5a 05 94 bc ce ea 2f bd
       0.17555492 -0.08606704 -0.018068958 -0.042948537
0003c0 6c 88 0f 3e 38 f4 06 3e dc 42 4b be 12 69 0b be
       0.14016885 0.131791 -0.19849724 -0.136143
0003d0 39 67 5a 3d 98 c2 19 3e 20 73 40 3e fd 73 d5 3d
       0.053321097 0.15015638 0.18793917 0.10422514
0003e0 d5 ee 32 3e 41 3d 6a bc 89 71 8e 3d b1 26 33 be
       0.1747392 -0.014296831 0.06955249 -0.17495228
0003f0 b3 78 1f 3e 72 89 03 be 3c e9 e4 3d a8 9d ac bd
       0.15573387 -0.128454 0.111772984 -0.08428508

4.0.bias f4 [48]
000000 d3 fd 64 3d 69 21 5f 3d 1b 75 1d 3e e8 a1 fe 3d
       0.05590613 0.05447522 0.15376703 0.12433225
000010 c9 a3 f7 bc e9 27 39 3e 53 13 20 be a1 d9 52 39
       -0.030229466 0.18081631 -0.15632372 0.00020108234
000020 c7 f4 42 be 1c 77 8c bd 5e 3b 0a be 81 81 b5 3c
       -0.19038688 -0.06858656 -0.1349921 0.022156479
000030 8c 2f 25 bd a5 76 98 bd 70 0a b6 bd 31 21 0f be
       -0.040328547 -0.07444505 -0.088887095 -0.13977505
000040 0c 52 98 3d 68 18 7b 3d 3d 9c 13 3e 71 e5 3d 3d
       0.07437524 0.061302572 0.14415069 0.04636139
000050 c2 a6 84 3d a0 32 2d be 09 c7 ea bd 1a fb 27 be
       0.06477119 -0.16913843 -0.11463744 -0.16404381
000060 71 4e 75 3d d4 ac 1a 3c 8f e3 3b 3b 5b 81 c6 bc
       0.05988926 0.0094406195 0.002866957 -0.024231603
000070 f4 93 37 be de ed df 3d 80 c7 28 be 42 67 c0 3d
       -0.17927533 0.109340414 -0.16482353 0.09394695
000080 4d 01 8b 3d e1 67 d1 bd 24 7a 02 3e 7e 1e df bd
       0.067873575 -0.102248915 0.12741905 -0.10894488
000090 1d 78 1c 3e b3 3f 0a be 9b 5a be 3d 9c af 37 be
       0.15280195 -0.13500862 0.09294625 -0.17938083
0000a0 36 3f 1c be 11 b2 4d 3d 91 c4 41 be d2 db 95 bd
       -0.15258488 0.050218645 -0.1892264 -0.07317318
0000b0 cc b2 d5 3d 29 1e 4f 3e 29 10 31 3e 15 ad 1b 3d
       0.104344934 0.20226349 0.17291321 0.03800686

4.2.weight f4 [36, 48]
000000 66 45 9f 3d c0 1a 01 be 70 77 db 3c b3 5d 84 bd
       0.077769086 -0.1260786 0.02679035 -0.06463184
000010 e7 c3 10 3c 82 f0 d6 3c 22 c2 69 bd ed 51 d5 3d
       0.008835769 0.02623773 -0.057069905 0.10416017
000020 63 52 e9 3c 7f 99 02 be 5e c3 98 3d ac 74 33 bd
       0.028481668 -0.12753867 0.07459138 -0.04381244
000030 b8 05 9a 3b 21 21 15 3d 3c 52 f9 39 1b 0f ce bd
       0.0047003888 0.036408547 0.0004755425 -0.10061475
000040 d7 b9 79 3d d2 3d a7 3d c1 ba 0e bd b5 7e a9 bd
       0.060968246 0.08166088 -0.03484607 -0.082761206
000050 b2 a6 6e bd a8 c2 b0 bd 7d 37 84 3d ba b0 35 bc
       -0.05826444 -0.08630878 0.06455896 -0.011089498
000060 d0 c5 4e 3a e3 35 95 bc 2f c9 99 3c 89 26 f6 3d
       0.0007887753 -0.018214172 0.01877269 0.12019069
000070 ff e9 78 ba af f2 a4 bd d8 06 0b be 40 2d a6 bd
       -0.00094953174 -0.08054101 -0.1357683 -0.081140995
000080 43 7e a9 3d 42 34 1d bd 4b 0f 8f 3d 35 69 63 3d
       0.08276036 -0.038379915 0.06985339 0.055520255
000090 2a 11 c8 3d b4 91 b7 bd a9 3e f1 bc 55 71 16 39
       0.09768899 -0.089633375 -0.029448824 0.00014347334
0000a0 35 1c 9c 3c 58 d9 07 3e 6b df bc bd ae fc fc 3c
       0.019056419 0.13266504 -0.09222301 0.030882206
0000b0 91 c9 13 3e 8a e2 a4 bd ea bb 08 be 2e c5 87 bc
       0.1443236 -0.080510214 -0.13352934 -0.016573515
0000c0 3e eb 68 bd 60 0d ff 3d dc 59 b9 bb fa 20 52 3d
       -0.05686497 0.12453723 -0.005656464 0.05130098
0000d0 c0 ba aa 3d f9 c4 ed bd f6 b7 de 3d f2 8a 46 bd
       0.08336401 -0.11609835 0.108749315 -0.048472352
0000e0 bf 67 d1 3d 32 27 0b 3e a4 04 e5 3b d6 76 0c 3e
       0.10224866 0.1358917 0.0069890786 0.13717207
0000f0 a8 52 66 bd 14 e2 b3 b9 e4 0d 84 bd 51 15 42 3d
       -0.05623117 -0.00034309982 -0.06447962 0.04738361
000100 02 b0 af 3d 2a 2f 50 bc 3f fa 95 3c 25 3a 9f 3c
       0.08578493 -0.012706557 0.018307803 0.019436905
000110 20 ef 99 3d c4 fa 50 3c 04 cc 90 bd e0 a4 b0 3d
       0.075163126 0.0127551 -0.07070163 0.086251974
000120 97 e4 df 3d 5b 24 d2 3c 7b f1 c1 3d fc b7 45 bd
       0.10932272 0.025652101 0.09469887 -0.048271164
000130 ab bb ef ba 09 13 69 3d ac 62 94 3d 8b 42 99 ba
       -0.0018290182 0.05690292 0.07245383 -0.0011692805
000140 57 19 c6 3b 0a 30 17 bd 09 8f b9 bd 31 2c 0d 3e
       0.006045501 -0.036911048 -0.09060485 0.13786389
000150 aa 93 ba 3c dc 6b 96 bd 8e 8f aa 3d 51 30 cc bd
       0.02277549 -0.07344791 0.08328162 -0.09970153
000160 d1 10 e4 3d 12 f1 bb 3d d9 09 5e bc 70 4d dc bd
       0.1113602 0.0917684 -0.013552153 -0.107569575
000170 cd 84 18 3d c4 54 63 3d 70 f4 60 bd 4a 42 82 bd
       0.037236024 0.05550076 -0.054920614 -0.063603
000180 e3 c5 12 bd 7b ab 2f bc a3 82 a6 bd 61 84 b0 bd
       -0.03583325 -0.0107220365 -0.08130386 -0.08618999
000190 2b 7d b8 3d 3a c4 bb bd 84 2c d2 bd 7d 89 eb 3d
       0.09008249 -0.091682866 -0.10262397 0.11500833
0001a0 82 cb 2f 3b 35 8b c3 3d 64 e7 19 bd f9 c6 01 3d
       0.002682418 0.09548036 -0.037574187 0.031683896
0001b0 25 d3 fe bd e6 d1 b6 3d 30 d7 f8 3d ad 92 f1 3d
       -0.124426164 0.08926754 0.12150419 0.11795554
0001c0 11 09 0c 3e 40 0c 0e 3c 2d 1f 10 be ba 89 02 3d
       0.13675334 0.008669913 -0.14074393 0.031869628
0001d0 48 91 d8 bd 7e 85 01 be 7d d1 45 3d ae 7b e9 bc
       -0.10574585 -0.1264858 0.048295487 -0.028501358
0001e0 13 4a 95 bb d2 67 99 bd 34 31 ed 3c 7a 5d 12 be
       -0.0045559495 -0.07490505 0.028954126 -0.14293471
0001f0 0f 71 4d 3d dc fd b0 bc b3 5d bb bc d6 b4 dd 3d
       0.05015665 -0.021605425 -0.022871828 0.10825507
000200 02 d3 08 3e ec 19 b5 3d 23 c8 27 3d 3c 45 42 3d
       0.13361743 0.08842835 0.04096235 0.04742931
000210 04 c4 b6 3d fe 3f 53 3c e8 96 d0 bd 17 04 85 bd
       0.08924106 0.012893675 -0.10185033 -0.06494921
000220 b5 59 96 bc a1 85 db bd 0a f1 82 3d bf 13 05 3e
       -0.018353323 -0.10718847 0.06393631 0.12995814
000230 c2 2b 0c 3d 7d 54 92 bd db 9e 4d 3d f4 eb 68 bd
       0.03422142 -0.07145021 0.050200325 -0.056865647
000240 c6 07 33 3d 36 72 0a be eb cb e0 3d 2a ab cb bc
       0.043708585 -0.1352013 0.10976394 -0.02486189
000250 4c 38 34 bd ca f2 06 3e 2d 6d d7 39 26 dc a0 3c
       -0.043999 0.13178554 0.00041089338 0.019636225
000260 b2 a7 27 3c b9 d7 a5 3d 6f be f4 3c b0 fb 22 3d
       0.010232853 0.080977865 0.029875962 0.03979081
000270 3e 74 a8 3c 91 b0 c3 bd f7 95 ba bd 44 f6 d0 3d
       0.020563241 -0.09555162 -0.09110635 0.102032214
000280 ad e7 ab 3d 86 a1 9c 3d f7 3f cb bc ac 6d f2 3b
       0.08393798 0.07647996 -0.024810774 0.007398328
000290 34 90 e8 3d ac 41 37 bc 45 96 12 3e 18 2f e7 3d
       0.113556296 -0.011185091 0.14315136 0.11288279
0002a0 ad a2 08 3c 4d bb 17 3d dd ce 51 3d b8 d7 c5 3d
       0.008339566 0.03704386 0.05122267 0.09660286
0002b0 cc 8b 6f bd 72 33 72 bc a5 ea bf 3d c1 16 c5 3c
       -0.05848293 -0.014782773 0.09370927 0.024058701
0002c0 5e 54 7e 3d 78 0d d6 3d 22 4c d5 3c 75 a2 8c 3d
       0.062092178 0.10451788 0.02603728 0.06866924
0002d0 fa d6 cd bc 50 c1 bb 3c 22 67 c6 bd 7a f8 6a bb
       -0.025126923 0.022919327 -0.0968764 -0.003585367
0002e0 94 ff 1b 3d ac 58 e9 3d 07 16 92 bd 5f 73 1e bd
       0.038085535 0.11393866 -0.07133108 -0.038684245
0002f0 e5 9f 39 bd 6e 1d 19 bb 83 4d e2 3d 26 6d 8e bc
       -0.045318503 -0.0023363489 0.110499404 -0.01738603
000300 7d 04 a5 3d b3 0f cc 3d da e7 e0 bd 8d 3a 07 3e
       0.08057497 0.09963932 -0.10981722 0.13205929
000310 ea 6d 34 bd f9 8a 00 bd 29 f7 09 bd e2 0e 05 3e
       -0.044050135 -0.031382535 -0.033682976 0.12993959
000320 cd 7d a3 3d bd c5 a3 bd 7d 60 28 bd 2b f0 33 3d
       0.07982979 -0.079967 -0.041107643 0.043930214
000330 c5 88 79 bc 95 3e ed bd b4 a1 00 3e 07 2f 4e bd
       -0.015230362 -0.11584202 0.12561685 -0.050337818
000340 85 c1 18 3d f1 7b ee bd 23 3b e9 bd 8e ea 06 be
       0.03729393 -0.11644734 -0.113882326 -0.13175413
000350 16 05 ff bd eb ae 96 bd 8d e2 fd 3d b8 71 b8 3c
       -0.12452142 -0.07357582 0.12396727 0.022515163
000360 a7 64 a6 bd 37 9d 62 bd c0 7a 1a bd cf a2 da 3c
       -0.08124667 -0.055325713 -0.03771472 0.026688961
000370 96 28 3f bc 4f 0e 2f 3d b2 3f bf 3b ca eb 13 3d
       -0.011667391 0.042738255 0.0058364505 0.036113538
000380 c8 a2 75 3d 01 48 e0 3d de c1 c5 bd c4 52 0b 3e
       0.059969693 0.10951234 -0.09656118 0.13605791
000390 6a 68 a3 bd 66 14 74 3d a5 29 b0 3d d2 cc 03 3d
       -0.079789 0.059589766 0.08601693 0.032177754
0003a0 4d f7 04 3e 4f de a9 3d 07 2f 46 bd 76 75 83 3d
       0.12984963 0.08294355 -0.048384693 0.06418888
0003b0 1f fa 4d bd b1 da 00 be 44 27 84 3d d1 b2 b3 bd
       -0.050287362 -0.12583424 0.06452802 -0.08774341
0003c0 76 a7 1a 3d 00 53 01 3d d8 c3 03 be 00 22 e5 3d
       0.03775736 0.031573296 -0.12867677 0.111881256
0003d0 26 13 6d 3d 47 62 a4 3d 83 55 d9 3d 28 a0 14 bc
       0.05787959 0.080265574 0.10612013 -0.009071387
0003e0 bd 35 0c 3e 25 55 06 3e 83 6b f3 3d 01 6c ef bd
       0.13692375 0.13118418 0.118857406 -0.11690522
0003f0 83 f0 83 3d db 64 ff bc a1 d5 8d bd e2 4d fc 3d
       0.06442358 -0.031176021 -0.06925512 0.123195425

4.2.bias f4 [36]
000000 a4 af 82 3d 45 4f ef 3d e1 93 2c 3d 50 8f b2 3c
       0.06381157 0.11685041 0.042133216 0.021796852
000010 52 e0 c3 bd 04 ac fa bd 97 70 91 3d 94 01 b7 3d
       -0.0956427 -0.122398406 0.07101553 0.08935848
000020 f6 67 b3 bd 73 9b 03 bd ed de 10 3e cd 5d 20 bc
       -0.08760063 -0.03213067 0.1414754 -0.009787989
000030 2f 8a d4 bd bd 1b 62 bd a6 5b 7b bc 15 a4 0e be
       -0.10377919 -0.055202235 -0.015341675 -0.1392978
000040 34 cb 12 3e 1b 6d 0a 3d c4 04 91 bd 40 b2 04 be
       0.14335328 0.033795457 -0.07080987 -0.12958622
000050 2c 61 87 bd bb 4e ae 3d ef ef 3c bc 08 5e a2 ba
       -0.06610331 0.085111104 -0.011531814 -0.0012387643
000060 cc b7 dd bd c0 d5 0f 3e 0b 80 6f bd 43 11 98 3d
       -0.10826072 0.14046383 -0.05847172 0.074251674
000070 71 95 e9 3d 55 7e ac 3d f7 6d 63 bd 96 e6 dd bd
       0.11405457 0.084225334 -0.055524793 -0.108349964
000080 33 fc ba bd 3c b1 31 3c d3 08 26 3d 36 2d 0a 3e
       -0.091301344 0.010845479 0.04053576 0.13493809

4.4.weight f4 [36, 36]
000000 f0 ba e2 3c 96 5b 87 bd cb 90 c5 bd 9e ee e0 3c
       0.02767703 -0.066092655 -0.09646758 0.027457532
000010 75 35 83 3c ea 94 7d bd 39 04 a7 3d 65 93 e1 3d
       0.016016701 -0.061909594 0.08155102 0.110144414
000020 a3 cf 5b bd 01 e2 d6 3d ea 81 10 be d4 89 da bd
       -0.053664815 0.104923256 -0.14112058 -0.1067082
000030 a0 58 fe 3d 7b 15 f3 3d 45 20 15 3d 6e f9 d3 bc
       0.124192476 0.118693314 0.036407728 -0.025875773
000040 67 84 18 be 7e c8 17 bd 5d 62 96 bb 49 92 6b 3d
       -0.14894257 -0.03705644 -0.0045893625 0.057512555
000050 5e f3 27 3d 8b ee cd bd b5 5b db 3c 39 6a 1b bd
       0.041003577 -0.10055264 0.026777128 -0.0379431
000060 83 ec 96 3c 3c e5 0c 3d cf fe 57 bc b2 0f e0 ba
       0.018423324 0.034398302 -0.01318331 -0.0017094521
000070 7c db 06 be e8 d0 a2 bd 7a ee 0e be 6d f1 8f bd
       -0.13169664 -0.07950002 -0.13958159 -0.0702847
000080 eb 17 ee bd c9 63 a4 38 f6 22 ac 3d bc 79 23 3e
       -0.11625656 7.838716e-05 0.08405106 0.15964407
000090 8e c4 2b 3d ea 4b b5 3d 7a 56 27 bc 21 27 aa bc
       0.041935496 0.0885237 -0.010213489 -0.020770611
0000a0 10 91 89 bd b2 32 71 3d 1d 75 de 3b b1 34 df bb
       -0.067171216 0.058886237 0.0067888633 -0.006811701
0000b0 da 41 35 bd c0 87 75 bd 97 aa 01 3e 9e 57 8e bd
       -0.044252254 -0.059943914 0.12662731 -0.069503054
0000c0 c3 08 3c bd 5f 70 14 bb c3 4d 05 3e 27 e1 e6 bd
       -0.045906793 -0.0022649986 0.13017945 -0.11273413
0000d0 98 83 a1 bd 42 20 0d be df 2e bc ba 9b d0 0f be
       -0.07886428 -0.13781837 -0.001435723 -0.1404442
0000e0 24 87 f1 bc 3e cf ba 3d 6f 9b 8a bd 18 ef 83 3c
       -0.029483385 0.091215596 -0.06767928 0.01610522
0000f0 c3 b5 23 be 7c 62 4c 3d cd f0 11 3d d2 be 10 3e
       -0.15987305 0.04989861 0.035630036 0.14135292
000100 fa 44 e5 bd 6a dd bf bd 56 c2 88 bd 47 5a 7d 3d
       -0.11194797 -0.09368403 -0.06677692 0.061853673
000110 52 00 23 be d5 7c 7b 3d 7d 99 e2 3d dc 77 15 be
       -0.15918091 0.061398346 0.11064432 -0.14596504
000120 b0 48 07 3e 49 00 46 bc aa eb 91 3d 41 1b 00 3d
       0.13211322 -0.012085029 0.071250275 0.03127599
000130 01 2e ac 3d db c9 1b 3e 9f 47 34 3d be 1b d7 3d
       0.08407212 0.1521372 0.044013616 0.10503338
000140 b9 a7 bb bd 5e 86 80 3d f3 3a 1e be 11 f9 0a be
       -0.0916285 0.062756285 -0.15452175 -0.13571574
000150 91 2a 3e 3c 4b 08 07 bd 4a 36 af bc bc 3c 8d bd
       0.011606828 -0.032966893 -0.021388192 -0.0689635
000160 d3 3e 3f 3d 3f 07 a9 3d 5d 32 fa bc d8 35 99 3d
       0.046690773 0.08253335 -0.030541593 0.07480973
000170 4a 05 f5 3d d3 6e d4 3d 6b 90 fd 3c 4c e8 a5 3c
       0.119638994 0.103727005 0.030952653 0.02025237
000180 e7 04 11 3e 07 d9 1b 3e a8 43 76 3d ea 0b 0c 3e
       0.14162026 0.15219508 0.060123116 0.1367642
000190 c7 85 1d bb 13 84 b7 bd d1 df b5 bd 18 2d a8 bd
       -0.0024036036 -0.08960738 -0.0888058 -0.08211726
0001a0 80 2d 0d be ca 65 89 bd ca 27 c3 3d 84 30 00 3e
       -0.13786888 -0.06708868 0.095290735 0.12518507
0001b0 7c b1 92 bd fd 2f 0d 3e 92 d0 10 be a1 34 58 3d
       -0.07162759 0.13787837 -0.14142063 0.052784566
0001c0 23 1b b4 3d 71 98 14 be 83 2a 5a 3d d8 8c bf 3d
       0.087942384 -0.14511277 0.0532632 0.09353036
0001d0 c5 8d 03 bd 20 d8 83 bd fd 59 2a 3e 47 ee d2 bd
       -0.032117624 -0.06437707 0.1663589 -0.10299354
0001e0 ec 64 37 3d c5 fa 70 bd f5 c5 21 3e d9 63 23 3e
       0.04477398 -0.058832902 0.15798171 0.15956058
0001f0 44 61 cd 3d 3e 8d d7 3d cc 1c d7 bd be 4f bd bc
       0.100283176 0.10524987 -0.105035394 -0.023109313
000200 83 c5 30 3d 0b 8c 98 3d 58 d1 59 3d 5f c5 cc bd
       0.04315711 0.07448586 0.05317816 -0.09998583
000210 cb 89 11 be 20 41 1e bd c5 52 81 bc f8 a4 e8 3c
       -0.1421272 -0.038636327 -0.015786538 0.028398976
000220 18 6b 28 be 9d 22 a2 3d 13 dc c7 3c b3 41 9f bc
       -0.16447103 0.07916758 0.024396932 -0.019440508
000230 b7 7b 22 be 66 c3 31 3d 6a 70 01 3e 86 84 68 bd
       -0.15867506 0.043399237 0.12640539 -0.05676701
000240 90 9d b4 3d 84 cf 36 3d da 9b ff bd 1b 01 f7 3d
       0.08819115 0.044631496 -0.12480898 0.12060758
000250 ab 53 04 be eb 97 1a be 15 18 b2 3d 18 10 18 3e
       -0.12922542 -0.15097015 0.086959995 0.1484989
000260 12 80 8f bc 53 dc d4 3d a1 44 d6 3b f4 e4 2c 3e
       -0.017517123 0.10393586 0.006538943 0.16884214
000270 b1 f6 08 3e 90 8e 57 3d 2a 5f 07 be 5f 1d 04 be
       0.13375355 0.052626193 -0.13219896 -0.12901829
000280 b4 87 12 3e 29 53 e8 3d e8 50 36 bd 22 fc 8e bd
       0.14309579 0.113439865 -0.044510752 -0.06981684
000290 7a 4d 46 bd 32 62 06 3e ba d6 8d 3d d5 6e 17 be
       -0.04841373 0.13123396 0.069257215 -0.14788373
0002a0 31 79 35 be 53 20 50 bd fc 86 e8 3d e0 d7 45 3d
       -0.17722012 -0.050812077 0.11353871 0.048301578
0002b0 ea 68 12 be a4 b3 d1 bd 00 b1 0e 3d 46 8a 21 be
       -0.14297834 -0.10239342 0.03483677 -0.15775403
0002c0 e6 ff d5 bd 1b 84 8a bd 50 07 0a 3e 85 48 26 be
       -0.104491994 -0.06763478 0.13479352 -0.16238602
0002d0 64 68 13 3e e1 88 04 be db 8c 1f 3d 90 23 bc bd
       0.1439529 -0.1294284 0.03895269 -0.091864705
0002e0 b3 8a 3b bd 19 97 25 3e 08 a0 04 bd 0c 2f d3 bc
       -0.04578657 0.1617092 -0.03237918 -0.02577927
0002f0 e8 dd c3 3d e8 12 10 bc 49 fa a5 3c b6 a3 ee bd
       0.0956381 -0.00879357 0.020260947 -0.11652319
000300 45 ff 18 be d1 79 a8 bd d6 9f 22 be e2 8c a3 bd
       -0.14941128 -0.0822636 -0.15881285 -0.07985856
000310 f8 23 27 3d fc 13 5e 3d 07 98 bc 3c 06 5d c2 bc
       0.040805787 0.054218277 0.023021711 -0.023725998
000320 55 9b 8d 3d fe 1f 49 3c 97 f7 ba 3d 3c e0 9e 3d
       0.06914393 0.012275694 0.09129255 0.07757613
000330 c5 fa 6f bc d6 d7 22 be 22 a5 0e be d9 e7 b4 3d
       -0.01464719 -0.15902647 -0.1393018 0.08833284
000340 a8 58 a3 bd 98 2e a6 3b d9 55 de bd 7f 0b 24 3e
       -0.07975894 0.0050714724 -0.10856218 0.1602001
000350 70 39 58 3c f1 ce 02 bd b8 73 4a bd 38 26 98 3d
       0.013197288 -0.031935636 -0.049426764 0.07429165
000360 27 19 2a 3e 60 05 c9 3d 61 02 68 bd e9 32 78 3c
       0.16611157 0.09815478 -0.056642894 0.015148857
000370 a3 d3 01 3d 81 2e e7 3d 0e eb f8 bd 1d 9d 11 bd
       0.031695973 0.11288167 -0.12154208 -0.035550226
000380 35 d4 94 bd 52 f2 55 3d 1e 9f b0 bd 66 7a 2d 3d
       -0.07267038 0.052233048 -0.08624099 0.042353056
000390 0c 8a 91 bd 36 9d f9 bd 71 7a b1 bd 2d 89 3c bd
       -0.071064085 -0.12188189 -0.08665932 -0.04602926
0003a0 97 ac 60 bc 72 35 33 be 38 4b 74 bd 35 ca 2b 3e
       -0.013713024 -0.17500857 -0.059642047 0.16776355
0003b0 f3 27 6f 3d d7 6f 8a bb c3 ba f5 3d 87 d2 1e be
       0.058387708 -0.004224758 0.119985126 -0.15509997
0003c0 44 d6 a3 bc 46 3d 0e be 2b 74 01 3e ae 28 15 3c
       -0.01999963 -0.13890561 0.12641971 0.009103937
0003d0 12 70 bb 3d 53 8c 84 3c 5d 6b db bd ae a2 fb 3d
       0.09152235 0.016180193 -0.10713837 0.12286888
0003e0 39 6f b1 3d 4c 0f 84 bc ec 13 f1 bd d8 02 d0 3d
       0.08663792 -0.016120575 -0.11771378 0.101567924
0003f0 12 2a 09 3e 4b b7 e1 3d a3 57 21 be 04 a0 ee 3d
       0.13394955 0.110212885 -0.15756087 0.11651614

4.4.bias f4 [36]
000000 9b d3 12 be ea ce 1a be 47 f5 11 be 34 4e 02 be
       -0.14338534 -0.15117994 -0.14253722 -0.12725145
000010 c5 03 8e bd 97 2d 0a 3e 90 77 02 be 2a ca 12 3e
       -0.06934313 0.13493954 -0.12740922 0.14334932
000020 23 bf cb bc 82 2b d3 3c 50 68 18 3e 03 5f 24 3e
       -0.024871415 0.025777582 0.14883542 0.16051869
000030 0d 01 ea 3a de 46 dd bd 4f 48 13 3d 27 e9 96 bd
       0.0017853096 -0.108045325 0.03595763 -0.07368689
000040 5e b0 d4 bd 51 0a 1d 3e c8 99 27 3d ea d9 20 3e
       -0.10385202 0.15335967 0.04091814 0.15708128
000050 83 c2 fc bd 8e 84 8a 3d 1a 78 c0 bd 27 82 ff 3d
       -0.12341788 0.06763564 -0.093979076 0.124759965
000060 3c 1e 9a 3d 9d f0 59 bd 8e 3a 1d be 23 1c 66 bd
       0.07525298 -0.053207982 -0.15354368 -0.056179177
000070 6c 95 6e 3d a3 0d 39 ba 93 f6 b5 bd 5b fa 85 bc
       0.05824797 -0.0007059222 -0.08884921 -0.01635473
000080 b5 74 23 3d e4 47 43 bd 4a 56 be 3d a6 66 05 bd
       0.039906222 -0.047675982 0.09293802 -0.032568596

4.6.weight f4 [24, 36]
000000 e6 a1 83 3c e6 dd a0 3d 61 86 19 be 95 36 a5 3d
       0.01606841 0.07854824 -0.14992668 0.08067051
000010 fb 7e ea 3d 05 d3 b8 3d ca 70 e8 bd b6 93 c9 3d
       0.11450001 0.09024624 -0.11349638 0.09842627
000020 8b 24 f7 3d 4a 3a 3d bd fb 6a e0 bd d8 93 6b bc
       0.12067517 -0.046198167 -0.10957905 -0.01437851
000030 de 9e b9 3d a6 a9 be bd 01 a9 df 3d 78 c5 36 3c
       0.09063505 -0.093097016 0.10920907 0.011155479
000040 58 77 37 3d 34 04 5d bd 3c 76 1f bc 7c 56 41 bd
       0.04479155 -0.053959087 -0.009732779 -0.04720162
000050 e3 d5 05 be b3 f2 04 3e 14 e9 d3 3d f9 46 b6 bd
       -0.13069873 0.12983207 0.103471905 -0.08900256
000060 30 44 21 3d 50 7c 1c be 95 61 75 bd 01 f0 a5 3d
       0.03937167 -0.15281796 -0.059907515 0.08102418
000070 06 9a 11 be 88 75 1e be 42 f3 de bb 7f 5f 0d bc
       -0.14218912 -0.15474522 -0.006803901 -0.008628725
000080 b0 7c 29 be eb 79 87 bc f2 fc 58 3c f6 c0 8b 3d
       -0.16551471 -0.016537627 0.013243901 0.06823914
000090 25 de 08 3b 87 ea 3a 3d a0 e5 aa bd 81 49 bc bd
       0.0020884362 0.04563382 -0.08344579 -0.09193707
0000a0 f7 a0 22 3e e9 b9 bd bd 70 e7 c8 3d 87 47 25 3e
       0.15881716 -0.09263975 0.09809768 0.16140567
0000b0 21 db 0c be 07 f5 47 bc c3 e2 ec bd a6 58 bb 39
       -0.13755466 -0.012204415 -0.11566689 0.00035733468
0000c0 85 9a 0a 3e ef 4e 0f 3e 79 5b 03 3e f0 c9 d4 bd
       0.13535507 0.13994955 0.12827863 -0.10390079
0000d0 6b 42 de 3c a1 5a 7f bd 6c b0 82 3c a5 21 08 3d
       0.02713128 -0.06234229 0.015953265 0.03323521
0000e0 ab f2 c7 bd d4 da 66 3c 21 da 8f 3c d8 ee 1e 3e
       -0.09763082 0.014090259 0.017560067 0.15520799
0000f0 af 7a 8d 3d e1 6e be 3d c3 27 d6 bd 96 f8 20 3e
       0.06908166 0.09298492 -0.10456803 0.15719828
000100 86 ba d4 bd 02 7e 06 be ec d1 e4 bd fb a2 17 be
       -0.10387139 -0.13134006 -0.11172852 -0.14808266
000110 e9 70 1b b9 9d 10 e7 bc ca 6d c4 3c 8b 4c de bd
       -0.00014824014 -0.028206164 0.023978133 -0.10854443
000120 b8 d0 1d 3e c3 a3 e8 3d 67 a4 91 3d 8e 30 ef 3c
       0.15411651 0.1135936 0.071114354 0.029197957
000130 04 af 05 be f7 5e b0 3b 11 c8 e7 3b aa 72 31 3e
       -0.13055044 0.0053824144 0.0070734103 0.17328897
000140 a3 4d 89 bd e9 1d 4b 3c 68 65 98 3d ef 5b a7 bd
       -0.06704261 0.012397268 0.07441217 -0.08171832
000150 98 0d c1 3d 75 5d 46 3a 2e 47 24 3e 25 76 ef 3d
       0.09426421 0.0007567027 0.16042778 0.11692456
000160 b6 4a 78 bd 75 1b 03 3d 16 af e1 3d c5 93 6b bd
       -0.060618125 0.032008607 0.11019723 -0.05751397
000170 dd e6 11 3e ae 56 e2 bc aa 85 fa 3d bd 6d 49 3d
       0.14248224 -0.027629223 0.12232526 0.04917692
000180 9c 17 2c bc 39 40 ed bb aa 22 1e be cf 50 6c 3c
       -0.010503676 -0.007240322 -0.15442911 0.014423563
000190 0c b9 d8 3c 6a e6 43 bd 3c 03 b0 3c 0b c6 ab bd
       0.026455425 -0.04782716 0.021485917 -0.08387383
0001a0 ce 10 08 3e c7 f9 98 bb bd 7e d7 3c 2c 6b d4 bd
       0.1328766 -0.0046684477 0.02630555 -0.10372004
0001b0 5f 02 64 bd de 71 e5 bd eb 50 da bc ad 03 69 3d
       -0.055666324 -0.11203359 -0.026649913 0.05688827
0001c0 03 28 68 bc 61 be 3b bd f7 b7 5a bd 9b 5a f6 3d
       -0.014169696 -0.045835856 -0.0533981 0.12029
0001d0 98 26 8c 3c 65 c5 ee bc ef f2 7d 3a 9f 98 da 3d
       0.017108247 -0.02914686 0.0009687384 0.106736414
0001e0 80 be 65 bd cc d3 10 3e d9 9e 01 be 23 d1 a0 3d
       -0.056089878 0.14143294 -0.12658252 0.0785239
0001f0 6f b7 24 be 30 22 03 be 47 48 fc 3d 4c d4 37 bd
       -0.160856 -0.1280601 0.12318473 -0.044880196
000200 49 8e 18 3e 13 44 09 be cc b5 81 bd 51 0a 51 3d
       0.14898027 -0.13404875 -0.06333503 0.05103523
000210 65 39 10 3e 93 7e 6b 3d a6 98 9c bd 7d 6b 11 bd
       0.14084394 0.057493757 -0.07646303 -0.0355029
000220 9d 1e 9f 3d 9e b8 2b be 7d 4a 2e bd 5c 3c 35 bd
       0.07769511 -0.16769645 -0.042551506 -0.044247016
000230 45 85 a7 3d 78 74 1c be 5b 81 11 3e 05 62 07 be
       0.08179716 -0.15278804 0.14209501 -0.13220985
000240 aa 8b e8 bd 26 ab 0d be 7f cb 1b be bd 84 74 3d
       -0.11354764 -0.13834819 -0.15214346 0.0596969
000250 29 09 46 3b 8b f9 9a 3c 1b 80 28 3b 03 66 21 3e
       0.0030217862 0.01891782 0.0025711122 0.1576157
000260 39 95 c2 bd 11 7f e4 3d 36 43 f3 bd 6d 81 1d 3e
       -0.09501118 0.111570485 -0.11878054 0.15381403
000270 34 10 c9 3d d4 c3 40 bd ef 43 e6 39 be 56 c7 3d
       0.098175436 -0.047061756 0.00043919633 0.09733342
000280 96 8e 00 3e 46 60 af 3d 7b 4f 22 3e c7 f4 10 3e
       0.12554392 0.085632846 0.15850632 0.14155875
000290 af 8b 39 3c a2 a8 41 3d b4 00 af bd 4f bc 9f 3c
       0.011324807 0.04727996 -0.08545056 0.019498972
0002a0 f7 a8 03 bc bc c4 cf 3d 09 9d 07 3d 7c aa c4 bd
       -0.00803589 0.10144946 0.033108745 -0.0960283
0002b0 5d d9 a1 3d bf 22 70 3d 71 a2 e9 3d c8 60 ca 3d
       0.07902787 0.058626886 0.11407936 0.09881741
0002c0 20 e8 18 3e 99 9e b4 ba 60 96 84 3d a4 8f b1 3c
       0.14932299 -0.0013780176 0.06473994 0.021674938
0002d0 16 d0 07 be a2 77 1b be 68 5c d5 bd 19 be 24 bc
       -0.13262972 -0.15182355 -0.10418016 -0.010055088
0002e0 de 0e de bd 10 9a fa bd c6 54 e6 bd 09 96 a2 bd
       -0.108426794 -0.12236416 -0.11246638 -0.07938773
0002f0 a9 f0 1f be 84 0d 0d bd 8d f6 07 bd 10 52 ab bc
       -0.15619148 -0.034436718 -0.033194114 -0.020913154
000300 35 0b 9c bd c2 d0 23 bd bd 46 28 3d 98 5e b1 bd
       -0.07619325 -0.03999401 0.041083086 -0.086606205
000310 b2 51 8e bd 7f 87 8b bd c9 a2 91 bc 96 66 8b 3d
       -0.06949176 -0.06812953 -0.017777817 0.06806676
000320 82 60 fd bc b4 1a f2 3d 21 88 0c bb 5d e5 69 3d
       -0.030929808 0.118214995 -0.0021443444 0.057103503
000330 28 47 25 be 61 21 f1 bd 0d 9d 23 3e 5e 90 cf bc
       -0.16140425 -0.11773945 0.15977879 -0.025337394
000340 bd 5b 85 3d ce 4f c2 bc b6 d1 bc bd b4 9c 0f be
       0.06511638 -0.023719694 -0.09219687 -0.14024621
000350 0e 3b fc 3d 36 0e 25 3d d7 09 c2 3d 82 29 14 3d
       0.12315951 0.040296756 0.09474533 0.036172397
000360 41 6a 06 be a1 59 bc bd d8 ea 96 bd d9 0b 5c bd
       -0.1312647 -0.09196783 -0.07369012 -0.053722236
000370 28 b7 0c bd 6c 5e 28 3e 59 95 97 3d 21 31 98 3d
       -0.03435436 0.16442269 0.07401533 0.074312456
000380 6e 66 fb 3c d6 69 e5 bb 03 be 22 be 09 ae 82 bc
       0.03068849 -0.007001142 -0.15892796 -0.015952127
000390 fd 93 2e 3d 7e 1f c4 3c 25 d7 ba 3d 28 c6 87 bb
       0.0426216 0.023940798 0.09123067 -0.004143495
0003a0 7a 21 db 3d 5a 12 a0 3d 2e 80 1c 3e 87 73 fb 3c
       0.106997445 0.07816 0.15283272 0.030694736
0003b0 81 14 d9 3d 98 c1 59 3d f8 01 20 be 28 8d ec 3d
       0.10599614 0.05316314 -0.15625751 0.11550361
0003c0 5a cc 06 be 69 ab 56 3d e0 69 21 3e 7f 08 c7 3c
       -0.13163891 0.052409563 0.15763044 0.024296043
0003d0 76 ca 19 be 5e 34 0a 3e e1 6e 0e 3d c2 47 fd bc
       -0.15018639 0.13496539 0.03477371 -0.030918006
0003e0 7e d3 b4 bd ec 35 41 3c 8b 62 6d bd 6b dd d0 3b
       -0.088294014 0.011792641 -0.057955306 0.0063740513
0003f0 db 58 02 3e 75 7d 26 3e 0b 71 f8 3d b4 03 22 3c
       0.12729208 0.16258796 0.12130936 0.009888578

4.6.bias f4 [24]
000000 79 9f 69 3d e1 be d3 3c 61 29 7e bc 0b c1 21 be
       0.05703685 0.025847854 -0.015512795 -0.15796296
000010 af 33 b2 3d 55 0e 3d bc b9 ba 19 3e 7c 3c 21 bd
       0.08701264 -0.011539062 0.15012635 -0.039364323
000020 d3 5c eb bd b3 f9 ea bd 27 73 57 bd 10 42 87 bd
       -0.11492314 -0.114734076 -0.052600052 -0.06604397
000030 66 3c 1a bd b3 8e 94 3d 9a e8 1b bb ea 8f 58 3d
       -0.037655257 0.0725378 -0.0023789764 0.052871622
000040 75 4e 9e 3d 86 b3 36 3c c2 7d c5 bd 14 46 ce 3d
       0.07729808 0.0111512 -0.09643127 0.1007196
000050 b2 af a8 bd 29 42 ee bc ff f6 90 bd e8 76 0f be
       -0.08236636 -0.029084282 -0.07078361 -0.14010203

4.8.weight f4 [24, 24]
000000 bc ee b3 bd 19 1b 14 3e c7 4d 47 3e d6 77 25 be
       -0.08785769 0.14463462 0.19463263 -0.16158995
000010 bf de 3a be fa 78 57 3c 36 de 19 be 18 4e 4c 3e
       -0.18249033 0.013151402 -0.15026173 0.19951665
000020 27 a3 78 3c 83 77 1a bd c1 40 e8 bd ae 74 00 3e
       0.015175617 -0.03771163 -0.11340476 0.1254451
000030 09 3d 05 3e 6c 05 62 3d 80 c5 a9 3d 9d 3c 99 bd
       0.13011564 0.055180952 0.08289623 -0.07482264
000040 c8 24 19 3e 1a f7 c6 bd 66 5c 05 be 6a 88 fa 3d
       0.14955437 -0.097151 -0.13023528 0.1223305
000050 b2 f6 07 3c 0f a7 3e be 29 65 08 be 59 35 45 3e
       0.008298563 -0.18618415 -0.1331984 0.19258632
000060 d3 e7 e1 bd 92 56 c0 3d 05 c1 3b 3e 68 a1 3e bd
       -0.11030545 0.09391512 0.1833535 -0.046540648
000070 94 04 00 3e a9 e8 92 3d a9 65 7f bc bf eb 52 be
       0.12501746 0.07173283 -0.0155882025 -0.20597742
000080 91 d5 44 3c a7 36 ab bc eb b9 01 3e f7 98 45 3e
       0.012013809 -0.020900084 0.12668578 0.19296633
000090 92 cd 41 be f0 ae 43 be 26 23 10 3e a9 74 50 3e
       -0.18926075 -0.19109702 0.14075908 0.20357002
0000a0 e5 41 57 be 4e ee 61 3d dc 79 d7 3d 75 5a 03 3e
       -0.2102123 0.055158906 0.1052129 0.12827475
0000b0 a1 22 fa 3d 3e 95 cf 3c a6 9f a2 bd b0 ca 09 3e
       0.12213636 0.025339719 -0.07940607 0.13456225
0000c0 77 2d 13 3e 7b a4 0b 3e 58 c0 31 bc 31 ab f4 3c
       0.14372812 0.13636963 -0.010849081 0.029866787
0000d0 88 fc c3 3d 2c 49 11 bd bf 20 35 3e e7 12 2b be
       0.09569651 -0.035470173 0.17688273 -0.1670643
0000e0 90 e6 3a 3e d0 75 40 bb de a4 4f 3d 43 30 86 3d
       0.18252015 -0.0029367097 0.05069434 0.06552174
0000f0 d2 dc 09 3e 97 34 6c 3d a0 47 65 bd fd 40 f5 3a
       0.13463143 0.05766734 -0.05597651 0.0018711385
000100 6e 1f 00 3e bb a4 1b be 68 9e 30 bd cb 92 cf bd
       0.1251199 -0.15199558 -0.043119818 -0.101354204
000110 f4 d5 ad bd 2a 4c b6 bd 9d bb d4 3d b5 a5 fc 3d
       -0.08488074 -0.08901246 0.10387347 0.123362936
000120 fd 12 3f be 4f 4c 9f 3c a1 7e 0e be 58 39 c2 3d
       -0.18659587 0.019445566 -0.13915493 0.09483594
000130 b0 5e 50 bd 96 3f 05 be 8e 7c b5 bc 4e 6d 87 3d
       -0.05087155 -0.13012537 -0.022154119 0.06612645
000140 28 5c bc bd f2 97 09 3e d0 e1 41 be 08 5f 95 bc
       -0.09197265 0.13436869 -0.18933797 -0.018233791
000150 2c f4 1c bd 7b 70 3a 3e c0 ea 1e be c4 bd 2f bd
       -0.038318798 0.1820697 -0.15519238 -0.042905584
000160 20 59 0a 3e 0c b0 7f 3d a4 e7 21 3e 40 8d 1b 3e
       0.13510561 0.06242375 0.1581102 0.15190601
000170 70 6c e4 3d 1b 3c 14 3e 88 9a 39 3e c3 96 19 3e
       0.11153495 0.14476053 0.18125355 0.14998917
000180 51 44 ed bd 3f 1d 19 be 59 0d 52 3e 63 65 0b 3e
       -0.11585296 -0.14952563 0.20512904 0.13612895
000190 59 6f 47 3e 8a 77 04 3e a9 38 17 be 53 4d 36 3d
       0.1947607 0.12936226 -0.14767708 0.044507336
0001a0 57 69 dc 3d 70 3b fe bd de 4c 02 be 37 4e e2 3c
       0.107622795 -0.124136806 -0.12724635 0.027625186
0001b0 6d 50 e5 3b e5 52 49 be 4d 9c 40 be 5b 58 ac bb
       0.006998113 -0.19660528 -0.18809624 -0.005259556
0001c0 2a b9 4f 3b 98 39 3f be dc a6 05 be 99 8e 14 be
       0.003169606 -0.18674314 -0.13051933 -0.14507522
0001d0 bb 61 32 3d a7 3f 05 be ca 25 bb bd 65 d2 3b be
       0.043550234 -0.13012563 -0.09138067 -0.18341978
0001e0 37 9e 43 be 48 fe 33 3e e3 89 cb bd 0b 83 a3 3d
       -0.19103323 0.1757747 -0.09938409 0.07983979
0001f0 4a 7f 3b 3e ab 09 18 be 63 29 13 3c e9 16 9d 3d
       0.18310276 -0.14847438 0.008982035 0.076703854
000200 27 6a 1a 3e 6b 41 43 bd 93 5e 77 bd ff 39 7c 3d
       0.15079556 -0.04766981 -0.060392927 0.061578747
000210 f3 f7 cb bd 4e 5e 67 3c 59 e0 9d bd a2 9d 25 3e
       -0.09959402 0.014121605 -0.077088065 0.16173413
000220 e6 59 38 be 9e 83 29 bd d1 8c 05 3d 4e 1b fa bd
       -0.18003044 -0.041385286 0.032604996 -0.12212239
000230 92 cc 4e be b4 49 7a bb 6a 36 d7 bd 0f 1c d0 3d
       -0.20195225 -0.0038190903 -0.105084255 0.10161602
000240 b6 b8 95 3d a3 d9 e5 bb 72 36 93 3d 2f 55 71 3d
       0.073106214 -0.0070144697 0.07188119 0.058919128
000250 29 39 34 3d b5 9f 34 3d ba a0 8e 3d c4 d6 35 3e
       0.043999825 0.04409762 0.0696425 0.17757708
000260 9e 4d e8 bd 30 87 23 bd 0a 26 84 3c e1 b8 9d 3d
       -0.11342929 -0.039923847 0.01613142 0.077012785
000270 b1 79 cb bc a4 fc a5 bd b2 76 21 be 0b a8 4c 3e
       -0.0248383 -0.08104828 -0.15767935 0.19985978
000280 dd a0 c0 3c 5c 98 2f 3d 15 50 19 be 1c a4 10 be
       0.023514206 0.04286991 -0.14971955 -0.14125103
000290 da e4 2e 3d 7d 65 4a bd e9 48 e4 3b ca e8 5f 3d
       0.04269872 -0.049413193 0.0069666994 0.054665364
0002a0 39 6d dd 3d 6c 6d 1b 3d f9 d7 b7 bd 4f 73 96 bc
       0.10811848 0.03794615 -0.089767404 -0.01836553
0002b0 57 cc 76 bc d7 47 66 bd 0a 86 c0 3c 8a 5e c3 3d
       -0.015063367 -0.056220856 0.023501415 0.09539516
0002c0 a2 d0 0b be 37 dd 53 be 8d 06 58 be 52 e9 32 3e
       -0.13653806 -0.20689856 -0.21096249 0.17471817
0002d0 8f 38 a3 bd dd 8a 30 be 9a 25 fc bd 0e 17 4a bd
       -0.07969772 -0.17240472 -0.123118594 -0.049338393
0002e0 8c 2e 0a 3d 72 dc 0f bd ee d7 00 3d a6 20 69 3c
       0.033735797 -0.035122342 0.031455927 0.014228975
0002f0 dd 30 cf 3d 83 40 c6 3c 7b b5 7b bd 9b 23 2c 3e
       0.10116742 0.024200683 -0.06145237 0.16810457
000300 68 b8 e4 bc fd 65 85 3d 2e a1 40 be ab 08 ba bd
       -0.027919963 0.06513593 -0.18811485 -0.090836845
000310 2c bb 82 bd 81 0b 65 bd e6 1d e2 3b d3 ba 09 be
       -0.063833565 -0.055919174 0.006900537 -0.13450174
000320 9d ac 17 bd b4 e8 21 3e e3 63 f5 3d 4a e6 65 bd
       -0.03702985 0.15811425 0.119819425 -0.056127824
000330 9e c4 40 be e5 3f e2 bd 94 35 b9 bd 7f c6 7c 3c
       -0.18825004 -0.11047343 -0.09043422 0.0154281845
000340 5f 24 e3 bd ea f2 2d bd aa 97 c3 3c e2 fd 2f 3e
       -0.110909216 -0.04246799 0.02387603 0.17186692
000350 21 69 f1 bd 0d 6c 49 be d9 ac 2d 3e fd 5d d1 bc
       -0.1178763 -0.19670124 0.16960467 -0.025557512
000360 08 6c be 3d 18 5b c4 bd 48 2f 2c 3e f3 3c 5e bd
       0.09297949 -0.09587687 0.16814911 -0.054257344
000370 d0 c9 18 be bd 92 b1 3c 3f 37 0f bd 83 ce 88 bc
       -0.14920735 0.021676416 -0.034964796 -0.016700035
000380 b3 28 fd bb ba af c5 3d d6 1b 5f 3d 37 25 3f be
       -0.007725799 0.09652658 0.054469906 -0.1866654
000390 2b 83 96 3d 8b e2 20 be 22 0a 1e ba 3e 14 38 3b
       0.07349237 -0.1571142 -0.00060287316 0.0028088237
0003a0 b2 78 b4 3d 5b de 01 3e 2b a4 1a 3e 6f 34 ba 3d
       0.08812083 0.12682478 0.15101688 0.09092032
0003b0 9a be 0d 3d e6 3e a0 3d 7d 89 3c 3d 61 2c 00 be
       0.0346056 0.07824497 0.046029557 -0.12516929
0003c0 14 1e 10 3e 92 9e 3b 3e 51 2d ac 3b 91 f2 36 3e
       0.14073974 0.18322209 0.0052544256 0.17865969
0003d0 32 cb df 3d c9 ef b8 bd 16 a3 05 3d 63 6e a8 3c
       0.10927428 -0.090301104 0.032626234 0.020560449
0003e0 f9 b2 0b 3e 87 2e 28 3d 5d a1 06 be ba 6f b9 3d
       0.13642491 0.041059997 -0.13147493 0.09054513
0003f0 41 75 83 3d 47 a5 2f bc 30 0b a7 bc 0c 82 cb 3d
       0.06418849 -0.0107205575 -0.020391077 0.09936914

4.8.bias f4 [24]
000000 86 d1 ee bc 5c 48 8b 3d ce 2c 91 3d 41 a2 4d bd
       -0.029152643 0.06800911 0.07088624 -0.050203566
000010 db 40 8d bd 6c 81 de 3d 1b 94 d8 3d ad c3 d3 bc
       -0.06897136 0.10864529 0.10575124 -0.025850141
000020 41 9f 45 3d 41 e4 a2 3c 32 e1 97 bc a0 6e 25 be
       0.04824758 0.01988423 -0.018539999 -0.16155481
000030 e8 5a 9e bd 20 58 25 be 8a 13 ca bd 57 ec 81 3d
       -0.07732183 -0.16146898 -0.09867008 0.063439064
000040 1e 67 4d 3e 35 ad 97 3d 3a c4 8e bd 32 70 e8 3d
       0.20058867 0.074060835 -0.06971021 0.113495246
000050 99 87 b2 3d d7 01 83 3d d0 cd 20 be 8c d7 f4 bd
       0.087172695 0.06396835 -0.15703511 -0.11955175

4.10.weight f4 [12, 24]
000000 d7 04 bb bc a4 f5 22 3d ae 26 37 3e bf d3 25 3e
       -0.022829456 0.039785042 0.17885849 0.16194056
000010 b8 b6 53 bd 65 56 cc 3d 33 fe d9 bd 65 c6 ff 3b
       -0.051687926 0.09977416 -0.10644188 0.007805633
000020 34 ad 77 bc 1c e5 36 3e 6f 54 9b 3c a7 75 86 3d
       -0.015116978 0.17860836 0.01896116 0.06565409
000030 f3 a1 38 3e bd fd 2a 3e 57 bc 6d 3c 38 99 fe bd
       0.18030529 0.16698356 0.014510236 -0.12431568
000040 64 65 3e be 3c c8 54 3e 10 be 50 3e 87 b3 3d 3e
       -0.18593365 0.20779508 0.20385003 0.18525515
000050 70 bf d6 3d 0f 76 f6 3c df 58 c5 bd 8f 09 04 be
       0.104857326 0.030085592 -0.096360914 -0.12894271
000060 50 6c 4a be e9 23 99 3d a6 f1 b7 bd dd 7f b4 bd
       -0.1976788 0.074775524 -0.08981638 -0.088134505
000070 ef c5 4e be 6c b2 15 3d 9f f9 00 be 4f 1a b4 3d
       -0.20192693 0.03654711 -0.12595223 0.087940805
000080 a1 a7 2f be 47 6b 81 bd ca 50 20 be c7 74 e3 3c
       -0.17153789 -0.0631929 -0.15655819 0.027765645
000090 5e 46 b7 bd 3e 0f 72 bd 19 ab e1 bd 20 9d 24 bd
       -0.08948968 -0.059096567 -0.110189624 -0.04018891
0000a0 f2 a6 1e be 3d cd 09 be 9e b2 4f be 57 62 50 bd
       -0.15493372 -0.13457198 -0.20282981 -0.050875034
0000b0 b3 36 82 3b 1e 66 54 3e 55 dd 0c 3d cd 22 48 bc
       0.003973806 0.2074208 0.034390766 -0.012215328
0000c0 ce 55 1b 3d 58 86 ee bd 9c f0 23 be 33 7d fb 3d
       0.037923627 -0.11646718 -0.16009754 0.12279739
0000d0 9c e6 b8 bd 13 90 ff 3d 15 58 29 3e 66 4d b4 bd
       -0.0902836 0.12478652 0.16537507 -0.08803825
0000e0 98 c5 32 3e f5 d0 d3 ba 9f 8e 04 be d0 fa 31 3e
       0.17458189 -0.0016160297 -0.1294503 0.17380834
0000f0 12 22 05 be 3c 3a 90 3d ee 17 3d be c9 3a 30 be
       -0.13001278 0.07042357 -0.1846616 -0.17209925
000100 0c 64 37 be 22 ce 9b 3d 9f 9b f1 3d 98 a5 93 3c
       -0.17909259 0.07607676 0.117972605 0.018023297
000110 18 1f be bd c3 96 09 bd 8e 59 12 be b3 6d df bd
       -0.092832744 -0.033591043 -0.14291975 -0.10909595
000120 98 2e c1 3d 33 60 29 be fc 3d 86 bd b8 04 82 bc
       0.09432715 -0.16540603 -0.06554791 -0.01587139
000130 e9 87 23 be 15 48 44 be 3e 97 1e be 4c e7 1e be
       -0.15969814 -0.19168122 -0.15487382 -0.1551792
000140 db 21 26 bd 1a 64 10 be d3 fd 1f be 77 ac 12 be
       -0.04055963 -0.14100686 -0.1562417 -0.14323603
000150 11 13 a3 b9 54 21 4f 3e f5 3b 53 3e b9 b4 1c 3e
       -0.00031103988 0.20227557 0.2062834 0.15303315
000160 68 8b 80 bd c3 d3 38 be 54 f0 34 3e cc 35 0f 3e
       -0.0627659 -0.1804953 0.17669803 0.13985366
000170 00 1d 21 be ad d7 02 be 95 22 b6 bd 51 5b 0e 3e
       -0.15733719 -0.12777586 -0.08893315 0.13902022
000180 0a 9f 08 be 87 6c 12 3e 12 e3 ac bd 55 47 bb bd
       -0.13341919 0.14299212 -0.08441748 -0.09144465
000190 8a 8b 23 be 39 2b 97 bd c7 dc bd 3d 19 6f 7d 3d
       -0.15971199 -0.07381291 0.092706256 0.06187353
0001a0 a7 1b 28 be 62 cf d2 3d da 6b 38 bd 54 c8 34 be
       -0.16416799 0.102934614 -0.04502473 -0.17654544
0001b0 f8 88 37 be d6 7b 08 be 10 cc 45 3e af 5c 72 3e
       -0.17923343 -0.1332849 0.19316125 0.23668168
0001c0 25 8e 5f 3e 4c b5 58 be c1 62 2c 3e 26 11 c5 bd
       0.21831568 -0.2116291 0.16834547 -0.096224114
0001d0 17 08 86 3d 70 f9 83 3e 6e 03 21 be f7 b0 45 3e
       0.06544512 0.25776243 -0.15723965 0.19305788
0001e0 b7 36 2b 3e 2d 14 d9 3d 49 7c 2d bc 39 25 c0 bd
       0.16720091 0.10599551 -0.010588714 -0.093821
0001f0 d6 1d 05 3d 7d b6 01 be 74 a0 56 bd 06 89 0c be
       0.032499157 -0.1266727 -0.052399114 -0.13724145
000200 31 1e 06 bd e1 79 f1 3d 29 f2 8e bd 37 0c 0f be
       -0.032743637 0.11790825 -0.06979782 -0.13969503
000210 2e 17 95 bc fa 3c 29 3e 91 55 ae bd 2b d9 68 3d
       -0.01819953 0.16527167 -0.08512414 0.056847733
000220 a4 8f 0c be 5f a4 e7 3d 6a 04 6b 3e ec a5 00 3e
       -0.1372667 0.11310648 0.22950903 0.12563294
000230 69 bd 2e 3e 85 c9 f6 bd 11 d7 d7 3d ff 38 36 3d
       0.17064442 -0.120501556 0.105390675 0.04448795
000240 9b 20 f4 3d 71 d8 be bd ea a2 ea bd 6a 72 03 3e
       0.119202815 -0.09318627 -0.11456855 0.12836614
000250 a9 af d4 3d 35 ea 1d 3e d2 65 a7 bd 6c c5 f8 bd
       0.10385067 0.15421374 -0.081737176 -0.1214703
000260 51 7d b8 bc bf a3 2e be a4 ec 9c bb b0 9b 1d be
       -0.022520693 -0.17054652 -0.004788952 -0.15391421
000270 07 86 53 be 18 40 33 bd c5 cd ff 3d cb 6a 23 3e
       -0.20656596 -0.043762296 0.12490419 0.15958707
000280 49 a0 76 3d 6a f2 28 3e 89 2e 4b 3e 81 3b 83 3d
       0.060211454 0.16498724 0.1984197 0.06407834
000290 8f 6f 32 be cc f2 5d 3d 5c 1f eb bd 9e 8a 3a be
       -0.17425369 0.054186627 -0.11480591 -0.18216941
0002a0 c9 5f 36 3d 58 f4 11 3e c2 e9 1d 3e bf 28 af 3d
       0.04452494 0.14253366 0.15421203 0.085526936
0002b0 b3 ef c1 bc 7a 6b 51 be e0 d3 48 3e 0f 93 0d 3e
       -0.023673868 -0.20451155 0.19612074 0.1382563
0002c0 76 d7 96 bd 33 b1 3b be 0d 64 dd bc f2 00 ff 3d
       -0.07365315 -0.18329315 -0.027025247 0.12451352
0002d0 fd be a4 bd cc a2 3d 3d 0e 05 38 be c0 1a dc 3d
       -0.080442406 0.046297833 -0.17970678 0.1074729
0002e0 95 63 94 bd 16 66 0d bd 58 d2 b8 3c 3c 79 94 bb
       -0.07245556 -0.034521185 0.022561237 -0.004531054
0002f0 4f 9c 1d 3d 10 49 c9 3d 6f 0c 16 be 05 a4 20 bb
       0.038479146 0.09828389 -0.1465318 -0.0024511826
000300 e2 89 86 bd 45 cd 0f 3d aa 71 52 be 54 eb 0c be
       -0.06569268 0.03510787 -0.20551172 -0.13761646
000310 6e f2 d0 bd a2 df 83 3d 36 58 89 bd b1 02 e7 bd
       -0.1020249 0.06439139 -0.06706278 -0.1127981
000320 5b 9e d9 bd d5 a9 46 3d f7 e9 0f bc 42 75 63 bc
       -0.10625907 0.04850181 -0.008783809 -0.013882937
000330 66 e8 75 bc 1a 17 fc bd d0 d7 da 3d 0e 01 54 bd
       -0.015009021 -0.12309094 0.10685694 -0.05175882
000340 88 e6 bc 3d 26 cd 25 3e 44 3c ae 3d d4 20 82 3d
       0.09223658 0.16191539 0.085075885 0.06353918
000350 3c 1e 70 bd 33 2d 16 be 4c d1 7c bd 3c cb 9c bd
       -0.058622584 -0.1466568 -0.06172304 -0.076559514
000360 49 2b 2a bd 2e e3 43 3e ca 35 9a 3d 46 25 39 3d
       -0.041545186 0.19129631 0.07529791 0.045201562
000370 36 f3 34 3d e1 9b 21 bd c9 2d 50 bc b6 a6 c9 3d
       0.044177257 -0.0394553 -0.0127062285 0.09846251
000380 81 37 8e 3d eb d8 c9 3d 21 6d 4a bd 5e 92 0f be
       0.0694418 0.09855827 -0.04942048 -0.14020678
000390 d3 d8 ef bd 69 dd a8 bc 7a 6c 8c 3d 4b 1e 12 bd
       -0.11711278 -0.02061339 0.06856628 -0.03567342
0003a0 7a df 69 3e 14 e9 1e 3c 11 4b 0a 3d 5c c6 1b be
       0.22839156 0.009699125 0.033762995 -0.15212387
0003b0 13 f9 69 3b 77 eb 24 3e 0f 82 b9 bd 0c be a2 bd
       0.0035701438 0.16105448 -0.0905801 -0.07946405
0003c0 74 d0 c8 bc 03 e4 b2 3d d7 54 35 be 52 07 3c 3e
       -0.02451346 0.08734896 -0.17708145 0.18362167
0003d0 7f e6 99 3c 32 0a a9 bd b1 3c 1a be 48 a7 1a 3d
       0.018786667 -0.08253898 -0.15062214 0.037757188
0003e0 bf 85 3c be 18 ef 52 bd c8 86 2d 3d 5c e2 e5 bc
       -0.18410395 -0.05149755 0.042364866 -0.028062038
0003f0 6d ae 21 be da e8 f9 bd 36 d0 aa bc 71 62 19 be
       -0.15789194 -0.12202616 -0.020851236 -0.14978959

4.10.bias f4 [12]
000000 ab 90 39 be 72 c0 d6 3c fe 74 ec 3d 3a 73 76 bc
       -0.18121593 0.026214812 0.11545752 -0.015042121
000010 3a 78 8a 3e a0 8f 61 be ec fe 7a 3d 16 1c 9d bc
       0.2704485 -0.22027445 0.06127827 -0.019178431
000020 70 28 0e 3e 9b 3c aa 3d 50 65 50 be 26 fb c0 3d
       0.13882613 0.08312341 -0.20351148 0.09422903

4.12.weight f4 [4, 12]
000000 d4 b1 94 3e 98 3b 4e be 20 b3 62 be 36 33 63 be
       0.29041922 -0.2013992 -0.22138643 -0.22187504
000010 44 6b 3c 3d db e4 7e 3e 15 c5 c6 bd 62 aa 88 3e
       0.046000734 0.24891989 -0.09705559 0.26692492
000020 29 e1 04 be e0 f2 58 be 97 12 3d 3e 60 4f 7e be
       -0.12976517 -0.211864 0.18464123 -0.24834967
000030 9e 59 b6 3d 6b 42 be bd 59 be 82 3e 0f 5a b8 ba
       0.08903812 -0.09290012 0.2553585 -0.0014064925
000040 f5 15 f9 bd b1 2e 55 3d 03 4a 5a 3e 8e 58 8c bd
       -0.12162391 0.05204648 0.21317296 -0.06852828
000050 96 49 26 be ef 7f 42 be 2c d7 a2 3d ad 23 8a be
       -0.16239008 -0.18994115 0.07951197 -0.26980343
000060 56 03 87 3e b0 80 20 be fc b8 9b bd 90 a1 3e 3d
       0.26369733 -0.1567409 -0.07603642 0.046540797
000070 61 1d d6 be 4a 92 53 3e ee 20 49 3d 71 c4 27 be
       -0.4181929 0.20661274 0.04910367 -0.1638353
000080 18 58 63 3b c9 ae 81 be a5 87 e5 3c 39 57 6f 3d
       0.003468996 -0.25328663 0.028018782 0.05843279
000090 96 dc b0 3d 9f ac bd bd fe d1 80 be af b7 81 3e
       0.086358234 -0.092614405 -0.2516021 0.25335452
0000a0 b5 83 cb be 39 cf 52 3e 0a 7e 9c be 68 a6 29 3e
       -0.39748922 0.20586862 -0.3056491 0.16567385
0000b0 f2 14 d4 3d d1 c9 ae 3b 57 62 f2 3d 75 5c a4 bd
       0.103555575 0.005334117 0.11835163 -0.08025447

4.12.bias f4 [4]
000000 cd d8 bd be d6 c1 0a bf 7f 1c c1 be 7e 4b b8 be
       -0.37079468 -0.5420202 -0.37717053 -0.35995096
