JSP/trained models/bsf_A2C.pt (torch_old, 27312 bytes, 16 tensors)

0.0.weight f4 [5, 5]
0	0x3f990894	1.1955743
1	0x3f53ba62	0.8270627
2	0x3f9b94fe	1.2154844
3	0x3fa984ef	1.3243693
4	0x3f9e163b	1.2350534
5	0x3f9904e4	1.1954618
6	0x3f729aa2	0.947672
7	0x3f59bfaa	0.8505808
8	0x3f5c0885	0.859505
9	0x3f814974	1.0100541
10	0x3f958fa8	1.1684465
11	0x3f756384	0.95854974
12	0x3f7bc480	0.9834671
13	0x3fa913ff	1.3209227
14	0x3f66d5e4	0.9017012
15	0x3f96d3c5	1.1783377
16	0x3f4aba36	0.79190385
17	0x3f835887	1.0261391
18	0x3f5b8164	0.8574431
19	0x3f816b50	1.0110874
20	0x3f8d6d3c	1.1048961
21	0x3f66fa5a	0.90225756
22	0x3f87f678	1.0622091
23	0x3f4dad36	0.80342424
24	0x3f6b0784	0.9180834

0.0.bias f4 [5, 5]
0	0xbe1dc972	-0.15408877
1	0xbd4ec3e4	-0.050479785
2	0xbd5bfa06	-0.053705238
3	0x3e2e1aa2	0.17002347
4	0x3cfef9de	0.031125005
5	0xbe3d1eae	-0.18468735
6	0xbe209c3d	-0.156846
7	0x3e9aff73	0.30273017
8	0x3e1a8179	0.15088452
9	0xbe8d570a	-0.27605468
10	0xbdc0376b	-0.0938557
11	0x3ced5b57	0.028974218
12	0xbd66c224	-0.05633749
13	0x3dfca02f	0.1233524
14	0xbce0797e	-0.027401682
15	0xbe114658	-0.1418699
16	0xbe3f77cb	-0.18698041
17	0x3e6c307a	0.23065367
18	0x3eacd906	0.33759326
19	0xbe28af84	-0.16473204
20	0xbdc55c41	-0.09636737
21	0xbeac9b5c	-0.3371228
22	0xbe8bd163	-0.27308187
23	0xbe3c7129	-0.18402542
24	0x3dda7e1a	0.10668583

0.2.weight f4 [48, 25]
0	0xbdc2caa4	-0.09511307
1	0x3dad177a	0.084517434
2	0x3df10882	0.11769201
3	0xbe36cda7	-0.17851888
4	0x3e2b960c	0.16756457
5	0x3de0f320	0.109838724
6	0xbd94de50	-0.07268965
7	0x3d86c0a6	0.065797135
8	0x3d27a9ca	0.040933408
9	0xbe907496	-0.28213948
10	0x3e806701	0.25078586
11	0x3e79b484	0.24385267
12	0x3d535caf	0.05160206
13	0x3d4e60c3	0.050385248
14	0xbd25ecdb	-0.040509086
15	0x3e33c5a0	0.17555857
16	0x3d9a36d2	0.075299874
17	0x3da31c4f	0.07964384
18	0xbdb272ec	-0.08713326
19	0xbe605bec	-0.21910065
20	0xbd94306f	-0.072358005
21	0xbe5688e6	-0.2095066
22	0xbe9c0021	-0.30468848
23	0x3e68a825	0.22720392
24	0xbd90c88b	-0.070695005
25	0x3dbe156c	0.0928143
26	0x3d7326fc	0.05936335
27	0x3e36afcc	0.17840499
28	0xbc05e100	-0.00817132
29	0xbef872c4	-0.4852506
30	0xbde54ccc	-0.111962885
31	0x3e106d38	0.14104164
32	0x3e765c8e	0.24058744
33	0xbe74472c	-0.23855275
34	0xbec297b4	-0.38006365
35	0xbcb9510e	-0.022621658
36	0xbe21011f	-0.15723084
37	0xbdb6620c	-0.0890542
38	0xbd95067c	-0.072766274
39	0x3e211629	0.1573111
40	0x3e2587b3	0.16165046
41	0x3e40d8d6	0.18832716
42	0x3dc20e20	0.094753504
43	0xbe1a218e	-0.15051863
44	0x3d4cced8	0.05000195
45	0x3cf1d372	0.02951977
46	0xbdc5b5ea	-0.09653838
47	0x3bf3820a	0.0074312733
48	0xbe4c4276	-0.19947228
49	0xbe57ca5e	-0.2107329
50	0xbe834f17	-0.25646278
51	0x3cd44a3e	0.025914308
52	0xbe86de33	-0.263414
53	0x3def583c	0.11686751
54	0x3e739c4e	0.23790094
55	0xbc8e49b1	-0.017369123
56	0xbc7b6326	-0.015343463
57	0xbc8661ea	-0.016404111
58	0xbe2328c2	-0.15933517
59	0xbe6f0f08	-0.23345578
60	0xbe904b53	-0.28182468
61	0xbcb494c4	-0.022043593
62	0xbdc3cb48	-0.09560257
63	0x3d8d43bb	0.06897684
64	0xbdacb3cb	-0.0843273
65	0xbe435cb4	-0.19078332
66	0xbe1e5f8a	-0.15466133
67	0x3e8465ff	0.25859067
68	0xbe873f93	-0.2641569
69	0xbe23eaae	-0.16007492
70	0xbdbf0cdc	-0.093286246
71	0x3dbb16f4	0.09135237
72	0xbe6df3e4	-0.23237568
73	0x3e12c0bc	0.14331335
74	0xbdae76fa	-0.08518787
75	0xbe28e83e	-0.16494843
76	0x3e4fe0fe	0.20300671
77	0xbe0e6d18	-0.13908803
78	0xbdf17336	-0.11789553
79	0x3ea0af88	0.3138392
80	0xbdcfd7e2	-0.10148598
81	0xbda4ba18	-0.08043307
82	0xbc8251f5	-0.01590822
83	0x3de7e816	0.11323564
84	0xbc5b12b2	-0.0133711565
85	0xbdd43dd7	-0.103633575
86	0x3dceba7c	0.10094163
87	0x3ceb335a	0.02871101
88	0x3e262d1f	0.1622815
89	0xbde34c29	-0.11098511
90	0xbe4b6512	-0.19862774
91	0xbd2eb788	-0.042655498
92	0x3e40870c	0.18801516
93	0x3e6724c2	0.22572616
94	0xbe85d7b6	-0.26141137
95	0xbe790241	-0.24317266
96	0x3d8c9aa5	0.068654336
97	0xbc52626c	-0.012840848
98	0xbe1c9b86	-0.15293702
99	0xbe3b873a	-0.18313304
100	0x3e774938	0.24149024
101	0x3df150d1	0.11782993
102	0x3e8754b8	0.26431823
103	0xbd5a2098	-0.05325374
104	0xbecb4ee9	-0.3970864
105	0x3e3fc98e	0.18729231
106	0xbd2bd92e	-0.041955166
107	0xbe84a924	-0.25910294
108	0xbe1d5739	-0.15365304
109	0x3e78676e	0.24258205
110	0x3e686c66	0.226976
111	0x3d979c04	0.074028045
112	0x3d742036	0.05960103
113	0xbd9c64c4	-0.07636407
114	0xbdf8b4a2	-0.12143828
115	0x3dc668c2	0.0968795
116	0xbdfd5233	-0.12369194
117	0xbddcf7e2	-0.107894674
118	0xbdffe3fa	-0.12494655
119	0xbe123ebe	-0.14281747
120	0x3ec76adb	0.38948712
121	0x3dad4ebe	0.084622845
122	0x3e92e813	0.28692684
123	0xbe6b665a	-0.22988263
124	0x3e0eb278	0.13935268
125	0x3e39042f	0.18068002
126	0xbda94052	-0.08264221
127	0x3df91f90	0.12164223
128	0xbdce32f6	-0.10068314
129	0xbeaeda74	-0.34151042
130	0xbd8e0f64	-0.06936529
131	0xbdcf0781	-0.10108853
132	0xbdf6804d	-0.1203619
133	0xbd554897	-0.05207118
134	0x3dfb79c8	0.12279087
135	0xbba46072	-0.00501638
136	0x3e4d4692	0.20046452
137	0xbdf3c176	-0.11902134
138	0xbe991929	-0.29902008
139	0xbda1c37e	-0.07898615
140	0x3de6172a	0.11234887
141	0x3c3f7bf4	0.011687268
142	0x3d91212b	0.070864044
143	0xbe243ee9	-0.16039623
144	0x3df62cdd	0.12020276
145	0x3d9a1bac	0.07524809
146	0x3ef19bec	0.4718927
147	0x3d9bd619	0.07609195
148	0xbe2a0dab	-0.16606776
149	0xbad60e50	-0.001633117
150	0xbe3fc47d	-0.18727298
151	0x3eb29800	0.34881592
152	0xbed1cae6	-0.40975112
153	0x3ee11c58	0.43966937
154	0xbc5d76fc	-0.013517138
155	0xbe4250e6	-0.18976173
156	0xbd579318	-0.052630514
157	0xbc3e8eac	-0.011630695
158	0x3e1fa755	0.15591176
159	0x3ed78ba0	0.42098713
160	0x3cf27449	0.029596465
161	0x3dc94a14	0.098285824
162	0xbde60458	-0.11231297
163	0x3dbf36dd	0.09336636
164	0x3d926862	0.07148816
165	0xbe7bfb05	-0.24607475
166	0x3e21dfe1	0.1580806
167	0xbdefa4ca	-0.11701353
168	0x3e12c8bc	0.14334387
169	0x3e9f2d18	0.3108909
170	0x3d8c81b2	0.06860675
171	0x3cc40176	0.023926478
172	0xbd6a3750	-0.057181656
173	0x3e2c4457	0.16822945
174	0x3eb529eb	0.35383543
175	0xbe8873ae	-0.26650757
176	0x3e4c1687	0.19930468
177	0xbeb15c62	-0.34640795
178	0x3ea465a0	0.32108784
179	0x3e66ad10	0.22526956
180	0xbd98233f	-0.07428598
181	0x3d83b25c	0.06430504
182	0x3d0a8e39	0.03382704
183	0x3e899085	0.26868072
184	0xbe4be1ec	-0.19910401
185	0xbec985f2	-0.39360005
186	0xbd0d4eb6	-0.034498893
187	0x3d46c65e	0.04852902
188	0x3f04cc65	0.5187438
189	0x3daead06	0.08529095
190	0xbe8dbe90	-0.2768445
191	0x3e1eca18	0.1550678
192	0xbc440424	-0.011963878
193	0xbde55b4c	-0.11199054
194	0xbda675c5	-0.081279315
195	0xbd4ec3ec	-0.050479814
196	0xbd7fbcaa	-0.062435783
197	0xbe8d26ad	-0.2756857
198	0xbe8f87d2	-0.2803331
199	0x3e268d1c	0.16264766
200	0x3d047f76	0.03234812
201	0x3d714413	0.05890281
202	0x3dbf9c34	0.09355965
203	0xbd6a267f	-0.05716562
204	0x3db5dfb6	0.0888056
205	0xbce1d3d8	-0.027566835
206	0xbe8f39ac	-0.27973688
207	0x3e22d77a	0.1590251
208	0xbe8fefde	-0.28112692
209	0xbe945e34	-0.2897812
210	0x3e03182e	0.12802193
211	0x3e26ec04	0.1630097
212	0x3e02a3f2	0.12757853
213	0x3e110a9f	0.14164208
214	0x3e6b4e7e	0.22979161
215	0x3e1db20b	0.15399949
216	0x3dc9bb18	0.098501384
217	0x3e8d1590	0.27555513
218	0xbd5d2724	-0.053992406
219	0x3cf252a4	0.029580422
220	0xbdddf993	-0.10838618
221	0xbd382562	-0.044957526
222	0xbd9573f5	-0.07297508
223	0x3ebce57c	0.36893833
224	0xbe495faa	-0.19665399
225	0x3e54c050	0.20776486
226	0x3cca30c1	0.02468145
227	0x3e035290	0.12824464
228	0xbd027f22	-0.031859525
229	0x3ea046ec	0.3130411
230	0x3eada703	0.33916482
231	0x3d4d318a	0.050096072
232	0x3c1fb4fb	0.009747739
233	0xbe8a5887	-0.27020666
234	0xbd25b846	-0.04045894
235	0x3e51ec44	0.20500284
236	0xbe7cdb62	-0.24693063
237	0x3da8683a	0.08223005
238	0xbccc0182	-0.024903063
239	0xbe3c759a	-0.18404236
240	0x3ec4b9b6	0.38422936
241	0x3e59bf1a	0.21264306
242	0xbc1a01f0	-0.009399876
243	0xbe3d0d35	-0.1846207
244	0xbe7ea7de	-0.24868724
245	0x3e3b2005	0.18273933
246	0xbc650129	-0.013977327
247	0xbdcfa440	-0.1013875
248	0xbd87e1d1	-0.06634868
249	0x3e8b4440	0.27200508
250	0x3eb72858	0.35772967
251	0x3d3a0452	0.045414276
252	0x3d1a66f4	0.03769584
253	0xbee4a3f0	-0.44656324
254	0xbe845e7f	-0.25853345
255	0x3ebf3fb3	0.37353286

0.2.bias f4 [48]
0	0x3e73f28b	0.23822992
1	0xbce3c0e6	-0.027801942
2	0x3eb21e87	0.34788916
3	0xbe4e6c62	-0.20158532
4	0xbda37585	-0.079813994
5	0x3e68bf96	0.22729334
6	0x3db36669	0.087597676
7	0x3e36ef0c	0.17864627
8	0x3d8dd15c	0.06924698
9	0xbe8ad902	-0.2711869
10	0xbe1d0221	-0.15332843
11	0xbd821f6a	-0.06353648
12	0x3ea0c32a	0.31398898
13	0xbd941f0e	-0.07232486
14	0xbd3a56c0	-0.045492887
15	0xbe33a873	-0.17544727
16	0xbdeb6ce4	-0.114953786
17	0x3daadc1a	0.08342762
18	0x3e8589a6	0.2608158
19	0xbd45a069	-0.048248682
20	0x3e12cd72	0.14336184
21	0x3e21487d	0.15750308
22	0x3d80bd7a	0.0628614
23	0xbe77946c	-0.24177712
24	0x3e2b519e	0.16730353
25	0xbe9e7c08	-0.30954003
26	0x3b9c17d2	0.004763582
27	0x3dae526b	0.08511814
28	0xbcc4c654	-0.024020351
29	0x3e4ff11e	0.20306823
30	0x3dd11ef5	0.10210983
31	0xbd12e85b	-0.035866123
32	0xbe353e6f	-0.17699598
33	0x3ed2c7c5	0.41168037
34	0x3e9cbf1a	0.3061455
35	0x3e6f677a	0.23379317
36	0xbe8e9f36	-0.27855843
37	0x3e7231a2	0.23651746
38	0xbe429761	-0.19003059
39	0x3e17e52b	0.14833514
40	0x3de70863	0.112808965
41	0x3e61fe0e	0.2206957
42	0x3ef6a9b4	0.48176348
43	0xbc3a9855	-0.011388858
44	0x3e5b72a9	0.21430458
45	0x3b9069d7	0.0044071483
46	0x3c5d1cd4	0.013495643
47	0x3e85470d	0.2603077

0.4.weight f4 [36, 48]
0	0x3dc22e30	0.09481466
1	0x3d9105fb	0.07081219
2	0x3e8d9312	0.27651268
3	0x3e0cceda	0.13750783
4	0xbebcc981	-0.36872485
5	0xbe2abb98	-0.16673124
6	0x3e741938	0.23837745
7	0x3e9d3865	0.30707088
8	0x3d3dffc8	0.04638651
9	0xbe174c7f	-0.14775275
10	0x3ca70e83	0.020392662
11	0xbc54384e	-0.012952877
12	0x3da3c016	0.07995622
13	0x3c0cecb0	0.008601353
14	0xbe4ec300	-0.20191574
15	0xbbedd026	-0.0072574792
16	0x3dc5c1bf	0.09656095
17	0x3d9cd47c	0.07657716
18	0xbda9f39a	-0.082984164
19	0x3db4f7a0	0.08836293
20	0x3c1309f2	0.008974539
21	0x3dcb1798	0.099166095
22	0xbde91d8e	-0.1138259
23	0xbf143ebd	-0.5790823
24	0xbdc5b2d6	-0.09653251
25	0xbe57f270	-0.21088576
26	0x3eb975d8	0.3622272
27	0x3dd6cb72	0.10488023
28	0xbecd07c4	-0.40044987
29	0xbe89e1ef	-0.26930186
30	0x3df89c61	0.12139202
31	0xbe702ea9	-0.234553
32	0xbdcb0c9b	-0.09914514
33	0x3d71a52c	0.05899541
34	0xbca19e0f	-0.019728689
35	0x3e6e202e	0.23254463
36	0xbc9d710d	-0.019218946
37	0xbe2b8465	-0.16749723
38	0x3ea41d6c	0.32053697
39	0x3e871844	0.263857
40	0x3d8e2d6c	0.06942257
41	0x3e9300fa	0.28711683
42	0xbcdd9d56	-0.027052563
43	0x3dd195fa	0.10233684
44	0x3e32e5ac	0.17470425
45	0xbe737eca	-0.23778835
46	0x3d4c705c	0.04991184
47	0x3dea38c2	0.11436607
48	0x3b92a82c	0.004475614
49	0x3c830f32	0.015998457
50	0x3dd65de2	0.104671255
51	0x3e6a5207	0.22882853
52	0xbe2c8998	-0.16849363
53	0xbd99f12a	-0.075167015
54	0xbe37a772	-0.17934969
55	0xbe976ee8	-0.29576802
56	0x3e4c5302	0.1995354
57	0xbdb23232	-0.0870098
58	0xbe0037ee	-0.12521335
59	0x3b0f9e8b	0.0021914567
60	0xbd763334	-0.060107425
61	0xbd4b7818	-0.049675077
62	0xbdaffb70	-0.0859288
63	0x3d814f5e	0.06313966
64	0xbcfcdb33	-0.030866241
65	0x3d9b5c08	0.07585913
66	0x3db6e777	0.08930867
67	0x3e2b70c8	0.16742241
68	0xbd1e70da	-0.038681842
69	0xbd01fff9	-0.031738255
70	0xbd78111b	-0.060563188
71	0x3e831082	0.25598532
72	0xbd587e48	-0.052854806
73	0x3e534a20	0.20633745
74	0xbcbdf230	-0.023186773
75	0xbdb897c2	-0.090133205
76	0x3dbef804	0.09324649
77	0x3da854ae	0.08219276
78	0x3d10509c	0.035233125
79	0x3d1209ca	0.035653867
80	0x3e877567	0.26456758
81	0xbe2b7670	-0.16744399
82	0xbe0ebf8e	-0.1394026
83	0x3df502ee	0.119634494
84	0x3e5ff780	0.21871758
85	0xbe1b46be	-0.15163705
86	0x3dd7fae2	0.10545899
87	0xbd001d9c	-0.031278238
88	0xbe210f3a	-0.15728465
89	0xbe2be9f5	-0.16788466
90	0xbda79088	-0.08181864
91	0x3e64b134	0.22333223
92	0xbd60eaf7	-0.05491158
93	0x3dfff6a0	0.12498212
94	0xbd1e5b30	-0.038661182
95	0xbe102e04	-0.14080054
96	0x3e1b2171	0.15149476
97	0xbd987ca1	-0.07445646
98	0x3c702e42	0.014659466
99	0x3d032e68	0.03202668
100	0x3d231666	0.039816283
101	0x3e53b070	0.20672774
102	0x3dde7840	0.108627796
103	0x3e617565	0.22017439
104	0xbdb95bdc	-0.09050724
105	0xbbc063f1	-0.005871289
106	0xbdf946b4	-0.12171689
107	0xbd3235c6	-0.043508314
108	0x3eb77934	0.35834658
109	0x3e5db8a6	0.21652469
110	0xbe2664ce	-0.16249391
111	0xbe6d4304	-0.23170096
112	0xbdcce53c	-0.100046605
113	0x3d551b60	0.05202806
114	0xbc520b66	-0.0128201
115	0xbe2c7543	-0.16841607
116	0xbcb8c52a	-0.022554953
117	0x3e303070	0.17205977
118	0xbdfc0596	-0.12305753
119	0xbe81337e	-0.25234598
120	0x3d4353ca	0.04768733
121	0xbec954a8	-0.393224
122	0x3da3f97a	0.08006568
123	0xbdbbb56e	-0.09165464
124	0xbc7fd064	-0.015613649
125	0x3e940d2c	0.289163
126	0x3e3da532	0.18520048
127	0xbdc9814e	-0.09839116
128	0xbdf97180	-0.121798515
129	0x3e9575bf	0.29191396
130	0x3e43d8b2	0.19125631
131	0x3e65d9d7	0.2244638
132	0xbe59e6ab	-0.21279399
133	0x3e5dca14	0.21659118
134	0x3e177c2f	0.14793466
135	0x3d34c338	0.044131488
136	0x3db6596c	0.089037746
137	0x3dd7fd10	0.10546315
138	0x3e824f82	0.25451285
139	0xbd511f1e	-0.051055066
140	0x3e8979cd	0.2685074
141	0xbe912957	-0.28351852
142	0xbd7c9da7	-0.061673786
143	0x3dc5d2e4	0.09659365
144	0xbd2d59f3	-0.04232211
145	0x3e06e44f	0.1317303
146	0x3eb779c7	0.35835096
147	0x3e1057f0	0.14096045
148	0xbd4565b2	-0.048192687
149	0x3e2d973e	0.16952226
150	0x3d8531bc	0.06503627
151	0xbd8f6ecd	-0.070035554
152	0x3e1ee868	0.15518343
153	0xbd5fd266	-0.05464401
154	0xbd2d30d0	-0.04228288
155	0xbc85feac	-0.016356789
156	0x3d8b6b59	0.06807584
157	0x3c7cddb6	0.015433719
158	0xbe25cc44	-0.16191202
159	0xbda3d197	-0.079989605
160	0x3c125d16	0.008933326
161	0x3d56bf28	0.052428395
162	0x3cea6824	0.028614111
163	0x3daa95ca	0.08329351
164	0x3e2175ac	0.15767545
165	0x3ddb8fdf	0.107208006
166	0xbea1a229	-0.3156903
167	0x3d4ae460	0.0495342
168	0xbb332183	-0.0027333207
169	0x3da14298	0.0787403
170	0x3e164eec	0.14678544
171	0xbe500beb	-0.20317046
172	0x3cc539f2	0.024075482
173	0xbae593ec	-0.0017515398
174	0x3e7be616	0.2459949
175	0x3dd40b64	0.10353735
176	0xbe14ede7	-0.14543878
177	0x3e35cf9d	0.1775498
178	0xbb6c61ba	-0.0036068992
179	0x3e03d9cc	0.12876052
180	0xbd5f6198	-0.054536432
181	0xbe812551	-0.25223783
182	0x3e309178	0.17242992
183	0xbd8102ec	-0.062993854
184	0x3daae428	0.083442986
185	0x3d88777c	0.06663415
186	0xbd0491ba	-0.03236554
187	0x3e3c65cd	0.18398209
188	0x3db247b6	0.08705084
189	0xbc6703d6	-0.014100036
190	0xbe3b8075	-0.18310721
191	0xbcd1bc62	-0.025602523
192	0x3db71cea	0.08941062
193	0x3cfe250e	0.031023528
194	0x3d7b4360	0.06134355
195	0x3d2c80ce	0.042115025
196	0x3e0d7823	0.1381536
197	0x3d5518aa	0.052025475
198	0xbec22144	-0.37916005
199	0xbe8c6746	-0.2742254
200	0xbd3f1fed	-0.046661306
201	0x3eb72bfd	0.35775748
202	0x3e280b9c	0.16410679
203	0xbce0e337	-0.027452094
204	0xbe5dffd0	-0.21679616
205	0xbd9e7f2f	-0.07739102
206	0x3ded4276	0.11584942
207	0x3ef3639e	0.4753694
208	0xbdb69a3d	-0.08916137
209	0x3d5c750a	0.053822555
210	0x3e4385fc	0.1909408
211	0xbb10a4c0	-0.0022070855
212	0xbd50d0f4	-0.050980523
213	0xbe1a0464	-0.15040737
214	0xbd6603ba	-0.056155898
215	0x3efa55a0	0.48893452
216	0xbd4a8b8e	-0.049449496
217	0x3e3b137a	0.18269148
218	0xbc752316	-0.014961978
219	0xbe9e6031	-0.30932763
220	0x3e03b9e1	0.12863876
221	0x3d22d31e	0.03975212
222	0x3dc28761	0.09498478
223	0x3e18a974	0.14908391
224	0x3ea1d008	0.31604028
225	0xbd22829a	-0.039675333
226	0xbe3e5360	-0.18586493
227	0xbe835a85	-0.25654998
228	0x3e89fc5e	0.26950353
229	0xbdc8f8c0	-0.0981307
230	0xbe963644	-0.29338276
231	0xbb0727b8	-0.002062304
232	0xbe4e3a66	-0.20139465
233	0xbe7837e2	-0.24240068
234	0xbeb2b087	-0.34900305
235	0xbd91b512	-0.071146145
236	0xbe36d59a	-0.1785492
237	0x3e4d5164	0.2005058
238	0xbe392c8c	-0.180834
239	0xbd5923a6	-0.053012513
240	0x3e016c54	0.1263898
241	0x3e277d18	0.16356313
242	0x3e3c6834	0.18399125
243	0x3c30eee6	0.010799145
244	0xbe397f55	-0.1811498
245	0x3c96f778	0.01842855
246	0xbd1e4756	-0.03864225
247	0x3d279e26	0.040922306
248	0x3dd56152	0.10418953
249	0x3dba481a	0.090957835
250	0xbe0a2e16	-0.13494143
251	0x3d9c7fcc	0.07641563
252	0x3d0ec2c0	0.034853697
253	0x3cb956a0	0.022624314
254	0xbc47236a	-0.012154439
255	0x3d860492	0.065438405

0.4.bias f4 [36]
0	0x3ddc3634	0.10752526
1	0xbd80c2ce	-0.06287156
2	0x3dd1c470	0.102425456
3	0xbe0927be	-0.13394067
4	0xbddf388e	-0.10899459
5	0xbd0eddde	-0.034879558
6	0x3e009faf	0.12560914
7	0xbd89ab12	-0.06722082
8	0xbd288126	-0.04113879
9	0xbd425caa	-0.047451653
10	0x3e1982c7	0.14991294
11	0x3e2d9de8	0.16954768
12	0x3e04221f	0.12903641
13	0xbe0f21d6	-0.13977751
14	0x3e0bff4a	0.13671604
15	0xbbb252a4	-0.0054419804
16	0xbd3f97a2	-0.046775468
17	0xbdbd0816	-0.09230058
18	0x3e5bd50c	0.2146799
19	0x3db5b878	0.08873075
20	0x3d7cdff4	0.061737016
21	0xbe3e5d71	-0.18590333
22	0xbe1a1a3b	-0.15049069
23	0xbe121e71	-0.14269425
24	0x3e4ad3b8	0.19807327
25	0xbe35f84c	-0.17770499
26	0x3e1631ed	0.14667483
27	0x3c8549a7	0.016270472
28	0x3e24b0c0	0.1608305
29	0xbe5c1ede	-0.2149615
30	0xbe449e16	-0.1920093
31	0x3ddb628d	0.107121564
32	0xbe229858	-0.15878427
33	0xbea1a577	-0.31571552
34	0x3c696a64	0.014246557
35	0x3e07110c	0.13190097

0.6.weight f4 [36, 36]
0	0xbe92bdcb	-0.28660426
1	0x3ccfa030	0.025344938
2	0xbdb9d208	-0.090732634
3	0xbde375d5	-0.11106459
4	0x3e67f042	0.22650245
5	0xbe4b904a	-0.1987926
6	0xbe75791e	-0.23971984
7	0x3d818421	0.0632403
8	0xbecbfeb2	-0.39842755
9	0x3e00f8e7	0.12594949
10	0x3d9a0772	0.07520951
11	0xbd5c1f72	-0.053740926
12	0xbe99fa35	-0.30073705
13	0x3d8de292	0.069279805
14	0xbecd093b	-0.40046105
15	0x3e8c3188	0.2738154
16	0x3e089b6a	0.13340536
17	0xbe81cf04	-0.25353253
18	0x3c18977e	0.009313462
19	0xbdbc72c6	-0.09201579
20	0xbde3a8a2	-0.111161485
21	0x3e0e0176	0.13867745
22	0x3e312c9e	0.17302176
23	0x3e858bdf	0.26083276
24	0xbda59f84	-0.08087066
25	0x3d5ce718	0.053931326
26	0x3d24d313	0.04024036
27	0xbc4511ed	-0.0120282
28	0x3edcc4ec	0.4311899
29	0x3e070db9	0.13188829
30	0xbe474c7b	-0.19462769
31	0x3e82f5d3	0.25578174
32	0x3e093bc8	0.13401711
33	0x3e94bd0b	0.29050478
34	0xbdb2ae84	-0.087246925
35	0xbe5e3c28	-0.21702635
36	0xbe34c9df	-0.17655133
37	0xbd8eff5f	-0.06982302
38	0x3cdf3c2c	0.027250372
39	0xbdfecb62	-0.12441136
40	0xbd8511fe	-0.06497572
41	0xbd80246f	-0.06256949
42	0xbc1d53bb	-0.009602482
43	0xbe2d78b9	-0.16940583
44	0x3e101240	0.14069462
45	0xbd58b7e8	-0.05290976
46	0x3da73f6c	0.08166394
47	0xbd9d76c8	-0.07688671
48	0xbe2df70f	-0.16988777
49	0xbe652ec4	-0.22381121
50	0x3e976fa0	0.2957735
51	0x3d91fad5	0.071279205
52	0x3de41748	0.11137253
53	0xbd274ed0	-0.040846646
54	0xbe138313	-0.1440547
55	0x3d79c047	0.060974386
56	0xbd9393de	-0.07205938
57	0xbe93c02c	-0.28857553
58	0xbddaa5d0	-0.106761575
59	0x3da1ddaf	0.07903611
60	0xbe061e9b	-0.13097613
61	0xbe1638bd	-0.14670081
62	0xbd632291	-0.055452887
63	0x3e12a599	0.14320983
64	0xbe096d92	-0.13420704
65	0x3d8d3866	0.06895523
66	0xbd8f062a	-0.069835976
67	0x3e13dcd8	0.14439714
68	0x3e05bcfe	0.13060376
69	0xbe198324	-0.14991432
70	0x3ccea60d	0.025225664
71	0xbcd801db	-0.026368072
72	0xbeaa8656	-0.33305615
73	0x3de2d24e	0.11075269
74	0xbd7b4fb8	-0.061355323
75	0x3d2d5c85	0.04232456
76	0x3c99c990	0.01877287
77	0xbd5c1c9a	-0.053738214
78	0xbdf545bd	-0.11976192
79	0x3de6724c	0.11252269
80	0xbebb921f	-0.3663492
81	0x3db23afb	0.08702656
82	0xbe1bb896	-0.15207133
83	0xbe4845ae	-0.1955783
84	0xbe7df96d	-0.2480218
85	0xbd698f08	-0.05702117
86	0xbeb1e301	-0.34743503
87	0x3e6cf508	0.23140347
88	0xbd4188a1	-0.04724944
89	0xbe3c6bae	-0.18400452
90	0xbe4443a8	-0.19166434
91	0x3dc1f35e	0.09470247
92	0xbce29c50	-0.027662426
93	0x3e1c955e	0.15291354
94	0x3debfdce	0.11523019
95	0xbdadc2d9	-0.0848443
96	0xbddcc534	-0.10779801
97	0x3d9aec59	0.07564611
98	0xbd5d8ba2	-0.054088242
99	0xbe4887fb	-0.19583122
100	0x3ddc7ac4	0.10765603
101	0x3e616f4f	0.22015117
102	0x3df0d126	0.11758642
103	0xbd534c8a	-0.051586665
104	0x3e675ef4	0.22594815
105	0xbca3606d	-0.01994344
106	0x3d5161a2	0.0511185
107	0xbe52fbff	-0.20603941
108	0xbdbf4ac6	-0.09340434
109	0x3e38ac26	0.1803442
110	0x3cc9d092	0.024635587
111	0x3ddd5632	0.10807456
112	0x3e6118ed	0.21982165
113	0x3d9606b1	0.07325495
114	0xbe35c08c	-0.17749232
115	0xbc202940	-0.00977546
116	0xbe96b8aa	-0.29437762
117	0xbd34d944	-0.044152513
118	0xbe840343	-0.25783738
119	0xbe388dfb	-0.18022911
120	0xbe966572	-0.29374272
121	0xbd20ff4c	-0.03930597
122	0xbe40d41e	-0.18830916
123	0x3d8c6f48	0.06857163
124	0xbcf58938	-0.029972658
125	0xbc854ec5	-0.016272912
126	0xbe24a67b	-0.16079132
127	0xbe07bef6	-0.1325644
128	0x3e0087c1	0.12551786
129	0x3d2afc4c	0.041744515
130	0x3eaca59a	0.33720094
131	0xbdac7c46	-0.08422141
132	0xbdfbf392	-0.12302317
133	0xbd6a1b20	-0.057154775
134	0xbe8633df	-0.2621145
135	0xbe1be2de	-0.15223262
136	0x3e023aba	0.12717715
137	0x3e9dffc5	0.308592
138	0x3e61a908	0.22037137
139	0xbe49d928	-0.19711745
140	0x3edcd0db	0.43128094
141	0xbd0d560b	-0.034505885
142	0x3e144ed9	0.14483203
143	0xbe46d4fb	-0.19417183
144	0xbd09e158	-0.03366217
145	0xbec6f51e	-0.38858885
146	0xbe19941f	-0.1499791
147	0xbe64f2e4	-0.2235828
148	0x3dcfd369	0.10147745
149	0xbdebeca2	-0.115197435
150	0xbdada9d3	-0.08479657
151	0xbe69a8ac	-0.2281825
152	0xbd99d1a8	-0.07510692
153	0x3cb6fb93	0.022336757
154	0xbceff86e	-0.029293265
155	0xbe6b76ea	-0.22994581
156	0xbe0ba206	-0.13636026
157	0xbdf585a2	-0.11988379
158	0xbc96ef5e	-0.018424686
159	0x3d46032f	0.04834288
160	0x3d990cec	0.07473168
161	0xbdd9f3e6	-0.10642223
162	0xbe2aa79b	-0.16665499
163	0xbc8f5aec	-0.01749941
164	0xbdefa0e6	-0.11700611
165	0xbe860683	-0.26176843
166	0x3db34be6	0.08754711
167	0x3d649f90	0.055816233
168	0xbea7e301	-0.32790378
169	0xbec35d08	-0.38156915
170	0xbc0a73e8	-0.008450486
171	0xbceba70e	-0.028766181
172	0xbdb8dadc	-0.09026119
173	0xbd170de9	-0.0368785
174	0xbd9c3859	-0.07627935
175	0x3e4b80e5	0.19873388
176	0xbdac1c62	-0.08403851
177	0xbca41f80	-0.020034552
178	0x3d93243a	0.07184644
179	0x3d35b1fe	0.0443592
180	0xbdeaef30	-0.11471403
181	0x3d839cb6	0.064263746
182	0x3cc439ec	0.0239534
183	0xbe151752	-0.14559677
184	0xbc91109a	-0.017708112
185	0xbe4fa2cc	-0.20276946
186	0x3dcfdb90	0.101493
187	0x3d35f19a	0.044419862
188	0x3c5c0bad	0.013430518
189	0x3e54e203	0.20789342
190	0x3e21c8bd	0.15799232
191	0x3b710a1a	0.0036779703
192	0xbe2f6fdc	-0.17132515
193	0xbe4bcdcc	-0.19902724
194	0xbe56f948	-0.20993531
195	0xbda4af38	-0.08041233
196	0xbce3b680	-0.027796984
197	0xbd58f014	-0.05296333
198	0xbd844b09	-0.06459624
199	0x3e082849	0.13296618
200	0xbe23fe48	-0.1601497
201	0xbdcf9ed7	-0.10137718
202	0xbdc2ce6a	-0.095120266
203	0x3e15ce32	0.14629439
204	0x3d7a64f0	0.061131418
205	0xbe1b6dd4	-0.15178615
206	0xbdb26ec0	-0.0871253
207	0xbe32fb5c	-0.17478698
208	0x3d3bd51c	0.045857534
209	0xbe4478e4	-0.19186741
210	0xbe71fa1b	-0.23630564
211	0x3cdf8045	0.027282843
212	0xbe01e514	-0.12685043
213	0xbc840fd6	-0.016120832
214	0x3d2d1ae2	0.042261966
215	0xbe417825	-0.18893488
216	0x3daaca18	0.083393276
217	0xbd0be852	-0.034157105
218	0x3da37777	0.079817705
219	0xbe104906	-0.14090356
220	0xbb6c1cce	-0.003602791
221	0xbe348029	-0.17627014
222	0x3e2ab4fa	0.166706
223	0x3bb88c32	0.005631947
224	0x3e442e4c	0.19158286
225	0x3d1c9e2a	0.038236775
226	0x3e6a578c	0.22884959
227	0x3c838b2a	0.01605757
228	0x3e8a1a38	0.26973128
229	0xbe21a152	-0.15784195
230	0x3e408fb0	0.18804812
231	0x3d9b23ba	0.07575174
232	0x3d1fc87e	0.039009564
233	0x3dca3d3c	0.09874961
234	0x3e8a6bb3	0.27035293
235	0x3e011ad7	0.12607895
236	0xbe404d32	-0.18779448
237	0x3e6eea90	0.23331666
238	0xbddb69f4	-0.10713568
239	0xbe3f20fe	-0.1866493
240	0x3d9730e7	0.07382374
241	0xbe3bd016	-0.18341097
242	0x3e1b2fdc	0.15154976
243	0x3bfcf300	0.0077193975
244	0xbd6beb00	-0.05759716
245	0xbea79736	-0.32732552
246	0xbe1d8c43	-0.15385537
247	0x3bae7714	0.005324254
248	0xbeaa4872	-0.33258396
249	0xbdfa74be	-0.12229298
250	0xbbd4abbe	-0.0064902
251	0x3e0301f2	0.12793711
252	0x3e86064a	0.26176673
253	0xbce1e61c	-0.027575545
254	0x3e27570a	0.16341797
255	0xbe1d0941	-0.15335561

0.6.bias f4 [36]
0	0xbe35bdfd	-0.17748256
1	0xbea7e6c4	-0.32793248
2	0xbdefa718	-0.117017925
3	0x3bc2cac2	0.005944581
4	0xbec1dea1	-0.37865165
5	0x3e28eb60	0.16496038
6	0x3e86b0db	0.26306805
7	0xbdac77b2	-0.084212676
8	0xbbf26180	-0.007396877
9	0x3da0dd27	0.078546815
10	0xbdcfc8f8	-0.101457536
11	0x3e45b87c	0.19308656
12	0xbe7b7db0	-0.24559665
13	0xbdcc0487	-0.09961801
14	0xbe80b631	-0.25139
15	0x3e8f49d3	0.2798601
16	0x3d90abce	0.07064019
17	0xbe5e77a2	-0.21725324
18	0x3d6b87bf	0.057502504
19	0x3e363f74	0.17797643
20	0xbe7e3d9c	-0.2482819
21	0xbe23a2a6	-0.15980014
22	0xbd2f30ff	-0.042771336
23	0xbd34a166	-0.044099234
24	0x3e36b7e0	0.1784358
25	0xbda36612	-0.07978453
26	0x3e2bd894	0.16781837
27	0x3d98e4f7	0.074655466
28	0xbdfba804	-0.12287906
29	0xbe9cc3ea	-0.3061822
30	0xbe2725f7	-0.16323076
31	0x3e08d8af	0.13363908
32	0x3e0d9de8	0.13829768
33	0xbc516a54	-0.012781698
34	0xbe251642	-0.16121772
35	0xbbb00a54	-0.005372325

0.8.weight f4 [24, 36]
0	0x3eb80a7a	0.35945493
1	0xbd06dda9	-0.032926235
2	0x3d9c77e2	0.07640053
3	0xbbcfc538	-0.006340649
4	0x3d12d1ea	0.03584472
5	0xbdab630a	-0.083684996
6	0x3ddbc168	0.10730249
7	0xbddc110a	-0.107454374
8	0x3d08d978	0.03341052
9	0x3d91b728	0.071150124
10	0x3de93c52	0.11388458
11	0xbec38612	-0.38188225
12	0xbe0bf805	-0.1366883
13	0x3d9bbc42	0.07604267
14	0xbd286f24	-0.041121617
15	0xbdf4d4ba	-0.11954637
16	0x3da9d4c8	0.08292538
17	0x3e8ec330	0.2788329
18	0xbd94d2a0	-0.07266736
19	0xbe015b98	-0.12632596
20	0x3e5ea422	0.21742299
21	0x3e4fa96e	0.20279476
22	0x3e4bcdaa	0.19902673
23	0x3e31483e	0.17312714
24	0x3e1941de	0.14966533
25	0x3e857b01	0.26070407
26	0xbe17c484	-0.14821059
27	0xbdae5308	-0.08511931
28	0x3e29dc6e	0.16587994
29	0xbd35dd3d	-0.044400442
30	0x3dfe6d12	0.12423147
31	0xbddfc48a	-0.10926159
32	0xbdb5bc42	-0.08873798
33	0xbd4831a8	-0.04887548
34	0x3f0633b7	0.5242266
35	0x3d555a48	0.052088052
36	0x3ee88384	0.45412838
37	0x3da29169	0.07937891
38	0xbdad71e2	-0.08468987
39	0x3dd8d633	0.1058773
40	0x3e6883a2	0.22706464
41	0x3df6a3e4	0.120429784
42	0xbd246e30	-0.040144145
43	0xbd4de341	-0.050265554
44	0xbd84b093	-0.06478991
45	0x3bb6e686	0.0055816798
46	0xbe1c3420	-0.15254259
47	0xbe4f1914	-0.2022441
48	0xbd745a26	-0.059656285
49	0x3e91b3d2	0.28457505
50	0x3c3fc0e8	0.011703707
51	0xbdcf19d1	-0.10112346
52	0x3da87b1e	0.08226608
53	0x3eaa911e	0.3331384
54	0x3d521d08	0.051297218
55	0xbde67f5a	-0.11254759
56	0x3e65d6ca	0.22445217
57	0x3e152004	0.14562994
58	0x3dad9ed2	0.08477558
59	0xbe096e90	-0.13421082
60	0x3b811eca	0.003940438
61	0x3da63e54	0.08117357
62	0xbdc68060	-0.09692454
63	0x3dc26793	0.094924115
64	0x3d618744	0.05506064
65	0x3e2583b8	0.16163528
66	0x3e4bcc20	0.19902086
67	0xbe75b35e	-0.23994204
68	0xbe1c1fd8	-0.15246522
69	0x3db9baa8	0.09068805
70	0x3e6dac9e	0.2321038
71	0x3ddeb2ca	0.10873945
72	0xbe944b95	-0.28963915
73	0x3d55adc0	0.052167654
74	0xbdc77832	-0.09739722
75	0x3dd79462	0.10526349
76	0xbb4820d8	-0.0030537155
77	0x3be15a60	0.0068772286
78	0x3ce04c86	0.02738024
79	0x3e30ada4	0.17253739
80	0x3d36b7ee	0.044609003
81	0xbdc7c508	-0.097543776
82	0xbdf219a8	-0.118213
83	0x3ec22df7	0.37925693
84	0xbd90eaf6	-0.07076065
85	0xbda3606a	-0.07977374
86	0x3dd7dcc9	0.10540158
87	0xbba12a04	-0.0049183387
88	0xbe0f1d3e	-0.13975999
89	0xbe8f0b1c	-0.27938163
90	0xbc230157	-0.00994905
91	0x3e18400a	0.14868179
92	0xbed08deb	-0.40733275
93	0xbea55152	-0.32288605
94	0xbea9aea2	-0.33141047
95	0xbaa3ae37	-0.0012487833
96	0xbe45b0f7	-0.19305788
97	0xbef77d29	-0.48337677
98	0xbdc9030c	-0.09815034
99	0x3da92756	0.08259456
100	0xbd11887f	-0.035530563
101	0xbd087320	-0.033312917
102	0x3d5f6b8a	0.054545917
103	0x3e51d220	0.20490313
104	0xbbd1b356	-0.0063995523
105	0x3e3f3380	0.1867199
106	0xbe9175c1	-0.28410152
107	0x3d48f348	0.049060136
108	0x3e9e0784	0.3086511
109	0x3d27ff60	0.04101503
110	0x3d632cc0	0.0554626
111	0x3e1179cd	0.1420662
112	0xbd2bbeb8	-0.04192993
113	0x3d1e0f3d	0.03858875
114	0xbd8bfcfa	-0.06835361
115	0xbd34ca2e	-0.044138126
116	0xbe92e130	-0.2868743
117	0x3e80a340	0.2512455
118	0x3d99ecec	0.075158924
119	0xbe1fb1bf	-0.15595149
120	0xbcfa0d3c	-0.030523889
121	0x3d9c277f	0.07624721
122	0xbcb620b4	-0.022232391
123	0xbdc20ffe	-0.094757065
124	0x3e63b98c	0.2223875
125	0x3eb17fa0	0.34667683
126	0xbe43592d	-0.19076987
127	0xbca2e194	-0.019882955
128	0x3e872ba1	0.26400474
129	0x3e63ca12	0.22245052
130	0x3ebe9aea	0.37227565
131	0xba0b8d76	-0.00053235085
132	0x3cf0622c	0.029343687
133	0x3edc92c6	0.4308073
134	0x3ca08077	0.019592507
135	0xbd317350	-0.04332286
136	0x3d3d9e97	0.04629382
137	0xbe42a2a8	-0.19007361
138	0xbcc2551e	-0.023722228
139	0xbec2e835	-0.38067785
140	0xbd541102	-0.051774032
141	0x3c8edc38	0.017438993
142	0x3e209b6e	0.15684292
143	0xbb8634d6	-0.004095654
144	0x3dc1fd7a	0.09472175
145	0x3d2ab2c1	0.04167438
146	0x3e2f2eda	0.17107716
147	0x3d914285	0.07092766
148	0xbe17b78d	-0.14816113
149	0x3e3c5192	0.18390492
150	0x3db869be	0.09004544
151	0xbe2e6504	-0.17030722
152	0xbe63181d	-0.22177167
153	0x3d01d339	0.03169558
154	0xbd5e7cfc	-0.054318413
155	0xbe38febd	-0.18065925
156	0x3dc8e95c	0.09810135
157	0x3e6d7c1e	0.23191878
158	0xbd4184b4	-0.047245696
159	0xbe7be003	-0.24597172
160	0x3dc8f649	0.098126
161	0x3df794ae	0.12088905
162	0xbe1b690e	-0.15176794
163	0xbebce2e4	-0.36891854
164	0x3e106739	0.14101876
165	0x3d8d8f84	0.06912139
166	0x3e6fbb9e	0.23411414
167	0xbe35559f	-0.17708443
168	0xbde181fb	-0.1101112
169	0x3df367a3	0.118850015
170	0xbd26edd0	-0.04075414
171	0xbde32070	-0.11090171
172	0xbde38223	-0.11108806
173	0xbd521cc5	-0.051296968
174	0x3e45bd58	0.1931051
175	0xbea2cb12	-0.31795555
176	0xbe13a494	-0.1441825
177	0xbe245de9	-0.16051449
178	0x3edc9462	0.43081957
179	0x3e133b08	0.14377987
180	0x3e69ecc5	0.22844227
181	0xbdae6a30	-0.085163474
182	0xbe0b8f6a	-0.13628927
183	0x3de7f82a	0.113266304
184	0x3e578ce2	0.21049836
185	0xbddcb806	-0.10777287
186	0xbe28cd16	-0.16484484
187	0xbeee922c	-0.46595895
188	0xbe863207	-0.26210043
189	0x3e88f8cd	0.2675232
190	0x3df2149e	0.11820339
191	0xbecd0b4a	-0.40047675
192	0x3dcd2028	0.10015899
193	0x3e6e029e	0.23243186
194	0xbd535a00	-0.051599503
195	0x3de498c8	0.11161953
196	0x3db58f60	0.08865237
197	0x3e7695d6	0.24080595
198	0xbd8c2ebc	-0.068448514
199	0xbd3977c8	-0.045280248
200	0x3e8a1f91	0.26977208
201	0x3e95a84f	0.29229972
202	0x3e85d654	0.26140082
203	0xbda49d4d	-0.08037815
204	0x3e683adc	0.22678703
205	0x3e6cbaa8	0.23118079
206	0x3c98fd58	0.018675491
207	0x3d326cf9	0.043560956
208	0x3e620b70	0.22074676
209	0x3e08d754	0.13363391
210	0x3e35852a	0.1772658
211	0xbe393210	-0.18085504
212	0xbd2decd8	-0.0424622
213	0x3ca2f43e	0.019891854
214	0x3f1253a0	0.5715885
215	0x3cb624bb	0.022234311
216	0xbe04a958	-0.12955225
217	0xbdf3d2d2	-0.11905445
218	0x3df981de	0.12182973
219	0xbd9f0b02	-0.077657714
220	0xbb5abac2	-0.0033375476
221	0xbe05a1f8	-0.13050067
222	0x3dca4848	0.09877068
223	0x3e69e2bc	0.22840399
224	0x3e41708c	0.1889059
225	0xbdf7dd1c	-0.1210272
226	0xbd88b5fc	-0.06675336
227	0x3e6d6db6	0.23186383
228	0xbdbe7dee	-0.09301363
229	0xbe1ab3e2	-0.15107682
230	0x3d899143	0.067171596
231	0x3d00c430	0.0314371
232	0xbc94d3ca	-0.018167395
233	0xbe895e47	-0.2682974
234	0x3e781316	0.2422603
235	0x3e954343	0.2915288
236	0xbe82fde8	-0.2558434
237	0xbeb57f04	-0.35448468
238	0xbe7f7712	-0.24947765
239	0x3e131dd3	0.14366846
240	0x3cf03b4e	0.029325154
241	0xbe1d9893	-0.15390234
242	0x3dbaa5a4	0.09113625
243	0xbd5ddc2a	-0.054165043
244	0x3e0679ae	0.13132355
245	0xbdc840b0	-0.09777963
246	0x3d822979	0.063555665
247	0x3e811c2e	0.25216812
248	0xbe44ee8e	-0.19231626
249	0x3e3c89d2	0.1841195
250	0xbe837241	-0.25673106
251	0xbd9ab043	-0.075531505
252	0xbe9e35eb	-0.3090051
253	0xbe839608	-0.25700402
254	0xbdd25bcc	-0.10271415
255	0xbdfdb572	-0.123881236

0.8.bias f4 [24]
0	0xbe4fa104	-0.20276266
1	0xbea3e0c3	-0.32007417
2	0x3e9e0f4e	0.30871052
3	0xbd29fb3a	-0.041499354
4	0x3c8a72b6	0.016900402
5	0xbdd4926e	-0.10379492
6	0x3df316d6	0.1186959
7	0x3e06ee1c	0.13176769
8	0xbda8c053	-0.08239808
9	0xbe0e38bb	-0.13888828
10	0x3eabccd7	0.33554718
11	0xbe2a5c98	-0.16636884
12	0x3def8b79	0.11696524
13	0xbdf829c8	-0.12117344
14	0x3dd2ba4e	0.10289441
15	0xbe2f54dc	-0.17122215
16	0x3e697662	0.22799066
17	0x3d04fb25	0.032466073
18	0xbd8f3bf0	-0.06993854
19	0x3dfef1c9	0.124484606
20	0x3dddedca	0.1083637
21	0x3dcd0149	0.10010011
22	0x3bd88a91	0.0066083153
23	0xbdf55210	-0.11978543

0.10.weight f4 [24, 24]
0	0xbdd738ec	-0.10508904
1	0x3de28cfa	0.110620454
2	0x3ea04328	0.31301236
3	0xbe91adfb	-0.2845305
4	0xbe44dd6e	-0.19225094
5	0x3d24eaed	0.040263105
6	0x3eb993a5	0.36245456
7	0x3e49d940	0.1971178
8	0x3ce3e6a0	0.027819932
9	0xbdc815ce	-0.09769784
10	0xbd8008ec	-0.06251702
11	0xbe178996	-0.14798579
12	0x3d73bee4	0.05950822
13	0xbe42fe5f	-0.19042347
14	0xbc4c0d64	-0.012454364
15	0xbe68c4c8	-0.22731316
16	0x3ded0452	0.1157309
17	0x3d8bd5a3	0.06827857
18	0x3eaeab70	0.3411517
19	0x3e8e84b6	0.27835625
20	0xbd72ce94	-0.05927904
21	0xbec1fa88	-0.37886453
22	0x3db94f6e	0.09048353
23	0xbebe5a4e	-0.37178272
24	0xbb09672e	-0.002096604
25	0x3c14837d	0.009064552
26	0x3eb074da	0.3446415
27	0xbe02330b	-0.12714784
28	0x3e217e28	0.15770781
29	0xbea19da9	-0.31565598
30	0x3eda7190	0.42664766
31	0x3de7dbe2	0.11321236
32	0xbe620d27	-0.2207533
33	0xbe849990	-0.2589841
34	0xbd2cada8	-0.0421578
35	0xbeb6f32b	-0.35732397
36	0x3e301492	0.17195347
37	0xbe69350c	-0.22774142
38	0x3e5211dc	0.20514625
39	0xbe5a447a	-0.21315184
40	0x3e0930c5	0.1339751
41	0x3d182d6c	0.037152693
42	0x3e7cf848	0.24704087
43	0x3e8d987a	0.27655393
44	0x3dc7b8e0	0.09752059
45	0xbe9d90c4	-0.3077451
46	0xbe2e1a58	-0.17002237
47	0xbd5a4029	-0.053283844
48	0x3d905a6e	0.07048498
49	0x3d66f9f3	0.056390714
50	0x3e999f4b	0.30004343
51	0xbea63955	-0.32465616
52	0x3e28a207	0.16468059
53	0xbd832db2	-0.064052
54	0x3dfadc43	0.12249043
55	0x3d8d17b3	0.06889286
56	0xbdc19cc4	-0.09453729
57	0xbd257b83	-0.040400993
58	0x3cb2fa02	0.021847729
59	0x3d029fb8	0.0318906
60	0xbc84bb08	-0.016202465
61	0x3ded8d38	0.11599201
62	0x3de116de	0.1099069
63	0xbda05ce9	-0.07830221
64	0x3dc6643e	0.096870884
65	0xbedf7a1a	-0.43647844
66	0x3e062d08	0.13103116
67	0x3dd2b37a	0.10288139
68	0x3dcc08fe	0.099626526
69	0xbdbd1611	-0.092327245
70	0x3d8af288	0.067845404
71	0xbdd9893c	-0.106218785
72	0x3d891fef	0.06695544
73	0xbd6f8f74	-0.058486417
74	0x3e4ffe08	0.20311749
75	0xbda5ac5a	-0.08089514
76	0x3d231eb8	0.039824218
77	0xbe96220e	-0.29322857
78	0x3e632338	0.22181404
79	0xbe3cd554	-0.18440753
80	0xbda85150	-0.08218634
81	0x3d7c5e92	0.061613627
82	0x3dbfd18e	0.09366141
83	0x3c18169a	0.009282732
84	0xbe245b92	-0.16050556
85	0xbeb6816c	-0.35645616
86	0x3e5a9272	0.21344927
87	0xbd620a1a	-0.055185415
88	0x3e575c94	0.2103141
89	0x3e52df78	0.20593059
90	0xbd2dd4a4	-0.042439118
91	0x3e1b7a7e	0.15183446
92	0x3e0aee81	0.13567545
93	0x3c1b9032	0.009494828
94	0xbe834944	-0.25641835
95	0xbe80b79c	-0.25140083
96	0x3c875212	0.016518626
97	0xbd9930ae	-0.07479988
98	0xbe5a081a	-0.21292153
99	0x3ee56633	0.44804534
100	0xbdcf20c9	-0.10113675
101	0x3e86f7f0	0.26361036
102	0x3d31d734	0.043418124
103	0xbddd1318	-0.107946575
104	0x3e7f6088	0.24939167
105	0x3e6cfc4c	0.23143119
106	0xbe639f55	-0.22228749
107	0xbd09ee8c	-0.03367476
108	0x3e1a4b46	0.15067777
109	0x3f156ea8	0.58371973
110	0x3d2564a9	0.0403792
111	0xbc5c8c36	-0.013461163
112	0xbd2d7e08	-0.04235652
113	0xbda06024	-0.07830837
114	0xbea2138e	-0.31655544
115	0xbdd6fcc8	-0.10497433
116	0xbea707a5	-0.3262302
117	0x3f065ea9	0.5248819
118	0x3e346587	0.17616855
119	0xbdd4a43e	-0.10382889
120	0x3ae94266	0.0017796278
121	0xbe685b58	-0.22691095
122	0x3df9b894	0.121934086
123	0x3debaa62	0.11507107
124	0x3e3a3c58	0.18187082
125	0x3eff7ce0	0.4989996
126	0x3c83c1fd	0.016083712
127	0x3db6a46a	0.08918078
128	0xbdb8e025	-0.09027127
129	0xbe80a94b	-0.2512916
130	0xbe1fc9b6	-0.1560429
131	0xbd699096	-0.057022654
132	0x3bef6f96	0.0073070033
133	0x3b272a0d	0.0025507242
134	0xbf072c1f	-0.528017
135	0xbdd14af7	-0.102193765
136	0xbce017bc	-0.027355067
137	0xbcc9bb3a	-0.02462541
138	0xbf29fe46	-0.66403615
139	0xbe1c61fd	-0.15271755
140	0xbdcf833c	-0.10132453
141	0x3dca524f	0.0987898
142	0x3ece206d	0.40259114
143	0x3ec12b93	0.37728557
144	0xbdcb4788	-0.09925753
145	0xbe0819df	-0.13291119
146	0x3e0f758e	0.14009687
147	0x3ea84b9f	0.32870194
148	0xbde9ab9a	-0.114096835
149	0x3e568f36	0.20953068
150	0xbddef956	-0.10887401
151	0xbcc4015e	-0.023926433
152	0x3ccc7400	0.024957657
153	0xbe29e6e3	-0.16591983
154	0x3cffd734	0.031230547
155	0xbe31cfc6	-0.17364416
156	0x3e1795a8	0.14803183
157	0x3eb586cc	0.35454404
158	0xbedf6a78	-0.43635917
159	0x3e110df4	0.14165479
160	0xbdc61c80	-0.09673405
161	0xbe99812c	-0.29981363
162	0xbef84f36	-0.48497933
163	0x3e2306ca	0.15920559
164	0xbe08d4f8	-0.13362491
165	0xbd91c3b4	-0.071174055
166	0x3e54ed62	0.2079368
167	0x3e9d0ad6	0.3067233
168	0xbd6d11a0	-0.057878137
169	0x3d114fd5	0.035476524
170	0x3ec2bd5d	0.38035098
171	0xbcdfe098	-0.027328774
172	0x3d7cc5b2	0.061711974
173	0xbe26d523	-0.16292243
174	0x3e68bcaa	0.2272822
175	0x3bc21b9a	0.0059237005
176	0x3db084c3	0.08619072
177	0xbe58c322	-0.21168187
178	0x3e5cc522	0.21559575
179	0xbe3c1e11	-0.18370844
180	0xbdb11970	-0.0864743
181	0xbe5f0152	-0.21777847
182	0x3e84b4bc	0.2591914
183	0x3e2df808	0.16989148
184	0xbd3eaa2d	-0.04654901
185	0x3c27d8f8	0.0102446005
186	0x3e686db9	0.22698106
187	0x3e1755fe	0.14778897
188	0x3e4db3f5	0.2008818
189	0xbe0ce478	-0.13759029
190	0x3d614eaa	0.05500666
191	0x3cb1c734	0.021701433
192	0x3d0405c8	0.032232076
193	0x3d83ec85	0.06441597
194	0xbec7ed6c	-0.39048326
195	0x3de986a0	0.11402631
196	0x3de7c28e	0.11316405
197	0x3df98114	0.12182823
198	0xbec5c698	-0.38628078
199	0x3e5f8d44	0.21831232
200	0x3e4ddef0	0.20104575
201	0x3ea82bda	0.32845956
202	0xbe5e5016	-0.21710238
203	0x3e32c43e	0.17457673
204	0x3df744e2	0.12073685
205	0x3e4f179a	0.20223847
206	0xbe86fd71	-0.26365235
207	0x3e312e26	0.1730276
208	0xbe3af770	-0.18258452
209	0x3e95baf7	0.29244205
210	0xbdd94416	-0.106086895
211	0xbe70f8c0	-0.2353239
212	0xbce8ebea	-0.028432805
213	0x3da06cd5	0.07833258
214	0x3d48d2f4	0.049029306
215	0x3ed40ee2	0.41417605
216	0x3df44f8e	0.11929236
217	0xbea3b6b4	-0.3197533
218	0x3ecee2e0	0.40407467
219	0xbea573e2	-0.32314974
220	0xbe740872	-0.23831347
221	0xbe997099	-0.29968718
222	0x3ed4382c	0.41449106
223	0x3cd302c6	0.025758158
224	0xbe6df274	-0.2323702
225	0xbe832e4b	-0.25621256
226	0x3e8283d6	0.25491208
227	0xbe94cb13	-0.29061183
228	0x3dae8d9a	0.08523102
229	0x3d353e08	0.04424861
230	0x3e14b696	0.14522776
231	0xbe450d60	-0.19243383
232	0x3de8b739	0.11363072
233	0x3d5f4de1	0.05451763
234	0x3d62c06c	0.05535929
235	0x3dfe8341	0.124273784
236	0xbdab1414	-0.08353439
237	0xbe79bb64	-0.2438789
238	0x3cb45213	0.022011792
239	0xbe2c761a	-0.16841927
240	0xbd467635	-0.048452575
241	0xbd25d190	-0.040483057
242	0xbeb74198	-0.35792232
243	0x3e19429d	0.14966817
244	0xbd767974	-0.06017442
245	0x3e346a04	0.17618567
246	0xbe1c7600	-0.15279388
247	0xbdbf1388	-0.09329897
248	0x3e6fc474	0.23414785
249	0x3c097d71	0.008391724
250	0xbe12d1a2	-0.14337781
251	0x3e933dfb	0.28758225
252	0xbd5aac72	-0.053387113
253	0x3eeff7f0	0.4686885
254	0xbe739040	-0.23785496
255	0x3e387658	0.18013895

0.10.bias f4 [24]
0	0x3e27c327	0.16383038
1	0x3de9c632	0.11414756
2	0xbe1db180	-0.15399742
3	0x3e9ed569	0.31022194
4	0x3c123d22	0.008925708
5	0x3b6ad387	0.0035831647
6	0xbcfad571	-0.030619355
7	0x3e3cf4f5	0.18452819
8	0xbe2d2eab	-0.16912334
9	0x3e1bd32b	0.15217273
10	0xbd85e065	-0.065369405
11	0x3dd89fe8	0.10577375
12	0xbe827926	-0.25483054
13	0xbe81e438	-0.2536943
14	0xbe00d617	-0.12581669
15	0xbe61f037	-0.22064291
16	0x3d593344	0.053027406
17	0x3cf171ae	0.029473152
18	0xbda47332	-0.08029784
19	0x3e3cd571	0.18440796
20	0xbde82a36	-0.11336176
21	0xbdef4d8e	-0.11684714
22	0xbd1a8998	-0.037728876
23	0x3e6caf19	0.2311367

0.12.weight f4 [12, 24]
0	0x3e81903f	0.25305364
1	0x3da3368a	0.07969387
2	0x3da36e74	0.07980052
3	0x3eaa2348	0.33230042
4	0xbefff3b3	-0.49990615
5	0xbd504675	-0.050848443
6	0xbe0bca99	-0.13651504
7	0x3e4c9f1a	0.19982567
8	0xbeb9182a	-0.36151248
9	0x3dca151c	0.098673075
10	0xbe8cb722	-0.2748347
11	0x3ec5aec9	0.38609913
12	0xbc7f71c7	-0.0155910915
13	0xbecea168	-0.40357518
14	0xbe3a8660	-0.18215322
15	0xbe77b590	-0.24190354
16	0xba85066b	-0.0010149007
17	0xbeae982d	-0.34100476
18	0x3ddd313c	0.10800406
19	0x3ef24d7e	0.47324747
20	0xbe775c0c	-0.24156207
21	0xbe7ee740	-0.24892902
22	0xbedad4d4	-0.427405
23	0xbc94cc54	-0.018163837
24	0x3e8da419	0.2766426
25	0x3e8452ba	0.25844365
26	0x3e654303	0.22388844
27	0x3ea4ee5a	0.32213098
28	0xbe878250	-0.26466608
29	0xbcecff22	-0.02893025
30	0x3dd6f778	0.1049642
31	0x3e396c2a	0.18107668
32	0xbead0748	-0.33794618
33	0x3dc94bce	0.09828912
34	0xbda0ab39	-0.07845158
35	0x3d1d9c4a	0.038479127
36	0xbe4db048	-0.20086777
37	0xbf0ed475	-0.55792934
38	0xbf155a26	-0.5834068
39	0xbeac8a26	-0.3369915
40	0xbce9b69e	-0.028529461
41	0xbecb4970	-0.39704466
42	0xbda732f7	-0.08164018
43	0x3f00a0d7	0.5024542
44	0xbe8740d1	-0.26416638
45	0xbdfde0a6	-0.12396364
46	0xbe968f56	-0.29406232
47	0x3ea74252	0.32667786
48	0x3e1761da	0.14783421
49	0xbd860581	-0.065440185
50	0xbaf187ba	-0.001842729
51	0xbe15276d	-0.14565821
52	0xbe1e7880	-0.15475655
53	0x3eac0afa	0.33602124
54	0x3e11c6b2	0.14235952
55	0x3e02344f	0.12715267
56	0x3e589b16	0.2115291
57	0xbe5cfede	-0.21581599
58	0xbb046556	-0.0020202002
59	0xbea7d351	-0.3277841
60	0x3da1f4b5	0.07908002
61	0x3e6358f0	0.22201896
62	0x3e8fb021	0.28064063
63	0x3e49760a	0.19673935
64	0x3c3faab1	0.011698411
65	0x3efdedd2	0.49595505
66	0x3ca2eff8	0.019889817
67	0xbe1b0c2a	-0.15141359
68	0x3e85ace8	0.2610848
69	0x3e1cbbb8	0.15305984
70	0x3e151a08	0.14560711
71	0xbdd5d17d	-0.10440347
72	0xbe346fa6	-0.17620715
73	0xbe327830	-0.1742866
74	0xbe2902c6	-0.16504964
75	0xbec6b2af	-0.388082
76	0x3f00870e	0.5020608
77	0x3e0d4a04	0.13797766
78	0xbd654c82	-0.055981167
79	0xbe494594	-0.19655448
80	0x3e52f946	0.20602903
81	0xbd3dfc24	-0.04638304
82	0x3eb5843b	0.35452446
83	0xbea80112	-0.32813317
84	0x3e92a3d2	0.2864061
85	0x3ebdc2a5	0.37062564
86	0x3eb9110a	0.36145812
87	0x3efd9aa2	0.49532038
88	0xbcb570fd	-0.022148604
89	0xbb4417da	-0.0029921443
90	0xbdf7eda8	-0.12105876
91	0xbf113399	-0.56719357
92	0x3ebbf4ab	0.36710104
93	0x3e29d44e	0.16584894
94	0x3cb3f23d	0.021966094
95	0xbe65c1e0	-0.22437239
96	0x3d407042	0.046982057
97	0x3e14201c	0.14465374
98	0xbe177a82	-0.14792827
99	0x3e4af09e	0.1981835
100	0xbeaa4c14	-0.33261168
101	0xbea7337e	-0.32656473
102	0xbe54c877	-0.20779596
103	0x3c1ba5b9	0.009499961
104	0xbde1f8ca	-0.11033781
105	0x3e8b38a2	0.27191645
106	0xbe812d15	-0.25229707
107	0x3ebfa968	0.37433934
108	0xbd43ee23	-0.047834527
109	0xbeda3d26	-0.42624778
110	0xbe59b1c4	-0.21259218
111	0xbece7e87	-0.40330908
112	0x3ea0f5bb	0.31437477
113	0xbe5c3f32	-0.21508482
114	0x3e69b8fd	0.22824474
115	0x3f19292c	0.5982845
116	0xbeade04a	-0.3396018
117	0xbe97a030	-0.296144
118	0xbe658cd2	-0.22417
119	0x3e31667e	0.17324254
120	0x3d2d0f64	0.042251006
121	0x3e2fcbe9	0.1716763
122	0x3e1e29f2	0.15445688
123	0x3e6db1c4	0.23212343
124	0xbe3e61b0	-0.18591952
125	0xbe148b28	-0.14506209
126	0xbdddae34	-0.10824242
127	0x3e81542c	0.2525953
128	0xbe69d9d9	-0.22837009
129	0x3e78b75e	0.24288699
130	0xbea11d5f	-0.3146772
131	0x3e2c6085	0.16833694
132	0xbcc9e0ca	-0.02464332
133	0xbef3d55e	-0.47623724
134	0xbeb6699f	-0.35627457
135	0xbeeaa36b	-0.45827803
136	0x3e88afa4	0.26696503
137	0xbe884e7c	-0.2662238
138	0x3e6455c2	0.22298339
139	0x3eafb182	0.34315115
140	0xbeb0c2b8	-0.3452356
141	0xbdcf255c	-0.101145476
142	0xbeaa5255	-0.3326594
143	0x3e982023	0.29712018
144	0xbe24f0c5	-0.16107471
145	0xbe36a476	-0.17836174
146	0x3dabf3e8	0.08396131
147	0xbea85c2b	-0.3288282
148	0x3e535536	0.20637974
149	0x3e9634fd	0.29337302
150	0x3eaec7bf	0.3413677
151	0x3b70b553	0.0036729171
152	0xbabc251d	-0.0014354322
153	0xbe7bab4e	-0.24577066
154	0x3e78264d	0.2423336
155	0xbee834c5	-0.4535276
156	0x3d22a827	0.039711144
157	0x3eb0320e	0.3441319
158	0x3e7be3da	0.24598637
159	0xbdc61b4c	-0.09673175
160	0x3d900ed7	0.070340805
161	0x3e1cce38	0.15313041
162	0xbdafb94d	-0.08580265
163	0x3d6d5ae2	0.057948
164	0x3be05d72	0.006847077
165	0x3d9d2e96	0.07674901
166	0xbdc6b234	-0.09701958
167	0xbe9867b4	-0.2976662
168	0xbc3a6b10	-0.011378065
169	0xbe9967d2	-0.2996202
170	0xbd00f5cf	-0.03148442
171	0xbe995d26	-0.2995388
172	0x3f10482a	0.56360114
173	0x3db543ae	0.088507995
174	0x3e3ae045	0.18249615
175	0xbdca8e92	-0.098904744
176	0x3e89e430	0.26931906
177	0xbdfab59e	-0.12241672
178	0x3e835ca7	0.25656626
179	0xbe9e6f49	-0.3094428
180	0x3ea31940	0.31855202
181	0x3e59403f	0.21215914
182	0x3e866721	0.26250556
183	0x3e1f59a4	0.15561539
184	0xbe8c2042	-0.2736836
185	0x3e2fc83f	0.17166232
186	0xbe78a548	-0.242818
187	0xbe06c442	-0.13160804
188	0x3e744538	0.2385453
189	0x3e9606b5	0.29301992
190	0x3e433d36	0.19066319
191	0xbd4a9c64	-0.049465552
192	0xbe09f276	-0.13471398
193	0xbc87c15c	-0.016571693
194	0x3dfbeb85	0.12300781
195	0xbe707de4	-0.23485523
196	0x3ee02570	0.43778563
197	0x3e82c728	0.2554257
198	0x3daa5830	0.08317602
199	0xbe0a2366	-0.13490066
200	0x3e74fb98	0.239241
201	0xbe38dfb2	-0.18054083
202	0x3da90bc8	0.082542
203	0xbf333124	-0.6999686
204	0x3e911c19	0.2834175
205	0x3efb6686	0.49101657
206	0x3ec12969	0.37726906
207	0x3e94cf84	0.29064572
208	0xbdc2998e	-0.095019445
209	0x3e00a666	0.12563476
210	0xbe08370a	-0.13302246
211	0xbec39845	-0.3820211
212	0x3e1db50a	0.15401092
213	0x3de24821	0.11048914
214	0xbe4a9683	-0.19783978
215	0xbde54ed0	-0.11196673
216	0x3e19bcd2	0.15013435
217	0x3e58a548	0.211568
218	0xbe126c3e	-0.14299104
219	0x3ee65270	0.4498477
220	0xbda1b513	-0.07895865
221	0xbbeb92ae	-0.0071891164
222	0xbd1d1f1a	-0.03835974
223	0x3e895808	0.26824975
224	0xbea9bb5a	-0.3315075
225	0x3e33fcfa	0.17576972
226	0x3c22349e	0.00990024
227	0x3ecbea78	0.39827323
228	0xbeaf80ce	-0.34277958
229	0xbf186317	-0.595262
230	0xbebbeaa1	-0.36702445
231	0xbeec0aa4	-0.46101868
232	0xbce84470	-0.028352946
233	0xbd962a3c	-0.07332274
234	0xbe51519f	-0.20441292
235	0x3f049a0a	0.51797545
236	0xbe8d5015	-0.2760016
237	0xbdd29082	-0.10281469
238	0xbeee368c	-0.4652599
239	0x3e8b0e95	0.27159563
240	0xbe93ee4b	-0.2889274
241	0xbe90fb81	-0.28316882
242	0xbe19981a	-0.14999428
243	0xbed25039	-0.4107683
244	0x3ee564cc	0.44803464
245	0xbd92d1e1	-0.071689375
246	0x3de417ac	0.111373276
247	0xbe393bcb	-0.18089215
248	0x3e0da256	0.13831457
249	0xbe5ce1fd	-0.21570583
250	0x3dac753a	0.08420797
251	0xbe843c6b	-0.25827345
252	0x3eb94d2c	0.3619169
253	0x3ee52a41	0.447588
254	0xbc602911	-0.013681666
255	0x3eba5fed	0.3640131

0.12.bias f4 [12]
0	0x3e0609a0	0.13089609
1	0x3e601590	0.21883225
2	0x3bd081d2	0.006363132
3	0xbdde8248	-0.10864693
4	0x3e69a41e	0.22816512
5	0x3cea314f	0.028587965
6	0xbda43c5c	-0.08019325
7	0x3d5e26ce	0.054236226
8	0x3e2f47ca	0.17117229
9	0x3e371460	0.17878866
10	0x3dc6a2bc	0.09699008
11	0xbe080c6e	-0.13285992

1.0.weight f4 [4, 12]
0	0x3f0d32d2	0.5515567
1	0x3f012f29	0.50462586
2	0xbf3d9984	-0.7406237
3	0xbf6342f6	-0.8877405
4	0x3f6b3686	0.9188007
5	0x3f49926e	0.7873906
6	0xbf7698dd	-0.96327
7	0xbf2d92b9	-0.67802006
8	0xbf32f1a0	-0.6989994
9	0x3f547030	0.82983685
10	0xbf67de95	-0.9057401
11	0xbf2ca902	-0.67445385
12	0x3dab65b7	0.0836901
13	0x3edbf413	0.4295965
14	0xbee3920a	-0.44447356
15	0x3caf2ca2	0.021383587
16	0x3ece60c3	0.40308198
17	0x3eb8707e	0.36023325
18	0x3d5b5659	0.053549144
19	0xbc7fbd37	-0.015609077
20	0xbea6bae6	-0.32564467
21	0x3ea43b6b	0.32076582
22	0x3e2729cc	0.16324538
23	0xbe728175	-0.23682196
24	0xbf382d60	-0.71944237
25	0xbf461cfc	-0.77387977
26	0x3f0d8e06	0.55294836
27	0x3f48eeee	0.7848958
28	0xbf2ddede	-0.67918193
29	0xbf258cd6	-0.64668024
30	0x3f27e537	0.6558413
31	0x3f2a08bf	0.66419595
32	0x3f06f413	0.5271618
33	0xbee7ca07	-0.45271322
34	0x3f4e428b	0.80570287
35	0x3f1f0d56	0.62129724
36	0xbf815935	-1.0105349
37	0xbf501adf	-0.81291
38	0x3f6efa04	0.93350244
39	0x3f391ba2	0.7230779
40	0xbf842369	-1.0323306
41	0xbf54eda7	-0.8317513
42	0x3f5abc1c	0.8544328
43	0x3f914540	1.1349258
44	0x3f851647	1.0397424
45	0xbf1d1f8f	-0.6137628
46	0x3f711760	0.9417629
47	0x3f7db5b3	0.99105376

1.0.bias f4 [4]
0	0x3f1fbe86	0.6240009
1	0xbf163954	-0.58681226
2	0xbee0ad1c	-0.43882072
3	0x3ddedf9e	0.10882495
