JSP/trained models/DDQN_StrategicIdleness_rwd5.pt (torch_old, 27345 bytes, 16 tensors)

0.0.weight f4 [5, 5]
000000 d6 42 7f 3f 55 42 7f 3f 59 7e 79 3f 41 d3 82 3f
       0.9971136 0.9971059 0.97458416 1.022072
000010 25 1d a2 3f 5f 22 82 3f 58 b0 8d 3f 93 7f 73 3f
       1.2665144 1.0166739 1.1069441 0.9511654
000020 a9 52 7f 3f 1f dd a0 3f 9e 85 84 3f ac 5a 88 3f
       0.99735504 1.2567481 1.0353277 1.0652671
000030 63 fb 60 3f 65 da 80 3f 0b ee 88 3f a5 3b 81 3f
       0.87883586 1.0066649 1.0697645 1.0096327
000040 67 23 87 3f ab f5 77 3f 41 c1 81 3f 21 64 87 3f
       1.0557679 0.96859235 1.0137101 1.0577432
000050 b9 be 80 3f 36 82 81 3f f5 08 81 3f 66 dc 7e 3f
       1.0058204 1.0117862 1.0080858 0.9955505
000060 ab 6a 81 3f
       1.0110677

0.0.bias f4 [5, 5]
000000 bd 0b 3b bc 75 8a f6 3b a7 71 35 bc 12 81 38 3d
       -0.011416373 0.0075238296 -0.01107446 0.045044966
000010 b1 b0 d1 bc 69 a5 5e bd 62 85 7f 3d 2d dd 80 3c
       -0.025596948 -0.054356966 0.062383063 0.015730465
000020 76 3b 96 3b 9f 45 8d bd 9b 33 d3 3c 17 17 46 3d
       0.004584725 -0.06898045 0.025781443 0.048361864
000030 ac 3e b3 3c a2 15 f3 3c e2 84 15 be f6 fd d5 3b
       0.02188047 0.029673401 -0.14601472 0.0065305186
000040 da cc 4f 3d e6 ae 23 3d fc 4d 0b 3d 34 04 e5 bd
       0.05073247 0.039961718 0.03400992 -0.11182442
000050 ac 0c f3 3b 74 83 21 bc ca d1 22 bc c5 56 a1 3c
       0.007417282 -0.009858001 -0.009937713 0.019694695
000060 dd 99 cf 3c
       0.025341922

1.0.weight f4 [48, 25]
000000 7d 8f e7 3d ef c7 22 bd e3 ab 69 3d e9 55 01 be
       0.11306665 -0.039741453 0.05704869 -0.12630428
000010 4c f9 ad be 61 81 e5 bd 87 eb c4 bc 0f 19 00 3d
       -0.3397926 -0.11206318 -0.02403809 0.031273898
000020 83 cb f7 3d a3 81 27 3e ea fb d5 3d 7b 46 69 3d
       0.12099364 0.16358046 0.104484394 0.05695198
000030 45 c6 f9 3d 01 6e 65 3e 2b 26 f1 3d b5 28 99 bc
       0.1219602 0.22405244 0.11774858 -0.018696168
000040 b8 8e 83 bd b0 dc a3 3c ba 33 8e bc 79 0b 2b be
       -0.06423706 0.020002693 -0.01735865 -0.16703595
000050 72 03 d5 bd 10 3a 1e 3e 37 b0 83 bd f4 b0 30 3e
       -0.10401048 0.15451837 -0.06430095 0.17255002
000060 fc 27 d1 bd 5b 10 08 3e 92 b8 9f 3d f2 35 96 3d
       -0.102127045 0.13287489 0.07798876 0.07334508
000070 c3 38 34 be 9b e9 fb 3c 70 e5 41 3d 00 1e 06 be
       -0.17599778 0.03075104 0.04733795 -0.13097382
000080 6b 57 24 bc ff 16 2d 3e 6d 0d cd bd aa a2 33 3e
       -0.010030608 0.16903304 -0.100123264 0.1754252
000090 78 38 e4 3d 8b 0f 15 bd c9 e3 53 bd ca b3 9e 3e
       0.11143583 -0.036391776 -0.051730905 0.30996543
0000a0 2d 55 14 be 6d 72 20 be 93 b7 fb 3d 6a a8 0b 3d
       -0.14485617 -0.1566865 0.122908734 0.03409616
0000b0 ae 16 a4 3e 85 7e 41 3e b3 8b 02 3c f5 4d 1e 3e
       0.32048553 0.1889592 0.007967877 0.15459426
0000c0 06 a1 11 be f5 87 1b 3e e1 2a 2f bd 71 b1 24 be
       -0.14221582 0.15188582 -0.042765502 -0.16083314
0000d0 18 7e 06 3e fa 44 2a bb a7 30 ba 3c eb 6b 58 3e
       0.13134038 -0.0025981055 0.022728277 0.21134917
0000e0 83 41 1e be 8c 1a 4c 3d 8d da c8 bd 64 6f c6 bd
       -0.15454678 0.049830005 -0.0980731 -0.09689215
0000f0 46 ae 74 3d 68 7d 88 3c 75 67 8b bd c2 d8 08 be
       0.059736513 0.01666136 -0.06806842 -0.13363937
000100 ba c6 50 bc 29 33 26 3e c8 a9 0f be 78 19 99 3b
       -0.012742693 0.16230454 -0.1402961 0.0046722256
000110 39 21 5a 3a a7 69 84 3d 9b 9b 62 3e de ef ef 3d
       0.00083209906 0.06465464 0.22129671 0.11715673
000120 86 e0 e3 3d 7a b7 2c be fd 73 db 3d 1b f6 a3 bd
       0.11126809 -0.16866866 0.107154824 -0.08005925
000130 50 7e 85 bd 3d 5b 25 3c 8f 00 95 3d 65 18 b7 3b
       -0.06518233 0.010092554 0.07275497 0.005587625
000140 de c5 b5 bd dc 81 68 3d 59 d3 31 be eb d9 95 3c
       -0.08875631 0.05676447 -0.17365779 0.018292388
000150 c2 14 41 3e fa 55 14 bd 15 18 35 be 0f 40 ab bd
       0.18855575 -0.036214806 -0.17684968 -0.083618276
000160 e2 b3 d0 bc 5a cb 2e bd 6b 88 ca bc 31 b5 0f 3e
       -0.0254764 -0.0426744 -0.024723252 0.14033963
000170 62 f2 3e 3e f2 87 17 3e d9 fa 88 bd f0 cf 14 3e
       0.18647149 0.14797953 -0.066884704 0.14532447
000180 be 62 1e 3e 8a ae 87 bd c4 85 0a 3e d7 50 48 be
       0.15467355 -0.066250876 0.1352759 -0.19562088
000190 09 4d 34 be 5e 74 42 be 53 40 bd bd cf 29 a9 bd
       -0.17607512 -0.18989703 -0.092407845 -0.082599275
0001a0 da 92 6d 3e 28 bb 99 3d a8 50 12 be 47 79 27 bd
       0.2320055 0.075064 -0.1428858 -0.040887143
0001b0 3f 3f 44 3e c1 52 f5 3d 8f 70 28 be 6f b0 aa 3d
       0.19164751 0.11978675 -0.16449188 0.08334433
0001c0 7a 4e 17 3c cb 2b 37 3e b5 ed 52 bd 63 b7 13 be
       0.009235019 0.178878 -0.051496226 -0.14425425
0001d0 9c b1 3e be 1a 9b 25 3d cd d7 2e 3e a4 11 83 bc
       -0.1862244 0.04043112 0.17074509 -0.015999623
0001e0 a8 db 14 be 16 11 5c be 0f d1 eb bd c2 ef 2a be
       -0.14536917 -0.21490893 -0.11514484 -0.16693023
0001f0 94 f9 14 3e 81 6c 4c 3e ce bf 36 bd 66 a5 aa 3d
       0.14548331 0.19963266 -0.044616513 0.083323285
000200 b5 3b 1b 3d 93 6f 61 3e 2f 82 55 bb 6e 6d 86 bd
       0.037898738 0.22015218 -0.0032578816 -0.06563841
000210 a0 8c 8e bd f7 77 38 3e e8 b5 b2 3d 89 bf 42 3d
       -0.06960416 0.18014513 0.08726102 0.047545943
000220 f6 5b 48 be 6e 20 c9 3b 63 3a 46 3e 79 e4 40 3b
       -0.1956633 0.006137899 0.1935821 0.0029433055
000230 ed ca 32 3e 98 7b cb bd 6b 99 1f 3e b3 3e 45 3e
       0.17460223 -0.09935683 0.15585868 0.19262199
000240 49 6e 1f be 2d 34 d9 3d af 7a 18 bd b0 ea 4c 3d
       -0.15569414 0.10605655 -0.037226375 0.050028503
000250 ff 67 8d 3d 96 5c 38 bb b4 48 b6 3d 06 4e 6f be
       0.06904601 -0.0028131357 0.08900586 -0.23369607
000260 98 a1 e1 3d 9c e6 19 be 25 9d 1c be e3 9a 4d bd
       0.1101715 -0.15029377 -0.15294321 -0.05019654
000270 be 6d bf 3d 78 cb 3f be 21 78 e1 3d 7e b7 55 be
       0.093471035 -0.18729961 0.11009241 -0.20870778
000280 ee 99 c0 3d e7 1a c5 3d 92 3e 0b 3e c5 9f 14 3e
       0.0940436 0.09624272 0.13598087 0.14514072
000290 93 62 57 3e cc 84 2d be a0 28 02 bd 27 aa 15 be
       0.21033697 -0.16945189 -0.031777024 -0.14615689
0002a0 f0 12 00 3e da 3e c0 3d 81 94 18 be 54 fb 2f 3e
       0.12507224 0.09386988 -0.149004 0.17185718
0002b0 98 98 da 3d 68 0a 2b 3d c1 9b dd bd 04 40 1a 3e
       0.10673636 0.04175797 -0.10820723 0.15063483
0002c0 a6 00 e2 3d f9 a0 d4 3d fd aa a9 3d e2 f2 6b be
       0.1103528 0.103822656 0.082845666 -0.23041871
0002d0 c4 71 44 3e e7 c1 a1 bd e5 32 3e bd 98 20 93 bd
       0.19184023 -0.07898312 -0.046435256 -0.07183951
0002e0 c2 d3 62 be a5 48 2c be 44 51 4c bd 86 a6 10 3e
       -0.22151092 -0.16824587 -0.04988219 0.14126024
0002f0 48 bb fa 3c 3a 0f 1a 3e 72 95 e3 bd 61 71 9e ba
       0.03060688 0.15044871 -0.11112489 -0.0012088233
000300 67 24 42 3d ee f3 59 3e 4c 95 7e 3e 44 79 96 bc
       0.047397997 0.21284458 0.2486164 -0.01836837
000310 e5 37 0f bd 44 3c 43 3e 32 d6 2a 3e 8b b8 c2 bd
       -0.034965415 0.19065958 0.16683272 -0.09507855
000320 ae 88 e5 bd 89 f7 1d be 55 81 e0 bd cd 33 c1 bd
       -0.1120771 -0.15426458 -0.10962168 -0.09433708
000330 d9 81 b4 3d 19 fd 95 bd 92 c8 7e 3e 9b f7 1b be
       0.08813829 -0.07323665 0.24881199 -0.15231173
000340 e2 dc c2 3d 51 db a8 3d d5 cf 1c be 78 15 e5 3d
       0.09514786 0.08244956 -0.15313657 0.111857355
000350 3a 33 b4 bd da 2c da bc fe 4b cf bd 99 77 d4 3d
       -0.08798833 -0.026632715 -0.10121916 0.10374374
000360 16 a8 24 3e 16 e0 0f bc 97 2f 28 3e 0f 5b cd bd
       0.16079745 -0.008781454 0.16424404 -0.10027134
000370 8a 5f 85 3d c5 83 16 bd 78 2f a2 3d 61 88 87 3d
       0.06512363 -0.03674676 0.0791921 0.06617809
000380 54 a6 22 3d dc 94 a4 3d 26 80 3b 3e 04 e1 74 3e
       0.039709404 0.08036205 0.18310603 0.23913962
000390 57 bd de bc 1a be c8 3d 4e 4f c1 bd f0 0d b6 bd
       -0.027189894 0.09801884 -0.09438954 -0.08889377
0003a0 d0 50 33 be b6 61 8e 3d 1b 6a b8 bd 34 d7 2a be
       -0.17511296 0.06952231 -0.09004613 -0.16683656
0003b0 f0 32 6b 3d 64 dc e3 bd 1a 7b ae 3d 4e 1b ec 3c
       0.057421625 -0.111260206 0.085195735 0.028821614
0003c0 68 22 8b bd 0d a6 38 be 35 29 ee bd c1 90 85 bd
       -0.06793672 -0.18032093 -0.11628953 -0.0652175
0003d0 9d 90 0c 3e 22 ea 91 3d 56 49 3e bd a4 8d d0 3d
       0.1372704 0.071247354 -0.046456657 0.10183266
0003e0 8d 07 fc bc ad 8b f9 bd a9 74 bb bd d8 f0 4e 3e
       -0.03076532 -0.12184844 -0.091531105 0.20209062
0003f0 d3 af 22 3e 9f ff f0 3d 6a e0 92 3e 4a 6a b5 3d
       0.15887384 0.11767506 0.2868684 0.08858164

1.0.bias f4 [48]
000000 10 fd 57 3e 31 80 dc 3d be 1f 99 bd 74 07 85 bd
       0.2109263 0.10766638 -0.074767575 -0.06495562
000010 45 7d 23 be a5 90 0d bd ae 92 0e be b6 b0 b8 3d
       -0.15965755 -0.034561772 -0.13923141 0.0901808
000020 59 d1 15 be b8 f9 41 be 81 c2 a8 3d 2e 46 0d bd
       -0.14630641 -0.18942916 0.08240224 -0.034490757
000030 8f 61 85 bb c6 1e 3d be 23 28 96 bc 75 e7 12 3e
       -0.004070468 -0.1846877 -0.018329686 0.14346106
000040 d0 d1 6c 3b 0b df 29 be 2c 05 10 be 40 0c 16 3d
       0.00361358 -0.1658899 -0.14064473 0.036632776
000050 b6 df 5b bd b6 4e 9b bd ff d1 d0 3d 6d 23 16 bc
       -0.053680144 -0.07583372 0.101963036 -0.00916372
000060 1a e9 99 3d 39 95 4b bd f5 04 7d bd 49 cc ec 3d
       0.07515164 -0.049702857 -0.061772306 0.11562402
000070 62 78 b5 bd 1b 33 25 be e6 b4 c9 bd 68 c4 98 bd
       -0.08860852 -0.16132776 -0.09848957 -0.074593365
000080 75 67 1f 3e 22 f0 f1 3d 72 8c 08 be 71 7c 2c 3d
       0.1556681 0.1181338 -0.13334826 0.042110864
000090 2d 14 ca 3c 32 0e e2 3d 1c f4 b4 3c c5 8d 4a 3c
       0.024667824 0.11037864 0.022089057 0.012362902
0000a0 ca 66 dd 3c fc c7 08 3d af 64 44 3d 03 cd 3e be
       0.027026553 0.033393845 0.04794758 -0.18632893
0000b0 43 92 3e 3e 36 20 7d 3d 86 6e 2e be 48 91 a8 bd
       0.18610482 0.061798297 -0.17034349 -0.08230835

1.2.weight f4 [36, 48]
000000 0f 46 18 be aa ef 18 3e d6 e5 a0 3d 6c 09 33 bb
       -0.14870475 0.14935175 0.07856338 -0.0027318848
000010 20 28 0b bd 3d 53 8b b9 a4 c4 03 3e 2d 47 e7 bd
       -0.033973813 -0.00026574163 0.12867981 -0.112928726
000020 c9 1d 0a be 83 ee 62 3c 04 51 61 bd ee ac 14 bd
       -0.13487925 0.013850811 -0.055008903 -0.03629773
000030 fd c7 90 bd 51 58 65 3d 22 f7 c9 bd c7 7a 90 3d
       -0.07069395 0.05599243 -0.0986159 0.07054668
000040 f3 7d 89 bd a3 96 6e bd 29 f6 fb bc 2c 5a 9e bd
       -0.06713476 -0.058249127 -0.030757027 -0.07732043
000050 e6 87 29 3c c5 bb 05 3e d1 79 05 be 24 9c 13 be
       0.010347342 0.1305991 -0.1303475 -0.14415032
000060 99 c8 2f be ac f5 63 bd 7e ca 0d 3e 67 7b e0 3d
       -0.17166366 -0.055654213 0.13846776 0.10961037
000070 a8 b2 ec 3d 7f 03 b0 bc 17 bf c7 bd b5 a2 b2 bd
       0.115575135 -0.021486042 -0.09753244 -0.0872244
000080 fa 8b 95 bd ef 09 f7 bb cb be 11 3d 3c f2 82 3d
       -0.07302089 -0.007539026 0.035582345 0.06393859
000090 61 2a e1 bd 28 d8 11 3d cc 20 f2 3d cb c0 cc bd
       -0.10994411 0.035606533 0.11822662 -0.0999771
0000a0 03 4e 33 bd 8d d2 93 3d 86 f4 bb bb 7d a6 f9 bd
       -0.04377557 0.07217894 -0.0057359366 -0.12189958
0000b0 e5 22 c0 bd 0e d5 45 bd 5c 7f 53 3d 45 db 85 3d
       -0.093816556 -0.048298888 0.05163513 0.06535963
0000c0 a0 6e 84 bd 59 48 ee bd 6e 9f 57 bc b3 f4 20 be
       -0.064664125 -0.11634893 -0.01316057 -0.15718345
0000d0 ce 9a d2 bd 52 07 a8 3c 80 50 41 3d 54 f2 e8 bc
       -0.10283433 0.020511303 0.04719591 -0.028435864
0000e0 df 51 25 3d e9 da ce 3c 57 e1 1f 3e c3 f0 99 3d
       0.04036128 0.025250869 0.15613304 0.07516625
0000f0 28 c0 cc bd 7d 15 0a 3e 3d 48 59 3c 49 79 0e 3e
       -0.099975884 0.1348476 0.013261852 0.13913454
000100 92 34 49 3d a8 3a 72 bd e3 05 5d bc 8b b0 06 3d
       0.0491224 -0.05913797 -0.013490173 0.03288321
000110 13 ed ab 3d b0 33 3b bd dc 5b cb 3d 7b 02 20 3d
       0.08394828 -0.04570359 0.0992963 0.039064866
000120 54 bc ca bd 8b 71 05 bb b5 d2 fa 3d 4a a0 a0 bd
       -0.09899202 -0.0020361866 0.122472204 -0.07843073
000130 e5 d1 d8 3d 8d d5 0b 3d 93 51 0a be 94 bb 96 3d
       0.10586909 0.034139205 -0.1350768 0.073599964
000140 44 2c b3 3d 46 7c a0 3d 27 6d 77 3d 23 e3 93 bb
       0.087486774 0.07836203 0.06040683 -0.004513161
000150 9c 06 f4 bd 8e 6d d7 3d d4 be d8 bd 7c ea b9 3d
       -0.11915323 0.10518943 -0.105832726 0.090779275
000160 f2 8e 0f 3d 62 3d 7a bd 64 62 c3 bd 4d 79 48 3d
       0.035048433 -0.061093695 -0.09540251 0.048943806
000170 09 0b 6f 3d d4 17 b3 bc 88 6c fa bd 73 2c 1d be
       0.058360133 -0.021861948 -0.12227732 -0.15348987
000180 f2 43 e9 3d a8 cd 06 be eb c4 36 be bd be f0 bd
       0.11389913 -0.13164389 -0.17848556 -0.117551304
000190 06 fe 90 bd 94 c1 f0 3d 98 a1 90 bb 25 7b 81 3d
       -0.07079701 0.11755672 -0.0044137947 0.06322316
0001a0 aa ca 0d 3e ee 6c ad bc 34 f8 5a 3d e8 3b 5d bd
       0.13846841 -0.021170106 0.05345936 -0.05401221
0001b0 dd 68 bf 3d 97 f0 18 3d 07 b2 c1 3c cc d8 c2 3b
       0.09346173 0.03733882 0.02364446 0.0059462544
0001c0 f4 7b 3e 3e e7 b2 5a 3d 94 3f 12 bc d2 e0 e8 bd
       0.18601972 0.05339327 -0.008926291 -0.11371006
0001d0 97 ba 8f 3d c0 66 a3 3d 7a 7e a8 bd 2f 04 d6 bd
       0.07018011 0.079785824 -0.082272485 -0.10450017
0001e0 8b ee 44 3c 36 c6 bc 3c 64 81 87 3d 32 09 85 3c
       0.012019764 0.023043733 0.06616476 0.016239736
0001f0 32 22 14 be 7c ea e0 bd 12 5e 61 be 9c 75 3d 3d
       -0.1446617 -0.10982224 -0.22008541 0.04625474
000200 a5 ec ac 3d bb 46 a5 bd 5c 3b c7 3d 35 46 ac bc
       0.08443574 -0.080701314 0.09728119 -0.021029571
000210 04 da d4 bd bc 2c 28 bd cc 67 d8 3d 75 94 2f 3e
       -0.10393146 -0.041058287 0.10566673 0.17146476
000220 fe 61 7a bd 85 6f f4 3d 0e 64 b2 3d 7d 29 e8 bd
       -0.06112861 0.11935333 0.0871049 -0.11336038
000230 5e b1 42 3e 96 50 35 be 36 2e 8b 3d 3e ff 80 3d
       0.19012973 -0.17706522 0.067959234 0.062986836
000240 99 f2 02 be 09 88 9b 3d b7 13 27 3d d6 c1 cd bd
       -0.12787856 0.07594306 0.040790286 -0.10046737
000250 58 a4 d9 3c 3f 1f c9 3d 1e 88 3b 3d 31 33 e6 bd
       0.026567623 0.09820413 0.04578411 -0.11240233
000260 42 3b 0a be ef b8 c3 bd 9a f6 95 bd ac 17 f4 bc
       -0.13499168 -0.09556758 -0.07322426 -0.029796444
000270 74 61 25 3e 36 f4 1d bd b3 79 6d 3b 8d 22 97 3d
       0.16150457 -0.038562976 0.0036235868 0.07379637
000280 6c 9c b1 bd 42 7f 9e bd 07 96 19 3d c0 f0 92 bd
       -0.08672413 -0.07739116 0.037496593 -0.07174826
000290 34 02 f4 bd 10 3a c1 3d f6 c5 b0 3d ad df e4 3d
       -0.11914483 0.09434903 0.08631508 0.11175475
0002a0 41 d4 33 bd 58 43 08 3d 8f 54 18 3e 3d 36 17 bd
       -0.043903593 0.03326735 0.14876007 -0.03691696
0002b0 9b 3e 8b 3d 8f 1a a8 bd 80 1f 53 3c 4f 45 f1 3d
       0.067990504 -0.08208191 0.012885928 0.11780798
0002c0 53 dd c9 3b e5 14 45 bc ac 77 01 3e 45 e5 3d 3d
       0.006160417 -0.012028907 0.12643307 0.046361227
0002d0 74 76 bf bd 45 5d d7 3d 57 71 7a 3d d3 ef 21 bb
       -0.09348765 0.105158366 0.061143246 -0.0024709597
0002e0 58 84 80 bd 23 69 15 3e cb dd 1d be 02 75 c2 3d
       -0.062752426 0.14590888 -0.15416639 0.09494974
0002f0 de 88 de bd 82 f2 a5 bd 18 4e 06 be f5 79 a3 3d
       -0.10865949 -0.08102895 -0.13115728 0.07982246
000300 0c 0d 9a bd b4 2b 04 be a3 d3 ee 3d 7f 4f 04 be
       -0.0752202 -0.12907296 0.1166146 -0.1292095
000310 1c 63 b4 bd a6 b8 e5 bd 38 80 f1 3d 02 09 1c be
       -0.08807966 -0.112168595 0.11792034 -0.15237811
000320 f6 6c 16 bd 6f 0c 5e bd 84 6b ff 3d 8c ce 2b 3d
       -0.036725007 -0.054211076 0.12471679 0.041945025
000330 c3 22 51 3d 54 2e 0a 3d ad 71 1d 3d c1 a4 9e 3d
       0.051058542 0.03373559 0.038438488 0.07746268
000340 c1 73 66 3d 0c 23 0d be ab c5 35 bd 8e 18 39 bd
       0.056262735 -0.137829 -0.044377964 -0.045189433
000350 d1 81 fd bd 15 53 81 3d fb b7 aa bd 77 76 46 bc
       -0.12378276 0.06314675 -0.08335873 -0.012113205
000360 fc 9f 43 bd 93 93 e8 bc 77 77 db bd f2 12 cf 3d
       -0.047759995 -0.028390681 -0.107161455 0.101110354
000370 8b 66 74 3d c4 85 db bd 62 1e 23 be 2a 77 08 bd
       0.059668105 -0.10718873 -0.15929559 -0.03331677
000380 30 dd fb 3d ee 1d d1 3d b9 85 dd bd 54 3a cc bd
       0.122980475 0.10210787 -0.10816521 -0.09972063
000390 75 75 a2 bc cb 5f 55 bd ae 07 e6 bd 5a a4 ad 3d
       -0.019831399 -0.05209331 -0.112319335 0.08478613
0003a0 51 b3 89 3b ba f6 50 bd 9f b0 bb 3b 55 ad e7 3d
       0.0042022844 -0.051016547 0.005727842 0.11312357
0003b0 ab dc 27 bc 1f c4 29 3d 29 9b ed bd cd 03 c2 3d
       -0.010245482 0.0414468 -0.1160186 0.09473381
0003c0 b8 2c e0 3d ea f5 45 bd 15 0c 1e be 23 6f 32 bd
       0.109460294 -0.048330225 -0.15434296 -0.04356302
0003d0 00 a1 28 3e 10 4c 65 bd a6 57 e1 3d 9c 1e 62 bd
       0.16467667 -0.055980742 0.11003046 -0.055204973
0003e0 80 60 38 3d 08 ed 2f 3c ca 47 94 3d bc 0c de bd
       0.045013905 0.010737665 0.07240255 -0.10842273
0003f0 30 66 e3 3d e2 11 10 bb 5d 2e ca bd 04 78 a4 bc
       0.11103475 -0.0021983315 -0.09872124 -0.02007676

1.2.bias f4 [36]
000000 07 82 f8 3d 7d eb 15 3e 3b 16 29 3c d9 7c fc bc
       0.12134176 0.14640613 0.010320242 -0.03082125
000010 41 0f 91 ba 66 63 cc 3d bd 53 af bd 33 e5 8e 3d
       -0.0011067168 0.09979896 -0.08560894 0.0697731
000020 8c 52 94 3d 02 57 be bb c7 09 8e 3d 00 9c d4 3d
       0.07242307 -0.005808712 0.06935459 0.10381317
000030 6e b5 e4 3d 13 a4 84 3d 5f 8f c1 bd a1 6e fe 3d
       0.111674175 0.06476607 -0.09451174 0.124234445
000040 e1 d0 be bd 67 9a 6e 3d 60 34 97 ba 9a 55 1a bc
       -0.09317184 0.05825272 -0.0011535995 -0.009419823
000050 be 82 e8 3c 7c 2c 60 3d 75 ee f5 bd 19 4b 61 bc
       0.028382655 0.054729924 -0.12008373 -0.013750815
000060 17 ac 51 3d 3d 70 2d 3d fe 5a d5 bd 5e 35 c0 bd
       0.05118951 0.042343367 -0.10417746 -0.09385179
000070 f5 02 b3 3d 27 b4 18 3d a8 bc 46 3d db a6 bd 3d
       0.087407984 0.03728118 0.04851976 0.09260341
000080 ba b4 fc 3c 13 88 d6 3d c8 fe 46 3d dc ae 91 bb
       0.030847896 0.10475173 0.048582822 -0.0044458937

1.4.weight f4 [36, 36]
000000 45 dc c4 3c 8f fe 1b 3d 17 b2 37 be 19 0d bd bd
       0.024030814 0.038084563 -0.1793903 -0.09231014
000010 80 90 0e 3e 30 48 38 3e 69 d2 cd 3d 36 b9 12 3e
       0.1392231 0.17996287 0.10049898 0.14328465
000020 24 74 26 bd 90 c0 18 be 2b 39 f8 3d 47 02 2b bd
       -0.040638104 -0.14917207 0.12120279 -0.04175022
000030 76 60 08 bc 13 46 8c 3c d2 ff c0 bd 18 2c 41 3e
       -0.008323779 0.017123258 -0.09423794 0.18864477
000040 00 35 ca 3c d2 03 7a bd 94 54 52 bc 5c 0a 0a be
       0.024683475 -0.0610388 -0.012837548 -0.13480514
000050 8d ca ac bd e7 a1 1e 3e e5 9a fe 3d 13 98 df bd
       -0.08437071 0.15491448 0.124318875 -0.10917678
000060 ff e6 12 3e d9 0a f8 3d 21 a2 ff 3d d9 c0 5e 3d
       0.1434593 0.12111444 0.124820955 0.054383133
000070 12 ec 87 3d 6e 96 10 3e b5 9e 2a 3d 4e 34 e0 bd
       0.06636824 0.14119884 0.04165526 -0.10947476
000080 80 12 c3 3c 84 96 c6 3d b3 78 ca bd e0 0f db 3d
       0.023812532 0.09696677 -0.09886303 0.10696387
000090 8d 63 f7 3c ea 6e 35 3d 11 e4 2a 3e c6 9b 08 be
       0.030198837 0.04429523 0.16688563 -0.13340673
0000a0 1b 15 d8 3d e2 9a 5b 3d 81 d2 0f be 82 1b d9 3d
       0.105509005 0.053614505 -0.14045145 0.1060095
0000b0 a5 8c 9a bd ab b6 9f 3c 81 55 93 3d df 66 d2 3d
       -0.07546357 0.019496283 0.07194043 0.10273527
0000c0 ea 9c 2a be 01 2d 71 bd 73 11 02 3e c6 67 40 be
       -0.1666142 -0.05888081 0.12701969 -0.18789586
0000d0 e0 c8 50 be 0b 70 b8 bd 29 74 15 3d 66 24 11 3e
       -0.20389128 -0.090057455 0.036487732 0.14174041
0000e0 c9 4c 07 bd 39 9e a4 3d 0d 27 41 3d db 38 db bc
       -0.033032212 0.08037991 0.047156382 -0.02676051
0000f0 dc b3 3e be c6 ee 87 3b 4c 26 87 3d 23 44 22 bd
       -0.18623298 0.004148337 0.065991014 -0.03961576
000100 c5 d7 2a 3e 1b 68 19 3c be 4c bb 3d 8f 89 08 3e
       0.16683872 0.0093632 0.09145497 0.13333724
000110 dd 3b 1c be 97 a3 e5 3d 5f 46 c6 3d 92 0d ce 3d
       -0.15257211 0.11212843 0.09681391 0.10061182
000120 b0 5c fb 3d de 7f 1d be bb 1c 44 3d e7 7d b6 3d
       0.12273538 -0.15380809 0.047878962 0.08910733
000130 85 eb 2a 3e e7 06 bb bd 01 be 1c 3e 7b 17 94 3d
       0.16691406 -0.09132176 0.15306856 0.07231041
000140 01 d0 10 3e 72 d2 ca 3d b6 5a 33 bc 3f 5e 7f 3c
       0.14141847 0.099034205 -0.01094692 0.015586435
000150 d1 41 12 3d 7a a1 c0 bd 48 35 71 bd 45 3f 87 bd
       0.0357073 -0.09405799 -0.058888704 -0.066038646
000160 89 3a 9e bd 92 b9 aa bd 07 e7 7f bd 76 90 23 3e
       -0.077260084 -0.08336176 -0.062476184 0.15973076
000170 9e 7d 21 3e ad 62 be 3d 0a 0b a4 3d fd 6b 15 bd
       0.15770575 0.09296165 0.08009918 -0.03647994
000180 a6 5a de bd fa 19 17 3e 43 df 33 3e b9 1e 26 3d
       -0.108571336 0.14756003 0.17565636 0.040556643
000190 74 d3 7a bd 99 7e 11 be de 64 f7 3d b1 f2 56 3d
       -0.061236814 -0.1420845 0.12079786 0.052477542
0001a0 ad e0 0a 3e c8 5a 87 bb f2 dd 00 3e 0e b9 d7 bd
       0.1356227 -0.004130695 0.12584665 -0.10533343
0001b0 f8 e9 7d 3c 23 12 62 3d ea 65 95 bd a9 e9 a6 bd
       0.015497677 0.055193078 -0.07294829 -0.08150036
0001c0 bb 11 06 3e 49 b1 3e 3d 73 3a 28 3e 8b 7e 13 3e
       0.13092701 0.04655579 0.16428547 0.14403741
0001d0 c7 b3 e9 3c bf de f7 3c 23 d4 31 be 4f 18 9f 3d
       0.028528107 0.03025758 -0.1736608 0.07768308
0001e0 9b 6c 2e 3e d5 df f7 3d 9c 59 e7 bd 0f eb 1a 3e
       0.17033617 0.121032394 -0.112963885 0.1512873
0001f0 97 00 2d 3e bc 38 45 3b 42 58 12 bd f5 f1 c9 3b
       0.16894756 0.003009363 -0.0357287 0.0061628767
000200 5e 7e c1 3d 33 1a b2 3d 3e 42 45 bc c8 76 0e 3d
       0.09447931 0.08696403 -0.012039719 0.034781247
000210 30 bf be 3d 89 7a c5 bd e8 b2 2a bd ac 80 a0 bd
       0.0931381 -0.09642512 -0.041674525 -0.07837042
000220 95 a9 c0 bd eb 43 24 3e e8 74 27 be 93 db 1a bd
       -0.09407345 0.16041534 -0.1635319 -0.03780706
000230 85 f0 c4 3d 1b dd 09 be 14 58 d7 3d 79 f7 1c be
       0.09616188 -0.13463251 0.105148464 -0.15328778
000240 25 ef 07 be b0 89 2c bc bd 9a 73 bd 95 ae 0d be
       -0.1327482 -0.010530874 -0.05947374 -0.13836129
000250 9a f5 88 bd 4e 88 d2 bb d4 f7 39 bc 48 35 71 3d
       -0.0668747 -0.00642494 -0.011350591 0.058888704
000260 80 d3 88 bd 73 39 35 be fa a4 64 3d d1 4b 32 3d
       -0.066809654 -0.17697696 0.055821396 0.043529335
000270 d0 61 ec bd 1d c7 ac 3d 8e 09 e9 3d b0 59 16 be
       -0.11542094 0.08436415 0.113787755 -0.1468265
000280 38 87 aa bd 91 c3 17 be 90 2a 69 bd 8b 53 19 3e
       -0.08326572 -0.14820696 -0.056925356 0.14973275
000290 2b c1 c2 bd f9 35 cc bc 88 47 c6 3c b7 e4 73 bd
       -0.095095 -0.02492808 0.02420403 -0.05954429
0002a0 39 a5 0b bd 21 1e 87 3c 70 d6 df 3d 23 70 26 be
       -0.034093115 0.016493859 0.109295726 -0.16253714
0002b0 63 ae 1c 3c 3a 41 f3 bc 23 ac d0 3d e9 a2 08 3e
       0.009563061 -0.029694188 0.101890825 0.13343395
0002c0 6b 09 06 be ba 39 61 3d 43 d9 58 3d 65 20 dc 3c
       -0.1308953 0.054986693 0.052941572 0.026870916
0002d0 24 3b ef bd 19 76 d0 bb 60 31 98 bd 04 18 29 3e
       -0.11681202 -0.0063617346 -0.074312925 0.16513067
0002e0 7b 0e ab bc f8 ea 0a be 93 35 cf bd f0 29 21 be
       -0.020880928 -0.13566196 -0.1011764 -0.15738654
0002f0 02 37 bc 3c ec 35 7a ba 7d 08 82 bd ed 95 42 3e
       0.022975449 -0.0009544778 -0.06349275 0.19002505
000300 f4 a3 8b 3d 18 e1 2d be 83 bf 07 bd d5 85 70 3d
       0.06818381 -0.16980398 -0.033141624 0.058721382
000310 ed ad 21 be e2 55 c6 bd 15 43 48 bd 7e bd 6a bd
       -0.15789004 -0.096843496 -0.0488921 -0.05730962
000320 2f 83 ae bd 87 89 ba 3d 35 7d 26 3e 37 d3 98 bd
       -0.08521115 0.091082625 0.162587 -0.07462161
000330 47 9b e7 3b 41 69 f8 3c ff 48 f1 3d 97 9c 14 be
       0.007068071 0.030323626 0.11781501 -0.1451286
000340 d5 f3 3a bd 0e 24 1f 3e db db 73 3d 46 56 70 3d
       -0.045642693 0.15541098 0.059535842 0.058676027
000350 a1 b2 0b be 2d 77 3b 3e 4a fc e8 bc d6 12 d1 3d
       -0.1364236 0.1830718 -0.028440613 0.10208671
000360 be fc d6 3d 97 7b 26 3e 96 ab 10 3c c0 65 2a 3a
       0.104974255 0.16258083 0.008829972 0.0006500147
000370 bf af f0 3d 67 ad c3 3d fe a7 2f 3e ac d6 07 3e
       0.11752271 0.09554558 0.17153928 0.13265485
000380 dc c3 03 be 68 6c e8 bd 9f ea b5 bd 2a a5 e9 3d
       -0.12867683 -0.11348802 -0.08882641 0.11408456
000390 6e de d4 3d 00 f8 3d 3e 56 1c 9c bd 76 f8 41 bd
       0.103939876 0.18551636 -0.07622592 -0.04735609
0003a0 b0 b9 15 bd 68 1d 06 3e d8 77 2a be 6a ca 7c 3d
       -0.03655404 0.13097155 -0.1664728 0.061716475
0003b0 58 71 ee 3d a9 80 d5 bd 71 ca 85 3b bf b1 f2 3d
       0.11642712 -0.104249306 0.004082971 0.118503086
0003c0 a5 d8 15 bd ee 66 64 3d 67 f9 95 bd 39 ee a3 3d
       -0.03658356 0.055762224 -0.0732296 0.08004422
0003d0 39 e1 1c 3d 70 c0 04 3d d1 8d 46 3e 38 33 e5 3c
       0.038300727 0.032410085 0.19390036 0.027978525
0003e0 22 8d 88 bd de 4e 41 3d e8 87 b7 bc f4 6b ee bd
       -0.06667544 0.047194354 -0.022403672 -0.11641684
0003f0 7b 76 cf 3d 30 9e b5 3b d8 27 07 3d 98 98 37 bc
       0.1013002 0.005542539 0.032996982 -0.011205815

1.4.bias f4 [36]
000000 94 7a 91 3d da 19 16 bd 2f ed a7 bb db 52 04 be
       0.07103458 -0.036645748 -0.00512471 -0.12922232
000010 22 78 8b 3d 4d 26 0a be c6 09 b3 3d db 45 7a bd
       0.06810023 -0.13491173 0.087420985 -0.061101776
000020 52 0f d7 3d 9b 03 bb bd 7b de 02 be 70 29 17 bd
       0.10500969 -0.09131547 -0.12780182 -0.036904752
000030 87 94 16 3e 25 84 e8 3d 14 bd 0f bd dd c3 0d be
       0.14705096 0.113533296 -0.03509243 -0.13844247
000040 17 c3 95 bd ae 02 c9 bd 79 29 22 3e bb 0b 9e 3d
       -0.07312601 -0.09814964 0.15836133 0.07717081
000050 f0 b0 7b 3d 7e 9e b1 3d dd c9 ac bd 34 56 1c be
       0.061448038 0.08672808 -0.0843694 -0.15267259
000060 9b d0 05 be 88 34 58 3d b4 2b 30 bc c9 cb 13 3e
       -0.13067858 0.052784473 -0.010752607 0.14433207
000070 d5 88 ac bd 97 c5 8c 3c b4 ab 7d 3d 50 cc 1e be
       -0.08424536 0.017184062 0.061931327 -0.15507627
000080 cb dc 8a 3d e4 d0 b7 bd 6c 3e ec 3d a4 b6 bd 3d
       0.06780394 -0.089753896 0.115353435 0.092633516

1.6.weight f4 [24, 36]
000000 a1 04 2f be 04 3c 1f 3e 5e 54 2f 3d fe 6c 46 be
       -0.1709161 0.15550238 0.04280507 -0.19377515
000010 21 9a 3f bd 48 b9 ec 3c 33 be af bd f5 46 43 bd
       -0.04677785 0.028896943 -0.085811995 -0.04767509
000020 6d 45 99 3d 2f 4a 6b 3d 64 59 ec 3d f3 33 ef 3c
       0.07483945 0.057443794 0.115404874 0.029199576
000030 fe fc ed 3c 85 c6 2c bc 43 7a ad bd 9d eb 7e 3d
       0.0290513 -0.010545378 -0.08470585 0.062236417
000040 3f 15 2d 3e 90 ff f8 3c 97 7c 18 3d 0e 8b d6 3d
       0.16902636 0.0303953 0.037228193 0.10475741
000050 9b 0d d3 3c 5c 28 2c 3d 94 bc dd 3d 6b 3f d8 3d
       0.025763324 0.042030677 0.10826984 0.10558971
000060 23 78 d8 bd 3c b8 61 3e 34 5d ff bd ae fb da bc
       -0.10569789 0.22042936 -0.12468949 -0.026731338
000070 c8 48 18 3e 86 c8 c8 3d 08 70 fb 3c 8f 66 34 3d
       0.14871514 0.09803872 0.03069307 0.04404312
000080 94 96 10 3e c7 94 22 be a2 cb 1d bd d9 1e 84 bd
       0.14119941 -0.15877067 -0.038524278 -0.06451196
000090 d9 fe 9f 3d b4 a5 e9 3d 92 46 ac bc 19 65 00 3d
       0.0781228 0.114085585 -0.021029744 0.031346414
0000a0 0e 2e c4 bd 87 fd 6b bc 6d 72 09 3c a3 8d bb bd
       -0.09579097 -0.014403707 0.008389098 -0.091578744
0000b0 52 ec 6e be 7f 8a 25 be bc ab 54 bd f0 0f 17 3e
       -0.23332337 -0.16166113 -0.05192159 0.14752173
0000c0 f3 a9 0c 3e e3 a0 e3 3d 6d 2e ab bd 8f 8e d9 3d
       0.13736705 0.11114671 -0.083584644 0.10622894
0000d0 91 60 ad bd ed 1c f3 3d 29 40 22 3d af 16 ac bd
       -0.08465684 0.118707515 0.03961197 -0.08402764
0000e0 61 2d 8a 3c ac 17 1c 3e f6 6c c8 3d 06 2b 36 3e
       0.016867341 0.15243405 0.09786408 0.1778985
0000f0 a3 1a 28 3e 2e da c3 3d 33 a7 bc 3c 14 0d c4 3b
       0.16416411 0.09563099 0.023028946 0.0059830043
000100 06 6b ae bd ef a4 03 bd 25 d5 5b bd 88 0b 10 be
       -0.08516507 -0.032139715 -0.053670067 -0.14066899
000110 c6 4c 10 bd c9 ff bf 3d 68 dd 3a 3c b0 84 0c bc
       -0.035229467 0.09374959 0.011405326 -0.008576557
000120 44 db 69 bd 8f 76 57 3e aa f6 d9 3d 5a 65 bb bd
       -0.057093874 0.2104132 0.106427506 -0.09150191
000130 9c 51 21 3e a3 6e 28 3e 38 e9 03 3d 1c 1c e4 3d
       0.15753788 0.16448455 0.032204837 0.11138174
000140 ef 1c fc bd f9 3b dc bd 37 cf 10 be 5c 5c 93 3d
       -0.12310206 -0.107536264 -0.14141546 0.071953505
000150 f0 3f 7d bd 05 f6 4b bc be d9 3f 3d a1 51 d3 3d
       -0.061828554 -0.012448792 0.046838515 0.10318304
000160 bb 0f c8 3d ab 99 f4 3d d6 2e be 3d 11 be 0a be
       0.09768625 0.11943372 0.09286277 -0.13549067
000170 1d 3f 2b 3e 01 77 a3 bd 51 f8 53 3e cb 49 ef bd
       0.16723295 -0.079816826 0.20700194 -0.11683997
000180 f6 10 e7 bd ea b4 39 3e 0b 93 d8 3d a6 8f 36 bd
       -0.11282532 0.1813542 0.10574921 -0.044570588
000190 c4 08 25 3e a3 9b 44 3e 83 87 0c 3e d9 72 21 be
       0.16116625 0.19199996 0.13723569 -0.15766467
0001a0 9f b9 55 bc 14 8b 37 3c ab 0d cb 3d 4f 3a 60 bd
       -0.013044744 0.011202592 0.09914716 -0.054743107
0001b0 2d 45 52 be c2 ce c7 3d 91 d4 52 bd ca 0c 80 bd
       -0.20534201 0.09756233 -0.05147225 -0.06252439
0001c0 df ae 77 bd 08 a9 13 3e 3c 21 80 bc 3c bb fb 3d
       -0.060469504 0.14419949 -0.015640847 0.122915715
0001d0 cd 54 39 be c8 13 e5 bc dd 2a 13 be ce b5 85 3d
       -0.18098755 -0.027963534 -0.1437182 0.06528817
0001e0 7c fa 3f 3e b7 3d 05 be 76 8c a2 3d 13 74 1b 3e
       0.18747896 -0.13011824 0.07936947 0.15180998
0001f0 12 84 9a 3d 98 e2 e8 bd 32 ae 1c b8 f9 22 17 3e
       0.07544722 -0.11371344 -3.735553e-05 0.14759435
000200 b9 c2 b3 3d e7 25 55 3d 53 e7 17 3e fb 45 7c bd
       0.08777375 0.0520381 0.14834337 -0.061590176
000210 4c 76 fc bd c9 14 46 3e a0 0c 16 be 22 a9 e3 bd
       -0.12327251 0.19343866 -0.14653254 -0.11116244
000220 b1 4e 12 3e c9 dd ec 3c 89 b9 db 3d 92 dc d9 bc
       0.14287831 0.02891435 0.107287474 -0.026594434
000230 2e 09 3b 3e b8 d9 81 3c ac 61 15 3e be f3 90 bd
       0.1826522 0.015850887 0.1458804 -0.0707774
000240 75 2a a3 bd c2 23 83 3b 38 34 9b bd 0e f8 4f bc
       -0.079670824 0.0040020654 -0.07578319 -0.012693418
000250 82 ab 95 3d 08 d8 f7 bd fa 62 0e be be ba 9e 3d
       0.07308103 -0.121017516 -0.13904944 0.07750462
000260 1f 8b 80 3d 9c 7f 5c 3d 62 9a 3c 3d 49 b6 b9 3d
       0.06276535 0.053832635 0.04604567 0.09067971
000270 7e 9f 0a be 67 87 11 3d 01 90 0f 3e 38 13 3d bd
       -0.13537404 0.03552952 0.14019777 -0.046160907
000280 51 50 04 3e b3 f0 c5 3d 1a c1 c1 bd 20 6d 0d be
       0.12921263 0.0966505 -0.09460659 -0.13811159
000290 73 cc 4c 3e 4b ca 10 be 88 21 f7 3b b2 cd ff bc
       0.19999866 -0.14139669 0.007541839 -0.031226013
0002a0 3e bc 16 be f4 8a 0b be 44 70 cb bd 5c 33 55 3c
       -0.14720246 -0.13627225 -0.09933522 0.013012733
0002b0 49 fc 16 3d 4f 24 18 3e 6e d5 c1 bc 81 8a 31 be
       0.03686169 0.148576 -0.023661342 -0.17337991
0002c0 f5 28 7e 3d 70 b3 2f 3e 65 50 1b 3e cd bb 06 be
       0.06205078 0.17158294 0.15167387 -0.13157578
0002d0 36 b2 62 bd ba 6a 3e 3e 6a 04 bb 3d 0b 4b 24 3c
       -0.055345736 0.185954 0.09131701 0.010027657
0002e0 06 f8 0c 3e 99 4a 1d 3e 9e b2 e4 3d d8 90 88 bd
       0.13766488 0.15360488 0.11166881 -0.06668252
0002f0 aa 8c 76 bb 6a 9c 61 bc e0 4b 28 3e 5e d3 e1 3d
       -0.0037620463 -0.013770202 0.16435194 0.11026643
000300 53 2c 84 bd b3 ac fd bd 02 80 10 be 2b ca df 3d
       -0.06453767 -0.123864554 -0.14111331 0.10927232
000310 08 ed 03 be 8d 00 16 bd 8a 0e 7b bd 95 a7 a8 3d
       -0.12883389 -0.03662162 -0.061293162 0.08235089
000320 47 4b 21 3c d8 6a a6 bd cb 69 6a bd d4 eb 45 3d
       0.009844608 -0.081258476 -0.0572298 0.048320606
000330 9e 57 e7 bd 4e 9f 58 3d 98 86 86 3d 9e fb 83 3c
       -0.112960085 0.0528863 0.065686405 0.016111191
000340 1e 52 00 39 d6 60 6e bc 56 c2 dc bd fd 19 09 3d
       0.00012237622 -0.014549455 -0.10779254 0.03347205
000350 c9 91 b2 bd e5 75 f4 3d 98 ed 02 bc 40 48 df 3c
       -0.087192126 0.11936549 -0.007991217 0.027256131
000360 c3 96 91 3d 58 b9 d4 bd 8b 79 25 be bb 9f e4 bd
       0.07108834 -0.10386914 -0.16159646 -0.11163279
000370 28 5e 51 bd fc 4d 46 be ba bc d1 bd 1f ab 96 bd
       -0.051115185 -0.19365686 -0.10241075 -0.073568575
000380 23 18 13 3d a1 58 ee bd df a2 10 3e d8 24 8d bd
       0.03591169 -0.11637998 0.1412463 -0.06891793
000390 f0 60 b8 3d 24 27 93 3d d6 b7 8a 3b 7c b0 24 3e
       0.09002864 0.071852 0.0042333407 0.16082948
0003a0 12 76 d6 3d 89 8a 25 be d8 fc 8d bd 7b 06 b2 3c
       0.10471739 -0.16166128 -0.06932992 0.021731606
0003b0 b2 92 b5 bb 93 2f 05 be 79 49 44 be 25 d2 9d 3d
       -0.005541169 -0.1300643 -0.19168653 0.077060975
0003c0 fe ab 1b bd 3c 83 ed 3d 6e 63 1a be 52 58 04 3e
       -0.03800582 0.115972966 -0.15076992 0.12924317
0003d0 f1 d3 16 3c f7 28 e4 bd d6 18 4e bd 72 87 27 3e
       0.009205804 -0.11140626 -0.050316654 0.16360262
0003e0 7f d0 4c be c3 bd 83 bc b3 80 1b 3d 6e 3e 93 bd
       -0.2000141 -0.016081696 0.037964534 -0.07189642
0003f0 60 09 44 3e 9e c1 76 bd 13 4a 65 bd 61 40 d5 bd
       0.19144201 -0.06024324 -0.055978846 -0.1041267

1.6.bias f4 [24]
000000 fa fd 4f be 46 bd 3b be 63 41 e4 bc cc bb 5c 3d
       -0.20311728 -0.18333921 -0.02786321 0.053890035
000010 f5 f9 07 3e a0 39 83 3d dd 96 1b be 60 0b e3 3d
       0.13278945 0.064074755 -0.15194269 0.11086154
000020 d4 92 26 3e ec e1 17 bd 33 a4 2a 3e 6b 3c fb 3c
       0.16266948 -0.03708069 0.166642 0.030668458
000030 70 e5 20 be bc 76 e8 3d 6f 08 14 3e fa 34 57 3c
       -0.15712523 0.11350772 0.14456342 0.013135189
000040 27 b9 2b be 90 75 f5 3d d7 86 4f 3e 2b 1f 21 bd
       -0.16769849 0.11985314 0.20266281 -0.039336365
000050 3e 02 11 bc e2 ba e2 bd 29 65 94 bd d8 7b 07 3d
       -0.008850632 -0.11070801 -0.07245857 0.03307709

1.8.weight f4 [24, 24]
000000 ed 29 2a 3d ce 02 63 be 04 a3 a5 3c 9c 9d db bd
       0.04154389 -0.22169039 0.020219333 -0.10723421
000010 80 95 2a 3e 18 90 e4 bd 49 4f 56 3e 34 e2 4c 3d
       0.16658592 -0.11160296 0.20928682 0.05002041
000020 77 bd f5 3d e3 ac fa 3d 05 1c 57 3d 61 1d e9 bd
       0.11999028 0.12240007 0.052516956 -0.11382557
000030 7f 8c 18 3e 11 d6 1f 3e 22 5a c1 3d 89 5b 44 3d
       0.14897345 0.15609004 0.094410196 0.047938857
000040 61 2f 61 be c1 ce 6b 3b 10 5f 31 3e ab da 3b bd
       -0.2199073 0.003598139 0.1732142 -0.045862835
000050 f4 44 09 be 02 45 11 bc 2f ec 0a be 07 b3 55 3e
       -0.1340521 -0.00886655 -0.1356666 0.20869075
000060 49 c4 f6 bd 24 e7 11 3e ef 91 68 be c8 97 0c 3d
       -0.12049157 0.1424833 -0.22711919 0.034324437
000070 80 60 3b be cd b2 08 be f5 a7 e5 bc 90 4d 38 3d
       -0.1829853 -0.13349457 -0.02803419 0.044995844
000080 2c be 02 be f9 25 73 be db 1d 14 bd 7c a0 4b be
       -0.12767857 -0.23744954 -0.036161285 -0.19885439
000090 c4 77 d3 3d ee 55 72 be 26 66 1e be d6 d9 6f 3b
       0.10325578 -0.23665592 -0.15468654 0.0036598346
0000a0 c6 7c 10 3e 41 b6 0f 3e 85 0f f0 bc 0d e6 7a be
       0.14110097 0.14034368 -0.029304275 -0.2450182
0000b0 9d 3b 09 3e 39 cb e1 3d 8d ea b1 bc b8 de 26 be
       0.13401647 0.1102509 -0.021718288 -0.16295898
0000c0 8a d9 61 be 6b 5f a2 bd b3 04 92 bd 3a dd 3b be
       -0.22055641 -0.07928356 -0.071298026 -0.1834611
0000d0 8a 6a 47 3d c3 fc 33 3e a5 0b 87 3e 7b 8f 66 3e
       0.048685588 0.1757689 0.26376072 0.22515671
0000e0 83 fb 0a be a3 37 3c 3e 31 88 37 3c 35 7d 02 be
       -0.13572507 0.18380599 0.011201904 -0.12743075
0000f0 0d fc 23 be bd b1 e3 bc 9e 8c 64 bd b4 7d c7 3d
       -0.16014118 -0.027794713 -0.055798166 0.09740773
000100 b2 57 8c be 51 f3 d0 bd a2 6f f4 bd 3e 89 f6 3d
       -0.27410656 -0.10202659 -0.11935355 0.120378956
000110 b7 cc eb 3d b3 c8 3b bd 7c d4 04 3e 11 4d 13 3e
       0.11513656 -0.0458457 0.12971681 0.14384867
000120 40 c3 64 3e 5c 5e 77 bd c6 fb 56 3e 76 cc 2f 3e
       0.22340107 -0.060392722 0.20994481 0.1716784
000130 21 4b f8 bb 21 7a a1 bd 3c d9 96 3d 23 32 3b be
       -0.0075773154 -0.07884622 0.07365653 -0.18280844
000140 f0 d2 53 3e 9a 3d 35 be ef c3 64 3e f7 d0 51 3e
       0.20685935 -0.1769928 0.22340368 0.2048987
000150 17 65 17 be dc 18 2a 3c 50 4c 0f 3e 7f a7 4a 3e
       -0.14784656 0.0103819035 0.13993955 0.19790457
000160 c0 6b 6a bd 68 09 37 3e 43 4b dd 3c 46 86 c1 bd
       -0.057231665 0.17874682 0.027013427 -0.09449439
000170 9d 80 aa 3d 64 3e 23 be 03 f6 0a 3d 42 e4 c4 bd
       0.08325312 -0.15941769 0.03392602 -0.09613849
000180 e8 60 40 3e c6 7a 3c 3e 55 6c d9 3d 05 3a 4f bd
       0.18786967 0.1840621 0.10616366 -0.05059244
000190 ba e1 d3 3b 32 33 61 3d 53 a6 e5 bd 9b 24 10 3e
       0.0064661177 0.054980464 -0.112133645 0.14076464
0001a0 bb a2 22 be 39 e5 99 3d 16 bc a6 3c 37 b7 29 3d
       -0.15882389 0.07514424 0.020353358 0.041434493
0001b0 f7 76 8b bc 46 c9 dd bd ba a3 ed ba 6f 28 24 bd
       -0.0170245 -0.108294055 -0.0018130459 -0.040077623
0001c0 4d fd af 3d 5a 1d ee bb 17 73 11 3d b1 ac 47 3c
       0.08593235 -0.0072666826 0.03551015 0.012187169
0001d0 63 0d e4 bc 12 f4 c9 bd ee 5c 2e 3d aa 07 1f 3b
       -0.027838415 -0.09861006 0.042569093 0.0024266043
0001e0 11 9e 8e 3d 72 df ec ba 67 9a 66 3d d3 00 0a bd
       0.069637425 -0.0018071963 0.056299593 -0.033692192
0001f0 3b 61 3e 3e 3a 39 22 3e 62 41 ad 3d 80 a8 17 3e
       0.18591778 0.15842143 0.084597364 0.14810371
000200 11 e4 94 3d cc 07 68 bd 74 60 ee 3d da cb 36 3e
       0.07270063 -0.05664806 0.11639491 0.178512
000210 79 bd a0 3d 27 63 81 3e 0e 3c 13 bd 7d a3 b1 bd
       0.07848639 0.2527096 -0.035945944 -0.08673761
000220 d9 a7 6a bd 57 06 2d 3e 20 dd 32 3e 87 17 6b bd
       -0.05728898 0.1689695 0.17467165 -0.057395484
000230 7e ad 19 3b 86 6f 13 be 57 0f 55 bd c9 3c 5a 3e
       0.0023449357 -0.14398012 -0.052016582 0.2131225
000240 ec fa 5e be e1 d9 48 be 71 0d 2c 3c 4d a6 9e bd
       -0.21775407 -0.19614364 0.010501252 -0.07746563
000250 11 e5 03 be 7b 9b a1 3c 81 09 37 be b9 18 c2 3d
       -0.1288035 0.01972746 -0.17874719 0.09477372
000260 f7 3d 24 3e a6 1e 74 be 38 c6 52 3e 8c c1 9a bc
       0.16039263 -0.23839816 0.20583427 -0.018891118
000270 68 d1 96 3d c8 85 1a bc ef 3c 1b be 99 1b bb b9
       0.0736416 -0.00943131 -0.15159963 -0.0003568798
000280 39 e8 25 3d 7e fa 3c 3c c8 e4 57 bc af 9b 7f 3d
       0.040504668 0.011534331 -0.013177104 0.06240433
000290 1a 44 89 bd 3d 70 64 bc 59 1a de bd 25 ee 78 bd
       -0.067024425 -0.013942775 -0.10844869 -0.060773987
0002a0 c1 5d 3f 3e c0 8b 58 3e 23 68 b3 3d 02 d9 fd bd
       0.18688108 0.2114706 0.08760097 -0.123949066
0002b0 65 8d 2a 3e 08 6c 8f bc ab 52 90 3c dd 58 0f 3e
       0.166555 -0.017507568 0.017617544 0.13998742
0002c0 fb ad 98 bd 48 15 e4 bd 8d 13 92 be 1d 09 29 be
       -0.07455059 -0.111368716 -0.2853054 -0.16507383
0002d0 5e d7 29 be 8e 30 01 bd 3c b6 3b be a2 31 c2 bd
       -0.16586062 -0.031540446 -0.18331236 -0.09482123
0002e0 5b 39 1e be da 23 95 3a 3c c3 4a be 15 0f 94 bc
       -0.15451567 0.0011378482 -0.19801039 -0.018073598
0002f0 cf 0f 67 3c 0c 0a 6b 3c 49 80 db 3d 9e 68 0b be
       0.01410289 0.014345657 0.10717828 -0.13614127
000300 58 66 3b be 9a ac 29 3e be 21 14 3e c1 07 82 bd
       -0.1830076 0.16569749 0.14465997 -0.06349135
000310 31 30 d0 3d ee 96 c5 bc 1c 2f 29 be 8f 49 35 3d
       0.10165442 -0.02411982 -0.16521877 0.044259604
000320 cf fb 23 bd 4f 00 73 bd 48 e7 62 3e 75 73 1a 3e
       -0.040035065 -0.059326466 0.2215854 0.15083106
000330 53 8c 1b 3c b8 19 d9 3d 4d a3 15 bb 92 fa 3e bd
       0.009493905 0.106006086 -0.002283293 -0.04662568
000340 f6 ce ff bd f1 ff 27 be 1a 81 bc 3d 1d be f9 3c
       -0.124906465 -0.16406228 0.09204312 0.03048616
000350 da 7f bb bd c0 da 34 ba 34 3f 5d 3d cc 47 4c be
       -0.09155245 -0.00068990514 0.054015353 -0.19949263
000360 62 1e 1b 3c 8f b0 69 3e 91 ec 4b be 9d ef cc bd
       0.009467693 0.22821258 -0.19914462 -0.1000664
000370 7c 57 4b be 8d ff 86 bd 06 79 2f be 3d 6e 5b be
       -0.19857591 -0.06591711 -0.1713601 -0.21428771
000380 24 44 4e 3e bc c8 06 be bd d4 18 3e c2 8e 04 3d
       0.20143181 -0.13162512 0.14924903 0.032362707
000390 3c 69 06 3e 2b 4c 5b be 07 bf 73 be c2 5d 2c 3e
       0.13126081 -0.21415775 -0.2380334 0.16832641
0003a0 57 ec 2d be e0 97 91 bd ed 7e 7b be 29 06 62 be
       -0.16984688 -0.07109046 -0.24560137 -0.22072662
0003b0 c8 4d 45 bd 3c 37 2b be 19 63 33 3e fe 13 dd 3c
       -0.04816988 -0.16720289 0.17518272 0.026987072
0003c0 6b 19 f9 3d 0e e6 89 bd 0d 6c 13 3e bb 0c 82 3d
       0.12163051 -0.067333326 0.14396687 0.063500844
0003d0 32 1b e8 bd 02 61 d6 3d 95 57 c9 bd 73 19 26 3e
       -0.11333312 0.104677215 -0.09831158 0.16220646
0003e0 ad c0 6a be 24 81 37 3e 3f ea f0 ba 1a d4 f1 bd
       -0.22925062 0.17920357 -0.0018380358 -0.11808033
0003f0 10 b6 c2 bd 39 79 00 be d5 3d 3f 3e d6 52 9c 3d
       -0.09507382 -0.12546243 0.18675931 0.07632987

1.8.bias f4 [24]
000000 b9 b9 96 bd 09 5f 24 3e 3b b6 47 3e 53 94 b1 3d
       -0.073596425 0.16051878 0.19503109 0.08670869
000010 55 91 b2 3d f6 06 2b 3e 05 dd 03 be 2c f8 52 be
       0.08719126 0.16701874 -0.12877281 -0.20602483
000020 22 37 69 3e ec 0e 79 bd 9f 18 39 be 43 7d f3 bc
       0.22774938 -0.060805246 -0.18075798 -0.029722815
000030 03 62 06 be ef 0a 3b 3e 4d a9 3a be 81 51 eb 3d
       -0.13123326 0.1826589 -0.18228646 0.11490155
000040 9b a1 40 3e fc 23 24 3e 57 98 0b 3e 5c ed c5 3d
       0.18811648 0.16029352 0.13632332 0.09664413
000050 f7 08 b0 3d 8b ce f4 3d a0 67 9c 3d 46 7a 09 be
       0.0859546 0.119534574 0.076369524 -0.1342555

1.10.weight f4 [12, 24]
000000 56 bb 97 3e e9 66 15 3e e6 55 31 3e 66 a7 ed bd
       0.29635113 0.14590038 0.17317924 -0.11604194
000010 32 02 00 3e 0a a1 0d bd 6f 22 08 3e 73 e4 7c be
       0.12500837 -0.034577407 0.13294385 -0.24696521
000020 2b 62 ed 3d 5f 58 a8 3d 9b 96 92 bd b9 6d f1 bc
       0.1159099 0.082199804 -0.07157632 -0.029471265
000030 ff b2 50 be 00 bf 5c 3e e2 d6 9f be 85 7e ed 3d
       -0.20380782 0.21557236 -0.3121863 0.11596397
000040 70 3f 8d bc 4c 6f d9 bd 08 c2 bc 3d f2 6d c3 3d
       -0.017242163 -0.10616931 0.09216696 0.09542455
000050 69 ba 3d bd 24 7c bc 3d b7 38 80 3e 32 b0 c6 bd
       -0.046320353 0.092033654 0.2504327 -0.09701575
000060 fb 71 9b 3e a8 d8 ab be f1 6f 72 3e 89 da 78 bd
       0.30360398 -0.33563733 0.23675515 -0.060755286
000070 6e 1e 34 be 5d 74 72 3e 37 5c 81 be b6 5d 59 bd
       -0.17589733 0.23677202 -0.25265667 -0.053067885
000080 b0 92 b5 3d 35 73 b0 be 8e b3 e6 3d e3 64 62 be
       0.08865869 -0.34462896 0.11264716 -0.22108798
000090 71 a1 88 be 66 d7 3b 3c db 78 db bc c1 8e ef bd
       -0.2668567 0.011464929 -0.026791027 -0.1169715
0000a0 81 77 f9 bc aa c9 62 3e 40 64 66 be 35 52 93 3e
       -0.030452492 0.22147241 -0.2249918 0.28773656
0000b0 da 6e 4e be e2 12 4a 3d a6 b9 0f bd ed 11 dc 3a
       -0.20159474 0.049334414 -0.035089158 0.001679001
0000c0 1e 31 4a be fb 36 03 3e f7 31 93 bc df d5 7a 3d
       -0.19745299 0.12813942 -0.017968161 0.06123912
0000d0 c0 7e a5 bd 96 f3 13 bd 64 8b 57 3d de 44 d4 bd
       -0.08080816 -0.036120974 0.052623168 -0.10364698
0000e0 63 30 d4 bc da 5a d1 bd 41 25 c9 bd 57 ed 30 be
       -0.025901979 -0.10222407 -0.09821559 -0.17278038
0000f0 74 e7 39 3e 0d fa bf bd a2 5c 80 3e c1 64 5a 3e
       0.18154699 -0.09373865 0.25070673 0.21327497
000100 58 94 59 be d1 2e 58 bd 1d 0d 91 3d bf a9 b7 bd
       -0.21247995 -0.052779023 0.07082579 -0.089679234
000110 77 30 16 be 42 fc c4 bd 32 8d 4b be 43 ec 4e be
       -0.14666925 -0.09618427 -0.1987808 -0.20207314
000120 c4 86 e7 bc bd 45 1b 3e fc ff 44 bd d9 f9 b5 bd
       -0.028262503 0.15163322 -0.04809569 -0.08885545
000130 22 29 af bd 95 86 41 3e eb 3a 80 b9 c8 7a 7e 3d
       -0.08552767 0.18898995 -0.0002445796 0.062128812
000140 cd 78 72 3a 21 97 57 bd 55 fe 62 bc a7 87 a1 3d
       0.0009249568 -0.052634362 -0.013854583 0.07887202
000150 0b 3f 85 3d 7b f8 65 bb 63 b3 28 bc 87 82 23 be
       0.06506165 -0.0035090733 -0.010296675 -0.15967761
000160 47 84 b0 bd 80 0d 1f be 94 94 14 ba 46 86 23 3e
       -0.0861898 -0.15532494 -0.0005667892 0.1596919
000170 dc e7 73 bd 96 8b 2e 3d 7b b7 9e 3d 02 19 42 3e
       -0.05954729 0.04261359 0.0774984 0.18954852
000180 aa 7a e2 3c 51 81 04 3e 36 4f f6 3d bc 38 90 3e
       0.027646381 0.12939955 0.12026827 0.28168285
000190 32 26 54 3e d2 4a 52 3e c5 54 8f bd 7a 37 8d be
       0.20717695 0.20536354 -0.069985904 -0.27581388
0001a0 e2 2d 9f 3c 1d 49 69 be b8 e8 20 3d f4 ac fa 3b
       0.019431058 -0.22781797 0.039284438 0.007650012
0001b0 29 9f 3f 3d f8 68 73 3e 74 70 c4 bd 0d 65 c1 3d
       0.046782646 0.23770511 -0.09591761 0.09443102
0001c0 8d 98 01 bd dd 4c aa bd 2a 11 6c 3e 06 8d 3c 3e
       -0.031639624 -0.08315442 0.23053423 0.18413171
0001d0 8a ab 09 3b ee 8e 15 3c 49 0b 3f 3e 0c 1c 58 3e
       0.0021006786 0.009128315 0.18656649 0.21104449
0001e0 a9 5a d1 3d e5 b8 89 bd 27 09 27 3e b4 81 fd bd
       0.1022237 -0.06724719 0.16312085 -0.123782545
0001f0 1a 54 b1 3b 2c 1a 2d be 17 5b 44 be 65 bb 5f 3e
       0.005411637 -0.16904515 -0.19175373 0.21848829
000200 61 44 0b be 7e 15 4e be 4e f7 33 3e a5 a3 dc bd
       -0.13600303 -0.20125386 0.17574808 -0.107734
000210 11 70 46 3e 81 fe 93 be 92 4a 8a 3e e2 7d dc bd
       0.19378687 -0.2890511 0.27010018 -0.10766198
000220 49 46 84 be bb 5f 8a 3d 1e 68 89 be 2f 16 c9 bd
       -0.25834873 0.067565404 -0.26837248 -0.09818684
000230 2b 7b 19 3c 22 16 9e 3d 7a a5 94 3c 5e 46 93 be
       0.009367744 0.07719065 0.018145312 -0.28764623
000240 04 4b 45 3e dd 8c 8b bd 03 2d 25 3e 09 c9 4a 3e
       0.19266897 -0.06813977 0.16130452 0.19803251
000250 53 2d 93 bd ae ce 63 3e 41 1a 44 be 79 d9 37 be
       -0.07186379 0.22246811 -0.1915064 -0.17954053
000260 87 66 ce bd 27 d5 4b be fc 3e 13 bd ea b3 42 be
       -0.10078149 -0.1990553 -0.03594874 -0.19013944
000270 a9 df 2f be 43 6d 6c 3d c1 ac 39 bd f9 9b 07 3d
       -0.17175163 0.057721388 -0.045330767 0.03310773
000280 9b 7e ab 3b 21 51 33 be 92 b4 f9 bb 63 77 d5 3d
       0.0052335984 -0.17511417 -0.0076204026 0.10423162
000290 63 f6 bb 3d b6 d9 21 be 39 23 1c 3d e4 a0 61 38
       0.09177854 -0.15805706 0.03811953 5.379402e-05
0002a0 23 03 29 be a1 b3 4e be c1 b4 83 be 2f 72 fe bd
       -0.16505103 -0.2018571 -0.25723842 -0.124241225
0002b0 f1 9c 8a 3e fa e6 bb bd 62 32 80 bd 73 37 4d 3e
       0.27072862 -0.09174915 -0.0625961 0.20040683
0002c0 df cb 53 be 7a 9e 83 bd a7 c8 93 3e 00 69 fa 3d
       -0.2068324 -0.064267114 0.28864023 0.122270584
0002d0 83 17 85 3d 60 2c 0c be 8f 57 39 3e d1 ae 8f 3d
       0.06498625 -0.13688803 0.18099807 0.070157655
0002e0 bb fa 28 be 10 4b 69 be 04 c7 bf bb 83 ff 90 be
       -0.16501896 -0.2278254 -0.005852582 -0.2831994
0002f0 49 f7 1f 3e be da 26 3e f3 86 18 be f9 15 a9 3c
       0.15621676 0.16294381 -0.14895229 0.02064036
000300 ff f4 21 be b2 e4 4b be 1e 1d 25 bd 56 cd 3c be
       -0.15816115 -0.19911459 -0.04031097 -0.18437704
000310 d5 e8 32 3e 76 2a 2b be 10 97 f5 bd d3 ed 35 3e
       0.17471631 -0.16715416 -0.119917035 0.17766504
000320 78 54 82 be 4e 64 c8 3d c9 77 f9 3d 46 33 5b 3e
       -0.2545507 0.097847566 0.1218105 0.21406278
000330 6d 3b 8e 3e 69 02 bd 3d de 2c 98 3d 25 64 c7 3d
       0.27779713 0.09228975 0.07430433 0.09735898
000340 02 7c cf bd 97 b8 bf 3d fb df 92 3d fe d7 3b be
       -0.101310745 0.093613796 0.07171627 -0.18344113
000350 7c 5c 95 3d 6f ab 40 be b6 77 6b be f6 2b fe bd
       0.072930306 -0.18815397 -0.22994885 -0.12410729
000360 e3 08 07 be b6 23 cd bd d7 33 1c 3e 0b 86 46 be
       -0.13186984 -0.10016577 0.1525415 -0.19387071
000370 84 7d 2e 3e 8f 1f 50 3e f5 f9 20 3e 1c c5 1c bd
       0.17040068 0.20324539 0.15720351 -0.038273916
000380 2e 7c 0c 3b aa a2 ac bc 9f 03 fd 3d 65 cc 6a 3d
       0.0021436322 -0.021073658 0.12354206 0.057323832
000390 f9 eb c0 bb ec ee 0c be e4 ea a6 bd f9 7d d7 bd
       -0.005887505 -0.13763016 -0.081502706 -0.10522074
0003a0 d5 b4 57 3e a0 78 be bd a1 3e c9 3b db 1f 4a 3e
       0.21065076 -0.09300351 0.006141499 0.19738714
0003b0 8b f6 fd 3d d5 98 f3 bd f4 08 8e 3c e9 2c 44 be
       0.1240054 -0.11894385 0.017338254 -0.19157757
0003c0 d7 93 90 be 25 53 a0 3c 89 22 87 be ef e9 09 3e
       -0.28237793 0.019570896 -0.26393536 0.13468145
0003d0 3a 17 4e 3e 5e 05 4e be 55 63 e7 3d 95 c4 a4 3c
       0.20126048 -0.20119235 0.11298243 0.020113269
0003e0 77 d5 4c 3d e4 f6 d6 bb 5e c0 a5 3e 1b a4 d3 3d
       0.050008263 -0.0065601934 0.32373327 0.10334035
0003f0 13 64 8d 3d 23 93 d8 3d 8d 27 ac 3d 3f b0 f9 3d
       0.06903853 0.10574939 0.08405981 0.121918194

1.10.bias f4 [12]
000000 a3 26 0a 3e 70 7c 28 bd 15 12 9b be 94 d7 71 3b
       0.13491301 -0.041134298 -0.30287233 0.0036902176
000010 9a 6f 70 3e b8 83 38 be 36 3c 84 bd 1c 75 2f bd
       0.23480073 -0.18018997 -0.06456797 -0.042836294
000020 bc 0d 79 be 56 43 12 3c 84 37 4e 3e 7e 53 af bd
       -0.24321645 0.008927187 0.20138365 -0.08560847

1.12.weight f4 [5, 12]
000000 c2 46 f5 be 46 58 73 be 33 dd 87 3c a0 b0 ad bd
       -0.47905546 -0.23764142 0.016584968 -0.08480954
000010 9d 62 82 bd 1a 07 c1 3e 72 44 17 bd 69 11 37 3f
       -0.06366465 0.3770073 -0.03693051 0.7151094
000020 ce 1f a7 3e b2 7f 94 be 2b eb 42 3f 1f 94 2b 3e
       0.32641453 -0.29003674 0.7614009 0.16755722
000030 db f8 80 be 3f d5 3c bf 81 8b df 3e 75 d6 bc 3d
       -0.25189862 -0.7376289 0.4366112 0.09220592
000040 64 39 63 be 43 28 66 b9 b2 29 ca be de 1a b0 3d
       -0.22189862 -0.00021949508 -0.39484936 0.085988745
000050 5c 4a d3 3d ed 4e d9 3d 20 93 0a 3f 2d 71 15 3f
       0.10316917 0.10610757 0.54130745 0.5837582
000060 e1 fa ca bd d9 8b ad be 55 02 7f 3e e6 fa b8 3d
       -0.099111326 -0.33895758 0.24903233 0.0903223
000070 85 1e 1b bf 11 6a 09 3f c3 2c a0 be 60 28 f9 3e
       -0.60593444 0.5367747 -0.3128415 0.48663616
000080 fc 37 17 3f fc 37 a0 3e 8d 0d a6 3d 5e 21 07 3f
       0.590698 0.31292713 0.08108053 0.5278529
000090 8c 4d e8 be c9 e6 e7 be 02 ca 04 3f 8c 49 6c be
       -0.45371664 -0.45293263 0.5187074 -0.23074931
0000a0 b5 9f 6f be 6a 5e 26 3f 0e 16 09 3c b6 d6 87 3d
       -0.23400767 0.64987814 0.008367075 0.0663275
0000b0 0a ce 00 3f 4a ee 67 be d1 6a f6 3d d5 9a ef 3e
       0.5031439 -0.22649494 0.12032092 0.46797815
0000c0 dc f0 da bd fb 9f 4f be a5 81 a8 3e 48 9d d0 bd
       -0.106904715 -0.20275871 0.3291141 -0.10186249
0000d0 ac 4a 98 be 60 02 40 bd d3 91 ac 3d 76 5f ea 3e
       -0.2974447 -0.046877265 0.08426251 0.45775956
0000e0 80 13 6e 3e 57 d6 3c be 5d 6e 6a bd 4e e2 0a 3f
       0.23249626 -0.18441139 -0.057234157 0.54251564

1.12.bias f4 [5]
000000 2b 21 28 bf 16 64 18 bf b0 f0 e9 be cc 67 9f be
       -0.6567561 -0.5952772 -0.45691442 -0.31133878
000010 dc 2b 10 bf
       -0.56316924
