JSP/trained models/DDQN_SI_rwd5.pt (torch_old, 27345 bytes, 16 tensors)

0.0.weight f4 [5, 5]
0	0x3f7f3374	0.99687886
1	0x3f831d02	1.0243227
2	0x3f7f34ea	0.99690115
3	0x3f839fa8	1.0283098
4	0x3f95220e	1.1651018
5	0x3f80aeb0	1.005331
6	0x3f85869f	1.0431708
7	0x3f7c4d9d	0.9855593
8	0x3f80cd0d	1.0062577
9	0x3f90549d	1.1275822
10	0x3f8271b8	1.0190954
11	0x3f846359	1.0342818
12	0x3f7056aa	0.9388224
13	0x3f8275f4	1.0192246
14	0x3f834158	1.0254316
15	0x3f809e9d	1.0048405
16	0x3f835f8a	1.0263531
17	0x3f7e59c9	0.9935575
18	0x3f844366	1.0333068
19	0x3f9be15b	1.2178148
20	0x3f82dd85	1.0223852
21	0x3f80ef0f	1.0072955
22	0x3f768243	0.96292514
23	0x3f83ac95	1.0287043
24	0x3f8138f7	1.0095509

0.0.bias f4 [5, 5]
0	0x3cf30776	0.029666644
1	0x3d631c49	0.055446897
2	0x3c247f91	0.01004018
3	0x3cb17bb3	0.02166543
4	0xbdefbd3f	-0.11706018
5	0xbcf6f72b	-0.030147156
6	0x3d5aada9	0.05338827
7	0x3d688ac4	0.056772962
8	0xbce01d08	-0.027357593
9	0xbd960921	-0.0732596
10	0xbc281824	-0.010259662
11	0x3ced8b21	0.028997006
12	0x3cac176c	0.021007262
13	0xbd05b144	-0.032639757
14	0xbd85a0f8	-0.06524843
15	0xbb1fd5b4	-0.0024388852
16	0x3c6b38fc	0.014356848
17	0xba84d36f	-0.0010133813
18	0xbd7083ec	-0.05871956
19	0xbdbc809e	-0.09204219
20	0xbd5653e8	-0.052326113
21	0xbd78dcb9	-0.060757373
22	0xbd013b10	-0.031550467
23	0x3d8f619c	0.070010394
24	0xbd1d59ba	-0.038415648

1.0.weight f4 [48, 25]
0	0x3d83a5eb	0.06428131
1	0x3e574c83	0.2102528
2	0xbca278b4	-0.019832946
3	0x3d0fb6d3	0.035086464
4	0xbe2b2b8e	-0.16715834
5	0xbe01b54f	-0.1266682
6	0xbd739715	-0.059470255
7	0x3d01c294	0.031679705
8	0x3d0878ca	0.03331832
9	0x3cd8703e	0.026420709
10	0xbe480e08	-0.19536602
11	0x3e402ec3	0.18767838
12	0x3bc32309	0.0059551043
13	0x3e1ae1f7	0.15125261
14	0xbe334016	-0.17504916
15	0x3d4d5e06	0.050138496
16	0x3d85d1cc	0.06534156
17	0xbd21e188	-0.039521724
18	0x3c872233	0.0164958
19	0xbe9d3daa	-0.30711108
20	0xbe55eb02	-0.2089043
21	0xbe275b3d	-0.16343398
22	0x3d995e2a	0.074886635
23	0x3e15a1b2	0.14612463
24	0xbe46e8ba	-0.19424716
25	0xbd1c0c1e	-0.038097493
26	0x3e120269	0.14258732
27	0x3de4d9a0	0.11174321
28	0x3e6ffa9f	0.23435448
29	0x3e3a1cfe	0.18175122
30	0xbe6672dd	-0.22504754
31	0xbe4d9384	-0.20075804
32	0xbd2237bc	-0.039603934
33	0x3e00c98e	0.12576887
34	0x3e004232	0.12525252
35	0xbe1ec18e	-0.15503523
36	0xbd194b09	-0.037425075
37	0x3debfc1e	0.11522697
38	0x3db2154a	0.08695467
39	0x3d45e3c9	0.048312936
40	0x3e2058e1	0.15658905
41	0x3e0fe34f	0.14051555
42	0xbdf84355	-0.121222176
43	0x3df1837f	0.11792659
44	0x3e1b2450	0.15150571
45	0xbddc05cc	-0.10743293
46	0x3e3b80df	0.18310879
47	0x3dc06496	0.09394185
48	0xbd55c2d9	-0.052187774
49	0xbdd28a55	-0.10280291
50	0x3e3b26ac	0.18276471
51	0xbe01fae5	-0.12693365
52	0x3e451dfb	0.19249718
53	0x3d925a6a	0.07146151
54	0x3e50b531	0.20381619
55	0x3d40450e	0.046940856
56	0xbe20d51a	-0.15706292
57	0x3d84aaae	0.06477867
58	0x3da5ec72	0.08101739
59	0xbdf90a10	-0.121601224
60	0xbbd50e23	-0.0065019294
61	0xbd98a8bd	-0.07454059
62	0xbc3df208	-0.011593349
63	0x3e43d369	0.19123615
64	0x3e308904	0.17239767
65	0x3e390f47	0.18072234
66	0xbda0133e	-0.0781617
67	0x3e1fe9b9	0.15616502
68	0x3e2fbf61	0.17162849
69	0x3da2e781	0.07954312
70	0x3e2120ce	0.1573517
71	0x3c8f34f0	0.017481297
72	0x3e0c4d7d	0.13701434
73	0xbd8c0448	-0.06836754
74	0xbe3ae628	-0.1825186
75	0x3df5cd70	0.12002075
76	0xbe2a67ca	-0.16641155
77	0x3da97af4	0.082754046
78	0xbe5766b9	-0.2103528
79	0xbd490a2f	-0.049081977
80	0x3b216984	0.0024629543
81	0x3d0b0bcd	0.0339468
82	0x3e84420b	0.25831637
83	0xbe638e99	-0.22222365
84	0xbce6d1bc	-0.028176181
85	0xbd35e75a	-0.044410087
86	0xbe440106	-0.19141015
87	0x3dd9198f	0.10600578
88	0xbe0d9559	-0.13826503
89	0xbd167804	-0.03673555
90	0xbe034710	-0.12820077
91	0xbda7f5db	-0.0820119
92	0xbe59c8e9	-0.21268047
93	0x3e286578	0.16444957
94	0x3e570953	0.2099965
95	0x3cb289a1	0.021794142
96	0xbacfb969	-0.0015848103
97	0x3e276e2e	0.16350624
98	0xbdeb9ed8	-0.115049064
99	0xbd05968c	-0.032614276
100	0xbd0b6751	-0.034034077
101	0xbd6f59d6	-0.058435284
102	0x3cf57ed4	0.029967703
103	0xbe3b6624	-0.18300682
104	0xbe60395c	-0.21896881
105	0xbcc83f1b	-0.024444154
106	0x3e0248c0	0.12723064
107	0x3b6102ec	0.0034334017
108	0xbe079aa5	-0.13242586
109	0x3e6bb3da	0.23017827
110	0x3d1c02ea	0.038088717
111	0xbdce3c6f	-0.100701205
112	0xbc5bc77e	-0.013414262
113	0x3dcfb132	0.10141219
114	0x3dd001d7	0.10156601
115	0xbd879d9e	-0.0662186
116	0xbe32545f	-0.17414998
117	0x3e18a02c	0.1490485
118	0xbe3db329	-0.18525375
119	0xbe3f9547	-0.18709289
120	0xbd76e73c	-0.060279116
121	0xbc4ac0c5	-0.012375061
122	0x3e3c7ad4	0.1840623
123	0x3de9ede8	0.1142233
124	0xbdf528d1	-0.11970676
125	0x3e31212e	0.17297813
126	0xbe2ceaed	-0.16886492
127	0xbda3744b	-0.079811655
128	0x3d815d74	0.06316653
129	0xbc8f4d16	-0.017492812
130	0xbe2b076e	-0.16702053
131	0xbdcc13fe	-0.09964751
132	0x3e694ddf	0.22783612
133	0xbd6c89a0	-0.057748437
134	0x3bcbf03b	0.006223706
135	0xbdac291c	-0.084062785
136	0xbdea9fbf	-0.114562504
137	0x3da08fb0	0.07839906
138	0xbd8a09a1	-0.06740118
139	0xbdfad1a4	-0.12247017
140	0xbe3cb2e7	-0.18427621
141	0xbd669407	-0.056293514
142	0x3d26e670	0.040747106
143	0x3d3001f3	0.04297061
144	0xbc88b2bc	-0.01668679
145	0x3e4d6411	0.20057704
146	0xbdc5b2b3	-0.09653225
147	0xbe3b3b22	-0.18284276
148	0x3db5d83f	0.08879136
149	0xbb1ecdbc	-0.0024231514
150	0xbd37623e	-0.044771425
151	0xbe3164e1	-0.17323638
152	0xbe113f8a	-0.14184394
153	0xbbf4c04a	-0.0074692117
154	0x3e29756b	0.16548698
155	0x3e19cfb7	0.15020643
156	0xbcf56c9f	-0.029959021
157	0xbe074bda	-0.13212529
158	0x3d089380	0.033343792
159	0xbe1a32d2	-0.15058449
160	0xbe1de1d9	-0.15418185
161	0xbd1862ad	-0.03720348
162	0x3e3c3f8f	0.1838362
163	0xbd7a0de5	-0.061048407
164	0xbdcbbc87	-0.09948068
165	0xbcb70bd4	-0.022344507
166	0xbe27a297	-0.16370617
167	0xbdbcaebf	-0.09213018
168	0xbe46a068	-0.19397128
169	0x3c700251	0.01464899
170	0xbcc038b0	-0.02346453
171	0x3d84d734	0.06486359
172	0xbce6f8ac	-0.028194748
173	0x3d513c10	0.05108267
174	0xbbd203c0	-0.0064091384
175	0xbe12c94b	-0.143346
176	0xbd8445e1	-0.06458641
177	0xbd8afba1	-0.06786276
178	0xbd69080e	-0.056892447
179	0x3cb5adb2	0.022177551
180	0xbdd73a34	-0.10509148
181	0xbd64c30a	-0.055850066
182	0x3e04fad0	0.12986302
183	0x3c416c12	0.011805551
184	0x3d176548	0.036961824
185	0x3e14a787	0.14517032
186	0x3c031fd8	0.008003198
187	0xbddcb16b	-0.10776027
188	0xbdf3a530	-0.118967414
189	0xbd919c57	-0.071098976
190	0x3db8c402	0.090217605
191	0xbe2e1d0f	-0.17003272
192	0x3db4da4a	0.08830698
193	0xbac2a0da	-0.0014848963
194	0x3e1624d1	0.14662482
195	0xbe3b74b4	-0.18306237
196	0x3e1ffde5	0.15624197
197	0x3e3e91f9	0.18610372
198	0xbe265157	-0.16241966
199	0x3d289f44	0.041167513
200	0x3db4623d	0.088078
201	0x3b814ec7	0.0039461586
202	0xbd5fb233	-0.054613303
203	0xbe04d16a	-0.1297051
204	0x3e5d82c4	0.21631914
205	0x3dbb0e93	0.09133639
206	0x3d74a319	0.059725855
207	0x3de45f16	0.11150949
208	0xbe17945f	-0.14802693
209	0x3d97a87d	0.074051835
210	0xbdfd64fd	-0.123727776
211	0x3e1d5897	0.15365826
212	0x3c14b553	0.009076434
213	0xbda8e772	-0.0824727
214	0x3db8f3d0	0.090308785
215	0xbcd90bf2	-0.026494954
216	0x3e025c07	0.12730418
217	0xbe0fcb8e	-0.14042494
218	0x3c5b9fc4	0.01340479
219	0xbda6c98c	-0.08143911
220	0x3b59b114	0.003321712
221	0x3dff65ab	0.124705635
222	0xbc8a1363	-0.016854947
223	0xbbd9b246	-0.0066435663
224	0x3e4290dc	0.19000572
225	0x3d980eb8	0.074246824
226	0xbd1a2870	-0.03763622
227	0xbe222dfd	-0.15837856
228	0x3e0df206	0.13861856
229	0x3e850e25	0.25987354
230	0xbddfaefb	-0.10922047
231	0x3e50e69b	0.20400469
232	0x3e18f1d2	0.14935997
233	0x3e50b47e	0.20381352
234	0xbdaa6595	-0.083201565
235	0x3e28fb14	0.16502029
236	0x3e15b932	0.14621428
237	0xbc05fe5b	-0.008178319
238	0x3df5bea6	0.11999254
239	0xbd33f8d6	-0.04393848
240	0x3c882e06	0.016623508
241	0xbcb8f5a2	-0.022578064
242	0xbd110e5b	-0.03541408
243	0x3e15deb0	0.1463573
244	0x3c898c87	0.016790641
245	0xbc8cc183	-0.017182117
246	0xbd959e43	-0.07305577
247	0x3c5066ca	0.012719819
248	0xbe41ca5d	-0.18924852
249	0x3d91ef1d	0.07125685
250	0xbe0acf98	-0.13555753
251	0x3d71d800	0.059043884
252	0xbdad948d	-0.084755994
253	0x3dac3b58	0.084097564
254	0xbd63dc23	-0.05562986
255	0xbd623d8a	-0.05523447

1.0.bias f4 [48]
0	0x3e804b91	0.25057653
1	0xbe4fbc11	-0.20286585
2	0xbdf370bb	-0.11886736
3	0xbdfc56a3	-0.12321212
4	0x3d00bb2a	0.031428494
5	0x3d040b9a	0.032237627
6	0x3a0bcd8c	0.0005333058
7	0xbdcc2072	-0.09967126
8	0x3e03cbef	0.12870763
9	0x3e376f16	0.1791347
10	0x3c4c2f92	0.0124625135
11	0x3dd3671a	0.103223994
12	0x3cae1186	0.02124859
13	0x3e5e38a9	0.21701302
14	0xbc9f6535	-0.019457439
15	0xbccbac16	-0.02486233
16	0xbe31e429	-0.17372192
17	0x3d4975d9	0.049184654
18	0xbdf7767f	-0.12083148
19	0xbd360173	-0.044434976
20	0xbe06428f	-0.13111328
21	0xbd633fd6	-0.0554808
22	0xbdaa53d6	-0.08316772
23	0x3cfb1e25	0.030654022
24	0x3e73a31b	0.23792689
25	0x3d4f993a	0.050683238
26	0xbdb33b18	-0.087515056
27	0xbe3c3df6	-0.18383011
28	0x3e0d06de	0.13772151
29	0xbd807fed	-0.062744
30	0x3c78434a	0.015152762
31	0xbe26f38e	-0.16303846
32	0xbc755a49	-0.014975139
33	0x3d3dc69e	0.046331994
34	0x3cdbd681	0.026835682
35	0xbe06b4e4	-0.13154942
36	0xbe24054e	-0.16017649
37	0x3c7bf09f	0.015377193
38	0xbe0c1662	-0.13680413
39	0xbdf72d28	-0.1206916
40	0xbb05b277	-0.0020400563
41	0x3d9f46c9	0.07777173
42	0x3e1d76de	0.15377375
43	0xbdab8ec9	-0.083768435
44	0x3db86836	0.09004252
45	0x3e4773af	0.19477724
46	0x3cba3624	0.022730894
47	0xbe1f2d50	-0.15544629

1.2.weight f4 [36, 48]
0	0x3d351939	0.044213507
1	0xbd1ff5a6	-0.039052628
2	0x3da299c1	0.079394825
3	0x3ce3c007	0.027801527
4	0x3c94c70e	0.018161323
5	0xbc8ceed8	-0.017203733
6	0xbd60c206	-0.054872535
7	0xbc5c40b4	-0.013443161
8	0xbd466b4f	-0.04844218
9	0xbdd79508	-0.10526472
10	0x3b90f154	0.0044233
11	0xbd1f067f	-0.038824555
12	0xbdd07112	-0.101778165
13	0x3df81d54	0.12114969
14	0xbdba161c	-0.09086248
15	0x3baeaa2b	0.005330344
16	0xbe19e43b	-0.1502847
17	0xbdcddbd6	-0.10051696
18	0x3e0d5b37	0.13804327
19	0x3d442149	0.047883306
20	0xbe2e0f4c	-0.16998023
21	0xbda43876	-0.080185816
22	0xbde3fa34	-0.11131707
23	0xbd90c59a	-0.070689395
24	0x3df28ed3	0.11843648
25	0xbaa5a78e	-0.0012638436
26	0xbd3f37eb	-0.046684187
27	0xbe449e54	-0.19201022
28	0xbd3d8cda	-0.046276905
29	0x3d3b7940	0.04576993
30	0xbe0945dc	-0.13405555
31	0xbd35acb5	-0.04435416
32	0x3e28b33a	0.1647462
33	0x3cadb899	0.021206187
34	0x3e0f132a	0.13972154
35	0x3d95530d	0.07291231
36	0xbe1c54fd	-0.15266795
37	0x3dcfee9b	0.10152932
38	0x3d3c1923	0.04592241
39	0xbe0a89f2	-0.13529184
40	0x3d067a72	0.032831617
41	0x3e08d2d0	0.13361669
42	0xbc130f55	-0.008975823
43	0x3dde307b	0.10849091
44	0xbd961f59	-0.07330198
45	0x3ddc65b2	0.10761584
46	0xbe16679d	-0.14687963
47	0x3dc27950	0.09495795
48	0xbd0eacd7	-0.0348328
49	0x3e036ae1	0.1283374
50	0xbd089186	-0.033341907
51	0x3b6cef38	0.0036153328
52	0x3da213ec	0.07913956
53	0xbdcfe276	-0.10150616
54	0xbdc0c531	-0.09412611
55	0xbdddf2fa	-0.1083736
56	0xbcfab993	-0.030606067
57	0x3dd8ddde	0.10589193
58	0x3dc25f04	0.09490779
59	0x3d01382e	0.031547718
60	0xbce5f2a2	-0.028069798
61	0xbd959392	-0.073035374
62	0x3ddb5e40	0.10711336
63	0x3dba9729	0.09110863
64	0xbdd74783	-0.10511687
65	0xbdf5505b	-0.11978217
66	0x3dbf7181	0.09347821
67	0x3e013ae2	0.12620118
68	0x3d00e0e1	0.03146446
69	0xbc9a7b17	-0.018857522
70	0x3dbf39dc	0.09337208
71	0x3d22943f	0.03969216
72	0x3cebbc0b	0.02877619
73	0xbd99b094	-0.07504383
74	0xbde39c11	-0.11113752
75	0x3d8548dc	0.065080374
76	0x3d64a8aa	0.055824913
77	0xbcd7ad3a	-0.026327718
78	0x3d4864b6	0.04892417
79	0x3cde6f12	0.027152572
80	0x3e01eb78	0.1268748
81	0x3d3c25e8	0.045934588
82	0x3da6340b	0.08115395
83	0xbd12fdfc	-0.03588675
84	0xbdaa5d53	-0.083185814
85	0x3dde1598	0.108439624
86	0xbc347757	-0.011014781
87	0x3e16f380	0.14741325
88	0x3c89f617	0.016840978
89	0x3dba34bb	0.09092089
90	0xbda6497f	-0.08119487
91	0xbd536afd	-0.051615704
92	0x3df58cdb	0.11989757
93	0x3d54589d	0.05184232
94	0x3e11e272	0.14246538
95	0x3dd38903	0.10328867
96	0x3d03ab58	0.032145828
97	0x3dd3e58d	0.10346518
98	0xbe16c5e2	-0.14723924
99	0xbe31f910	-0.17380166
100	0x3d5a3c50	0.053280175
101	0x3d85006f	0.06494223
102	0xbde39f88	-0.111144125
103	0x3d79b721	0.06096566
104	0xbc839d6d	-0.016066277
105	0xbd339a5e	-0.043848388
106	0x3d4a8533	0.049443435
107	0x3e0218c7	0.12704764
108	0xbde4a50d	-0.111642934
109	0xbe175bb0	-0.1478107
110	0xbc2c9e54	-0.010535795
111	0xbba67acd	-0.005080557
112	0x3d827296	0.06369512
113	0xbe06c9ed	-0.13162966
114	0x3d924144	0.07141355
115	0x3aa0095e	0.0012209823
116	0x3b06d029	0.002057085
117	0xbe0105fb	-0.12599938
118	0xbe1267c2	-0.14297393
119	0x3d99ed9d	0.07516024
120	0x3d636c11	0.055522982
121	0x3da6250a	0.081125334
122	0x3d65f2e1	0.05613983
123	0x3be4d03a	0.0069828304
124	0x3dde4b51	0.10854209
125	0xbd799edc	-0.060942516
126	0x3e0d249f	0.13783501
127	0x3e16a22e	0.14710304
128	0x3d164118	0.036683172
129	0xbe237315	-0.15961869
130	0x3c41ad9f	0.01182118
131	0xbcafbb99	-0.021451758
132	0x3caab9f2	0.020840619
133	0x3cdcd5b7	0.026957376
134	0xbda23e1c	-0.07922003
135	0xbddbfe75	-0.10741893
136	0xbcd0e45f	-0.02549952
137	0xbcc35245	-0.02384294
138	0xbd95ed52	-0.07320656
139	0x3d67ad6c	0.056561872
140	0x3af1231c	0.0018397304
141	0x3dfe8b45	0.12428907
142	0x3de0d746	0.1097856
143	0x3deadf05	0.11468319
144	0xbc76a548	-0.015054055
145	0x3d7bb8c6	0.06145551
146	0xbe335e27	-0.17516385
147	0xbd1e37a1	-0.03862727
148	0x3d8ac8f0	0.06776607
149	0x3c87131c	0.016488604
150	0xbdce2bab	-0.10066923
151	0xbaebfdd9	-0.001800473
152	0x3dc38781	0.0954733
153	0x3e1e62f0	0.15467429
154	0xbd27f16f	-0.041001733
155	0xbe2162ee	-0.15760395
156	0x3c7150c8	0.014728732
157	0xbd93b3b9	-0.07212014
158	0x3da65fb8	0.08123726
159	0xbd6dd52d	-0.05806463
160	0xbddc0032	-0.10742225
161	0x3d51a5cc	0.051183507
162	0x3de53ed1	0.11193622
163	0xbcb00e1d	-0.021491105
164	0x3e1237ee	0.14279148
165	0x3e0c6b70	0.13712859
166	0x3e260777	0.16213785
167	0xbd0967a0	-0.03354609
168	0x3d76e4af	0.060276683
169	0xbdd12042	-0.10211231
170	0xbda2a5f2	-0.07941808
171	0x3ca4f39e	0.020135697
172	0x3d3b77c1	0.045768503
173	0x3dc3f15f	0.09567522
174	0x3c09cad3	0.0084101735
175	0xbd2d1f78	-0.04226634
176	0x3ddce555	0.10785929
177	0xbd6955c4	-0.056966558
178	0x3dd9e391	0.10639108
179	0xbe1778a3	-0.14792113
180	0xbdb2466d	-0.08704839
181	0xbd87c4a0	-0.066293
182	0x3da889d0	0.08229411
183	0xbdd52e1d	-0.10409186
184	0xbdd64467	-0.104622655
185	0x3dd6edda	0.10494585
186	0xbd978390	-0.073981404
187	0xbde89dbb	-0.1135821
188	0xbc0c88f9	-0.008577579
189	0xbd281049	-0.041031156
190	0x3b22daf0	0.0024849735
191	0xbdc0e75e	-0.0941913
192	0xbd2732e0	-0.040820003
193	0x3d795166	0.060868643
194	0x3de952f5	0.11392776
195	0x3d3f18ef	0.046654638
196	0xbd9ce730	-0.07661283
197	0xbd8b4932	-0.0680107
198	0x3cfb657d	0.030688042
199	0xbdf59f3b	-0.119932614
200	0xbd7b23eb	-0.06131355
201	0x3e0c3374	0.13691503
202	0x3dcece8c	0.100979894
203	0xbd8f2f1e	-0.06991409
204	0xbd6eb20e	-0.058275275
205	0xbdf2aecd	-0.11849747
206	0x3d8f5340	0.069983006
207	0xbd5f0e62	-0.054457076
208	0xbd0814e3	-0.033223044
209	0x3ca78c73	0.020452714
210	0xbdae6812	-0.085159436
211	0x3cf988c8	0.03046073
212	0x3dc8045c	0.097664565
213	0xbbaafc16	-0.0052180393
214	0xbd82ec79	-0.0639276
215	0x3ddd1581	0.10795117
216	0x3d4cfe7c	0.050047383
217	0xbc30fccf	-0.010802462
218	0xbd69ca81	-0.05707789
219	0xbb8161a8	-0.003948409
220	0x3d94ec93	0.072716855
221	0xbe004045	-0.12524517
222	0x3e25aae5	0.16178472
223	0xbdbd5180	-0.092440605
224	0x3dd95ef3	0.10613813
225	0x3d8f1156	0.069857284
226	0xbe2455b6	-0.16048321
227	0xbda102a8	-0.07861835
228	0xbd663bbc	-0.05620931
229	0x3e0267e3	0.12734942
230	0x3e08663c	0.1332025
231	0x3a80f65e	0.0009839048
232	0x3d55911c	0.05214034
233	0x3dc52341	0.09625865
234	0xbdbbb981	-0.091662414
235	0xbba2736e	-0.004957608
236	0x3dd47708	0.10374266
237	0xbe19c0c1	-0.15014936
238	0x3dfb9d01	0.122858055
239	0xbd3c7c08	-0.046016723
240	0xbb6ba631	-0.0035957212
241	0x3e0a9a1d	0.13535352
242	0x3d73f853	0.059562992
243	0xbd9208ea	-0.071306065
244	0xbe05d13a	-0.13068095
245	0x3d3dbb7f	0.04632139
246	0xbc2248a3	-0.009905013
247	0x3d4c8c08	0.04993823
248	0x3d84f755	0.06492487
249	0x3e0062e7	0.12537728
250	0x3df9e0e0	0.122010946
251	0xbd306e56	-0.043073975
252	0xbe071380	-0.13191032
253	0xbdea66fd	-0.11445425
254	0x3d84ed24	0.064905435
255	0x3da6a5cd	0.08137093

1.2.bias f4 [36]
0	0x3cb54242	0.02212632
1	0xbd035bfe	-0.032070152
2	0xbe2cee01	-0.16887666
3	0x3db87d79	0.09008307
4	0x3e0eefff	0.13958739
5	0xbd8e0a40	-0.06935549
6	0xbdec3958	-0.11534375
7	0x3d52a754	0.051429108
8	0x3e0f94dc	0.14021629
9	0xbd161063	-0.03663672
10	0x3df423a2	0.11920859
11	0xbd5e2924	-0.054238454
12	0x3b502983	0.0031763024
13	0x3dab0eea	0.08352454
14	0x3cb3daba	0.021954883
15	0x3b6de565	0.003630006
16	0x3d81b28e	0.06332885
17	0x3e8deddf	0.27720544
18	0xbdaf34ab	-0.085549675
19	0xbd4a4db6	-0.049390517
20	0xbcb93301	-0.022607328
21	0x3bbcebbc	0.0057654064
22	0x3c2f1b1c	0.010687616
23	0xbd550611	-0.05200774
24	0x3d9a37ef	0.075302
25	0x3ccce086	0.025009405
26	0x3de1e07c	0.11029145
27	0x3ca1da58	0.019757435
28	0xbd29ba2a	-0.041437306
29	0x3e33d51e	0.17561767
30	0xbd7305bf	-0.05933165
31	0xbe11a7d4	-0.14224178
32	0xbde83f32	-0.113401785
33	0xbdd37dee	-0.103267536
34	0xbe1ec8e3	-0.1550632
35	0xbe2782ef	-0.16358541

1.4.weight f4 [36, 36]
0	0x3dba5fe9	0.09100325
1	0x3c8959ee	0.016766515
2	0x3e071490	0.13191438
3	0x3c03531d	0.008015421
4	0xbe159bcb	-0.14610212
5	0x3d62f2e5	0.055407424
6	0x3dcf7e13	0.101314686
7	0xbe2701d3	-0.1630929
8	0xbd1b1871	-0.037865106
9	0xbcde1a73	-0.027112221
10	0x3dd45f15	0.10369698
11	0x3db6ff7e	0.0893545
12	0xbd873f40	-0.06603861
13	0xb8782b8e	-5.916837e-05
14	0xbbb78a1e	-0.0056011816
15	0xbca3a121	-0.019974293
16	0x3e190f3e	0.1494722
17	0x3e33d736	0.17562565
18	0xbdc3b80d	-0.09556589
19	0x3d734fdb	0.059402328
20	0xbc3bf3ae	-0.011471672
21	0x3c8ac2a7	0.01693852
22	0x3d9bb9a6	0.07603769
23	0xbe1ccd76	-0.15312752
24	0x3d99cea1	0.075101145
25	0x3baf5bde	0.0053515276
26	0xbcdf7a70	-0.027280062
27	0xbd2d53f0	-0.042316377
28	0x3d253769	0.040336046
29	0xbd76fc0b	-0.06029896
30	0xbd8c5bec	-0.0685347
31	0xbcf6de64	-0.030135341
32	0x3cd8c006	0.026458751
33	0x3db53712	0.088483945
34	0x3c0495f0	0.0080923885
35	0x3d536009	0.051605258
36	0xbe09f748	-0.13473237
37	0x3d67669c	0.05649434
38	0x3c9ac370	0.01889202
39	0x3cad694a	0.02116837
40	0x3c7734e5	0.015088295
41	0xbd87ef92	-0.06637491
42	0xbd36e5e0	-0.04465282
43	0x3daf5321	0.085607775
44	0xbe0795b1	-0.13240696
45	0x3d911b49	0.07085282
46	0xbd9b085d	-0.075699545
47	0xbd78484b	-0.06061582
48	0xbda3ace1	-0.079919584
49	0x3d9863f0	0.074409366
50	0xbc36aabd	-0.011149106
51	0xbd4c3443	-0.04985453
52	0xbdb39b50	-0.08769858
53	0x3e0f93e8	0.14021266
54	0xbca26550	-0.0198237
55	0xbdf21bcc	-0.11821708
56	0x3d9e9f1f	0.07745194
57	0xbd3e8169	-0.046510134
58	0x3e1da662	0.15395501
59	0x3e2cc2fe	0.16871259
60	0x3e061d5e	0.1309714
61	0xbdd96bc1	-0.106162556
62	0xbdac8233	-0.08423271
63	0x3c33a99d	0.010965732
64	0xbe335827	-0.17514096
65	0xbd2c9d40	-0.042142153
66	0xbb028d67	-0.0019920708
67	0xbd796dd9	-0.060895775
68	0x3e0139b4	0.12619668
69	0x3de8d442	0.1136861
70	0x3da5f162	0.08102681
71	0xbde0e97a	-0.10982032
72	0x3de52b99	0.11189956
73	0x3c69de8a	0.014274249
74	0xbd44ca50	-0.048044503
75	0xbd4c3472	-0.049854703
76	0x3dac6f0b	0.08419617
77	0xbe21d65b	-0.15804426
78	0x3ac5250c	0.0015040948
79	0xbd71b9bc	-0.05901502
80	0x3e414830	0.18875194
81	0xbdec986d	-0.115525104
82	0x3dec2aaa	0.11531575
83	0xbc99a846	-0.018756997
84	0xbd7c243c	-0.061557993
85	0xbce02747	-0.027362479
86	0xbd2713fd	-0.040790547
87	0xbe30d981	-0.17270471
88	0x3da2a280	0.07941151
89	0x3e30b552	0.17256668
90	0x3e0caf09	0.13738646
91	0xbdf4c5b6	-0.11951773
92	0x3e03a00b	0.1285402
93	0x3d98eac2	0.074666515
94	0x3e1c50f6	0.15265259
95	0x3d250e17	0.04029664
96	0x3e31a4d8	0.17348039
97	0x3c2ecd0e	0.010669006
98	0x3d58ede0	0.05296123
99	0xbd4fb94a	-0.050713815
100	0x3ddf623d	0.10907409
101	0xbe00064a	-0.12502399
102	0xbd9df658	-0.07713002
103	0xbcaff197	-0.021477504
104	0x3de53649	0.11191995
105	0xbd0b6129	-0.034028206
106	0xbe1395b1	-0.14412571
107	0xbca80745	-0.020511279
108	0x3d86bd32	0.06579055
109	0x3e1016c4	0.14071184
110	0x3d2cfb27	0.042231705
111	0x3e127202	0.14301303
112	0x3b8493eb	0.0040459535
113	0xbcce2b6b	-0.025167188
114	0x3da7d4a5	0.081948556
115	0x3df5d565	0.120035924
116	0xbe1670ff	-0.14691542
117	0xbda40bc9	-0.0801006
118	0xbdc39958	-0.095507324
119	0x3d4ade18	0.04952821
120	0xbdde3bf0	-0.10851276
121	0x3d9a6415	0.075386204
122	0xbe0e1bb2	-0.13877752
123	0xbdb2dfff	-0.0873413
124	0xbc35e8ae	-0.011102838
125	0xbd8f03ce	-0.069831476
126	0xbd72ab48	-0.059245378
127	0x3c1b537c	0.009480353
128	0xbd51c513	-0.051213335
129	0x3da0f843	0.07859852
130	0x3e02e400	0.12782288
131	0x3e0af653	0.13570528
132	0x3d2bdf9f	0.04196131
133	0x3e1017f0	0.14071631
134	0x3df68f5b	0.12039062
135	0xbcbbb53f	-0.022913573
136	0x3d661c5b	0.056179386
137	0x3d19f9c1	0.0375917
138	0x3d40edb1	0.04710168
139	0x3e4ed111	0.2019694
140	0xbd47244e	-0.048618607
141	0xbc86ab73	-0.016439175
142	0xbccf36c2	-0.025294665
143	0x3d5d5192	0.05403287
144	0xbdfe821d	-0.12427161
145	0x3da2b3c2	0.07944442
146	0x3d5f689a	0.054543115
147	0xbc59586b	-0.013265709
148	0x3a92ed5c	0.0011209655
149	0xbdd24fa5	-0.10269097
150	0xbd8ca6f0	-0.06867778
151	0x3d9b452a	0.075815514
152	0x3e369591	0.17830493
153	0x3e2a5999	0.16635741
154	0x3ddbc62d	0.107311584
155	0xbe215302	-0.15754321
156	0xbcf00873	-0.029300904
157	0x3da01fbb	0.07818552
158	0xbd1d1628	-0.038351208
159	0x3dd8f945	0.105944194
160	0xbdbdfdca	-0.09276922
161	0xbe07d6cb	-0.13265531
162	0xbdcc287a	-0.09968658
163	0x3e21f04c	0.15814322
164	0x3be303cc	0.006927943
165	0x3dc3511f	0.09536957
166	0xbdbde7ed	-0.09272752
167	0x3d182350	0.03714305
168	0x3d8d06a6	0.06886034
169	0x3dae4c5b	0.085106574
170	0x3e19407d	0.14966007
171	0xbd747fec	-0.05969231
172	0xbe23678e	-0.15957472
173	0xbdf86f5e	-0.121306166
174	0x3c575119	0.013141894
175	0xbe0f52a6	-0.13996372
176	0xbdfba0a3	-0.122864984
177	0x3e07fd73	0.13280277
178	0x3dbf4bc3	0.09340622
179	0xbdd006d4	-0.10157552
180	0x3e26abe5	0.1627651
181	0x3b9dddc8	0.004817698
182	0xbe32f2a9	-0.1747538
183	0x3e0b8069	0.13623203
184	0x3e1cd474	0.1531542
185	0x3d932e5e	0.07186578
186	0x3e153a07	0.14572917
187	0xbd24651c	-0.040135488
188	0xbe0e96e1	-0.13924743
189	0x3e322a82	0.17399028
190	0x3d45d056	0.048294388
191	0xbda95f2f	-0.08270108
192	0xbdbbff69	-0.09179575
193	0x3dde3371	0.108496554
194	0x3d5c783e	0.05382561
195	0xbdebadb1	-0.115077384
196	0xbd973617	-0.07383364
197	0x3da82742	0.08210613
198	0xbd690fe1	-0.05689991
199	0x3dc57861	0.09642101
200	0xbda6faea	-0.08153327
201	0xbe10931d	-0.1411862
202	0x3d2275a5	0.039662976
203	0xbe18ef8e	-0.14935133
204	0x3e05a589	0.13051428
205	0x3d27382f	0.040825065
206	0x3e4bd0fa	0.19903937
207	0x3e4c127f	0.1992893
208	0x3db02046	0.08599906
209	0x3c28091b	0.010256077
210	0xbdd48f14	-0.103788525
211	0x3e1a44d6	0.15065321
212	0xbd564e3e	-0.05232071
213	0xbdb778d7	-0.08958595
214	0x3da43531	0.08017958
215	0xbd41f439	-0.04735205
216	0x3c87bf9c	0.016570859
217	0x3e3d3521	0.18477298
218	0x3e36e6a7	0.17861424
219	0x3dee76e6	0.11643772
220	0xbc96382e	-0.018337335
221	0xbc902dea	-0.017600019
222	0xbe247b09	-0.16062559
223	0xbde10c71	-0.10988701
224	0x3e244e26	0.16045436
225	0xbdbb3a16	-0.091419384
226	0x3d63a9a6	0.05558171
227	0x3d853c4c	0.06505641
228	0x3d4af54a	0.049550332
229	0xbe20f437	-0.1571816
230	0x3d144caa	0.036205925
231	0x3d765d1b	0.060147386
232	0x3d909f24	0.07061604
233	0x3c4386b1	0.011933968
234	0x3d3f7071	0.04673809
235	0x3b6f451e	0.0036509703
236	0x3e032e3c	0.12810606
237	0xbe148a86	-0.14505967
238	0xbd1264ae	-0.035740547
239	0x3dcf4e8c	0.101224035
240	0xbddea2a1	-0.10870863
241	0x3c8d3f9a	0.017242242
242	0x3dd8d1ba	0.10586877
243	0xbdec8fea	-0.11550887
244	0xbe49d481	-0.1970997
245	0xbcfe5639	-0.031046974
246	0x3cf83c2c	0.03030213
247	0x3da8f292	0.082493916
248	0xbe1c0a4c	-0.15238303
249	0xbdc79cad	-0.097466804
250	0x3de06665	0.1095703
251	0x3db5ee2e	0.0888332
252	0x3c519301	0.012791396
253	0x3dfb26a1	0.12263227
254	0xbc661af9	-0.014044517
255	0xba614f1a	-0.0008594856

1.4.bias f4 [36]
0	0x3d84abbe	0.0647807
1	0xbe09e518	-0.13466299
2	0x3e28b484	0.16475111
3	0x3db74e73	0.0895051
4	0x3d6e6e0c	0.058210418
5	0xbd017d38	-0.03161356
6	0x3d372afe	0.044718735
7	0xbd7948c2	-0.060860403
8	0xbe18b4f3	-0.14912777
9	0xbe0474c3	-0.12935166
10	0x3d8d5d1c	0.06902525
11	0x3d52d46a	0.051472105
12	0x3ddeeda1	0.10885168
13	0xbdd485b4	-0.10377064
14	0xbd897824	-0.06712368
15	0xbde0d1fb	-0.109775506
16	0xbd9a23ad	-0.07526336
17	0x3db191f4	0.086704165
18	0xbcf17526	-0.029474806
19	0x3dbb8df1	0.091579325
20	0xbcc6808b	-0.024231216
21	0x3e75b484	0.23994642
22	0xbe1d97aa	-0.15389886
23	0xbd83c785	-0.0643454
24	0x3d746025	0.059662003
25	0x3b79a5ae	0.0038093138
26	0x3da00efc	0.07815358
27	0xbd974fe3	-0.07388284
28	0x3db736f7	0.089460306
29	0x3c0a1274	0.008427251
30	0x3e087bff	0.13328551
31	0x3e22e933	0.15909271
32	0x3de1e70d	0.110303976
33	0x3dd248cb	0.102677904
34	0xbd48f34a	-0.049060144
35	0xbdc3e2cc	-0.095647424

1.6.weight f4 [24, 36]
0	0xbdfd4650	-0.12366927
1	0xbe4379d2	-0.1908944
2	0x3e1766f3	0.14785366
3	0xbd7e2efe	-0.062056534
4	0xbdbdd13c	-0.09268424
5	0x3e431d8e	0.19054243
6	0x3b439f43	0.0029849566
7	0xbb8be103	-0.004268767
8	0x3d3644da	0.044499256
9	0xbdfd66f0	-0.123731494
10	0xbc92ba4f	-0.017911104
11	0x3d8f28f1	0.06990231
12	0xbe35d1c5	-0.17755802
13	0xbd2113e7	-0.03932562
14	0xbe15adf7	-0.14617144
15	0xbc3b3c41	-0.01142794
16	0xbdf801e5	-0.12109736
17	0x3c812913	0.015766656
18	0x3df82c73	0.12117853
19	0x3ced2a9e	0.028950986
20	0xbce7eac8	-0.028310195
21	0x3dbb180b	0.09135445
22	0xbddfb5bd	-0.10923336
23	0x3e0c581c	0.13705486
24	0x3dba25e1	0.09089256
25	0xbda2d616	-0.0795099
26	0xbde0c9f1	-0.10976017
27	0x3dfdc5d4	0.12391248
28	0x3e046c87	0.12932025
29	0xbe190826	-0.14944515
30	0x3d141e57	0.036161747
31	0x3dbbb97a	0.09166236
32	0x3da0c80e	0.078506574
33	0x3d177fac	0.03698699
34	0x3df47f06	0.1193829
35	0xbd2e2606	-0.04251673
36	0xbe1857e7	-0.14877282
37	0x3e0c8fd9	0.13726749
38	0x3d9e6163	0.07733419
39	0x3dee18f9	0.11625857
40	0x3de915b2	0.11381091
41	0x3e11b34d	0.14228554
42	0xbd81c3b9	-0.06336159
43	0x3da8f8a4	0.082505494
44	0xbdbfc1ae	-0.09363113
45	0x3ca833d9	0.020532535
46	0x3dab1ccf	0.08355104
47	0x3e367fda	0.17822209
48	0xbdc04564	-0.09388235
49	0x3dd0fc85	0.10204414
50	0x3dce7da9	0.100825615
51	0xbe213f72	-0.15746859
52	0x3dc32080	0.09527683
53	0xbdc24b9e	-0.09487079
54	0xbe0cf129	-0.1376387
55	0xbd75b322	-0.059985287
56	0x3d2defa6	0.042464875
57	0xbdb4c79b	-0.08827134
58	0x3e106ccd	0.14104004
59	0xbe0514aa	-0.12996164
60	0x3cfbc31a	0.03073268
61	0x3c51d99f	0.012808233
62	0xbdc0a1f0	-0.09405887
63	0xbdbb961e	-0.09159492
64	0xbc345ac0	-0.011007965
65	0xbe105cc8	-0.14097893
66	0x3df92c17	0.121666126
67	0x3d0cc70a	0.034369506
68	0xbd580b85	-0.05274536
69	0xbc93a066	-0.01802082
70	0xbd99cea8	-0.0751012
71	0x3df6392d	0.12022624
72	0xbb4ccf9b	-0.0031251672
73	0x3dc705cc	0.097179025
74	0xbd85df3b	-0.065367185
75	0xbe005a46	-0.12534437
76	0xbd850ef7	-0.06496995
77	0x3bc5ad05	0.0060325884
78	0xbdb30826	-0.087417886
79	0xbe33fa0c	-0.17575854
80	0x3c55185f	0.013006299
81	0xbe10d4fe	-0.1414375
82	0xbd937518	-0.07200068
83	0xbe1a1a7a	-0.15049163
84	0xbd03c3d7	-0.03216919
85	0xbd0383a2	-0.032107957
86	0xbdd92e19	-0.106044956
87	0x3e08b915	0.13351853
88	0xbd9d7200	-0.076877594
89	0xbe1668d3	-0.14688425
90	0xbce11c05	-0.027479181
91	0xbe367d3d	-0.17821212
92	0xbdd4b09e	-0.103852496
93	0x3c7cbc05	0.015425687
94	0xbd548962	-0.05188883
95	0xba6e05d1	-0.0009079846
96	0xbe1452f7	-0.14484774
97	0x3dd52c77	0.104088716
98	0x3dd74be7	0.10512524
99	0xbd857a99	-0.06517524
100	0xbd7de369	-0.061984453
101	0xbdce2796	-0.10066144
102	0x3e030bec	0.12797517
103	0xbe45e846	-0.19326887
104	0xbab6a977	-0.0013936003
105	0x3d963720	0.07334733
106	0x3ce78142	0.028259877
107	0xbdef2f0e	-0.11678897
108	0x3ba5ef56	0.0050639315
109	0x3c2f4019	0.010696434
110	0xbddeb18b	-0.108737074
111	0x3c3abf02	0.011398079
112	0xbd52a199	-0.051423643
113	0xbe23ca55	-0.15995152
114	0xbdeebcc5	-0.11657099
115	0xbe1d7c2b	-0.15379398
116	0xbe1d5592	-0.15364674
117	0xbd4c62bf	-0.04989886
118	0x3d3a4269	0.04547349
119	0x3d0bef1e	0.034163587
120	0xbe0f61ad	-0.14002104
121	0x3da4b46b	0.080422245
122	0xbe196b37	-0.14982305
123	0x3dfbf6a0	0.12302899
124	0xbc1aed85	-0.009456043
125	0xbd77f2e5	-0.060534377
126	0xbe2200b6	-0.15820584
127	0xbe11161a	-0.14168587
128	0x3cd40f42	0.025886182
129	0x3e511632	0.20418623
130	0xbd65eff6	-0.056137048
131	0xbdf8b1a3	-0.121432565
132	0x3e2f9de6	0.17150077
133	0xbe17676e	-0.14785549
134	0x3da48ceb	0.080346905
135	0xbdda62ff	-0.10663413
136	0xbdfead8b	-0.124354444
137	0x3cbd2983	0.023091083
138	0xbd64c88c	-0.05585532
139	0xbe4a8c09	-0.19779982
140	0x3e14162f	0.14461587
141	0xbde10ae0	-0.10988402
142	0xbda93702	-0.08262445
143	0x3d155bf8	0.03646466
144	0xbd6e14ea	-0.058125414
145	0xbd237970	-0.039910734
146	0xbe2ef456	-0.17085394
147	0x3d3f0970	0.04663986
148	0xbdb7fda9	-0.08983929
149	0x3d28a74e	0.04117518
150	0x3db4db06	0.08830838
151	0x3d7574da	0.05992589
152	0xbdb2e3fe	-0.08734892
153	0xbdadafb3	-0.084807776
154	0x3db1318d	0.08652029
155	0xbdb9e917	-0.090776615
156	0x3df24160	0.118288755
157	0x3c1b47f3	0.009477603
158	0xbdb5b053	-0.08871522
159	0xbd80b9a9	-0.06285412
160	0x3e0664b4	0.13124353
161	0xbdad4699	-0.08460731
162	0x3de8c2e1	0.11365295
163	0xbe112f2c	-0.14178151
164	0x3cec619b	0.028855136
165	0xbe0b605e	-0.1361098
166	0xbbe379ff	-0.0069420333
167	0xbb7e206f	-0.0038776656
168	0xbe00f4a5	-0.12593324
169	0xbd93304a	-0.07186945
170	0x3dd4ced4	0.10391012
171	0x3dcb94ff	0.09940528
172	0x3e37fe46	0.17968091
173	0xbe3ac756	-0.18240103
174	0x3af5a44a	0.0018740979
175	0xbc5303eb	-0.012879352
176	0x3bdee351	0.0068020006
177	0xbe1ae94d	-0.1512806
178	0xbdaea2da	-0.08527155
179	0x3dbf302f	0.09335362
180	0xbe0c2c42	-0.13688758
181	0x3d3fc736	0.04682084
182	0x3e35d722	0.17757848
183	0xbdf10d67	-0.117701344
184	0xbd6f4beb	-0.05842201
185	0xbdedfab1	-0.11620081
186	0xbe1f9bea	-0.1558682
187	0xbd50c9ba	-0.05097363
188	0x3de95109	0.11392409
189	0x3d47e943	0.04880644
190	0x3db246c2	0.08704902
191	0x3deda8c0	0.11604452
192	0xbd201d39	-0.03909037
193	0xbe1c8d5a	-0.15288296
194	0xbe383273	-0.17987995
195	0x3e3a475d	0.18191285
196	0x3e015479	0.1262988
197	0xbcf47efc	-0.029845707
198	0x3de7fbc3	0.113273166
199	0xbd5a6391	-0.05331761
200	0x3e12a9e9	0.14322628
201	0xbd612e9b	-0.054976087
202	0x3e0212e1	0.12702514
203	0xbe279433	-0.16365127
204	0xbdd66fa7	-0.10470515
205	0x3d193b80	0.03741026
206	0xbd608eec	-0.0548238
207	0x3ccfc9e1	0.025364818
208	0xbd60a1e9	-0.05484191
209	0x3d39f3b2	0.04539842
210	0x3de1d72c	0.11027369
211	0x3d811c1b	0.06304189
212	0xbe0d8f83	-0.13824277
213	0x3e29dc95	0.16588052
214	0xbdc93212	-0.09824003
215	0x3c143574	0.009045947
216	0x3d9c8904	0.07643321
217	0x3e2d3d95	0.16918023
218	0x3e26dc24	0.16294914
219	0x3d61c4a7	0.055119183
220	0xbdd16a0e	-0.102253065
221	0xbd8f5ef8	-0.07000536
222	0xbdf7bbcc	-0.12096366
223	0xbe065a54	-0.13120395
224	0x3d47a9eb	0.04874603
225	0x3d668e7e	0.056288235
226	0x3d77e724	0.060523167
227	0x3e33b2dd	0.175487
228	0xbd73cf94	-0.059524134
229	0xbb72967c	-0.0037015965
230	0xbcbdc5e7	-0.023165656
231	0xbd150039	-0.036377165
232	0x3e23aa5d	0.15982957
233	0x3ce9f3d9	0.028558658
234	0xbe0f060f	-0.13967155
235	0xbe22be94	-0.15893012
236	0xbd9e479f	-0.077285044
237	0x3db684f2	0.08912076
238	0x3df1bc29	0.11803467
239	0xbda77dd3	-0.08178296
240	0xbcdb0e92	-0.026740346
241	0x3da5ded2	0.0809914
242	0xbe018b75	-0.12650855
243	0x3d5c5479	0.053791497
244	0x3d9682d3	0.073491715
245	0x3d2fd14e	0.042924218
246	0xbe00f1a6	-0.12592182
247	0x3c19aa19	0.009378933
248	0xbd870cb5	-0.065942205
249	0x3dcd99ad	0.10039077
250	0xbc9bc333	-0.019013977
251	0x3d26599e	0.04061281
252	0x3d7c741f	0.06163418
253	0xbe13c19e	-0.14429328
254	0x3e38e4a4	0.1805597
255	0x3c417fc6	0.011810249

1.6.bias f4 [24]
0	0x3dd140fe	0.102174744
1	0x3d83a3f6	0.064277574
2	0xbdb8e1bc	-0.090274304
3	0xbdbdf6a4	-0.092755586
4	0x3d8975a5	0.06711892
5	0x3dfaec84	0.12252143
6	0xbdb83539	-0.089945264
7	0xbc18183f	-0.0092831245
8	0x3d9466c0	0.072461605
9	0x3c9e63b1	0.019334646
10	0x3dd1dc2a	0.10247071
11	0xbdbe49b1	-0.09291399
12	0x3c45685b	0.012048806
13	0x3d268921	0.04065812
14	0xbd64ead3	-0.05588801
15	0xbdc2af53	-0.09506097
16	0xbd173b10	-0.03692156
17	0x3cc70cb4	0.02429805
18	0x3da014d6	0.07816474
19	0x3e069a2a	0.13144746
20	0xbd80373e	-0.062605366
21	0xbd9f2025	-0.07769803
22	0x3e27556c	0.1634118
23	0x3d112f7e	0.035445683

1.8.weight f4 [24, 24]
0	0xbe4fd73e	-0.20296952
1	0xbcb4a0af	-0.022049276
2	0xbe455ee9	-0.19274487
3	0x3cfa074d	0.03052106
4	0xbe2add2c	-0.16685933
5	0x3e055bf2	0.13023356
6	0x3d66e728	0.05637279
7	0x3e4e3a75	0.20139487
8	0xbe6cd2d9	-0.23127307
9	0x3e084725	0.1330839
10	0x3e3192c7	0.17341147
11	0x3db78f72	0.08962907
12	0xbd1e37e0	-0.038627505
13	0xbe495180	-0.19659996
14	0xbdb559f4	-0.08855048
15	0x3dc83adf	0.09776854
16	0xbd2c8c76	-0.04212614
17	0x3db000b4	0.08593884
18	0x3e38c43b	0.18043606
19	0x3be09f7a	0.0068549486
20	0x3e3aafb4	0.18231088
21	0x3dc12ab8	0.09431976
22	0xbdbb9b18	-0.09160441
23	0x3dc3bbbf	0.09557294
24	0xbca3a724	-0.01997716
25	0x3e09be5c	0.13451523
26	0xbd96e16f	-0.07367217
27	0xbdbe1531	-0.09281386
28	0x3d871db5	0.06597463
29	0xbe81ecea	-0.25376064
30	0xbde721c9	-0.11285741
31	0xbdf4996e	-0.11943327
32	0x3e33b3f7	0.1754912
33	0x3e047c1e	0.12937972
34	0xbcf09714	-0.029368915
35	0x3e432a48	0.19059098
36	0x3ddddf7b	0.10833641
37	0xbe0ed24a	-0.13947406
38	0x3e155e85	0.14586838
39	0xbe31d17a	-0.17365065
40	0xbe572b03	-0.21012501
41	0xbe94def4	-0.2907635
42	0x3c8a8f14	0.016913928
43	0x3cffe3f2	0.031236622
44	0x3e863c51	0.26217893
45	0xbe0a0044	-0.13476664
46	0xbe1e7057	-0.15472542
47	0x3d6a0134	0.057130054
48	0x3dfc0d09	0.12307174
49	0x3d8ec4ee	0.06971155
50	0x3d2e5e27	0.04257026
51	0xbdaad8f4	-0.08342162
52	0xbe31464b	-0.17311971
53	0xbd81e7a7	-0.06343012
54	0xbdf149a3	-0.11781623
55	0xbe1d19a4	-0.15341812
56	0x3cd96c5d	0.02654093
57	0xbd56fe25	-0.052488465
58	0xbe144c27	-0.14482175
59	0xbc8b6e2a	-0.017020304
60	0x3e133245	0.14374645
61	0x3e559554	0.20857745
62	0x3d9a19f8	0.075244844
63	0x3e0f30d1	0.13983466
64	0xbe5aa861	-0.21353294
65	0xbcf9c43c	-0.03048908
66	0xbcb87d73	-0.022520756
67	0xbdfb3f0e	-0.12267886
68	0x3c061342	0.008183302
69	0xbe275fd9	-0.16345157
70	0xba3c8ac5	-0.0007192309
71	0xbbe89534	-0.0070978645
72	0xbde57ca8	-0.11205417
73	0xbd5e1b3c	-0.05422519
74	0xbd038c66	-0.032116316
75	0x3b015ca4	0.0019739056
76	0x3d682ba3	0.05668224
77	0x3e39e35a	0.18153134
78	0xbe50f10e	-0.20404455
79	0x3e26fc58	0.16307199
80	0xbd1ac074	-0.037781194
81	0xbde477ff	-0.111557
82	0x3e62bd21	0.2214246
83	0xbcf23687	-0.029567016
84	0x3e11c882	0.14236644
85	0xbc12447d	-0.008927462
86	0xbdca8c5b	-0.09890052
87	0x3d57cc5c	0.052685127
88	0x3d4d693f	0.0501492
89	0x3cb1386a	0.021633346
90	0x3e279256	0.16364416
91	0xbe22d094	-0.15899879
92	0xbd0a3892	-0.033745356
93	0x3a23805e	0.0006237085
94	0x3e0eea3c	0.13956541
95	0x3d215c93	0.039394926
96	0xbdf37799	-0.11888046
97	0xbda33b84	-0.07970336
98	0xbdb2aaa1	-0.08723951
99	0xbe05550e	-0.13020727
100	0x3e2c6c67	0.16838227
101	0x3bc0c907	0.0058833393
102	0xbd3b4257	-0.045717563
103	0xbd850608	-0.06495291
104	0x3dce399e	0.10069583
105	0x3d3f2943	0.04667021
106	0x3e491a7f	0.19639014
107	0xbe52060b	-0.20510118
108	0x3e2c26e7	0.16811715
109	0xbd355563	-0.044270884
110	0xbe0c1bf0	-0.13682532
111	0xbe21483d	-0.15750213
112	0x3e4070fa	0.18793097
113	0xbb72aa55	-0.0037027795
114	0x3e1af9cb	0.15134351
115	0x3e14f860	0.14547873
116	0xbd1e01e9	-0.03857604
117	0xbe3e9e19	-0.18614997
118	0xbe285d7c	-0.16441911
119	0xbe265d3b	-0.16246502
120	0xbe2c333a	-0.16816416
121	0x3df4b6de	0.11948942
122	0x3bc8a32c	0.006122967
123	0x3dd7d84b	0.105393015
124	0xbda2bc14	-0.07946029
125	0x3e138911	0.14407755
126	0x3dc9ddcf	0.0985676
127	0xbe2d46be	-0.16921517
128	0x3d688f62	0.056777366
129	0x3db6b037	0.08920329
130	0x3e251255	0.16120274
131	0xbe05deab	-0.13073222
132	0x3c05596e	0.0081389975
133	0x3df226bf	0.118237965
134	0xbdcfefdd	-0.10153172
135	0xbe199d2b	-0.15001361
136	0xbddaa00b	-0.10675057
137	0xbd449d7a	-0.048001744
138	0x3e5844cc	0.21119994
139	0xbc28f47d	-0.010312197
140	0x3d5f199b	0.05446778
141	0x3dcc3c7d	0.09972475
142	0xbe284c55	-0.16435368
143	0x3e02d268	0.12775576
144	0x3c7f8d77	0.015597693
145	0xba2b09c9	-0.00065245904
146	0x3c2fe023	0.010734591
147	0x3deddc18	0.11614245
148	0x3dd15a45	0.10222296
149	0xbdc5168a	-0.096234396
150	0x3e3a13f5	0.18171676
151	0x3c979510	0.018503696
152	0xbd54e846	-0.051979326
153	0xbe49595d	-0.19662996
154	0xbe66d8d1	-0.22543646
155	0xbdfe42c8	-0.12415081
156	0xbb968c07	-0.0045943293
157	0x3e6a9357	0.22907768
158	0x3c5d0e5d	0.013492194
159	0x3d4c25fa	0.049840905
160	0xbe7ea2ab	-0.2486674
161	0x3e3afe65	0.18261106
162	0x3e59fe4f	0.21288417
163	0x3e2ce222	0.16883138
164	0xbe0b84dc	-0.136249
165	0x3e0106a3	0.12600188
166	0xbd9f4f25	-0.077787675
167	0x3c3365de	0.01094958
168	0xbd0520a8	-0.032501847
169	0xbe4b2d10	-0.19841409
170	0x3e4e2f49	0.20135225
171	0xbcf24afe	-0.029576775
172	0xbe3c401f	-0.18383835
173	0xbd7472a5	-0.059679646
174	0xbde9ebe7	-0.11421948
175	0xbd79193a	-0.060815074
176	0xbe566e00	-0.20940399
177	0x3d36255e	0.04446923
178	0x3d6c6aac	0.057718918
179	0xbe193283	-0.14960675
180	0xbddd6298	-0.10809821
181	0xbca9d415	-0.020731011
182	0x3d1cf687	0.038321044
183	0x3c93755d	0.0180003
184	0x3c8adc3b	0.016950717
185	0x3d8d8416	0.06909959
186	0xbdf29e67	-0.11846619
187	0x3dfb4fdd	0.12271092
188	0xbda27ac6	-0.079335734
189	0x3d91d112	0.07119955
190	0xbe0fe1c7	-0.14050971
191	0x3d8be022	0.06829859
192	0x3daab2b4	0.08334866
193	0xbd2d775d	-0.04235016
194	0x3d59c446	0.053165697
195	0xbb683a63	-0.0035435192
196	0xbe23ad81	-0.15984155
197	0x3e26378b	0.16232125
198	0xbe65efd9	-0.22454776
199	0x3cbb38de	0.022854265
200	0xbd4d6b61	-0.050151233
201	0x3e70d40c	0.2351839
202	0xbcf9626a	-0.030442435
203	0x3e107b4a	0.14109531
204	0x3c7efe2a	0.015563527
205	0x3de00cbf	0.10939931
206	0xbd340bea	-0.043956675
207	0xbc4902c8	-0.0122687295
208	0x3c6b2b1b	0.014353539
209	0x3dca2403	0.0987015
210	0xbe08eb2f	-0.13370965
211	0xbdb2c9d6	-0.087299034
212	0x3dfd2c7d	0.12362001
213	0xbe756074	-0.23962575
214	0xbc3a60b0	-0.011375591
215	0xbd2ae7ef	-0.041725095
216	0xbe28cd51	-0.16484572
217	0xbe069403	-0.131424
218	0xbe3d6d1d	-0.18498655
219	0x3d8b783d	0.06810043
220	0xbe0b9ab5	-0.13633235
221	0x3d248928	0.040169865
222	0xbd0141c6	-0.031556867
223	0x3d7e8f93	0.06214864
224	0xbe48f25c	-0.19623703
225	0x3e2ed4aa	0.17073312
226	0x3d2f1f05	0.042754192
227	0xbdcf215e	-0.10113786
228	0xbe00bf66	-0.12573013
229	0xbe1be65a	-0.15224591
230	0xbda3846b	-0.07984241
231	0x3e73278d	0.23745556
232	0x3d803606	0.06260304
233	0xbe232567	-0.15932237
234	0x3dd07bef	0.101798885
235	0x3d473a68	0.048639685
236	0xbbb85714	-0.005625615
237	0xbde95e1d	-0.11394904
238	0x3d32e7f8	0.043678254
239	0xbd5c192d	-0.053734947
240	0xbe179806	-0.14804086
241	0x3e1d3c8b	0.15355127
242	0xbe180591	-0.14845873
243	0xbd620052	-0.055176087
244	0xbe05efdd	-0.13079782
245	0x3d550009	0.052001987
246	0x3e23f385	0.16010864
247	0x3e2726be	0.16323373
248	0xbdd179da	-0.102283195
249	0x3dc75e92	0.09734835
250	0xbd61319a	-0.054978944
251	0xbdb6dfa7	-0.08929377
252	0xbe51d270	-0.20490432
253	0x3d05e432	0.032688327
254	0xbd54de29	-0.05196968
255	0xbbbdde61	-0.005794332

1.8.bias f4 [24]
0	0xbe04bdd4	-0.12963039
1	0xbe0ac532	-0.13551787
2	0x3e03a644	0.12856394
3	0xbd849e65	-0.06475524
4	0x3d5ab5e0	0.053396106
5	0x3e101b0f	0.14072822
6	0x3d8e8cba	0.06960435
7	0xbe24ff5a	-0.16113034
8	0x3e1a30f5	0.15057738
9	0xbd27a58c	-0.040929362
10	0xbcb9d173	-0.022682881
11	0x3e311161	0.17291786
12	0xbde0e62e	-0.10981403
13	0xbd8087e9	-0.06275923
14	0xbe06fa14	-0.13181335
15	0xbdc99f81	-0.09844876
16	0x3d93f696	0.07224767
17	0xbe075eca	-0.13219753
18	0xbe11af0f	-0.14226936
19	0x3dced4e6	0.10099201
20	0x3e2fffcb	0.17187421
21	0x3e4f454a	0.20241275
22	0xbcbf607e	-0.02336144
23	0xbd8e1617	-0.06937807

1.10.weight f4 [12, 24]
0	0xbd3f2eeb	-0.046675604
1	0xbe5a7efe	-0.21337506
2	0x3df0f3b1	0.117652304
3	0xbd36d990	-0.044641078
4	0x3c9af392	0.018914972
5	0xbdbdd8d6	-0.09269874
6	0x3d7c466a	0.06159059
7	0x3ccb0405	0.02478219
8	0xbdc58fb5	-0.096465506
9	0xbe13fe91	-0.14452578
10	0x3ddd57f2	0.1080779
11	0xbe1ac846	-0.15115461
12	0x3e3449a6	0.1760622
13	0xbe6750cf	-0.2258942
14	0x3cd0c14a	0.025482792
15	0x3cebbc06	0.02877618
16	0xbe6d3bd2	-0.23167351
17	0xbe7f184d	-0.24911614
18	0xbcbcbeb0	-0.023040146
19	0x3ca2ede0	0.019888818
20	0x3d48527f	0.0489068
21	0xbe6ca42f	-0.23109506
22	0x3e1f5c1e	0.15562484
23	0xbd207eb9	-0.039183352
24	0x3e06c352	0.13160446
25	0xbe465efd	-0.19372173
26	0xbe054423	-0.13014273
27	0xbdc8a937	-0.097979
28	0x3d35cb6c	0.04438345
29	0xbe584990	-0.21121812
30	0xbe27826b	-0.16358344
31	0x3e418ab4	0.18900567
32	0xbe445715	-0.19173844
33	0xbd99d069	-0.07510454
34	0x3cd7674e	0.026294377
35	0x3e0a2df4	0.13494092
36	0xbdf3f7a5	-0.11912469
37	0x3cb77e01	0.02239895
38	0x3d3ba827	0.04581466
39	0xbd46c1e0	-0.048524737
40	0x3d75b178	0.0599837
41	0xbe4a63da	-0.19764653
42	0xbdbe29ed	-0.092853405
43	0x3e2ce0e0	0.16882658
44	0xbe9cab0e	-0.30599254
45	0x3d2d343b	0.04228614
46	0xbe338b27	-0.17533551
47	0x3ce33522	0.027735297
48	0xbe5a934a	-0.21345249
49	0x3e245dff	0.16051482
50	0x3d9f47f3	0.07777395
51	0x3e2c8b7f	0.16850089
52	0x3d1964b9	0.037449572
53	0xbdfbb7bf	-0.12290906
54	0xbe55174c	-0.20809668
55	0xbdebd327	-0.115148835
56	0xbdd693db	-0.1047742
57	0xbe402817	-0.18765293
58	0xbdaa8f33	-0.08328094
59	0x3d971cd7	0.07378548
60	0xbd0726ce	-0.03299599
61	0x3db0b057	0.08627384
62	0x3e6005fe	0.21877286
63	0xbdd74940	-0.10512018
64	0x3df13861	0.117783315
65	0x3e19d1ab	0.15021388
66	0x3e9ec1ca	0.31007224
67	0xbdfb63bc	-0.12274882
68	0x3dc2b6ec	0.09507546
69	0xbe53a21a	-0.20667306
70	0xbe4f2fff	-0.20233153
71	0xbd8266ec	-0.06367287
72	0x3d3113b4	0.04323168
73	0xbe42b1c1	-0.1901312
74	0x3e103c66	0.1408554
75	0xbce285c2	-0.027651671
76	0xbd104e82	-0.03523112
77	0xbe0b9206	-0.13629922
78	0xbd061767	-0.032737162
79	0xbdec0ffe	-0.11526488
80	0xbd81505b	-0.06314155
81	0xbe45d670	-0.19320083
82	0x3d84c27e	0.06482409
83	0xbe779ca9	-0.24180855
84	0xbe8bb410	-0.27285814
85	0x3d84fe70	0.064938426
86	0x3e2c849a	0.16847458
87	0x3df4f653	0.11961045
88	0x3e5c4ef4	0.21514493
89	0xbcb521b1	-0.022110792
90	0xbd0cf484	-0.034412876
91	0xbc49d694	-0.012319226
92	0xbe18a1d4	-0.14905483
93	0x3e0733c0	0.13203335
94	0x3e56efd3	0.20989923
95	0x3d35237c	0.044223294
96	0x3e99d304	0.30043805
97	0x3e67aafb	0.22623818
98	0xbd8e608e	-0.0695201
99	0xbc798865	-0.015230273
100	0xbe27e493	-0.16395788
101	0xbdf2da4d	-0.11858044
102	0x3dc7172b	0.09721216
103	0x3e53e21b	0.20691721
104	0x3c0d6536	0.008630088
105	0x3e86ddf6	0.26341218
106	0xbd225d77	-0.039639916
107	0x3e854b21	0.2603388
108	0x3e96af4a	0.2943061
109	0xbe699139	-0.22809304
110	0x3dfdafd4	0.12387052
111	0xbe3ec5c6	-0.18630132
112	0xbdc52331	-0.09625853
113	0xbd99e53d	-0.07514427
114	0xbe5cf4c1	-0.21577741
115	0xbd38f360	-0.045153975
116	0xbe5c2c87	-0.21501361
117	0xbddb5f90	-0.107115865
118	0x3ba58aa1	0.0050519262
119	0xbe2e702d	-0.17034979
120	0xbe4acea8	-0.19805396
121	0xbd214ba3	-0.039378773
122	0x3ca17c0e	0.019712474
123	0x3dd717f1	0.10502613
124	0x3d84adf0	0.064784884
125	0x3c85277c	0.01625418
126	0xbdffe99b	-0.124957286
127	0x3e129c6e	0.14317486
128	0x3dfb53a6	0.12271814
129	0xbdd300a8	-0.103028595
130	0xbe221138	-0.15826881
131	0x3c38bc59	0.011275374
132	0xbe47d052	-0.19513062
133	0x3e49c5b2	0.19704321
134	0x3e7068b8	0.23477447
135	0xbe12ca78	-0.14335048
136	0x3e60640d	0.21913166
137	0x3e08eb97	0.1337112
138	0x3e6748c2	0.22586349
139	0xbde5a2e7	-0.11212712
140	0xbd7a2595	-0.061070997
141	0xbe4c8351	-0.19971968
142	0x3b880655	0.0041511455
143	0xbdfb1201	-0.12259293
144	0xbe242ec9	-0.16033472
145	0xbd07e074	-0.03317304
146	0x3e047f7f	0.12939261
147	0xbdfc7524	-0.1232703
148	0xbdb4e74c	-0.08833179
149	0xbe44367b	-0.19161408
150	0x3e425977	0.1897944
151	0x3deb6494	0.11493793
152	0x3aedcfbd	0.0018143576
153	0xbe6b6299	-0.22986831
154	0xbc3c1f68	-0.011482097
155	0x3d9ce7f2	0.076614276
156	0x3ce35f90	0.027755529
157	0xbd0930a5	-0.033493657
158	0x3e0d4997	0.13797604
159	0x3e12b2df	0.14326046
160	0xbe84750a	-0.25870544
161	0xbb8cc947	-0.004296455
162	0xbd3c8169	-0.046021853
163	0xbd8b2de1	-0.0679586
164	0x3e3e66ee	0.18593952
165	0x3d1eeeef	0.038802084
166	0x3e68ce64	0.22734982
167	0x3d9e4b14	0.07729164
168	0xbcdbc7a6	-0.026828598
169	0xbe428d2e	-0.18999168
170	0xbe40a363	-0.18812327
171	0x3b848732	0.004044437
172	0x3e41a50c	0.18910617
173	0xbe0b7466	-0.13618621
174	0x3e1cee8c	0.15325373
175	0xbdaa94c5	-0.08329157
176	0x3e1d6739	0.15371408
177	0x3e490318	0.19630086
178	0x3e51254b	0.20424382
179	0x3c2bf1d7	0.010494671
180	0x3e7371dd	0.23773904
181	0x3dc63d82	0.096797004
182	0x3cbc9aa6	0.02302296
183	0xbe10e7e0	-0.14150953
184	0xbc817a03	-0.01580525
185	0x3e0c5b08	0.137066
186	0xbe43dc61	-0.19127037
187	0x3d6250ca	0.055252828
188	0xbe165702	-0.14681628
189	0xbe04e5cd	-0.12978287
190	0xbe77c755	-0.24197133
191	0x3e39bdac	0.1813876
192	0x3e35e58a	0.17763343
193	0x3e963cf8	0.2934339
194	0xbe1cf229	-0.15326752
195	0xbe204244	-0.15650278
196	0xbd4840a8	-0.048889786
197	0xbd23b812	-0.039970465
198	0x3d983c87	0.0743342
199	0x3e0163d1	0.12635733
200	0x3deb49f9	0.114887185
201	0x3debb6c9	0.11509473
202	0x3dc064b9	0.09394211
203	0x3e2cb22f	0.16864847
204	0x3d58379c	0.05278741
205	0xbd503d4e	-0.050839715
206	0x3d77a064	0.060455695
207	0xbc815e79	-0.015792118
208	0x3b29ec8c	0.0025928346
209	0xbe1291fa	-0.14313498
210	0x3d58f117	0.052964296
211	0xbe03da76	-0.12876305
212	0x3d340ae3	0.043955695
213	0xbe16a580	-0.1471157
214	0x3e7643d4	0.24049312
215	0x3d3bd1f0	0.04585451
216	0xbd9fc474	-0.07801142
217	0xbd6e05a3	-0.058110844
218	0xbcc09d19	-0.02351241
219	0xbe14c7e4	-0.14529377
220	0xbe13a513	-0.1441844
221	0xbe28c542	-0.16481498
222	0x3cc83b43	0.02444232
223	0x3ce3ec67	0.027822686
224	0xbe20678e	-0.15664503
225	0xbda773fb	-0.081764184
226	0xbe5a30a9	-0.21307625
227	0xbe02c728	-0.12771285
228	0xbda51a49	-0.08061654
229	0xbdcd8aa7	-0.100362115
230	0x3e81466e	0.25249046
231	0x3e517db3	0.20458107
232	0x3da25155	0.07925669
233	0xbe42a697	-0.19008861
234	0x3d9845af	0.07435166
235	0xbdabe3ef	-0.08393084
236	0x3def4993	0.11683955
237	0xbe7923f0	-0.24330115
238	0xbe17fc7d	-0.1484241
239	0xbd9d14ca	-0.07669981
240	0x3d3a300c	0.045455977
241	0xbd4e519e	-0.050370805
242	0xbdac5106	-0.084138915
243	0x3e075432	0.13215712
244	0xbd2655b6	-0.040609084
245	0x3e17f7be	0.148406
246	0x3dfdf33a	0.123999074
247	0x3e6f02d1	0.23340918
248	0xbe20fc00	-0.1572113
249	0x3e03f292	0.12885502
250	0x3e201924	0.1563459
251	0x3c5336d8	0.012891494
252	0x3e6efe64	0.2333923
253	0x3dc72cc0	0.09725332
254	0x3dd71ee1	0.105039366
255	0xbcb0fe0d	-0.021605516

1.10.bias f4 [12]
0	0xbe8eaaa0	-0.27864552
1	0xbd66362a	-0.056204
2	0xbe4cb103	-0.199894
3	0xbdc9604f	-0.098328225
4	0x3df1fdf0	0.11816013
5	0xbb2cffcd	-0.0026397586
6	0xbccd674d	-0.025073672
7	0xbb8a84b0	-0.0042272434
8	0x3e3b2a0a	0.18277755
9	0xbd5c9727	-0.053855088
10	0xbe914f0c	-0.2838062
11	0x3d685a52	0.05672676

1.12.weight f4 [5, 12]
0	0x3af15c60	0.0018414371
1	0x3eb68421	0.3564768
2	0xbefbd5a3	-0.4918643
3	0x3ea2a98b	0.31769976
4	0xbdd56fb5	-0.10421697
5	0xbec92c8a	-0.39291793
6	0xbe85e639	-0.26152208
7	0x3c861874	0.016369082
8	0xbe89f205	-0.2694246
9	0xbe93139b	-0.28725895
10	0x3e88e16a	0.26734477
11	0x3cc0a207	0.02351476
12	0x3ed356d4	0.41277182
13	0xbcba8029	-0.02276619
14	0xbe4a725a	-0.19770184
15	0xbc8d3af8	-0.017240033
16	0x3e0c05ee	0.13674137
17	0xbe2513ab	-0.16120784
18	0x3eca1797	0.39471123
19	0x3dcabfaa	0.09899838
20	0x3c8a4439	0.016878234
21	0x3e7a064e	0.24416468
22	0x3e88be76	0.2670781
23	0xbf14a6c3	-0.5806696
24	0x3e6b3d3e	0.22972581
25	0x3eeec821	0.4663706
26	0x3d7e92f6	0.06215187
27	0xbd7b256b	-0.06131498
28	0x3e4cc227	0.19995938
29	0xbe115ae2	-0.14194825
30	0xbeb86f37	-0.3602235
31	0x3e9d1952	0.3068338
32	0xbe89bcc9	-0.26901844
33	0x3e2746fd	0.16335674
34	0x3eae92d3	0.34096393
35	0xbdce0299	-0.10059089
36	0x3e0da7c9	0.13833536
37	0xbe7274e9	-0.2367741
38	0xbdaa74b1	-0.08323038
39	0xbebfc868	-0.37457585
40	0x3f02175b	0.5081689
41	0xbe9c2959	-0.30500296
42	0xbdf21085	-0.11819557
43	0x3dcefcf9	0.101068445
44	0x3e846ad0	0.2586274
45	0xbe93eadc	-0.2889012
46	0x3e14ee94	0.14544135
47	0x3e1d2faa	0.15350214
48	0xbea8bb47	-0.3295538
49	0x3c3524be	0.011056123
50	0xbe04ff52	-0.12988022
51	0xbe76438c	-0.24049205
52	0xbe08f77a	-0.13375655
53	0x3d39444e	0.045231156
54	0x3e1dcc65	0.15410002
55	0x3d8489d1	0.06471599
56	0xbe87225b	-0.263934
57	0xbe8b440e	-0.2720036
58	0xbb2165a7	-0.002462724
59	0x3ccab070	0.024742335

1.12.bias f4 [5]
0	0xbe82757f	-0.25480267
1	0xbe1ef970	-0.1552484
2	0xbe5d8c51	-0.21635558
3	0xbedd6f3e	-0.43248934
4	0xbd07bb88	-0.033137828
