JSP/trained models/DDQN_SI_rwd2.pt (torch_old, 27345 bytes, 16 tensors)

0.0.weight f4 [5, 5]
00000000: 51a0 823f 0f80 873f 40d0 803f ed9f 823f
00000010: b932 a03f 5a67 873f fd61 833f d277 7b3f
00000020: 61e2 843f 5c98 9c3f fb3b 833f 7aaf 863f
00000030: 9c0f 713f 8649 7e3f fe56 883f 847a 823f
00000040: f224 823f 8528 883f ebbf 873f 2917 9b3f
00000050: cf43 853f 2bfd 823f 4735 733f 2339 823f
00000060: e8f7 893f
1.0205175 1.0585955 1.0063553 1.0205055 1.2515479 1.0578415 1.0264279 0.98229706
1.0381585 1.2233996 1.025268 1.0522301 0.94164443 0.9933094 1.0651548 1.0193639
1.0167525 1.0637366 1.0605444 1.2116443 1.0411319 1.0233511 0.9500317 1.0173687
1.077878

0.0.bias f4 [5, 5]
00000000: d9b0 b7bc d7b6 9c3d 5196 363d 2d9a 19bd
00000010: bfbb 9dbd 8bdd 963d 7e44 5b3d 909e ba3d
00000020: fea2 92bb de94 e4bd 786c 3cbc dae1 8f3d
00000030: c949 603d f1a3 91bb 16fd babd 1c3e cf3b
00000040: d622 183d 2fc7 8c3d 4f3a 9bbd 0af6 03be
00000050: 5dec 66bd 98cf 2d3c ecd9 513c e818 6e3d
00000060: 3f3b 91bd
-0.022423195 0.076520614 0.044576947 -0.03750055 -0.07701825 0.07366475 0.053532116 0.09112275
-0.0044749966 -0.11161207 -0.01150047 0.070255 0.054757867 -0.004444592 -0.091303036 0.0063245427
0.037142597 0.06873929 -0.07579481 -0.12886825 -0.056377757 0.010608576 0.012808304 0.05812922
-0.070913784

1.0.weight f4 [48, 25]
00000000: d084 2f3d fbfd 34be 2df3 02be ce7d 89bd
00000010: 402b 6a3e 0d99 89bd 7a0b 843d 5d9f d7ba
00000020: ffed d9bd ff6d 333e 6e5c 97bd d828 7bbe
00000030: 14e4 f73d e7dd 053e a891 e7bc 5d54 37bd
00000040: ebad 913c bf51 ed3d 6dcb 893e 523b b4bc
00000050: 1ae2 cc3d 249d 3ebd 8460 05be 5c02 56be
00000060: eba3 a13e 4f4f 47bd 8042 3ebe a679 f83d
00000070: 5d9d e1bd 6832 973c ab0e 9fbd 4051 943d
00000080: bb2d acbd fe8b 303d 101b 18bd 3a17 f1ba
00000090: 9e92 5d3e e795 d63d 77db b4bd 94ab 3cbe
000000a0: 7d88 573e 9aa4 96bd 3ee9 85bd fad7 4a3e
000000b0: d374 21be c15e 2d3d aa0d 9dbd 27b7 02be
000000c0: 3987 e3bd ec17 10be 791d 0dbe a4e3 0fbe
000000d0: 161b 493e f53c 32be 766b 4a3e a60a 223e
000000e0: 88bf 9d3d a303 12be 9263 1dbe b619 12be
000000f0: 7491 1abe 892b a63d eb2d 1fbe 6ba5 f63d
00000100: ac5b d83d 7ae4 903c a92e 6b3d 1edb db3d
00000110: 9ab3 2c3e c3d4 5bbd f0b2 99bc f4ac 2b3d
00000120: 548e 943a cb7e c03d 993f 02be 9806 11bd
00000130: 3242 7fbd 9282 21be 7ee1 92bd 1b3a e63d
00000140: c398 e43d 5925 373e 8af1 743e 240d 24be
00000150: 9b1f a7be 52e0 02be c967 8f3e be8a 8dbd
00000160: edd3 a43d 5453 d839 84a0 193e 4896 aebd
00000170: b912 f33d 7a98 1bbd 69e1 7abd 6acb 7d3c
00000180: 8195 653b 97b6 30bd 9585 753e 5888 79bd
00000190: 1a35 403e cddd b3bd 2104 6cbe bc6a d9bc
000001a0: 18f7 933d 51e3 cfbd 42c7 d33d 42e8 7abd
000001b0: f290 123e c085 ecbd affd 013d c366 23bd
000001c0: 951a 35be efc4 eb3d e9e0 fbbd 796d 763d
000001d0: c40e cebd 1b34 4cbe 3655 193e b4de 61be
000001e0: d3ae 533e c69e 343e de36 353e 39b8 323e
000001f0: 5585 94ba 352a 613d daac c03d e7d0 d33d
00000200: b5ef 15be 2a3c 76bd 4871 f43d dad7 033e
00000210: d41e 5d3e 880c ca3d 327c 95be 43c8 6f3e
00000220: a6ed 1cbe f76d b53d d8e3 233e e0df af3d
00000230: 61b4 863d 1af4 033e 212c 2dbe 30ef 95bd
00000240: e513 b63d 51dd 29be 8bb9 5c3e 7798 743d
00000250: 6b24 d73d 699f e7bc 9f33 80bc f374 863d
00000260: 20a3 f33d decb bd3c ac42 d93d 7bc0 8c3d
00000270: 0dc3 2dbe af62 2cbe 8354 b6bd e916 863e
00000280: e616 b5bc 6010 2d3e 266e 3a3e 4f55 cbbd
00000290: 5821 3abe d4ea 3c3e 884f 643c cbbf 803d
000002a0: 99e4 783d 4999 b73d 0d64 23be 98b3 4f3d
000002b0: 26f3 8b3c 053b efbd 5ead 9fbc 185a 1d3e
000002c0: d999 ecbb 9322 b0bc 5943 033e 0f08 dcbd
000002d0: d2f2 25be aeab 933d af16 a9bd 33a6 483e
000002e0: ccf8 99bd bd05 f13d 70d3 803d 2f28 c1bc
000002f0: 75b3 afbd 7cd0 343e f0e6 313e 6d17 bdb9
00000300: e4ba 37be 5af2 563e ef8b a33d 930e 06be
00000310: 15a1 d1bd e732 f2bd 97df ed3d 9808 9e3c
00000320: 5e02 733d 9511 bebd 747f 05bd a418 96bd
00000330: 4605 723b ab6e ef3d 8693 23be 56c6 4cbe
00000340: 162a 343e 68d5 65bd e414 3a3d a90a 27be
00000350: ae4a 2ebd 12c4 1a3e 4d22 bfbd 4b5e cdbd
00000360: 8191 bb3d 0c7f c5bd fa17 45bd 4151 5abe
00000370: 466f c83c 8ea3 393e b3ba 0f3c 7554 48bd
00000380: dbff 8cbc df32 6f3d 027a c73d 4465 febb
00000390: cf5e 603e 5431 653e f6d8 ab3d 784f 1d3e
000003a0: c73b 5abc 47f9 f2bd d540 c7bd d51c 233e
000003b0: c16b f5bd 4e22 fa3d b023 1cbe ffb3 d23d
000003c0: f412 47bd 736b 1a3e dabe fc3d 509e e3bd
000003d0: 78bf 4abd 72ad e4bd 696f 793e 5317 793d
000003e0: bf4b 943d ac2b 13be ab8c 43be cbc0 4dbe
000003f0: 2812 6fbc de61 343c fe95 053e 47a9 4bbd
0.04285127 -0.17675011 -0.12788077 -0.067134485 0.22868061 -0.06718645 0.064475015 -0.0016450692
-0.10641097 0.17522429 -0.073906764 -0.245273 0.12104049 0.1307293 -0.028267696 -0.04475819
0.017783126 0.115878575 0.26913014 -0.022000942 0.10004063 -0.04653658 -0.13025099 -0.20899338
0.31570372 -0.04865962 -0.18580055 0.121325776 -0.11016343 0.018456653 -0.077664696 0.0724206
-0.0840716 0.043102257 -0.037135184 -0.0018393763 0.21637961 0.1047781 -0.08830922 -0.18424827
0.2104816 -0.07355614 -0.06538628 0.19808951 -0.15767221 0.042326692 -0.07668622 -0.1276518
-0.11109776 -0.14071625 -0.13780774 -0.14051682 0.19639239 -0.17406066 0.19767556 0.15824375
0.07702547 -0.142592 -0.15370014 -0.1426762 -0.15094548 0.081137724 -0.1554486 0.1204327
0.1056436 0.017687071 0.057417545 0.10735153 0.16865388 -0.053669702 -0.018762082 0.041912988
0.0011333921 0.09399184 -0.12719573 -0.03540668 -0.06231899 -0.15772465 -0.071719155 0.112415515
0.111619495 0.17885341 0.23920265 -0.16020638 -0.326413 -0.12780884 0.2800887 -0.069112286
0.08048234 0.00041260815 0.15002638 -0.085247576 0.118688054 -0.03798721 -0.061250124 0.015490392
0.0035031738 -0.04314288 0.23976739 -0.060921043 0.18770257 -0.087825395 -0.2304845 -0.026540153
0.07224864 -0.10150779 0.1034074 -0.061256655 0.14313105 -0.11548948 0.031736072 -0.039892923
-0.17685921 0.115121715 -0.122987576 0.060162995 -0.1006141 -0.19941752 0.14973912 -0.22057611
0.20672159 0.17638692 0.17696711 0.17453088 -0.001133124 0.054971892 0.09407969 0.10342579
-0.14642222 -0.06011597 0.11935669 0.1287531 0.21593791 0.098656714 -0.29196316 0.23416238
-0.1532503 0.08858865 0.16004884 0.08587623 0.06577373 0.12886086 -0.16911365 -0.07321012
0.08890513 -0.16588332 0.21555154 0.059715714 0.10504993 -0.028274255 -0.015649615 0.06565275
0.11896348 0.0231685 0.1060842 0.0687265 -0.16968937 -0.1683452 -0.08902838 0.26189354
-0.022105645 0.16900778 0.18206081 -0.09928381 -0.18176782 0.18448955 0.013934977 0.062865816
0.060764883 0.08964784 -0.15956135 0.050708383 0.017083716 -0.11681179 -0.019491848 0.153664
-0.0072204885 -0.021500861 0.1281866 -0.107437246 -0.1620591 0.0721048 -0.0825628 0.1959465
-0.07518157 0.117686726 0.062903285 -0.023578731 -0.085791506 0.17657655 0.17373252 -0.00036066343
-0.17942387 0.20990887 0.079856746 -0.13091497 -0.10235802 -0.11826115 0.11614912 0.019291207
0.05932843 -0.09280697 -0.032592252 -0.073289186 0.0036929413 0.1169103 -0.15974244 -0.19997534
0.1759418 -0.056111723 0.04543008 -0.1631266 -0.04255169 0.15113857 -0.09332714 -0.100277506
0.09158612 -0.09643373 -0.04811857 -0.21320058 0.024467122 0.18128797 0.00877254 -0.04890867
-0.017211845 0.058398124 0.09740068 -0.0077635366 0.21911167 0.22382098 0.083909914 0.15362346
-0.013319916 -0.11863952 -0.097291626 0.15928967 -0.11983443 0.12213574 -0.15247989 0.10288238
-0.04860206 0.15080051 0.123410895 -0.1111418 -0.049499005 -0.111658946 0.24358906 0.06081326
0.0724101 -0.14372128 -0.1909663 -0.20093076 -0.014591731 0.0110096615 0.13045499 -0.049721982

1.0.bias f4 [48]
00000000: 257a 8dbd acbb d53d f7c9 443e ae76 803d
00000010: 0dee cebc a212 693e 5a71 613c 4518 85be
00000020: 9a3d 303c 43cd c1bd ebb0 ef3d fe57 32be
00000030: d79f fcbd 60fc 9ebd a280 633d e741 84bd
00000040: fc8d 563d 60dd 073c c174 72bd 989b bcbb
00000050: fea3 0bbe 94da 03be 1931 8fbd bf23 6dbc
00000060: ce2d e73d f91d 4c3d 8fd5 6f3e aa64 1c3e
00000070: 2040 28be d636 143e ed61 2c3e f412 aabd
00000080: 878c 4ebc cbbc aa3d 0839 04be c2de b9bd
00000090: f908 8a3d 0dc0 a83d 83ae 393e bd9e 3e3e
000000a0: 4301 ee3c 9465 183e d761 1cbe 718a 65bd
000000b0: a8a5 a4bd d0a6 21be 988d c8bd 3b4c 84bd
-0.06908063 0.10436186 0.19217668 0.06272636 -0.025259996 0.22761014 0.013759935 -0.2599508
0.010756874 -0.09462979 0.11703666 -0.17416379 -0.123351745 -0.077629805 0.055542596 -0.064578824
0.0523815 0.008292526 -0.059193376 -0.005755853 -0.13636777 -0.1287635 -0.069917865 -0.014473855
0.112880334 0.04983327 0.2342131 0.15272775 -0.16430712 0.14474043 0.1683423 -0.08304396
-0.0126067465 0.08336791 -0.1291238 -0.09075691 0.06739993 0.08239756 0.18132977 0.18615241
0.029053336 0.14882499 -0.15271698 -0.05604023 -0.08039409 -0.1578629 -0.09792632 -0.06459852

1.2.weight f4 [36, 48]
00000000: ee13 e63b 40e9 193d dadc 223e e490 763e
00000010: b3c6 cfbd 4036 4b3e c52a e4bc c76e 0fbe
00000020: 05ba c6bd fa7b 293e df8b b83c de39 91bd
00000030: e28c fd3d 53cf aa3d 9378 a33d c966 bd3d
00000040: 6d8b 2b3e 2934 8d3c 99bf f4bd e829 c53d
00000050: f114 783d 42ba edbd f93d da3d a93a a53c
00000060: e50d 25be 4524 2bbe d50a ffbd 8e83 ec3b
00000070: 660f 5fbd 2373 16bd 5f76 143e bc46 8e3d
00000080: 876e a23c 49e2 963d e823 6dbd 760f 053d
00000090: 6bb8 053e 9a04 9e3b 9aac 853d d3bb c93c
000000a0: f597 0b3e c93c 70bc 9b7d a2bd 5000 53bd
000000b0: 8939 373d 8e1e 1e3d 9ec4 06be f9d9 653d
000000c0: b4cd a03d 0071 8d3d e576 833d c17b e2bd
000000d0: b54d e13d 88b5 1cbe 4077 1cbe 9c8f 1c3e
000000e0: 4d55 de3d 7ab5 9ebd 4abe 6fbc 1d64 e3bd
000000f0: d07e 793d c16e 21bd 3e13 44bd b90a c83d
00000100: 623d acbd 7bb9 0b3e 6483 053d 6cd6 77bd
00000110: 04b0 053d 7bc1 4cbc 8921 c93d f68e 6dba
00000120: 012f b4bd 9f61 003e 9e43 54bd 005f d23d
00000130: 1f6e 053d a368 58bc 8364 ec3c ba54 fabd
00000140: 0124 043e d2f2 c8bd 67d8 d7bd 0fea c33c
00000150: f599 953d 1f77 bf3d cda0 64bd 87ac a7bd
00000160: f0f1 923c f8b5 7fbd e332 dd3c 7ec7 4bbd
00000170: 8d61 33be f1d0 143e 61be 843d a176 50bc
00000180: fc62 aa3d 2338 03be 1971 f4bc ee14 c5bd
00000190: b369 eebb dc39 f6bd b818 fbbd 08bf 843d
000001a0: 7e00 0cbe 8e4a 1bbe a091 253d d15f 1bbe
000001b0: 1ad3 893c ad14 87bd f12f 133e 8834 9abd
000001c0: fa7e 2d3e bbcb 20be e70d 473d eed6 04be
000001d0: cd6e 1d3d b752 9b3d a281 66bc 821b 033e
000001e0: 33e8 d5bd 7217 8f3c f29d 71bd b1f7 103d
000001f0: 3d49 ca3d a87a 723d 1188 b7bd b7db 053e
00000200: 5a2e fcbd 38d3 bcbc ed0c b73d 9cd9 9f3d
00000210: cee0 dbbc d58d e63d 8ae1 b8bd bf13 dc3d
00000220: a356 693d 001c cf3d 41c2 44bb d131 003e
00000230: ced5 a2bd eee6 f33c c431 17be 8de2 b03b
00000240: 0bd8 2a3d 22f5 bebd 1f07 de3d 63e5 febd
00000250: 64ea f7bd feb9 a23d 5140 bc3d becc 92bd
00000260: 30e0 1d3d 6a3a f0bd 208d 9f3d cecd 9e3d
00000270: 0cb3 f3bd 5fef c7bd 756b 9a3d 0231 1dbe
00000280: 9d98 5f3d a37e 4bbd a471 0ebd 2251 d63d
00000290: 399f 183e b811 97bd e48c c33d dd03 deba
000002a0: ba6e 983d df9b a7bd 583b 21bd 4c33 e83d
000002b0: 3020 693c f03d bebc 2fbc 02be 2441 edbb
000002c0: 9fcc d7bd 948d 3a3d 47c0 dcbd 2de9 f3bd
000002d0: 4d74 883c c6d0 9abd f4e7 6cbc f7c2 99bd
000002e0: 5678 b33d 5432 b1bc 4f4e 9b3d ca8c 2b3d
000002f0: f469 f23d 9669 8a3d ab9d 68bc b3cb 0bbc
00000300: 7082 523e ea09 93bd e5f2 12be 2069 29be
00000310: 8407 4b3e d342 f4bd fcf9 90bd 5bde 69bd
00000320: e13e b13d 1e92 29be e267 533d 8e84 17be
00000330: 470f 5abd 7ed0 46be f105 983d 00e1 103e
00000340: 2b87 0c3d 6bb9 b1bd 28de 7fbd 6b60 b73d
00000350: d456 903a c036 11bc 7036 213e 3797 d43d
00000360: 23e7 e53d 9c47 c7bd bfdb b3bd 4b5d 79bb
00000370: 3fc9 213e db45 c73c 5995 8b3d edc1 ec3b
00000380: f9a7 14be 041b 52be cb89 233e 99ce 1c3d
00000390: 1d9f 023d 40e0 2d3c d5e7 95bd 0c3d 563d
000003a0: 2de8 0cbe f627 f4bd b4f2 2a3c d630 743b
000003b0: 4006 08be efe1 e73d 8e00 07be 8e1e 84bd
000003c0: c81c 3fbe cfa8 103e f0bb 62bd 68fe 26bd
000003d0: 1106 143c d3d6 68bd adca e5bd f986 87bd
000003e0: cb76 be3d 87d7 58bd e345 afbd b91f 1d3d
000003f0: 3b36 a23d eb55 493e 39d7 c3bd 635d 35be
0.007021419 0.03757596 0.1590456 0.24078709 -0.10145321 0.19844913 -0.027852425 -0.14007102
-0.09703449 0.165512 0.022527633 -0.070911154 0.12380387 0.08340325 0.07981982 0.0924812
0.16752405 0.017236786 -0.11950607 0.096271336 0.060566846 -0.116077915 0.106563516 0.020169573
-0.16118582 -0.16713054 -0.12453238 0.007217831 -0.054458044 -0.036730897 0.1449828 0.06947085
0.019828094 0.07367379 -0.05789557 0.032485448 0.13058631 0.004822326 0.06527062 0.024625694
0.13632186 -0.01466293 -0.079341136 -0.05151397 0.044732604 0.038603358 -0.13160941 0.056116078
0.07851735 0.06906319 0.06419162 -0.110587604 0.110011496 -0.15303624 -0.15279865 0.15289158
0.108561136 -0.07749458 -0.014632771 -0.111030795 0.060911953 -0.039412264 -0.047869913 0.0976767
-0.08410145 0.13644974 0.032596007 -0.060507223 0.032638565 -0.012497301 0.098208494 -0.00090621354
-0.08798028 0.1253724 -0.051822297 0.10272026 0.032575723 -0.013208541 0.028856521 -0.122231916
0.1290436 -0.09811939 -0.10539322 0.023915319 0.073047556 0.093488924 -0.055817414 -0.08187204
0.01793763 -0.0624294 0.027001804 -0.049750797 -0.17517681 0.1453283 0.064816244 -0.012723596
0.08319661 -0.12814383 -0.029839085 -0.09623133 -0.007275784 -0.120227545 -0.12260574 0.06481749
-0.13672063 -0.15165159 0.040422082 -0.1517327 0.016824294 -0.065957405 0.14373757 -0.07529551
0.16942969 -0.15702717 0.048597243 -0.12972614 0.038435746 0.07584136 -0.014068993 0.12803462
-0.10444679 0.017467234 -0.05898852 0.035392467 0.0987725 0.059199005 -0.089614995 0.13072096
-0.12313528 -0.023049936 0.08938012 0.078051776 -0.026840594 0.11257521 -0.09027393 0.10745954
0.05696739 0.101127625 -0.003002301 0.12519003 -0.07950936 0.029773202 -0.14765078 0.0053981007
0.04170994 -0.09324099 0.10841202 -0.12446096 -0.12105253 0.079456314 0.09191955 -0.07167958
0.03854388 -0.117298916 0.07790589 0.07754098 -0.11899385 -0.09762453 0.07540027 -0.15350726
0.054588903 -0.049681317 -0.034776345 0.104646936 0.14904489 -0.073764265 0.09548357 -0.0016938407
0.074429944 -0.08184027 -0.039363235 0.11337909 0.0142288655 -0.023222893 -0.12767099 -0.0072404314
-0.10537075 0.045545176 -0.107788615 -0.11909709 0.016657019 -0.075593516 -0.014459599 -0.0750789
0.08763187 -0.021630444 0.075832956 0.041882314 0.11836615 0.0675842 -0.014197747 -0.008532452
0.2055757 -0.07179625 -0.1435047 -0.16544008 0.19827086 -0.11926808 -0.07078931 -0.05709682
0.08654571 -0.16559646 0.051612742 -0.1479666 -0.053237226 -0.19415471 0.07423008 0.1414833
0.034308594 -0.08677944 -0.062467724 0.08953937 0.0011012205 -0.008863151 0.15743423 0.103804044
0.112257265 -0.09730455 -0.087821476 -0.0038049992 0.15799426 0.024325302 0.06815595 0.007225266
-0.14517201 -0.20518118 0.15970533 0.038282964 0.031890023 0.010612547 -0.07319609 0.052304313
-0.13760443 -0.119216844 0.0104338415 0.0037260554 -0.13283634 0.1132239 -0.13183805 -0.0645114
-0.18663323 0.14126895 -0.055355012 -0.040769964 0.0090346495 -0.056845497 -0.11220298 -0.06617541
0.09300002 -0.052939918 -0.08558252 0.03836033 0.079205 0.19661681 -0.09562535 -0.17711405

1.2.bias f4 [36]
00000000: b42d cb3d 03a0 77bd 68a9 edbd c1e6 04be
00000010: 2d1e 91be 8773 c83d 6c07 ce3d 5522 d13d
00000020: c8b9 f1bc 80d0 bb3d 146c db3d ff3c e83b
00000030: ed44 a6bd 5198 1bbe 1784 d1bd 2135 4cbd
00000040: 1121 a43b 1746 003e 667d bebd 03f3 4bbe
00000050: b885 963d a271 8fbd ca84 4ebe 2d32 153e
00000060: d3a1 873e 234d 28be b624 c33c 3788 d6bd
00000070: 9334 02bd d41c f23d bb89 28be d400 823d
00000080: 6c0e f43c dfc6 2fbe 08eb 3fbe 2ee0 683d
0.099208266 -0.060455333 -0.11604577 -0.1297865 -0.28343335 0.0978766 0.10060009 0.102116264
-0.029507533 0.091706276 0.10713974 0.0070873494 -0.08118615 -0.15194823 -0.10230272 -0.049855355
0.0050088246 0.12526737 -0.093012616 -0.1991692 0.073497236 -0.070040956 -0.20167843 0.14569922
0.2649065 -0.16435675 0.023821216 -0.104752 -0.03178842 0.11821905 -0.1645879 0.06347814
0.029792033 -0.17165707 -0.18742001 0.05685442

1.4.weight f4 [36, 36]
00000000: 221a f5bd 9554 95bd e820 b33d 567b f1bd
00000010: f829 273e 1ff4 453c 23b3 c53b 65d6 cbbb
00000020: dfe1 d93c 98a0 22be 268c e03d c360 123e
00000030: 27ca d23d 6a00 1bbd 7516 54bd ac58 3dbe
00000040: 4a3c 323d 7820 68bd 9ecb e83d 854a 863d
00000050: 6cb8 45be 3285 933c 2e44 113e 8b80 43bc
00000060: 0b81 1dbe dc17 3c3e cec8 56bd 2d22 d33d
00000070: 42c1 fb3d b7c5 d33c 78d0 1c3d 2d9e 15bd
00000080: 2492 3d3d 63c5 163e 620d 103e c00e 27be
00000090: 2e12 c33d e6b1 3f3c 3ab4 13be 04c7 b93d
000000a0: 00b8 38be 91fa 633d 9ebd 933d c164 b0bd
000000b0: 68e1 c2bc 5394 7dbd ceab b43d 58c0 29be
000000c0: eda7 a83d bc8b cdbc edcc dfbd e154 8bbd
000000d0: 57b6 d93d d717 413e b671 833d f0ce d3bd
000000e0: 4e80 b2bc f76f 183e 0c12 8c3d e1e2 93bd
000000f0: 3cf7 1ebe e734 d1bd e03c 1a3e 7200 6bbc
00000100: 5311 9abd 3298 95bd 6e63 813d 4e9b f33d
00000110: ae6c 98bc 92a9 e8bd 5e96 3a3d 23d8 b4bb
00000120: b48c 13be 955e 0fbe 7c7f bdbd 57d6 b9bd
00000130: c70e 73bd 838d 8fbd b067 85bd 460b e7bd
00000140: 0d08 d1bd 1e4b 08be 0a9c 143c c7dc 72bd
00000150: 4adc 83bd eb1c 1d3e a00c 0ebe 6729 a63d
00000160: 2d14 293e 6a7a ea3c 7067 743d 78a9 df3d
00000170: 73b1 243e 7bd6 bbbc 1aea 95bd 70f6 90bc
00000180: 3389 c2bd 89d8 a63c d8f6 fbbc 14fd ffbb
00000190: b157 24bc 6741 ce3d f03e 363d bbe8 25be
000001a0: cbb3 173e 8752 58bc 39dd 1e3e 314f 323e
000001b0: d4cb 2dbd 7221 563d cf2b 003e 5994 773c
000001c0: de45 613c d226 133e b968 14bc e55b 1f3e
000001d0: 3145 f2bd c760 1ebd 50ea debb a0b0 1dbd
000001e0: dea2 81bd c594 f2bc 906d df3c 24ef bf3d
000001f0: 04a3 13be bd63 75bd 1952 94bd c3f0 2cbe
00000200: 6b68 843d 80ff b7bc 3f12 14be 428d 2d3e
00000210: 4ef8 723d 0264 e13d be78 1c3e 25c4 183e
00000220: 4e55 9d3a 3ac5 d0bd 7c32 bbbd 9b64 77bd
00000230: 0ffe fa3d 6e24 c8bb 5cab 2a3d aa9a 923c
00000240: 5810 15be 50fc 243c 2ce1 ebbd f93d af3d
00000250: a1d5 04be e5b9 05bd f3c1 1abd c195 683d
00000260: 1051 8abd 40c8 e0bd f674 3d3c dba0 b43d
00000270: 3084 a7bd ef4e 2abe 8e78 1c3e eb3b b93d
00000280: 383f 2c3e 2fde 11bd 8b85 103e e3a0 263d
00000290: c83a 11be 5828 fc3d cf82 843d 4f08 dc3d
000002a0: f8d1 ef3c ebc9 f5bd 852b 393e 7f10 b43c
000002b0: e1b9 19bc 0a0d 143d d716 493e 8bc4 83bc
000002c0: 8043 00be a9dd 013d b2e5 cbbc 8141 a33d
000002d0: e318 5cbe 7968 aebc 6564 d13c e361 3ebd
000002e0: 684e e43d 0750 05be c094 2b3c 1c24 78bd
000002f0: 06e8 a93b 562b 28be 77a4 e93c 0882 553d
00000300: 1571 013c 437f fbbc d81a 073e 904a 6a3d
00000310: 8c6e 60bd f792 8abc 419a 2fbd 9eff 323c
00000320: 563f e03d 2dae d8bd 135b 5cbd 4a9c a5bd
00000330: 4bef 7ebe c6df 0abe 3bbb 913d f024 a73d
00000340: 214a edbc 7f14 103e fe90 1b3d e350 e4bd
00000350: 5544 e43b 70e8 4ebd 94ef c13d 9543 013e
00000360: 84dd 233e 8bbd 1fbe 2559 4e3d 7359 d8bd
00000370: 9dd4 143c f888 de3d 3d85 e63d 1053 2a3d
00000380: 25e1 02be 24e7 df3d 9172 133e ce81 4bbc
00000390: b3ac e3bd da44 8f3d b525 98bd 3c3a edbd
000003a0: 5d9b 03be 26a2 9ebd 61db acbd 7498 ad3d
000003b0: bcbf 123e 5f2f c1bd 846c bcbd bdfa 1c3e
000003c0: c8f4 423e d356 8bbd f546 04be 82ba 893c
000003d0: 7a44 fa3d 1a05 4b3d 4a09 b23d ebfa 0cbe
000003e0: d210 bf3d 131e 67bc 1a3c bf3b d5b7 26be
000003f0: c053 c83d b7b8 123e 50d6 d63b 0803 d9bc
-0.11967875 -0.07291523 0.08746511 -0.117911026 0.16324604 0.012082129 0.0060333177 -0.006220626
0.026596962 -0.15881574 0.10964231 0.14294724 0.10292464 -0.03784219 -0.05177923 -0.18490857
0.043514527 -0.05667159 0.11366962 0.06557182 -0.19308633 0.018007848 0.14186165 -0.0119325025
-0.15381257 0.18368477 -0.052437596 0.10309253 0.122927204 0.025851114 0.03828475 -0.0365278
0.04628195 0.14723735 0.14067605 -0.1631422 0.09524952 0.011700129 -0.1442422 0.09071162
-0.1803894 0.05565888 0.07213901 -0.08612967 -0.023789123 -0.06190903 0.08821832 -0.1657728
0.08235154 -0.025091045 -0.10927758 -0.06803299 0.10630482 0.1885675 0.06418173 -0.103422046
-0.021789696 0.14886461 0.0683938 -0.07221008 -0.15524 -0.102151684 0.15062284 -0.014343368
-0.075228356 -0.073044196 0.06317793 0.118948564 -0.01860651 -0.11360468 0.045553558 -0.0055189296
-0.14409143 -0.14000924 -0.09252831 -0.09074085 -0.059340265 -0.07009413 -0.065139174 -0.11281447
-0.10206614 -0.13309905 0.009070406 -0.05929258 -0.06438501 0.15343063 -0.13872004 0.081133656
0.16511603 0.028622825 0.05966896 0.109209955 0.16083317 -0.02292942 -0.07320042 -0.017695636
-0.09498825 0.020366924 -0.030757353 -0.0078121517 -0.010030673 0.10071068 0.044493616 -0.16202061
0.1481468 -0.01320327 0.15514077 0.17413022 -0.042430714 0.05227799 0.12516712 0.015111052
0.013749568 0.14370278 -0.009058171 0.15562399 -0.118296035 -0.038666513 -0.0068028346 -0.03849852
-0.063298926 -0.029611954 0.027273923 0.09371784 -0.14417654 -0.05990957 -0.072422214 -0.16888718
0.06465229 -0.0224607 -0.14460085 0.16948417 0.059318833 0.11005403 0.15280434 0.14918573
0.0012003572 -0.10193868 -0.091404885 -0.06039868 0.12255489 -0.0061078584 0.041667327 0.017896015
-0.14557016 0.010069922 -0.115175575 0.08556742 -0.12972118 -0.032647986 -0.03778262 0.05678344
-0.06753743 -0.10975695 0.01156353 0.08819743 -0.0817951 -0.16631673 0.15280363 0.090446316
0.16820991 -0.03561228 0.14113443 0.040680777 -0.1418258 0.123123825 0.06470262 0.10743772
0.029274926 -0.120014034 0.18083008 0.021980522 -0.009382696 0.036145248 0.19637619 -0.01608493
-0.12525749 0.031705532 -0.0248898 0.07971478 -0.21493869 -0.02129005 0.025560567 -0.04648007
0.11147767 -0.1301881 0.0104724765 -0.06058131 0.00518513 -0.16422781 0.028520806 0.05212596
0.007900496 -0.030700332 0.13193834 0.057200015 -0.054792926 -0.016915781 -0.042871717 0.010925202
0.1094958 -0.105800964 -0.053797793 -0.080864504 -0.2489597 -0.13561925 0.071157895 0.08161342
-0.028966011 0.14070319 0.037980072 -0.111482404 0.0069661536 -0.05051464 0.09469524 0.12623437
0.1600247 -0.15599649 0.050377984 -0.10563936 0.009083894 0.108659685 0.11255882 0.04158312
-0.12781198 0.109327585 0.14399172 -0.012421085 -0.11116924 0.06995554 -0.07429067 -0.11583373
-0.12852235 -0.07745771 -0.08440281 0.08476344 0.14330953 -0.094328634 -0.09200385 0.15330024
0.19038689 -0.0680367 -0.12917693 0.016812567 0.12220092 0.049565412 0.08693178 -0.13767593
0.0932938 -0.014106291 0.005836022 -0.16281064 0.09781599 0.14328276 0.0065563098 -0.026490703

1.4.bias f4 [36]
00000000: cb36 c7bd d2be 98bc 1cac 15be 7a92 6dbd
00000010: 7965 14be adca afbd fd67 4bbd e0da b43d
00000020: ff02 d03d 5209 193e ff02 48bd 05bf 703e
00000030: 7372 b43b 552c 783d da9b 4cbd 07ef f4bd
00000040: c554 50be 736d dbbc dd5a f93d 24fe f83d
00000050: f2b1 e7bd 5468 25be 3736 253e 10bf b1bd
00000060: 00c1 22bd 57ff 043e 11b8 333d d4a0 033e
00000070: cb95 b7bd 5041 443d a28e 98be 4b98 2c3e
00000080: 0c5f 94bd 388e cc3b 1675 fcbd 0a16 a1bd
-0.09727248 -0.018645678 -0.14616436 -0.05800102 -0.14491834 -0.08583579 -0.049659718 0.088308096
0.101568215 0.14944962 -0.048830982 0.23510368 0.0055068075 0.060589153 -0.04995332 -0.11959653
-0.20344837 -0.026785588 0.12175534 0.121578485 -0.11313237 -0.1615308 0.16133963 -0.086790204
-0.03973484 0.1298803 0.04387671 0.1285432 -0.089641176 0.04791385 -0.2979632 0.1685497
-0.07244691 0.0062425397 -0.1232702 -0.07865532

1.6.weight f4 [24, 36]
00000000: efa7 57be 10d8 1c3e 85fe f7bd 3849 4b3c
00000010: 7104 033e 3273 56bd 30d9 fbbd d1a3 023e
00000020: aa53 18be 937a 013e 966d 4e3d c398 013e
00000030: f1fc ffbc 8f3d 23be 75e7 36bd cb2d d9bd
00000040: 29ac 2bbe 313d 0d3d e4ca 033d ef42 ad3e
00000050: ab5f ab3c 708a e1bd 4688 bd3d f1bd b9bc
00000060: 94c2 773b 3e1d 143e 79bb c73d 1b65 b33d
00000070: b429 213d e017 d1bc 2d3c a8be 5c69 253d
00000080: 06d8 1f3d 4dc5 14be 098b 243e 2856 12be
00000090: 4a22 babc 1230 203c 6e01 de3d b31d 793d
000000a0: 6815 123e a704 89bc 87ef ddbd 4f24 abbd
000000b0: 7246 be3c 96dc 213c 0ffc 9a3d 1820 5b3c
000000c0: 7041 e73d 6730 03be 1a1e df39 138c c6bd
000000d0: dd19 82ba fe62 943b ee37 d6bd fe18 12bd
000000e0: db84 f9bc 1e2d bfbd 288e 0cbc 29f7 de3d
000000f0: 1259 27bd c8cf 41be 822f 2cbe 0d6b 933d
00000100: 33ee 1f3e ae31 a0bc 85e9 fbbd 09fd ec3d
00000110: 485c 22be b7e7 b73d fb4c 0a3e eba8 06bc
00000120: 9307 54bc 98b3 b9bd b4ee 14be 90dc adbd
00000130: eab1 87bd 58c8 02be f659 953d d274 0a3d
00000140: a0da 24be 4045 d7bd 90e4 02bc 971b 223e
00000150: 487f 0fbe f6cb 9bbd 921b 09be 774e 1d3e
00000160: 2055 d2bd acde cf3c e194 aebd 7ee9 633e
00000170: bb3b a33a d91f c5bd 6dfe aebb 4a40 e63d
00000180: bfd4 333e 216a 263e d613 efbd dc0b 69bd
00000190: 7721 283e 9774 22be 8246 46be f78a 093e
000001a0: 76af 3dbe ac1d 5ebe 3ff3 25bd 4213 08bd
000001b0: 47f1 353d 1020 91bc dc37 c9bd c0e2 02be
000001c0: a10f 213e d733 ff3d 0783 c03d 3a98 fabc
000001d0: 4877 ed3c 4f98 b83d c8b2 8bbc 9a36 cabd
000001e0: 4c68 5ebc 1b1f 52bd 82b8 d7bc adac c43d
000001f0: 1680 e13c 8cb4 3c3e 5ebe 293e 6744 4cbe
00000200: 5aa8 b6bc 0c0e ecbd bbd9 c9bd 9ec8 d0bd
00000210: 1145 a9bd aba9 5dbe d701 c63d 3e10 653c
00000220: 16e6 9cbc 9b75 eebd 0686 673e b47a 14be
00000230: 993c f1bc 5916 9f3b 9bcc 23bd e061 19be
00000240: 0312 51be 6476 233b 8554 30be 19e2 de3d
00000250: d90f edbd f08d 3dbe 1874 383e b9da 463e
00000260: 1d12 34bd 7627 11bd d75a 9f3d 0a62 ad3d
00000270: 65fa 103d 1b03 a6be c934 303e 1186 ad3d
00000280: 459b a3bb 1c88 83bd 7501 1c3e b7f0 083d
00000290: 21d8 abbd ea67 013e 4634 babd 4dfd eabc
000002a0: aacd c23d 0bcb d53d 0562 0abc b527 713e
000002b0: 34b8 a5bd 8465 423d 1369 3fbe ca25 6f3e
000002c0: 66aa 1dbe 1f9b 16bd 9630 64bd 23a2 fbbb
000002d0: 9d1d cb3c ecfb 253d 6502 323e 6815 553b
000002e0: 310b b13d 24da 2e3e b535 52be 367f 873d
000002f0: 2bb7 0d3e a492 06be 4e45 023e 4653 1abe
00000300: 7c6b 9fbd 0331 003e adbb 94bc 052b 5b3d
00000310: 89e3 063e 3b50 413d 5286 093d 46e4 9a3c
00000320: 0aa0 fbbd e2e4 da3c d8c3 093e 8304 c8bd
00000330: 8f1a e23d 43a5 753d b360 d5bb 4388 59be
00000340: 551d a03d a85a a33d 3a15 893d 669b 26be
00000350: fca8 203e a1ae ccbd fce1 e6bc 13f6 463e
00000360: acef 06be 5955 01bd 0c1c bebc 67e5 10bc
00000370: 40d0 4fbd d163 5ebe 8b30 febd 1b57 3c3e
00000380: cd30 7cbd d63d 53be ab4a c5bd 3a34 443e
00000390: 0f76 633d 6b78 92bc 2692 c8bd 0773 55bd
000003a0: 47cb a7bd 5c9d 853c 3845 a5bd 4959 0ebe
000003b0: 8088 523d 65c8 0d3d cb38 4e3d 9c5a 03bd
000003c0: ce42 443e 8f48 433d 9cbd 3bbc 8e40 c03d
000003d0: b014 ddbd 590f 333e 68ee 1d3e 8c4a 54bd
000003e0: 8390 173e 2f05 3c3d 3d98 bd3d c410 63bd
000003f0: 5f23 8c3d 9ada 0c3e ef2e 60bc db85 d2bc
-0.21060155 0.15316796 -0.121090926 0.012407593 0.12794663 -0.052355953 -0.122972846 0.12757803
-0.14875665 0.12644415 0.050397478 0.1265593 -0.031248542 -0.15941451 -0.04465433 -0.106044374
-0.16764893 0.034482185 0.032175913 0.3384013 0.020919641 -0.11012733 0.09254508 -0.022673579
0.0037805187 0.1446428 0.097525544 0.08759519 0.03934641 -0.02552408 -0.3285841 0.04038368
0.039024375 -0.1452839 0.16068663 -0.14290679 -0.022721428 0.009777086 0.108401164 0.06081934
0.14265978 -0.016725851 -0.10836702 -0.08356535 0.02322695 0.009879252 0.075676076 0.013374351
0.11291778 -0.12811433 0.00042556302 -0.09694686 -0.0009925921 0.0045284024 -0.104598865 -0.035668366
-0.030458858 -0.09334777 -0.008578815 0.10886986 -0.04085643 -0.18926919 -0.16814998 0.07198153
0.1561821 -0.01955494 -0.123004 0.115717 -0.15855515 0.08979743 0.13505928 -0.008218984
-0.012941259 -0.09067458 -0.14544183 -0.084893346 -0.06625731 -0.12771738 0.07292549 0.033802815
-0.16099024 -0.10511255 -0.007989064 0.15830837 -0.14013398 -0.07607262 -0.13389423 0.15361963
-0.102701426 0.025374733 -0.0852449 0.22257039 0.0012453714 -0.09625215 -0.0053403885 0.11242731
0.17561625 0.16251422 -0.11673705 -0.056896076 0.16419016 -0.15864788 -0.19362834 0.13431917
-0.18523964 -0.21691006 -0.04051518 -0.03322149 0.044419553 -0.017715484 -0.098251075 -0.12781811
0.15728618 0.124610595 0.093999915 -0.030590165 0.028987542 0.090134256 -0.017053023 -0.09873696
-0.013574671 -0.051299196 -0.026333097 0.09603248 0.027526896 0.18428248 0.16576526 -0.19947968
-0.022297073 -0.11526117 -0.09855982 -0.10194515 -0.082651265 -0.21646754 0.0966832 0.013980923
-0.019152682 -0.11643525 0.2260972 -0.14499933 -0.02944784 0.004854959 -0.03999005 -0.14978743
-0.20417027 0.0024942392 -0.17219742 0.108829685 -0.11575288 -0.18511176 0.18013036 0.19419374
-0.043962587 -0.035438024 0.07780998 0.08465965 0.035395045 -0.32424244 0.17207636 0.08472837
-0.004992875 -0.06422445 0.15234931 0.03343269 -0.08390833 0.12637296 -0.090920016 -0.028685236
0.095118836 0.10439118 -0.008446221 0.23550303 -0.080917746 0.047460094 -0.18692426 0.23354259
-0.15397033 -0.03676903 -0.055710398 -0.0076792403 0.024794394 0.040523455 0.17383726 0.003251398
0.08644713 0.17075402 -0.205283 0.066160604 0.13839404 -0.13141876 0.1272175 -0.15070829
-0.07784173 0.12518696 -0.018155897 0.053507823 0.13172735 0.047195654 0.033575363 0.018907677
-0.122863844 0.026720468 0.13453615 -0.097664855 0.11040222 0.05997206 -0.0065117716 -0.21243386
0.07818095 0.07976276 0.06693502 -0.16270217 0.15689462 -0.09994245 -0.02818393 0.19429807
-0.13177365 -0.031575534 -0.023206733 -0.008843756 -0.050735712 -0.21717764 -0.124116026 0.18392603
-0.061569978 -0.20629057 -0.096333824 0.19160548 0.05553251 -0.017879685 -0.097935006 -0.05211165
-0.08193069 0.016310386 -0.08069843 -0.13901247 0.051399708 0.03461494 0.05034713 -0.032068834
0.19166109 0.04767662 -0.011458781 0.09387313 -0.107949615 0.17486323 0.15422976 -0.051828906
0.1480122 0.04590338 0.09257553 -0.05543591 0.06842684 0.13755265 -0.013683065 -0.025698593

1.6.bias f4 [24]
00000000: 9827 4c3e eccb 8ebd 6cef 333e 8b2f 99bd
00000010: 5ebf acbd 8ad5 91bd 636d 203e 2fd0 2b3d
00000020: c053 9cbd 9a79 3a3e 0cbc 2c3d 8661 6c3e
00000030: 9a17 98bc 8f9a 6c3d c685 22be 7b4d 09be
00000040: f492 083e d5c1 0abe 83bf 43be 1ca1 06be
00000050: 73c2 6f3c 1265 3d3c 7608 21be b785 2dbe
0.19936979 -0.06972489 0.17571801 -0.07479771 -0.08434938 -0.071208075 0.15666728 0.041946586
-0.076331615 0.1821045 0.042171523 0.23084077 -0.018565942 0.057764586 -0.15871343 -0.13408463
0.13337308 -0.13550504 -0.19116025 -0.13147396 0.014633763 0.011559742 -0.15725884 -0.1694554

1.8.weight f4 [24, 24]
00000000: 7da8 5dbd 0f2f c03c 21a7 353e b485 10be
00000010: b504 6c3e 317c 18bc a6ed c4bd dfa7 133e
00000020: 48b7 ebbd d14b 663e f459 b63d 5c3e e43c
00000030: d7d4 20be 716f a5bd a84e c3bd 5186 c63d
00000040: 33fb 273e a3a3 82bc ddda f7bd 967c a93c
00000050: 483e 70bd 11c2 10be d5e8 12be 5038 52be
00000060: 4651 53be 39c7 903c bc7d b7bd fb54 ad3d
00000070: 3a8f 763e 1b15 e1bd 502c a2bd e3ed 4fbe
00000080: 7992 523d e463 cd3d e39e 1ebe 7082 bd3c
00000090: 40c0 2f3d 0556 cebd 1d18 9a3d a1c5 123e
000000a0: 4e95 5ebe 8bd6 b4bd 452e 95bb 4d47 25be
000000b0: 6550 f13d 1c19 45be 323d 4f3e 0fa7 4ebd
000000c0: 5306 24be 4bbf 993c 5c4f d9bd 5062 133e
000000d0: 2338 57be 024f a1bd 1fba 903c f590 453e
000000e0: df6f 09be 93b5 f3bb 5092 a4bd 51cb 083e
000000f0: ae62 203e 44e6 273d f3e7 333e aa0c d73d
00000100: 3e6d 223e 7f36 173e 226a 02be 521f 1a3e
00000110: c13b 2f3d 149b 4ebe 456c 1abe bcf8 283e
00000120: bd8b 853e 2b2e bdbd 9376 883e a91a e1bd
00000130: b7e9 5c3e 12e8 1abe 6978 01be ea97 8fbd
00000140: cede 4dbe 5a53 923e 8d8a 4abe 2a33 10bb
00000150: 3eca 0ebe 00ec 42bd b218 433e 2f8a 9d3b
00000160: 65b5 163d 6aef 803d 4815 f2bd f088 11bd
00000170: 70a9 01bd 1af4 1bba acd1 4b3e 0a5d 6a3c
00000180: 08f1 573b fe3a 5ebe 4c6e 39bd db20 a4bc
00000190: 24a8 a5bd 8a60 843d 361b b63c 6344 993a
000001a0: c391 24bd d7c4 a43d c498 f83b d4a6 7c3b
000001b0: 4a58 8f3d f559 603e d9fe e9bc aca8 8d3d
000001c0: abe8 00be af27 4a3d 0fcc e13d 6e66 1b3d
000001d0: 0bd0 a93d 8e7c 11be e3a5 823d 9f34 a03c
000001e0: a5ec 1c3d 3c40 1bbe 6395 103e 808a 173a
000001f0: 1856 c33c aa5c 8e3d 62e9 dbbd c1eb 64be
00000200: 649f 0c3e 8032 063e 10db 923d 3280 1e3d
00000210: 2d0d 60be f7cb c8bd ec0e b7bc 744e 1cb9
00000220: 81a6 1b3e 1f27 eebd 9aec 2b3d 1c29 bdbd
00000230: 50fb 32bd 8f40 45be f1b4 70bc 1a70 e2bd
00000240: 41ff e83c 38c5 33be 1e84 5e3e 24d3 fc3d
00000250: 3d4a 223e 6ce1 5b3d 1b76 533e 8d80 adbd
00000260: 92e3 153e dc3c eb3d daf3 443d cbf2 ff3c
00000270: baa7 36be bfed 473e 9259 61bc 35b2 e6bd
00000280: 8e6b fabd 27d1 453e 5cb4 8f3d 8814 fdbd
00000290: 2c2b 183c 0759 20bd 5828 1ebe 74c5 f4bd
000002a0: 3810 4e3d 6b76 59bc 6699 a2bc e39e 233e
000002b0: d232 1c3d 53da 093d 360b 62be 9f01 0d3d
000002c0: 8a04 983d 7d8e 1cbe 3ba4 83bc 5af1 bdbd
000002d0: ab73 04be 5783 30bd 0dc8 7bbd 51e1 11bd
000002e0: 4362 f9bd ee97 9bbd 0d4c 4b3e 0a9f 19bd
000002f0: 83cb da3d 6f0a 063e 12df 3a3e 7222 9f3c
00000300: 1ada da3d 0ac2 fa3d 13af 013e 8b4b 57bd
00000310: 3807 0f3e 6bf8 6d3e f55b a23d bc16 46bd
00000320: f767 48be 03c2 32be 2632 103e fac6 853d
00000330: 94a0 d53d 4579 dcbd e527 693d eb7f babb
00000340: 4f45 a03c 08d9 163e 0f37 a23d bf61 a43d
00000350: 624e b73c 5a44 353d d37a 503e f4a1 03be
00000360: a496 093c a91b 6bbd ab0b f4bd c14b 493e
00000370: a6d7 2e3e 2f6e e0bd 3743 0f3d d6da 233e
00000380: 12f5 0cbd 2bef 7abd b043 2fbe a976 48be
00000390: 764b 2f3e 4fc7 4abc db0b 36bc 37f8 ed3d
000003a0: 0695 ae3d 6a68 293e 314d 913d fa51 d53d
000003b0: 5719 583d afe0 653b 35f3 5c3d 2287 153c
000003c0: 7150 b83d 4b97 a5bd fca3 f63d 173a 34be
000003d0: a75e 283e aba6 283e e2f8 1dbe ef51 0cbe
000003e0: eeea da3d cf1e 9f3d 2608 e0bd 97ad e43c
000003f0: 4586 d33d c634 17be 1200 f2bd 0a02 26bd
-0.05411576 0.02345994 0.17739536 -0.14113504 0.2304867 -0.009306953 -0.0961564 0.14419506
-0.115095675 0.22489859 0.08903876 0.027861767 -0.15706192 -0.080778964 -0.09536487 0.096935876
0.16404419 -0.015947169 -0.12102292 0.02068929 -0.058653146 -0.1413653 -0.14346631 -0.20529294
-0.20636472 0.017673122 -0.08959529 0.08463474 0.24078074 -0.10990354 -0.07918608 -0.2030559
0.05140922 0.10028818 -0.15490298 0.023133487 0.042907953 -0.10075001 0.075241305 0.14333202
-0.21736643 -0.08829983 -0.004552635 -0.1614048 0.11782912 -0.1924786 0.20238188 -0.05045229
-0.16018037 0.018767973 -0.1061084 0.14392972 -0.21017508 -0.07876398 0.017666874 0.19293578
-0.13421582 -0.007437417 -0.080357194 0.13358809 0.15662643 0.040991083 0.1756895 0.10500462
0.15861985 0.14766882 -0.12735799 0.1505101 0.042781595 -0.20176345 -0.15080364 0.16501135
0.26083174 -0.092373215 0.26652965 -0.10991413 0.2157353 -0.1512759 -0.12643589 -0.07011397
-0.20104524 0.28579217 -0.19779415 -0.0022003152 -0.13944337 -0.04758835 0.1905239 0.0048077325
0.036794085 0.062956646 -0.11820465 -0.035530984 -0.03165573 -0.0005949155 0.19904202 0.014304409
0.0032950062 -0.21702191 -0.045271203 -0.020035198 -0.08088711 0.06463726 0.022229772 0.0011693354
-0.04017807 0.08045357 0.0075865705 0.0038551586 0.06999262 0.21909316 -0.028563904 0.06916937
-0.12588756 0.04935425 0.11025249 0.03793948 0.08291634 -0.1420767 0.06379297 0.019556342
0.03831162 -0.15161222 0.14119487 0.0005780831 0.023844764 0.06951268 -0.107378736 -0.22355558
0.13732678 0.13105202 0.07170689 0.038696475 -0.21880026 -0.09804528 -0.022345982 -0.00014906545
0.15200235 -0.116285555 0.041973688 -0.092363566 -0.0436967 -0.19262908 -0.014691577 -0.11056538
0.028442027 -0.17555702 0.21730086 0.123449594 0.15848632 0.053681776 0.20650522 -0.08471785
0.14637592 0.114862174 0.048084117 0.031243702 -0.1783742 0.19524287 -0.013754265 -0.11264459
-0.12227546 0.19318067 0.07016823 -0.12357432 0.009287637 -0.039147403 -0.15445077 -0.11951724
0.050308436 -0.013272862 -0.019848537 0.15978579 0.038134404 0.033655476 -0.22074589 0.034425374
0.07422741 -0.1528873 -0.016069522 -0.0927455 -0.12934749 -0.043094005 -0.06147008 -0.03561527
-0.12176945 -0.07597338 0.1985323 -0.037505187 0.10683348 0.13089918 0.18249157 0.019425604
0.10686131 0.12244041 0.12664442 -0.052562278 0.13967597 0.23239295 0.07927696 -0.048361525
-0.1957091 -0.17456822 0.1408163 0.065320924 0.104310185 -0.10765318 0.056922812 -0.0056915185
0.019564299 0.14731228 0.07920658 0.08026456 0.022376243 0.04425464 0.20359354 -0.12854749
0.008397732 -0.057399426 -0.11916288 0.19657804 0.17074451 -0.10958516 0.03497621 0.16001448
-0.034413405 -0.061263245 -0.17115664 -0.19576515 0.1711863 -0.01237662 -0.011111225 0.11619609
0.08524518 0.16543737 0.07094801 0.104160264 0.05275854 0.0035076549 0.053942878 0.009126456
0.08999718 -0.080854975 0.12042996 -0.17600285 0.16442357 0.16469829 -0.15426973 -0.1370313
0.106893405 0.07769548 -0.10939054 0.027914805 0.10328344 -0.14766225 -0.1181642 -0.04052929

1.8.bias f4 [24]
00000000: 6c2f 513d 8550 1b3d c270 42bd 2db3 b5bd
00000010: acbf dc3d 0e84 febc cd1c a43d 6799 02be
00000020: b42a 32be 3892 23be dbbc 523d 6c54 b7bd
00000030: c8db 0e3c ff52 05bd 78eb 193e 0ee5 68be
00000040: c382 d0bd 4557 0abd 2feb 243e 571b 6bbd
00000050: b188 e93d 695c 643e 6c70 833e fd3f 17be
0.051070616 0.037918586 -0.047470815 -0.08872066 0.10778746 -0.031068828 0.08013306 -0.12753831
-0.17399102 -0.15973747 0.051449638 -0.08951649 0.008719392 -0.032549854 0.1503123 -0.22743627
-0.10181191 -0.033774633 0.1610534 -0.05739912 0.11403025 0.22300877 0.2567171 -0.14770503

1.10.weight f4 [12, 24]
00000000: 07a0 57be 3910 d63d b5f0 e33d b905 353e
00000010: 2f92 2ebe c7a6 5abd a5f5 c23d cc49 6a3e
00000020: 092b 083e a2de ea3c 1494 1fbe ec3c 0b3d
00000030: 0fbb 8fbd 3f75 ee3d 73df 073c d23c 843e
00000040: c772 023e 1d7d 3f3d 51af ddbd 67a6 7f3e
00000050: c261 1f3c 21de 72be fabe 48be 447f da3c
00000060: e4bd 443d e857 ab3b f84b d13c a9f8 bbbd
00000070: 9604 4ebd 8995 b83d e891 0dbd 2965 f03d
00000080: b444 8a3d fa6c 55be 144a 53be 8a93 34bd
00000090: 8a93 063e ec0e 343e ca18 40be 61b0 51be
000000a0: 56ca 4cbe 4713 afbd 183c 82be 90ca 183e
000000b0: ad9b 06be e988 21bd 57a0 643b beef a33d
000000c0: 84bf bdbd 73fc 2e3d 4c11 eb3a 0d8c e63d
000000d0: db62 053d 2264 f63d 5185 b3bc 833e 31be
000000e0: 722e d7bd dc7a c33c e2ca ccbd 577a 7b3e
000000f0: fec4 b5bd 4135 af3d b827 85bc 7fa4 523e
00000100: aa4d ebbd 7814 b9bd bab5 3dbe 148d 80be
00000110: 075d 8a3e edd2 813d f018 ca3d a34a e1bd
00000120: 6ebb b6bd c775 5abe ab04 babd 477d a33d
00000130: c868 1fbd 7a4b 5b3e 5a19 c93d d242 1bbe
00000140: 8fdc 9bbd c315 10be e33b 0e3d 124c 27be
00000150: 2778 99bd fbc7 2cbe d569 553d cf50 0abe
00000160: bb71 13be b2c1 37be b9c7 8ebe c1ce f1bc
00000170: dd65 38be 568d 10be 67d1 863d e53e 893d
00000180: 0f98 5c3d 7ac5 96bd 1900 093e 84b6 543d
00000190: dac4 07be 286f 023e 1f83 9c3d 830d 2ebd
000001a0: 7408 0cbe f2ea afbc 759b 543d 4048 14be
000001b0: a814 183e 7aa5 12bd 0866 adbc eb72 bf3c
000001c0: b0e6 27bd a85b c0bb 6b4a 313e 1587 2fbe
000001d0: 540f 05be 6d3d e5bd a0c3 fe3c 56e7 43be
000001e0: 13bd 733e 6d4c ca3d e25a d1bd 4692 4fbb
000001f0: a9f9 d33d 7eb9 9c3c 0908 843e f7c9 a73d
00000200: 4af2 1dbe 142d b73d b887 4c3e ee96 253e
00000210: 9b0a 3b3e f55d 94bc 461e 32be 4ce6 343e
00000220: b7c7 8abd 426a c3bc 229d e63d dfef 1ebd
00000230: 694a 27bd 11ec 6a3e b7c5 493e 2198 30be
00000240: d928 4cbe e6a6 5abe d3a4 503e 5f6b 9bbe
00000250: 8df8 523c 7b2f bebd 402a aa3c 4cbc 6dbd
00000260: cf9d 933d f8db d1bd afd6 83bd a43a 803d
00000270: a29f 923e d73a 04be c715 803d 82a6 05be
00000280: 0bd5 86be 59fa 00be a599 99be a995 99be
00000290: a730 11be 9f55 0f3d 1718 4a3e fe1a 69be
000002a0: 08af 8d3d 05f7 203e 55e5 0e3d 4cd4 0dbe
000002b0: 5d39 6d3a b088 383e 1f4d 623e eb8a 96be
000002c0: 0941 2ebe 4dd7 24be 2de6 b03d b68e 15be
000002d0: bb45 0e3e a83e dd3c 69df 1b3e 52ef 183e
000002e0: 7a0f 83bd 9466 2bbe d7ea 583e 5aa2 a2be
000002f0: f891 9c3d 2b4e 463d 1fc4 31bd c482 06be
00000300: 34aa 40be 4665 843e 2031 65bd a764 c0be
00000310: a626 80bc f946 a23d 92d1 7a3d badb 453e
00000320: 5b56 84be 1413 f5bd 7c81 c53d cd09 793e
00000330: 7b09 563e 6eba 263c 0061 7abe 578f 53be
00000340: 1990 a0be 7943 8fbe e8c5 ec3d c85c 30bd
00000350: f35a d63d 201c 553e 5df0 7f3d e82d 333e
00000360: 1ae0 24be 35e7 db3d cefa d9bc 670a 05be
00000370: 6991 f23b 6e70 1dbe 2c64 e53d b94f 38be
00000380: 407c de3d 49cc 313d 812b c8bc 57e7 eebd
00000390: 352d 7f3c 5abf f73d 2dae cfbd f931 e9bd
000003a0: b7c4 03be d8a0 003d cd0c 363e 3c5d ea3d
000003b0: 09ad 05be 619d 4e3b 6c6d 5ebe 08fe 533e
000003c0: a10b b0bd fdd1 ca3d c1ef ee3d 6c4b 68bd
000003d0: 2711 3abe 9ed2 c9bc 5eed 173e 3278 5ebd
000003e0: d8be 5b3b c6af 4f3d d72f 0bbe 90cb 053e
000003f0: 667a 44bd 11fd dfbd 7fb8 03bd 2839 7ebc
-0.2105714 0.10452313 0.111298956 0.17677964 -0.17047952 -0.053381708 0.09519509 0.22879714
0.13297667 0.028670613 -0.15583831 0.033993647 -0.070181005 0.11643457 0.008293021 0.25827652
0.12739097 0.046750177 -0.108244546 0.24965821 0.009727897 -0.23717548 -0.19604102 0.026672013
0.048032656 0.005228985 0.02554892 -0.091782875 -0.050297342 0.090128966 -0.034562975 0.11738045
0.06751385 -0.20842353 -0.20633727 -0.044086017 0.13142219 0.17583817 -0.18759456 -0.2047744
-0.1999906 -0.08548599 -0.25436473 0.14921021 -0.13145323 -0.03943721 0.003488561 0.080047116
-0.09265044 0.042721223 0.0017934232 0.11257181 0.03256498 0.120308176 -0.021914156 -0.17309003
-0.105069056 0.023862295 -0.09999634 0.24558388 -0.08875464 0.08555079 -0.016254291 0.20570563
-0.114894226 -0.09037107 -0.18526354 -0.25107634 0.270241 0.06339059 0.09868038 -0.11000564
-0.08922468 -0.21333991 -0.090829216 0.07982879 -0.038918287 0.21415511 0.098192886 -0.15162209
-0.076104276 -0.14070801 0.03472508 -0.16337612 -0.0749362 -0.16873161 0.052102882 -0.13507389
-0.14398853 -0.17944983 -0.2788675 -0.029517533 -0.18007608 -0.14116415 0.06582909 0.06701449
0.053855952 -0.073618844 0.13378944 0.051931873 -0.13258687 0.12737715 0.07642197 -0.042493355
-0.136751 -0.021474335 0.051906068 -0.14480686 0.1485163 -0.035802342 -0.021166816 0.023370227
-0.040991485 -0.0058703013 0.17313544 -0.17141373 -0.12994128 -0.11193357 0.03109914 -0.19131216
0.23802595 0.09877858 -0.10222413 -0.003167288 0.10350353 0.019131418 0.2578738 0.081928186
-0.15424457 0.08944145 0.19973648 0.16170856 0.18265764 -0.018111208 -0.17394361 0.17665976
-0.06776374 -0.023854379 0.112604395 -0.038802978 -0.040842447 0.22941615 0.19704328 -0.17245533
-0.19937457 -0.21352729 0.20375375 -0.30355355 0.012876642 -0.092864 0.0207721 -0.058040902
0.07207834 -0.10247034 -0.06437432 0.06261185 0.28637415 -0.1291307 0.06254154 -0.13051799
-0.26334414 -0.125955 -0.30000034 -0.29996994 -0.14178716 0.034993764 0.19735752 -0.22764203
0.0691815 0.1571923 0.034886677 -0.13850516 0.00090493803 0.18020892 0.22099732 -0.2940286
-0.17016996 -0.16097756 0.086376525 -0.14605221 0.13893788 0.027007416 0.15221943 0.14935043
-0.06399436 -0.16738349 0.21183334 -0.3176449 0.07645029 0.04841439 -0.043399926 -0.1313582
-0.18814927 0.25858516 -0.055955052 -0.37576792 -0.015643429 0.07923693 0.061235018 0.193221
-0.25847134 -0.119665295 0.09643838 0.24320145 0.20902054 0.010176284 -0.24451065 -0.20660149
-0.31359938 -0.27981165 0.11561185 -0.043057233 0.10466566 0.2081151 0.062485088 0.1749798
-0.16101113 0.107374586 -0.02660885 -0.1299225 0.007402588 -0.1537492 0.11200747 -0.17999162
0.108635426 0.043407712 -0.024434807 -0.11665218 0.015574743 0.12097044 -0.10140643 -0.11386485
-0.1286801 0.031403393 0.1777832 0.11443564 -0.13054289 0.003152691 -0.21721429 0.20702374
-0.08595968 0.09903333 0.11666823 -0.056712553 -0.18170606 -0.024636563 0.14836642 -0.054313846
0.00335305 0.05070474 -0.13592468 0.13065934 -0.04796829 -0.109369405 -0.03215837 -0.015516557

1.10.bias f4 [12]
00000000: d825 25bf cdfc 9f3e e894 9a3c f77d c83d
00000010: 2c2a b4bd f6e9 763e 13cf ff3d 21dc a03e
00000020: 1366 c5bc 9960 3fbe 9eb3 a9bd ba3d 893e
-0.6451087 0.3124756 0.018869832 0.09789651 -0.08797106 0.24112687 0.12490668 0.31417945
-0.024096524 -0.18689193 -0.082862124 0.26804906

1.12.weight f4 [5, 12]
00000000: 5024 993e 7990 053e 7457 d6be eda5 663c
00000010: 99e1 9bbe 2e49 e3be 88ad 41be d1c3 09bf
00000020: 1c21 8fbd 91d0 453e c074 3ebe dd1a 5d3e
00000030: eaad 103f c025 e3be ffda 92bd c902 c2be
00000040: 5d08 833e 4b7d 39bd 7761 1fbf 418c 82be
00000050: 45c0 513e 84dd 0a3e 63e1 033e a373 25be
00000060: b297 253f 11eb 063e 891a 783d f51f 683d
00000070: 529b 82bd 2397 dcbd 8f91 31bf 8e1a aabe
00000080: 0197 9abd 62ec 93bd e56c 87be 339a 883b
00000090: dd4b eb3e b224 d7be e8c0 b6bd 3ddd c73d
000000a0: b5f7 f33c 30bd a9be 4c50 06be 13e1 97be
000000b0: 58bb 17bf 7000 103e 17e5 99bd 648e f8be
000000c0: 6f09 e13e 7b50 07be f088 b0bd ae80 93be
000000d0: 1f5f e8bc edd9 2b3d 01dc 88bc 5529 f3bd
000000e0: 1a66 49be e008 603d 6c08 6d3e 7a75 a8be
0.29910517 0.13043393 -0.41863596 0.014077646 -0.30445555 -0.4439177 -0.18913853 -0.5381442
-0.06988737 0.19317843 -0.18599224 0.21592279 0.5651537 -0.44364738 -0.071706764 -0.3789275
0.25592318 -0.045285504 -0.62258095 -0.2549763 0.20483501 0.13561064 0.12878947 -0.16157393
0.64684594 0.13175608 0.06057218 0.0566711 -0.06377281 -0.107710145 -0.6936273 -0.33223385
-0.07548333 -0.07222821 -0.26450267 0.0041687726 0.45956317 -0.42020184 -0.08923513 0.09758995
0.029781202 -0.3315215 -0.13116568 -0.29663906 -0.5927024 0.14062667 -0.075143985 -0.48546135
0.4395251 -0.13214295 -0.08619869 -0.28809112 -0.02836567 0.041955877 -0.016706469 -0.11873118
-0.19667855 0.054695964 0.23147744 -0.32902128

1.12.bias f4 [5]
00000000: d467 4fbf 8a9f 1fbf 1e97 55bf 9cda 14bf
00000010: af45 e6be
-0.81017804 -0.6235281 -0.8343371 -0.5814607 -0.4497504
