JSP/trained models/DDQN_rwd5.pt (torch_old, 43117 bytes, 16 tensors)

0.0.weight f4 [5, 5]
000000 17 89 87 3f 3d af 84 3f 16 c4 75 3f 8b e8 7e 3f
       1.0588712 1.0365978 0.9600233 0.9957358
000010 09 05 90 3f 43 d2 9b 3f 89 eb 8d 3f fb 5f 81 3f
       1.1251537 1.2173542 1.1087505 1.0107416
000020 41 0f 81 3f fe 37 8e 3f 1a c0 8d 3f 0a cd 8f 3f
       1.008278 1.1110837 1.107425 1.1234448
000030 0e 12 65 3f bb 28 83 3f b7 52 90 3f 1e 53 88 3f
       0.89480674 1.0246805 1.1275243 1.0650365
000040 9a 2d 83 3f 97 0a 64 3f 86 e9 81 3f 08 1e 88 3f
       1.0248291 0.8907866 1.0149391 1.0634165
000050 a7 2d 8b 3f 58 a8 98 3f 9e ac 88 3f 68 a8 9f 3f
       1.0873307 1.1926374 1.0677679 1.2473269
000060 22 e0 8c 3f
       1.10059

0.0.bias f4 [5, 5]
000000 b9 f2 a6 bd 8a cf c5 3d a8 34 90 3d ee 52 16 bd
       -0.081517644 0.096587256 0.070412934 -0.03670018
000010 6e e4 ec bd 03 30 55 3d 8e 81 f1 3d 5b 9a b0 3c
       -0.11567007 0.05204774 0.11792289 0.021557977
000020 28 dc 2d bd a7 d9 c5 bd 3f 75 38 bd 50 3e be 3d
       -0.042446285 -0.096606545 -0.04503369 0.09289229
000030 4c 9b 9a 3d b7 52 9d bd ea 31 bc bd 7b 3e 2b 3c
       0.07549152 -0.07681792 -0.09189208 0.010451908
000040 43 82 0e 3c 25 08 1e 3d cb 87 37 3c e6 44 73 bd
       0.008698049 0.038581986 0.011201809 -0.05939188
000050 a6 3d 71 bd 64 f0 20 3d b6 e5 4b bd 6f 3e 12 be
       -0.058896683 0.039291754 -0.049779616 -0.14281629
000060 0c 27 a3 bd
       -0.07966432

1.0.weight f4 [64, 25]
000000 1f 06 99 3d d4 4d f9 3d 61 af 1b be ca 52 02 be
       0.07471871 0.12173048 -0.1520362 -0.12726894
000010 b4 85 de 3c 2e fa 44 be b7 7f e6 bd 0a 28 84 3d
       0.027163364 -0.19236061 -0.112548284 0.06452949
000020 e9 70 f7 3d a3 91 91 bd d5 34 fc 3d b0 cf c9 3c
       0.12082083 -0.07107856 0.123147644 0.024635166
000030 24 8f a2 3d 4f 56 fc bd 6f 43 4d 3e e1 66 57 be
       0.07937458 -0.123211496 0.20045255 -0.21035339
000040 c7 61 1b be aa b8 a5 bd ff 5e c7 3d d4 ce ed bd
       -0.15174018 -0.080918625 0.09734916 -0.11611715
000050 4f 00 05 3b 70 9d 26 bd 1f 19 3f be 78 8b 49 be
       0.0020294373 -0.040677488 -0.18661927 -0.1968211
000060 53 3c e0 bd a4 93 fb 3d 5b 90 d4 bd e5 e6 d5 3c
       -0.10949006 0.122840196 -0.10379096 0.026111076
000070 ff df 3f 3e 31 75 24 3d f4 32 c1 3d ac 6a 87 ba
       0.18737791 0.040150825 0.09433547 -0.0010331473
000080 c4 3b 79 3e 66 d5 38 bd f3 b4 4a be 10 73 3c 3e
       0.24339205 -0.045125388 -0.19795589 0.18403268
000090 e8 b8 29 be 22 eb 60 3e 52 43 f5 3d 67 42 61 3d
       -0.16574442 0.21964696 0.11975731 0.054994967
0000a0 ab 44 94 3d c6 4f f0 3d 8f b9 32 be cd 85 ed bd
       0.0723966 0.117339656 -0.17453597 -0.11597786
0000b0 e2 e2 c4 3c 74 a6 3c 3e 4d 65 c6 bd f3 50 3c 3c
       0.024033967 0.18422872 -0.0968729 0.011493909
0000c0 25 ff a7 bd f7 42 c5 3c af ad b6 bd e9 42 18 3e
       -0.08202962 0.024079783 -0.08919846 0.14869274
0000d0 1b 53 21 3c 33 24 11 3d e9 2f e8 3c f0 fa 3a be
       0.009846474 0.035434913 0.028343158 -0.18259788
0000e0 1f 8d f2 bd 95 ec 1b be 44 38 18 3d 51 24 e7 bb
       -0.11843323 -0.15226968 0.037163034 -0.00705389
0000f0 55 59 4b be c1 ae 81 bd c4 88 ec 3d 51 9a 39 3c
       -0.19858296 -0.0633216 0.115495235 0.011328296
000100 3d ef 0b bd 21 1f 5b bd 02 a0 86 3d e0 f9 a8 bd
       -0.034163702 -0.053496484 0.06573488 -0.08250785
000110 6a f6 c7 bd 1a a6 ae bd 32 ef 35 3e 18 98 17 3e
       -0.09763797 -0.08527775 0.17767027 0.14804113
000120 0e 1b 6d 3d 3c 69 2b ba a7 81 f4 3d b3 d9 74 bd
       0.05788713 -0.00065388135 0.11938792 -0.059777927
000130 ba bf e9 bd 90 0f 52 be 9a 6a 42 3e 38 78 08 3e
       -0.11413522 -0.20513749 0.18985978 0.1332711
000140 14 4a 6c be 79 18 b4 3d 2f 84 fb bd 40 f9 db 3d
       -0.23075134 0.0879373 -0.122810714 0.107409
000150 bc dc 1a be 4a ed 4e 3d c7 d0 67 3e 4a 59 ff 3d
       -0.15123266 0.050519265 0.22638236 0.124682024
000160 c5 4b 2a be 93 40 18 3e 4e e5 c3 3d 9a f3 46 be
       -0.16630466 0.14868383 0.09565221 -0.19428864
000170 63 6a 3f 3e 1f 6f 4f 3e 6c 46 6e be d1 98 bc 3d
       0.18692927 0.20257233 -0.23269051 0.09208835
000180 b3 c7 f2 bc f7 f3 4b 3d 53 cb ea 3d 26 68 c0 bd
       -0.02963624 0.04979321 0.11464562 -0.09394865
000190 17 8f 13 3e 2b 43 45 bd 37 14 db bd 8b c5 09 3c
       0.14410053 -0.04815976 -0.10697215 0.008408914
0001a0 27 6c cd 3d df 7e 77 be 1e 1f cc 3d 53 2b 79 be
       0.10030394 -0.24169491 0.09966873 -0.24332933
0001b0 97 54 37 3e 56 b7 e3 bd 08 52 91 bd a1 29 e6 bc
       0.17903362 -0.11118953 -0.07095724 -0.028096022
0001c0 bf df 23 3e 32 67 20 3e 07 8c 50 bd 7d 40 20 3d
       0.16003321 0.15664366 -0.05091479 0.039124
0001d0 9a f9 e8 bd 5c d3 13 3e 35 17 d3 bd 44 14 e9 bd
       -0.11375733 0.14436096 -0.10307161 -0.113808185
0001e0 0b d5 d5 bd f3 dd a4 bd 34 a7 1b 3a 82 7f 85 3e
       -0.10441025 -0.08050146 0.0005937696 0.26073843
0001f0 9d 44 06 3e ca ad d7 bd 11 71 ce bd d1 d0 17 be
       0.13112111 -0.105311945 -0.100801595 -0.14825751
000200 94 d0 a8 3d 94 c0 91 bd 73 43 3e bd 0d db 6e 3c
       0.08242908 -0.071168095 -0.046451043 0.014578593
000210 93 94 0e bc 1b c0 8d 3c fd 13 3e bc 0e d6 a3 3c
       -0.008702415 0.017303517 -0.011601445 0.01999953
000220 47 ba 0e 3e 89 04 1f bd dc 86 08 be 8a af 0e be
       0.13938247 -0.038822684 -0.13332695 -0.1393415
000230 4c 55 cf bd f8 05 c7 bc 1d c9 ed 3d 87 eb 99 3c
       -0.10123691 -0.024294838 0.11610625 0.018789066
000240 f5 a5 8f bc f7 f0 d5 3d e3 9f 3f 3e 53 4d 0b 3e
       -0.01753519 0.10446351 0.18713336 0.13603716
000250 39 45 3b be 00 fe b5 bd b7 17 09 bb 67 b8 85 3c
       -0.18288125 -0.08886337 -0.0020918676 0.016323281
000260 a5 2d c3 bb be 8b 49 be e8 21 1e 3e 42 1e 25 3e
       -0.005956369 -0.19682214 0.15442622 0.16124824
000270 ca 21 08 3e 35 b9 31 3e 88 05 8c bd d3 74 9b bd
       0.1329414 0.17355807 -0.068369925 -0.07590642
000280 d9 89 85 3d 8a 25 2c 3e 7a 22 09 3e a9 20 df bd
       0.06520433 0.16811195 0.13392058 -0.10894901
000290 0e 60 a7 3d 08 6d 02 3e b5 8d 04 be bb 4b 8f 3c
       0.08172618 0.12736905 -0.12944682 0.017492166
0002a0 df 02 40 be 8b 9c 54 be 96 03 5e 39 96 12 6b bd
       -0.18751095 -0.20762841 0.00021172906 -0.05739077
0002b0 59 51 d2 3d f3 81 9c 3b d5 20 6e 3c 64 b6 33 be
       0.10269422 0.0047762333 0.014534195 -0.17550045
0002c0 01 15 0b be e5 3d 1a be 50 ff 0e 3e 5d 9a b2 3d
       -0.13582231 -0.15062673 0.13964581 0.08720849
0002d0 74 a6 04 3e c4 31 0f be 2f 35 8d bd 35 73 82 bc
       0.12954122 -0.13983828 -0.068949096 -0.015924076
0002e0 2f 85 46 be 05 0d 03 be 23 67 3a be f9 9d 1b be
       -0.19386743 -0.12797935 -0.18203406 -0.1519698
0002f0 66 b6 32 be 71 39 4a be f2 c3 23 3e 9c 05 f6 3b
       -0.17452392 -0.19748475 0.15992716 0.007507993
000300 6f ac 94 bd 31 2e 80 bc b7 7e dd 3d ea 2c 10 be
       -0.072594516 -0.015647026 0.108151846 -0.14079633
000310 44 38 27 be 15 3d 6e bd 9e eb c0 bd 78 c4 3c 3d
       -0.16330057 -0.05816372 -0.094199404 0.046085805
000320 85 9f 26 3d 16 99 cf bd f4 48 21 be 6d d5 06 be
       0.040679473 -0.10136621 -0.15750486 -0.13167353
000330 ab a2 2e 3e 43 59 2a 3d b6 40 4d 3d 3a 8e c4 3b
       0.1705424 0.041589033 0.05011054 0.0059984
000340 58 a3 9e 3d 1b 5b c7 bd 34 d5 e3 bd e5 14 12 3e
       0.07745999 -0.09734174 -0.1112465 0.14265783
000350 f1 b8 76 3d 13 24 00 be eb 11 8b bd cf 09 99 3d
       0.060234968 -0.12513761 -0.06790527 0.07472574
000360 ab f7 21 3b 43 2d b4 3d 2b 58 4d bd f3 09 90 bd
       0.0024714272 0.087976955 -0.05013291 -0.07033148
000370 a6 fc 95 3c 0f 28 10 be 11 72 38 be 2d 87 0f be
       0.018308949 -0.14077781 -0.18012263 -0.14016409
000380 9d 2b 3c bd 00 3e 63 bd 3f df 22 3e 9a 13 26 3e
       -0.04594003 -0.05547905 0.15905474 0.16218415
000390 70 07 96 bd bc 53 13 3e e4 fa 8c bc db 84 4e be
       -0.07325637 0.14387411 -0.017209478 -0.20167868
0003a0 2c c1 d0 bc bf ab 0f be f4 de 4a be 18 2d 97 3e
       -0.025482737 -0.1403036 -0.19811612 0.2952659
0003b0 a1 c7 b2 bc ee a9 92 3d 78 f7 a3 bd c4 99 93 bc
       -0.021823706 0.07161318 -0.08006185 -0.018017657
0003c0 c7 55 b3 bd ec d7 04 bd 82 88 70 bb c1 f3 40 be
       -0.08756595 -0.03243248 -0.0036702459 -0.18842985
0003d0 4f 7e 98 3b 21 81 13 be 49 1c 3d ba a7 9f c0 bd
       0.004653729 -0.14404728 -0.00072139926 -0.09405451
0003e0 5e 65 99 be 36 44 1b 3d 06 88 b6 bd 23 90 37 3e
       -0.2996015 0.037906848 -0.08912663 0.17926078
0003f0 80 f0 90 3b ac 05 4b be 0b b0 4f be 69 b9 1e be
       0.004423201 -0.19826382 -0.20281999 -0.15500416

1.0.bias f4 [64]
000000 d5 3e 07 3e f9 b7 2b 3e dd f2 45 3d f4 89 8e 3d
       0.13207562 0.16769399 0.048327316 0.06959906
000010 88 48 d2 3b 61 0b 98 3c 7d 90 05 3d 93 8b 1c bd
       0.006417338 0.018560113 0.032608498 -0.038219046
000020 e8 c6 35 3e 84 0a 47 bd 9e 0f c8 3d fd 66 49 ba
       0.17751658 -0.048594013 0.09768604 -0.0007682888
000030 6d 79 a0 bd 7e e4 62 3e 08 ee d3 3d fa 3c 3d be
       -0.0783566 0.22157475 0.10348135 -0.18480292
000040 f5 17 19 3e 39 bf 32 be 37 a5 30 3e a8 bc 0a be
       0.14950545 -0.17455758 0.17250524 -0.13548529
000050 83 10 bb 3c 09 ca c8 3c 64 10 3c be bd 1d fa 3d
       0.022835022 0.0245104 -0.18365628 0.122127034
000060 66 ea ed bd 0d e1 e1 bc 09 92 98 3d bd 7e 14 3e
       -0.116169736 -0.027573133 0.07449729 0.14501472
000070 5c b3 5b 3e fc 8e 67 3e c2 19 0d be 88 4a 02 3e
       0.21455139 0.22613138 -0.13779357 0.12723744
000080 e0 12 5e be a4 94 08 3e e5 c1 04 be 5a 52 6a bd
       -0.21686888 0.13337952 -0.1296459 -0.057207443
000090 df 6f 4c be 2c e7 bd bb cc bf a5 bd ba d2 1e be
       -0.1996455 -0.00579538 -0.08093223 -0.15510073
0000a0 de 33 35 be 20 af 31 3e 77 0b ba bb 52 45 36 3d
       -0.17695567 0.17351961 -0.0056776362 0.044499703
0000b0 14 5f 23 be 1b 5c 0d 3e c1 ea 3c 3e 39 d6 14 3d
       -0.15954238 0.13804667 0.18448927 0.03633711
0000c0 84 96 78 3d b4 bb a1 3d 6e db d7 bd e8 95 53 3e
       0.060690418 0.0789713 -0.105399 0.20662653
0000d0 2d dc 07 bc 7a 0f 7a 3e c7 1b d2 3c 2c 72 3c be
       -0.00829224 0.24419966 0.02564801 -0.18402928
0000e0 5a 32 e3 3c d1 eb 30 be e4 32 da bc b3 56 5e be
       0.02773397 -0.17277457 -0.026635595 -0.2171276
0000f0 00 96 fa bd 6b 0a 2e 3e 20 d1 1c 3e c3 69 17 3e
       -0.122356415 0.16996162 0.1531415 0.14786439

1.2.weight f4 [48, 64]
000000 51 2b 2f 3d 59 c7 a4 3c cc ef cd 3d 85 00 b1 3d
       0.04276592 0.020114588 0.10055503 0.08642677
000010 83 86 bb bd aa 67 c2 3d b7 18 2d 3d 01 a6 a4 3d
       -0.091565154 0.094924286 0.042259898 0.08039475
000020 06 9c 18 3d c9 9e e4 3d 49 ad 96 3d 37 b8 5b 3d
       0.03725817 0.11163098 0.0735727 0.053642478
000030 94 eb 62 3d 64 83 a0 bd 6b d4 9f 3d 8b d4 c9 3d
       0.055400446 -0.07837561 0.078041874 0.098549925
000040 ce 03 db 3d da 75 7f bd 03 72 f3 bc b5 41 12 3e
       0.10694085 -0.06236825 -0.029717451 0.14282878
000050 f0 bc 06 3d 4d e6 1a 3c 95 d2 ca 3d 29 c6 85 3d
       0.03289503 0.009454322 0.099034466 0.06531937
000060 8d 8b 79 bd 2b 5a 91 3d bd 49 17 3e 68 b3 e7 bd
       -0.0609241 0.07097276 0.14774223 -0.11313516
000070 87 46 45 3d 49 86 b8 bc 34 fa d3 3d b9 c8 df bd
       0.048162963 -0.02252497 0.10350457 -0.10926957
000080 01 00 0f 3d 89 d6 90 3a 54 9b eb 3c 04 8e ae bc
       0.034912113 0.0011050265 0.02876059 -0.021307953
000090 29 43 18 bd 6d 79 88 3c a2 ba 0c 3d 07 ca db 3d
       -0.037173424 0.016659463 0.034357674 0.10731893
0000a0 c3 76 d9 3d 61 c0 9c bd 4c 4b d6 3d 64 73 a8 3d
       0.10618355 -0.07653881 0.104635805 0.08225134
0000b0 5a 5c 88 3d 70 ba 99 3c 0a 33 bf bd 42 a1 06 3d
       0.0665824 0.018765658 -0.09335907 0.03286863
0000c0 6c 87 17 bd 69 de 6f 3d 8a 4b 10 bd 83 5d 70 bd
       -0.036994383 0.058561716 -0.03522829 -0.05868293
0000d0 8e f1 c7 bd 0d c1 92 bd 21 c3 40 bd 02 06 d5 bc
       -0.0976287 -0.07165728 -0.04706109 -0.026003841
0000e0 8d 6d 87 bc 72 51 db bb 51 05 2d bd 2f d3 19 3d
       -0.01653173 -0.0066930586 -0.0422414 0.037554916
0000f0 bc 91 e7 3c 84 64 a1 bc 4d 24 8d 3d fa 93 dd bd
       0.028267734 -0.01970125 0.068916894 -0.1081924
000100 02 c4 e8 bd 8b 90 4a 3c 61 9a 4e 3d 0e 6b 6b 3d
       -0.113655105 0.012363563 0.050440196 0.057475142
000110 b1 3c ce 3d 90 45 8f bd 8b 00 2a bd 29 e2 9b bc
       0.1007017 -0.0699569 -0.041504424 -0.01902874
000120 cc 99 c2 bc e4 ef d2 bd a3 02 4b 3c 69 3d a9 bd
       -0.023754977 -0.10299662 0.012390765 -0.08263666
000130 75 e7 f8 3d 81 29 86 bd 57 d6 ca 3d 3a 46 04 bd
       0.12153522 -0.06550885 0.09904163 -0.032293536
000140 71 55 92 3c 44 b7 30 3d eb fa 0b bd 9f 39 89 3d
       0.017863007 0.043143526 -0.03417484 0.067004435
000150 f8 51 d1 3c ac 59 92 bd ff 70 2c 3d 23 6f 1d 3d
       0.025551781 -0.0714601 0.04209995 0.038436066
000160 2c ea d1 bd 3a 19 d7 bd d2 0e 59 bd 2e 19 b2 3d
       -0.10249743 -0.105028585 -0.05299265 0.08696209
000170 79 79 2f be 05 c4 49 bd 12 18 3d bd 02 70 97 bd
       -0.17136182 -0.049259204 -0.046165533 -0.07394411
000180 b4 9b cb bc c9 fa b3 bd c8 fc 64 3d ca 27 bb 3d
       -0.024854518 -0.08788068 0.055905133 0.091384485
000190 9e 89 03 3e 41 3e 3d bd 1e 95 19 3e 46 5e a0 3c
       0.12845466 -0.046201948 0.1499829 0.019576203
0001a0 c1 ec ca 3b 66 3d 12 3d b8 b1 19 3e e5 da 3a bd
       0.006192774 0.035703085 0.150092 -0.04561891
0001b0 0a 85 e4 bc 55 0c b0 bd 30 19 07 3e 09 d6 72 bd
       -0.02789547 -0.08596102 0.13193202 -0.05928615
0001c0 73 03 d7 bc fb 1e 0a bc 3d 54 3b bc 00 49 66 ba
       -0.026246762 -0.008430238 -0.011433658 -0.00087846816
0001d0 ab 44 d1 3c 7d a0 71 bc 35 26 5b bd 4a fd 11 3d
       0.025545439 -0.014747736 -0.053503234 0.035641946
0001e0 b4 75 89 3d 9e 94 7b 3d 4a 31 e1 3d ec b3 90 3d
       0.06711903 0.06142103 0.10995729 0.070655674
0001f0 ab e6 50 3d ce db 7e bd 9c 9f 8f bd b8 fd 20 3c
       0.051001232 -0.06222134 -0.07012865 0.009826116
000200 da d7 61 bd 0a 96 6b 3d 13 94 7b bc 09 c6 07 be
       -0.055137493 0.057516135 -0.015355128 -0.13259138
000210 16 1f d0 bd 75 71 5d 3d 3b 02 7c 3c ab 2d a4 bc
       -0.10162179 0.05406328 0.015381391 -0.020041307
000220 0a 6d b5 3d 29 8c 19 3d 59 48 09 be f4 47 71 3d
       0.08858688 0.037487183 -0.13406505 0.05890651
000230 a3 60 a9 3c 0c 29 b7 3d 77 33 b3 bd fe f1 69 3d
       0.020675963 0.08943376 -0.087500505 0.057115547
000240 8c e0 40 3d 31 2c 50 3d 7a b4 d9 bd 0e 3f 91 3d
       0.047089145 0.050823394 -0.10630126 0.07092105
000250 28 57 d9 3d f0 01 9b 3d e4 88 07 3e a1 47 06 be
       0.10612327 0.07568729 0.13235813 -0.13113262
000260 41 c5 50 3d 4c e7 81 bc 14 cf 5f 3d ef fe c2 bd
       0.050969366 -0.015857361 0.054640844 -0.09521281
000270 77 68 d9 3d 02 4e c9 bd f3 a3 95 bc a5 1f e0 3c
       0.10615628 -0.09829332 -0.018266654 0.02735884
000280 75 7f b7 bd fc ad 1e bd 3a c8 b5 bd 79 dd 91 3d
       -0.089598574 -0.038740143 -0.08876081 0.07122321
000290 88 0f a3 bd b3 ee cc bd 2d 78 6c 3d 6e 3a df 3d
       -0.07961947 -0.10006466 0.057731796 0.108998165
0002a0 44 e1 fe bd 1a 14 8e 3d 3b e9 a8 bd 6f 94 5c 3d
       -0.1244531 0.06937428 -0.0824761 0.053852495
0002b0 7a a0 27 bd 71 11 f0 bd 4c 7f bd 39 03 33 64 bd
       -0.040924527 -0.11722077 0.00036143733 -0.05571271
0002c0 dd 1c b3 bd f3 c7 8c 3d f9 30 e2 bc ae 9e 2e 3d
       -0.087457396 0.06874075 -0.027611243 0.042631797
0002d0 4a 1c da 3d 7b e6 10 3d 69 37 11 be 50 9b b5 bd
       0.10649927 0.035376053 -0.14181294 -0.08867514
0002e0 9c f3 9b 3d 37 07 0b bd 91 ef 74 bd 0c 55 98 bd
       0.07614824 -0.033942427 -0.05979878 -0.074380964
0002f0 fb bc 05 3e 5c 5a 78 3d c0 cc 1d bd 0f e7 5f 3d
       0.13060372 0.06063305 -0.038525343 0.054663714
000300 bc 5c 3d 3d ca e4 0f bd a0 00 c0 bd af 95 9e bd
       0.046231017 -0.0351303 -0.09375119 -0.07743394
000310 7c ac a5 3d 22 5d 8c 3c 94 0c 11 be c0 c3 a8 3d
       0.080895394 0.017134253 -0.14164954 0.08240461
000320 bd 93 b7 bd 65 77 e2 3b d3 bb 49 bd 4d 26 d2 bd
       -0.08963726 0.0069112056 -0.04925139 -0.102612115
000330 f2 5f 50 3d e7 72 45 bc 98 3b 83 bc 0e ca 04 3e
       0.05087275 -0.012051321 -0.016019627 0.12967703
000340 08 80 c9 3c 99 7b a7 3d a0 47 c9 bd 20 ce 12 bd
       0.024597183 0.08177871 -0.098281145 -0.035841107
000350 35 8e ec bd ed 0d f5 bd 91 c3 bb 3c fd 18 96 3d
       -0.11550561 -0.11965547 0.022920402 0.07328985
000360 08 56 5c 3c 24 6d e8 bd 8d f0 1c be 34 e4 c1 3d
       0.013448246 -0.11348942 -0.15326138 0.094673544
000370 0e a1 2b bb be 93 00 be ce 04 e6 37 18 8d b8 bd
       -0.0026188525 -0.12556359 2.7420374e-05 -0.090112865
000380 0c 67 d8 bd 59 97 b3 3d d7 b7 d2 bd 2a 5f 1a bc
       -0.1056653 0.08769102 -0.10288971 -0.009422103
000390 fd 03 5e 3d a5 5b 4c 3d 55 31 80 3d 9e b5 87 3d
       0.054203022 0.049892087 0.06259409 0.066264376
0003a0 ea bc 19 3c 44 b6 00 be 28 59 06 3e 0a d5 8f 3d
       0.0093834195 -0.12569529 0.13119948 0.07023056
0003b0 71 0a ff 3d ec 45 98 bd ae 12 c2 bd 83 3f 8a bd
       0.124531634 -0.074352115 -0.09476219 -0.06750395
0003c0 9e 9c dc 3c 31 a5 cc 3d 76 b3 f9 bd 33 ea 1d bd
       0.02693015 0.09992445 -0.121924326 -0.038553428
0003d0 bc 86 1c bd f0 05 fa bb ec a6 e7 bb 4a a2 cd bd
       -0.03821443 -0.0076301023 -0.007069459 -0.1004072
0003e0 be c2 f8 bd e6 97 0e 3e 0d fa 25 3d e8 bf 03 bd
       -0.12146519 0.13925132 0.04052167 -0.032165438
0003f0 09 48 ab 3d 98 5e 47 bc f7 82 ab bc 96 fb 4d 3d
       0.08363349 -0.012168549 -0.020936472 0.05028876

1.2.bias f4 [48]
000000 ff 86 0b 3e 9c e4 66 be 24 ed a5 3d 45 33 ad bd
       0.13625716 -0.22548145 0.081018716 -0.084570445
000010 fc c3 90 3d b7 e8 0a bd dd bb 9b 3d 0b 6e 8c bd
       0.07068631 -0.03391334 0.076041915 -0.068569265
000020 e9 02 c2 bc b9 96 a1 bd c8 8f 2d bd c3 6c 72 bd
       -0.023683028 -0.07890076 -0.04237345 -0.059185755
000030 b4 dc 9c bd 48 e6 57 bd 3b 4f aa 3d 54 df 08 bc
       -0.07659283 -0.052709848 0.08315893 -0.008354027
000040 58 de 5b 3e b8 b5 28 3d f6 e8 60 3d 29 d7 55 bb
       0.21471536 0.041188926 0.05490967 -0.0032629466
000050 fe e1 ad 3a 02 6f 8e bd ae a7 45 bd b3 0c 81 3d
       0.0013266203 -0.06954767 -0.048255615 0.0630125
000060 b1 74 07 be dc fc 48 bc 31 d6 71 bd 67 81 d7 bd
       -0.13228108 -0.012267318 -0.05904216 -0.105227284
000070 70 77 06 bd 10 fa a7 bd 08 53 38 3e 18 63 23 bd
       -0.03282875 -0.082019925 0.18000424 -0.039889425
000080 f9 dd 21 be e5 2c a2 3a b0 75 58 be a8 82 2d 3d
       -0.15807332 0.0012372999 -0.21138644 0.04236093
000090 77 a5 a7 3d 5c bf ea bb 64 44 f4 bc 83 59 91 bd
       0.08185857 -0.007163925 -0.029817767 -0.07097151
0000a0 ff 4e 4a be f7 0e 85 3d 35 90 1a be e4 a8 67 bd
       -0.19756697 0.06496995 -0.15094073 -0.05655755
0000b0 db b1 fe bc 39 72 85 bd 2d 3c 08 bc 87 62 36 3d
       -0.031090667 -0.06515927 -0.008315128 0.044527557

1.4.weight f4 [48, 48]
000000 b8 32 b7 3d 0f 69 7f 3d 2e 3d 0a bd 9e 79 ac bd
       0.08945221 0.06235605 -0.03374975 -0.08421634
000010 f3 a7 59 3d 19 08 d6 3d 91 36 b1 bd 3b df 22 bd
       0.053138684 0.10450763 -0.08652986 -0.03976367
000020 ea e1 d7 bd 65 d3 f8 bd aa 84 05 bd 31 fc fa bd
       -0.105411366 -0.12149695 -0.03259722 -0.12255133
000030 b2 e3 77 3d 2f 39 fe 3d 32 d7 8a 3b 5a 50 11 3e
       0.06051988 0.12413251 0.004237079 0.14190808
000040 15 b6 f4 3d c4 3c 54 3d 5e 4f d7 bd 7a d2 b9 bd
       0.11948792 0.051815763 -0.10513185 -0.09073348
000050 ed 76 af 3d 62 0c af bc 03 78 f2 3d ac 37 48 bc
       0.08567605 -0.02136821 0.11839297 -0.012220304
000060 e5 10 00 3e f1 94 33 3e 8f 64 8b bd 41 f2 a2 bc
       0.12506445 0.17537285 -0.068062894 -0.019890906
000070 a3 fa d2 bc 08 36 16 be 85 b5 60 bc f1 2e cb 3d
       -0.025754279 -0.14669049 -0.013715153 0.09921063
000080 33 4c dc bd 4d 6e 9d 3d 04 54 0d be 4a 64 b0 bd
       -0.10756721 0.07687054 -0.1380158 -0.086128786
000090 76 86 32 bd 00 90 05 bd fa b6 93 3d 1d 85 bc 3d
       -0.043585263 -0.032608032 0.072126344 0.09205077
0000a0 67 00 8b 3d 1f e4 f0 3d 38 70 c7 bd 93 82 fb bd
       0.06787186 0.11762261 -0.09738201 -0.122807644
0000b0 ef 59 2e 3d c8 21 0f 3c ee 5d 77 bc e9 d4 82 bc
       0.042566236 0.008736081 -0.015098078 -0.015970664
0000c0 ae df 8a 3d 8a 05 0b 3e 9e 1c 4d 3d 65 66 ae 3d
       0.06780945 0.13576332 0.05007612 0.08515624
0000d0 98 e5 ff bd b3 bb 99 bc 85 50 08 be fc dc 8e 3c
       -0.124949634 -0.01876626 -0.13311966 0.017439358
0000e0 c5 5c aa 3b da ce e7 3d 49 dc a0 3d 81 d8 0c be
       0.0051990473 0.11318751 0.07854516 -0.13754465
0000f0 69 19 f4 bd 2d ea 42 bd 0b a2 f8 bd 8b 10 1a 3c
       -0.11918909 -0.04758661 -0.12140282 0.009403358
000100 a0 8a 97 bd 67 09 89 3c 05 b6 93 3d 62 1f c7 bd
       -0.073994875 0.016728116 0.07212452 -0.09722783
000110 84 88 2a bd e3 3e ed bc 81 25 21 3d 95 92 9f 3b
       -0.041634098 -0.02896065 0.039342407 0.004869769
000120 99 ad ce bd 36 c5 71 3d 1d f0 1f 3d bd b6 0e be
       -0.10091705 0.059025966 0.03904735 -0.13936897
000130 80 89 35 3d d9 d7 51 3d 87 e4 6f 3d ba cc eb 3d
       0.044320583 0.05123124 0.05856755 0.11513658
000140 69 7f 11 3e 4a 0b 79 bb b4 ff e5 bd ec 39 80 3d
       0.1420876 -0.0038001114 -0.11230412 0.06261048
000150 94 52 25 bd bb af ac 3d 66 a1 00 3e b6 de a5 bd
       -0.040361956 0.084319554 0.12561569 -0.08099119
000160 19 f2 9b 3c 7d 5c 08 be b7 66 73 bd 35 cc 2a 3d
       0.01903634 -0.13316531 -0.05942413 0.041698653
000170 5c b0 a5 bd c7 d2 c0 bc 77 ed f8 3c 2f 78 0e be
       -0.080902785 -0.023538006 0.03038667 -0.13913034
000180 67 84 0e 3e b3 43 c4 bc ba 80 df bd ab e8 16 bd
       0.13917695 -0.023958063 -0.109132245 -0.036842983
000190 86 e4 e3 ba ae df 21 bd f7 a0 85 bd 93 04 c5 bd
       -0.0017386831 -0.03951996 -0.06524842 -0.09620013
0001a0 83 4b c0 bd 61 b6 01 3e f7 8a d2 3c 62 4d 57 bd
       -0.09389403 0.12667228 0.02570103 -0.052564032
0001b0 51 36 b8 3d 11 fa f8 bd 60 ed 0b 3e 8a 79 97 3d
       0.08994735 -0.121570714 0.1366477 0.073962286
0001c0 00 57 39 3e c4 ee e3 3d 9b ec c5 bc dc 96 cb 3d
       0.18099594 0.11129525 -0.024160674 0.099408835
0001d0 aa 60 09 be ad 29 02 be b3 e9 b5 3d 5d 8f e5 bd
       -0.1341578 -0.1271121 0.08882465 -0.11208985
0001e0 63 49 ff 3d 6b f7 18 3d c2 22 a6 3c cd db 18 bc
       0.12465169 0.03734533 0.020280246 -0.009329748
0001f0 da e7 0b be d5 31 95 3c 02 5a 59 bd ab 1f 66 3d
       -0.13662663 0.018212238 -0.053064354 0.056182545
000200 2f 04 8a 3d 7e ca bc 3d 75 78 b1 bd d7 bc 30 3d
       0.06739079 0.0921831 -0.086655535 0.04314884
000210 f2 3d ae 3d 4a 3e fa bc 2a 4a 4c 3d 09 56 0b 3e
       0.08507909 -0.03054728 0.049875416 0.13607039
000220 73 7b 23 be 88 2e 02 3e 15 85 11 be c2 f3 91 bc
       -0.15965061 0.12713063 -0.14210923 -0.017816428
000230 f3 14 f6 3d 75 ef d8 3d 3a f2 df 3d f9 96 ab bd
       0.120157145 0.10592548 0.10934873 -0.08378405
000240 e6 9b 8a bd a3 89 20 be de 7c 93 bc dd ef 44 3d
       -0.067680165 -0.15677504 -0.018003877 0.048080314
000250 8a 08 a2 3c 0c 6e bf bd f4 71 ea bd 66 b4 fc 3d
       0.019779462 -0.09347162 -0.11447516 0.12339096
000260 68 3b 29 3d 0e 3d 9c 3d ac bd b3 bb 96 84 4c bd
       0.04131642 0.07628833 -0.005485257 -0.04993113
000270 ed 8b 88 3c 6e b0 10 3e 4c 10 51 bd eb 42 06 3e
       0.016668284 0.14129803 -0.051040933 0.13111465
000280 d6 c7 0b 3e 18 b0 16 3e 08 1a 38 3d 7f 83 8b bd
       0.1365045 0.14715612 0.0449467 -0.0681219
000290 93 d6 e2 3d b1 83 0f be 14 85 45 bd d0 d8 27 bd
       0.11076083 -0.1401508 -0.048222616 -0.040978253
0002a0 2a e2 ca bd be b2 85 ba 96 0a bb bd b6 0d 76 3d
       -0.099064186 -0.0010200364 -0.091328785 0.06007167
0002b0 0c a0 84 bd 53 58 a0 bd d5 b1 48 3b 78 8e ec bd
       -0.06475839 -0.078293465 0.0030623574 -0.11550611
0002c0 2c a4 ce 3d e8 69 7b bd d0 8a 25 bd 6c 4c 62 bd
       0.10089907 -0.061380297 -0.040415585 -0.055248663
0002d0 d6 97 6c bd e9 73 07 3c f3 47 be bd 0d 43 bb bd
       -0.05776199 0.008267381 -0.09291067 -0.09143648
0002e0 52 7a e9 bb 77 b8 36 bd 19 0c fb bd d5 78 aa bc
       -0.0071251774 -0.044609513 -0.12258167 -0.02080957
0002f0 9f f7 f7 bd ab b8 17 3d 00 ca fb bd b7 59 fb 3d
       -0.12107777 0.037041347 -0.12294388 0.12272971
000300 3d 2c 9a bd f3 88 e7 bd 4f 07 c0 bd e7 9a b0 3d
       -0.07527969 -0.11305418 -0.09376394 0.08623295
000310 4f f6 13 3e 0c e1 f4 bb 5d 99 b8 bd 2b c0 e8 3d
       0.14449428 -0.0074731167 -0.09013627 0.11364778
000320 6b e3 1e 3e 8a 77 ac 3d b6 45 d6 3d c8 8d b8 3d
       0.1551644 0.08421238 0.10462515 0.090114176
000330 b1 b1 a2 bd 95 8a 02 be 9d ad 6c bd 31 f4 dd bd
       -0.07944048 -0.12748177 -0.057782758 -0.108375914
000340 1e 5d 36 3d 37 95 fe bd f8 4e a2 bd da cd 18 3d
       0.044522397 -0.12430804 -0.07925218 0.03730569
000350 5e 0c cf bc 6b 7f 23 3c ea 12 ec bc eb bb c2 3d
       -0.025274452 0.009979109 -0.028817613 0.09508499
000360 3d 78 36 3d 50 02 13 3d 52 73 3b 3d cc 14 9c 3c
       0.044548262 0.035890877 0.045764275 0.019052885
000370 85 b5 25 bd 88 16 07 3d b5 ab e7 bd 1a 33 65 3d
       -0.040456314 0.03298047 -0.113120474 0.055956937
000380 e3 4a a7 3d 82 1a ff bd 9d 9f 64 3d 1a 51 bb bd
       0.081685804 -0.12456228 0.05581628 -0.09146328
000390 b7 e8 80 bd d6 c4 ef 3d 38 e9 87 3c e3 04 1c bd
       -0.06294387 0.11707465 0.0165907 -0.038090598
0003a0 b1 bf ae 3d 3a 88 60 3d 37 d9 fc 3d 08 9e 9c 3c
       0.08532656 0.054817416 0.12346118 0.019118324
0003b0 9b bc 22 bd 21 31 aa bb 70 b4 9e 3d 70 04 0a 3e
       -0.03973065 -0.005193845 0.077492595 0.13478255
0003c0 5c 96 68 bd e9 e3 18 be 3f c9 b0 bc af 30 6e 3d
       -0.05678402 -0.14930691 -0.021580337 0.058151897
0003d0 48 6f ea 3d 29 b6 25 bd 4d b4 09 3e 2b 77 46 bd
       0.114470065 -0.040456925 0.13447686 -0.04845349
0003e0 cb be 93 bd a9 c8 db 3d 6e 6f 20 3e ea 36 f0 3c
       -0.07214125 0.10731632 0.15667507 0.02932306
0003f0 95 89 0d 3e e5 57 6a bd 0f 65 0e be f8 a9 22 be
       0.13822015 -0.05721273 -0.13905738 -0.1588515

1.4.bias f4 [48]
000000 b5 15 0d 3d 62 c6 d8 3d b4 13 f7 3d 3c 52 39 3d
       0.03444453 0.105847135 0.12064305 0.04524444
000010 20 7a b7 3c 11 0f aa bd b4 3e 22 bc d2 88 39 bd
       0.0223971 -0.08303655 -0.009902645 -0.045296498
000020 ef 4c e7 3d 5c 2a ce 3d c7 27 b3 bd 76 b9 55 bc
       0.11293971 0.10066673 -0.08747821 -0.013044706
000030 24 4e ca bd 28 f2 99 bc b0 dc 8f 3b cc c7 9b bc
       -0.098781854 -0.018792227 0.0043903217 -0.019016169
000040 39 48 a9 3e e7 ab 9e 3d b9 d1 36 3e 7e e4 d1 3d
       0.33062914 0.077476315 0.1785344 0.102486596
000050 09 1d 98 3e dc 9a 59 bc 49 5a 8c bd 96 c2 cc 3d
       0.29709652 -0.01328155 -0.06853158 0.09998052
000060 6a 22 2b bc 91 cb aa 3d 0a 37 b5 bc 5c 86 3c bb
       -0.010445217 0.083396085 -0.022120971 -0.0028766608
000070 48 cd 28 be 42 f7 1f bd b8 b6 d1 bc 6d 07 71 bd
       -0.16484559 -0.039054163 -0.025599822 -0.058844972
000080 c8 be bf 3c 21 e4 3b 3c e0 48 2c 3d 11 6a 18 3d
       0.023406401 0.011467964 0.042061687 0.037210528
000090 fc 58 eb 3d 6d e4 d9 3d a7 29 fe 3d 57 93 fc 3d
       0.11491582 0.10639272 0.12410288 0.1233279
0000a0 38 87 f9 bd e9 16 03 be 1d 2a 05 3e fa 13 37 3d
       -0.12183994 -0.12801708 0.13004346 0.044696786
0000b0 e0 4d 0e bc ff f6 f0 3d fe 1d a0 bd cc 68 ea 3c
       -0.008685559 0.11765861 -0.078182206 0.028614424

1.6.weight f4 [36, 48]
000000 5f ae a0 bd 6c 50 3e bd 65 f8 03 3e 85 95 12 3d
       -0.07845759 -0.046463415 0.12887724 0.035787124
000010 09 16 14 bd 30 2a f4 bc 2f 82 db bd 6f 33 d8 bc
       -0.036153827 -0.029805273 -0.1071819 -0.026391713
000020 d5 75 7c 3d a8 20 8f bc 7b 0e 4b bd 7a f2 04 3d
       0.06163581 -0.017471626 -0.049574357 0.032457806
000030 f9 f1 14 3d db 69 b5 bc 8a 02 3f 3c cc 33 14 3e
       0.036363576 -0.022145202 0.01165832 0.14472884
000040 0b a0 9e 3d 67 2d ce bc 4d 25 d6 3d 62 e0 c4 bd
       0.077453695 -0.025168134 0.10456333 -0.0961311
000050 e6 28 b3 bd 99 7d d2 bd 9d bd 0f bd 90 ad 00 3e
       -0.08748035 -0.10277862 -0.03509294 0.12566209
000060 75 89 27 3d e4 32 db 3d ab 6c eb bd 27 7d 17 3d
       0.040902574 0.10703066 -0.11495336 0.03698459
000070 e5 a4 49 3c 7c b4 82 bd 71 f5 6e bd e4 3b ec bd
       0.01230738 -0.06382081 -0.05833954 -0.11534861
000080 14 c0 f6 bd 68 3f 9c 3c 60 de 5a bd 65 9e eb bd
       -0.12048355 0.019073203 -0.05343473 -0.11504821
000090 ce a2 0b bd 5e ed 72 3d c0 35 d6 3d 8a d3 bd bc
       -0.03409081 0.059308402 0.10459471 -0.023172159
0000a0 91 28 b7 3c 2a c4 12 be 58 5c b7 3d 85 75 92 3d
       0.02235821 -0.14332643 0.0895316 0.07151321
0000b0 61 95 00 3e 5a 5d 51 3c 8d 84 c2 bc 0c bd b2 bd
       0.12556984 0.012778604 -0.023744846 -0.08727464
0000c0 43 0a e6 3d 34 86 b4 bd 49 21 83 bb de 60 49 3d
       0.11232426 -0.0881466 -0.0040017706 0.049164645
0000d0 ec 27 c5 3d bc f9 ba bc 6e ef fa 3d 0f e7 e2 bd
       0.09626755 -0.02282416 0.12252699 -0.11079227
0000e0 ca ce 5b bd bd 79 11 3d bd b1 e8 bc 91 cd 10 3e
       -0.053664006 0.03551649 -0.028405065 0.14140917
0000f0 88 17 8a bd e8 8d b4 bd df 94 f6 bc 17 22 6a 3d
       -0.067427695 -0.08816129 -0.030100284 0.057161417
000100 88 00 b7 bd 18 d8 ba bd 69 2a 0f 3e 79 22 bd bd
       -0.08935648 -0.09123248 0.13981022 -0.09235091
000110 38 a8 53 bb 9b 7f f0 bd 9e 82 ab 3d 20 59 00 3d
       -0.003229631 -0.11743089 0.083745226 0.031334996
000120 bb 1e 2b bd 86 1e f5 3d 80 7f 17 3d 2b aa 0d 3e
       -0.041777354 0.119687125 0.036986828 0.13834445
000130 32 0a b8 3d 3c 07 c4 3d aa be 3e 3d af 07 f9 bd
       0.089863196 0.09571692 0.04656855 -0.12159669
000140 d4 41 c5 bb 3e 1b 17 bd cb e4 3e bd a1 64 0c be
       -0.00601981 -0.036891215 -0.046604913 -0.13710262
000150 91 b3 ba bd af c1 cf 3d 45 5f d4 bd dc 2e ca bd
       -0.09116281 0.10144364 -0.10369734 -0.09872219
000160 83 e2 95 bd 18 8c 71 3d 7f b2 d1 3c 4f f5 29 3d
       -0.07318594 0.058971494 0.025597809 0.04149371
000170 39 e4 dc 3d 67 58 02 be a0 71 0d be be f7 e1 bd
       0.107857175 -0.12729035 -0.13812876 -0.11033581
000180 27 d3 1a bd 96 90 f0 bd 12 1c c0 bd 64 3b ae 3b
       -0.037799027 -0.117463276 -0.09380354 0.0053171385
000190 d2 06 b3 bd dd 2a 50 bd 67 de 85 3c ba c4 cf 3d
       -0.08741535 -0.050822128 0.016341401 0.101449445
0001a0 48 71 0f 3d e9 0d ec 3c 97 c9 18 be 1c 50 62 3d
       0.035020143 0.028815227 -0.1492065 0.05525218
0001b0 6f 84 05 be e9 3e 92 bd a3 8c 2d bd 64 de a8 3d
       -0.130388 -0.071409054 -0.04237045 0.08245543
0001c0 4a 95 5a 3e fa 30 af 3d 08 6a 21 3c 30 9e f5 3c
       0.21346012 0.085542634 0.00985194 0.029982656
0001d0 d8 bb 11 3e 47 57 92 3c 0a c9 f1 3d a6 0b 48 bc
       0.14231813 0.017863883 0.11805923 -0.012209808
0001e0 84 f1 db bd 28 5a 7c 3d bc 97 cf bc b6 b6 94 bd
       -0.10739425 0.061609417 -0.025340907 -0.07261412
0001f0 c8 00 bc 3d 6a e8 85 bd 05 ec 5c bd 08 b6 3c be
       0.091798365 -0.0653847 -0.053936023 -0.18428814
000200 49 8e 5a bd 7b 10 49 bd 78 05 31 bd 5a e4 06 3e
       -0.05335835 -0.049087983 -0.043218106 0.13173047
000210 38 71 41 bd 13 ed cc 3d 0e 9f c5 3d 89 cf a7 3d
       -0.047227114 0.10006156 0.09649478 0.08193881
000220 f5 4e a8 bd 25 4b 94 3d f1 4e 83 3c 3f 67 ed bd
       -0.08218185 0.07240895 0.016028853 -0.11591958
000230 f3 41 bc 3d 4c 4f 19 3e b4 bc be bd f3 bb e4 3d
       0.09192266 0.14971656 -0.09313336 0.11168661
000240 ab a9 bb 3d e4 42 b1 bc d4 7b 87 bc 55 9a 27 3e
       0.09163221 -0.021638341 -0.016538538 0.16367467
000250 69 bb ca 3d 30 21 f5 bc 33 bf cb 3d b9 2e 0c 3d
       0.09899027 -0.029923052 0.09948578 0.034224246
000260 a4 2c 41 3d 94 eb bc 3d ad 50 ca 3d e0 3e fe bd
       0.047161713 0.092246205 0.09878669 -0.12414336
000270 cb 54 f2 3d da c4 13 ba 0d e7 fd 3d c8 82 8d 3d
       0.11832579 -0.0005636938 0.12397585 0.0690971
000280 3a 03 46 3e a8 96 11 be 2b ce 96 bc b4 88 de bd
       0.19337168 -0.14217627 -0.018408855 -0.10865918
000290 39 b5 3d 3e 16 12 ac bd 1f e7 52 3c 88 74 36 bd
       0.18526162 -0.08401887 0.012872486 -0.044544727
0002a0 c7 10 78 3d 4d 38 79 bd 06 b9 2f bc 94 2d fb bc
       0.060562875 -0.06084471 -0.010725265 -0.030661382
0002b0 75 f3 a8 bd 99 57 ef bd 71 2b 0d 3c c2 27 67 bd
       -0.08249561 -0.1168663 0.008616314 -0.0564344
0002c0 bd d0 05 be c1 03 b7 bc 65 a2 39 3d 32 ed 83 bd
       -0.13067909 -0.022340657 0.045320887 -0.06441726
0002d0 ca 8d 97 3d 22 8c 0e 3e 40 a2 28 3e 12 d5 f5 3d
       0.07400091 0.13920644 0.16468143 0.120035306
0002e0 45 fd 81 3b 8b 92 08 3e 55 5f da bd b1 70 88 bd
       0.0039669597 0.13337152 -0.106627144 -0.06662119
0002f0 68 9b fe bc 0e 92 e4 3d 87 85 0e be 0f 69 14 be
       -0.031079963 0.1116067 -0.13918124 -0.14493202
000300 98 bb 83 bc a5 fc cf 3c ff 03 10 3e f3 8a 11 be
       -0.016080663 0.025389025 0.14064024 -0.14213161
000310 06 37 c7 bc 0a 51 82 3d e4 4c 1e 3e fd 30 3d 3d
       -0.02431823 0.06363113 0.15459019 0.046189297
000320 15 02 3e bd 4b fb 1b bc 5b ae d5 bb 5a e4 b1 bd
       -0.046388704 -0.009520362 -0.006521029 -0.08686133
000330 22 2e 0e be 9d 3e e2 bd 55 08 3d 3c 97 f7 95 3d
       -0.13884786 -0.11047099 0.011537631 0.07322615
000340 34 7c f6 bc a9 d3 6b 3d 6a e8 f8 3d 8f 81 0b be
       -0.030088522 0.0575749 0.121537045 -0.13623641
000350 98 ad 75 bd 6b dd 1b 3d 36 05 de bd a0 22 0a 3e
       -0.059980005 0.038052958 -0.10840838 0.13489771
000360 50 e0 94 bc 90 e2 88 bd a8 30 fc bd a1 c4 f4 bd
       -0.018173367 -0.06683838 -0.12313968 -0.119515665
000370 83 ff 00 3e 55 00 b6 bd 4d 18 c3 bd 27 a6 9b bd
       0.1259747 -0.08886782 -0.095261194 -0.076000504
000380 82 8e 6d bd d3 9f 9f 3d c9 fc ba 3d 24 43 ac bd
       -0.057997234 0.07794156 0.09130246 -0.084112436
000390 2f 06 bb 3d 32 78 90 bd 2a b5 f4 bd 99 db 87 3d
       0.09132039 -0.070541754 -0.11948617 0.06633682
0003a0 81 10 0e be cf c7 d8 bd 7e f3 5a 3d 20 29 32 bd
       -0.13873483 -0.105849855 0.05345487 -0.04349625
0003b0 0e 75 54 bd a2 09 42 bc 87 0f e7 3d c2 b7 d4 bc
       -0.051869445 -0.011843117 0.112822585 -0.025966529
0003c0 74 d5 bb bd 18 3a 4c bd 59 6a 08 be 83 40 db 3c
       -0.09171572 -0.04986009 -0.13321818 0.02676416
0003d0 81 ae f3 bd 06 f4 e2 bd 6d b2 11 3d ba b9 cc 3d
       -0.11898518 -0.110817 0.03557055 0.09996362
0003e0 62 75 16 bd 85 9c 59 3d fe e1 05 be d4 d6 c2 3d
       -0.03673304 0.053127784 -0.1307449 0.095136315
0003f0 bc 0c 73 3c 47 09 b2 bc 56 e0 9b bd 21 0f be bd
       0.014834579 -0.02173294 -0.07611148 -0.09280229

1.6.bias f4 [36]
000000 c5 02 15 bd 4f aa 95 3b 1c ae 99 3c 22 97 83 3d
       -0.036379594 0.0045674215 0.01875978 0.06425311
000010 26 6d 1e 3e 4c 8d 6b 3c fa 0d 3a 3c a3 85 7e 3d
       0.15471324 0.0143769495 0.011355871 0.062139165
000020 64 f8 fd bc d9 ac 7e bc 82 bf 9c 3d 95 37 6c 3d
       -0.031002231 -0.01554414 0.07653715 0.057670195
000030 be ec b3 3d 4d 0e 86 bc 6b d1 4a be 1e 8c e3 3d
       0.08785389 -0.016364241 -0.19806449 0.111107096
000040 92 af f6 3d 08 b7 0c be a8 03 6e bd 3a af 90 bd
       0.12045206 -0.13741696 -0.058108956 -0.07064672
000050 8e 46 f3 3d d4 ec 97 3d 51 de ed 3d 10 80 23 bd
       0.118786916 0.07418218 0.11614669 -0.03991705
000060 b3 5f 2e bd c6 9d b0 bd 6a 89 01 3e 9a f3 0a be
       -0.042571735 -0.08623843 0.12650076 -0.13569489
000070 72 38 35 3e ad 67 38 3d 88 e7 02 3e bd 6b dc bd
       0.17697313 0.045020748 0.12783635 -0.10762737
000080 55 1c e5 3d 3d 8c 7a bd 27 11 c0 3d fd 38 72 bd
       0.111870445 -0.061168898 0.093782715 -0.05913638

1.8.weight f4 [24, 36]
000000 16 89 db bc 82 58 53 3d 53 6b 6c 3d c4 0e 95 bd
       -0.026798766 0.05159808 0.05771954 -0.07278207
000010 99 5f 1b be 8c 60 9b 3d 52 9a 6a 3d 22 e9 26 3e
       -0.15173186 0.07586774 0.057276078 0.1629987
000020 14 18 19 3e 39 bb b8 bd b0 c7 a7 bd 4e 3d db 3d
       0.14950591 -0.09020085 -0.08192384 0.10705052
000030 b9 dc bf bd 8a 3b 4e 3d aa 1d dc bd 1a 5b af bb
       -0.093682714 0.05034975 -0.107478455 -0.0053514363
000040 f3 a2 98 bc 2d 37 e8 bd d0 ac fd bd 94 51 17 3e
       -0.018632388 -0.11338649 -0.12386477 0.14777213
000050 3e 42 25 be 22 2d 06 be bd 97 00 3e b6 40 e1 bd
       -0.1613855 -0.13103154 0.12557884 -0.10998671
000060 9c 87 ad bd 92 bd b0 3b e7 cb 1b be 8f 76 1f 3e
       -0.08473131 0.0053936923 -0.15214501 0.1557257
000070 b7 61 0a 3d da 16 a0 3c 7f a1 8c bd cb 5b 8f 3d
       0.033784594 0.019542146 -0.068667404 0.0699993
000080 13 c6 14 3e a3 a1 9e bc 41 bb d4 bd 93 3f 36 be
       0.14528684 -0.019364184 -0.10387278 -0.17797689
000090 16 d7 87 bd 74 c6 9b 3b a1 95 99 bd e6 0e 2a 3e
       -0.06632821 0.004753882 -0.074992426 0.16607246
0000a0 5e 27 1a be 65 9c 06 be be 72 12 be 7f 84 00 bb
       -0.1505408 -0.13145597 -0.14301583 -0.0019610224
0000b0 87 86 d6 3d 71 20 17 3e 58 65 f8 3d c0 0c be 3d
       0.10474878 0.14758469 0.12128705 0.092797756
0000c0 6b 3b ac bd 1f 2e 24 be 73 8c 74 bc d0 9e 91 3d
       -0.084097706 -0.16033219 -0.014926064 0.07110369
0000d0 ff a3 c6 3d e3 3c 17 3d 83 83 b9 3d 10 38 03 bd
       0.096992485 0.0369233 0.09058287 -0.032035887
0000e0 b1 f5 2a 3e a7 f7 39 3d aa 4b 0a be 13 10 93 bc
       0.16695286 0.045402195 -0.13505426 -0.017952
0000f0 e0 e5 07 be 88 f2 0d bd 10 06 e9 3c 21 ac ee 3d
       -0.13271284 -0.034655124 0.028445274 0.11653925
000100 16 08 d8 bd 56 13 87 bd 70 e4 b7 3c 0f 7b ac 3c
       -0.10548417 -0.06595485 0.022447795 0.021054773
000110 eb 3a 5e bd b5 7a 42 3d 47 57 2f bb 84 a2 f4 bd
       -0.054255407 0.047480304 -0.0026754902 -0.1194506
000120 9f ff 16 3d f8 17 54 bc 41 9f 8e 3d 92 7f 19 3e
       0.036864873 -0.012945168 0.06963969 0.1499007
000130 0d 5e 78 3c 4f bf 28 bd 3a ed 5d 3c 32 9b 1e 3e
       0.015159142 -0.04119807 0.013545329 0.1548889
000140 6e 25 a4 3d fa 07 62 3d 7a 21 08 bd 4b 62 18 be
       0.08014952 0.05518339 -0.03323505 -0.14881246
000150 25 ee ba 3d 47 a2 e2 bd d5 0d a1 bd 0c 00 9f bd
       0.09127454 -0.11066108 -0.078639664 -0.07763681
000160 4e 4f ac 3c 0c f4 29 ba 20 de 86 bd a4 8f b7 bd
       0.02103391 -0.0006483204 -0.06585336 -0.08962944
000170 99 17 23 3d ea 7b 9b 3c d2 2f c5 3d 01 10 fa 3d
       0.039817426 0.018979985 0.096282616 0.12210084
000180 68 74 dd bd 51 ff 06 3e a0 56 24 be 22 e9 51 bd
       -0.10813218 0.13183333 -0.1604867 -0.051247723
000190 86 8e a9 bd 73 f3 22 3e db 95 16 be 00 3c da 3d
       -0.08279137 0.15913181 -0.14705603 0.10655975
0001a0 e3 1f 23 3e 5c c8 db 3d 7e c0 27 be 95 25 04 3e
       0.15930133 0.10731575 -0.16382024 0.12904961
0001b0 f7 54 38 bd f1 a0 5e 3d 76 b9 67 be d7 e8 0f be
       -0.045002904 0.054352704 -0.22629341 -0.14053665
0001c0 1b 98 92 bd 79 cf 91 bd fb 23 1d be 5a a2 57 3d
       -0.07157918 -0.071196504 -0.15345757 0.052645065
0001d0 22 ac df bc 5e f1 fe 3c be 15 9a bd 55 d8 d4 3d
       -0.027303759 0.031120952 -0.07523678 0.103928246
0001e0 7c 68 a3 3d 40 71 08 be af 33 6b 3e 5c a0 5d 3e
       0.07978913 -0.13324451 0.22968934 0.21643203
0001f0 d8 a5 d6 bc 19 86 0d bc a3 aa b7 bd 40 aa f6 bd
       -0.026202127 -0.008637928 -0.08968093 -0.12044191
000200 d2 04 24 3c 38 01 3c be 3d e1 08 be 44 aa 34 be
       0.010010915 -0.1835984 -0.13367172 -0.17643076
000210 7f f6 46 be 1a c7 4c 3d 8a e6 4e 3c 9b d8 c3 bc
       -0.19429968 0.049994566 0.012628207 -0.023906996
000220 4d a5 d5 bd e7 90 29 3e 6d 00 e2 3d 6b 33 de 3d
       -0.10431919 0.16559182 0.110352375 0.10849651
000230 52 97 57 be 5e 70 99 bd 16 94 13 3d 6b 21 08 3e
       -0.21053818 -0.074921355 0.036029898 0.13293998
000240 60 83 c5 bc 29 72 aa bd 06 c2 51 bd 92 f9 3c be
       -0.024110496 -0.083225556 -0.051210426 -0.18454579
000250 9d cd e1 3c 83 10 4e 3e 27 3f 62 be 53 a3 84 be
       0.027563864 0.20123486 -0.22094403 -0.25905856
000260 e9 f8 bc bd 82 bf cc 3c 64 c7 10 3e 46 a1 0f 3e
       -0.09227163 0.024993662 0.14138561 0.14026365
000270 1f 69 c0 bd 0e de e4 3d 89 b0 91 3e ce b4 4a bd
       -0.0939505 0.11175166 0.28454998 -0.049488835
000280 0b 94 17 be a2 b1 04 3e 95 83 12 be 24 a0 a7 3d
       -0.14802568 0.12958387 -0.14308007 0.08184841
000290 76 1e 03 3e 3a 40 47 be ce 60 c5 bc d6 72 1a be
       0.12804589 -0.19458094 -0.024094012 -0.15082869
0002a0 de a8 2c be c2 d8 62 bc 34 be a9 3d 3e 5a 8b 3d
       -0.16861293 -0.013845624 0.082882315 0.06804322
0002b0 cf 65 7f be d6 34 41 bd 16 c4 0a be fe 08 15 be
       -0.2494118 -0.04716953 -0.13551363 -0.14554211
0002c0 97 21 3d be 11 39 55 3d 3b 5f b2 3d 24 cb 50 3e
       -0.18469845 0.052056376 0.0870957 0.20389992
0002d0 0d 1d 1e be 77 30 a9 3b 88 f7 cd bd f2 1f 63 bd
       -0.1544077 0.005163248 -0.100569785 -0.055450387
0002e0 e7 dc e5 3d 7c ba a5 3d 10 be 67 3d 6e 1a 3a 3e
       0.112237744 0.0809221 0.056577742 0.18174145
0002f0 ab 2e c4 3c 8d 9f 0f 3e ac c0 0e be bc 03 c9 3d
       0.023948034 0.14025708 -0.13940686 0.098151654
000300 ec 6c 74 bd 79 6c ea 3d 80 49 15 3c f3 e5 34 be
       -0.05967419 0.11446471 0.009111762 -0.17665844
000310 77 07 ba 3d 54 e6 24 3d 32 6e c3 bc 8f 90 98 3d
       0.09083455 0.04025872 -0.023856256 0.07449447
000320 c0 46 22 bc 69 92 9b bd 58 0d 11 be 95 10 28 bb
       -0.009904563 -0.07596285 -0.14165246 -0.002564465
000330 e5 f0 46 3e 1b d5 31 3e 24 9a 8a bc 6a a7 21 be
       0.19427831 0.1736645 -0.016919203 -0.1578652
000340 63 dd 0f 3e 9c 4d a5 bd a2 8c 93 bd 94 13 b8 bc
       0.14049296 -0.080714434 -0.07204558 -0.022470273
000350 84 48 d2 bd 15 30 36 bd b6 4a 60 bd fb 41 e8 3d
       -0.102677375 -0.04447945 -0.05475875 0.1134071
000360 b5 22 cf 3b c3 a1 8a bc 15 06 0a be 46 d1 7e bd
       0.006321276 -0.016922837 -0.13478883 -0.062211297
000370 de c7 aa 3c a6 39 ca bd 36 68 d3 bc 42 ff 5a 3d
       0.020847257 -0.09874277 -0.025806528 0.05346609
000380 91 dd f0 bd 93 0f 94 bc 31 03 02 3e b6 f5 99 3d
       -0.117610104 -0.018073833 0.1269653 0.07517569
000390 02 f7 fe bb 78 71 24 3e 30 ae c6 3d 87 35 0a bc
       -0.0077809105 0.1605891 0.097011924 -0.0084356135
0003a0 ae 6c b5 bc 4d 17 e3 bd 3c 73 5e 3d df d0 7c bd
       -0.02214655 -0.11088429 0.054309115 -0.061722632
0003b0 1d d3 42 be c9 f5 8f 3d 8f d5 b2 bd c2 8a fe 3c
       -0.19025846 0.07029302 -0.08732139 0.031072024
0003c0 ab 16 01 3e 2e f3 07 be a3 5f 3e bc eb 1d 6c 3d
       0.12606303 -0.1327636 -0.011619481 0.05764572
0003d0 9e 06 d4 3d d7 89 f3 3d f1 fd ee bc 02 f8 3b 3e
       0.10352825 0.11891525 -0.029173823 0.18356326
0003e0 5d 9c be 3b 64 bf 36 bc 82 5f 26 3e c6 ce f8 3d
       0.00581698 -0.0111540295 0.16247371 0.12148814
0003f0 b4 03 88 bd 22 b3 1a be fe 93 1e be a1 ed 6d be
       -0.06641331 -0.15107396 -0.15486142 -0.2323518

1.8.bias f4 [24]
000000 77 fc 97 bd 88 1b ea bd 6b ec 85 3d e6 d0 ac 3c
       -0.07421201 -0.114310324 0.06539234 0.021095704
000010 d0 54 6a bd 6f db 5d be 77 81 19 bc c1 49 81 3d
       -0.05720979 -0.21665739 -0.009369246 0.063128956
000020 b0 49 42 bc fa 02 93 3d a9 49 db bd 7d 27 19 3e
       -0.011858389 0.07178302 -0.10707409 0.1495647
000030 0f e9 54 be 35 00 b4 bc ae 28 27 3e f8 f7 ad bd
       -0.2079203 -0.021972755 0.16324112 -0.08494562
000040 98 fe 1f be b8 a2 ef 3c a0 7d 90 bd d8 37 07 be
       -0.15624464 0.029252395 -0.07055211 -0.13204896
000050 4f ae 21 3d fc 5d 0b be c8 70 49 bd fd 21 21 3d
       0.039472874 -0.13610071 -0.049179822 0.039339054

1.10.weight f4 [12, 24]
000000 6a 35 0d 3c 4f 95 13 be cb fc 66 3e 3c 9f 77 be
       0.008618692 -0.14412425 0.2255737 -0.24181837
000010 fa 82 37 be 29 60 b1 3d 79 a2 40 3e ce 0f f3 bd
       -0.17921057 0.08660919 0.18811978 -0.11868249
000020 fd 7c 78 3e 96 74 1e 3d d1 fc 26 bd 2d a6 5a bc
       0.24266429 0.038685404 -0.04076845 -0.013345283
000030 f6 24 f9 3d 93 b5 2a be 00 59 ce bd 99 b9 e3 ba
       0.12165253 -0.16670828 -0.10075569 -0.0017374038
000040 d1 9e 8e 3e b6 ae e6 3d 2d 1c 39 3d 7a fa 4f 3e
       0.27855542 0.11263792 0.045192886 0.20310393
000050 96 9d 19 3e 12 9d 11 3e 83 5a 1e 3e 8b 0c 5f 3e
       0.1500152 0.14220074 0.15464215 0.21782129
000060 70 6e 65 3e 0b 5a 4d 3e ed 84 50 be 5f 24 28 bd
       0.2240541 0.2005388 -0.20363207 -0.04105031
000070 87 2d a2 3c 75 b8 18 be c6 e4 c2 3c 9b f2 02 3e
       0.0197971 -0.14914115 0.023790728 0.12787859
000080 e4 00 d2 3d 4d 9a 03 bc 33 07 16 be a5 70 9a 3d
       0.10254076 -0.008032394 -0.14651184 0.075410165
000090 52 da 23 3e aa 55 50 3e 06 59 de bc 18 1b 63 3e
       0.16001251 0.20345178 -0.027142059 0.22178304
0000a0 f1 ea 19 bc 99 9b e8 bd b1 62 18 be 8d 4c 72 3e
       -0.009394393 -0.11357803 -0.14881398 0.23662014
0000b0 71 b4 ed bd f4 e3 82 3c 8c ef 6d 3d b5 4b 4c be
       -0.11606682 0.015977837 0.058089778 -0.19950755
0000c0 15 09 91 be 57 7d c1 bc ba 4d 4a be 33 d6 25 3e
       -0.28327242 -0.023619337 -0.19756213 0.16194992
0000d0 71 11 44 3e c3 26 af 3c 7a 5c 92 3d 25 c7 9f 3e
       0.19147278 0.021380788 0.07146545 0.31206623
0000e0 d2 49 59 3e f7 3a 1a be a6 4e a7 bd f5 66 41 3d
       0.21219566 -0.15061556 -0.08169298 0.047217328
0000f0 29 88 b4 bd 71 ee 21 be d9 ca 38 3e 88 0d 07 be
       -0.08815033 -0.15813614 0.1804613 -0.13188756
000100 17 64 18 be cc 97 f6 3c 41 e1 04 3e 6f 05 a4 3c
       -0.14881931 0.03010168 0.12976553 0.020022122
000110 e1 ec 09 be 1e a1 c8 bd 09 73 6b 3c 88 39 9a bd
       -0.13469268 -0.09796356 0.014370688 -0.075305045
000120 3c 72 fa 3d 1b 96 0c bd 3f d1 db bd 82 ee ea bd
       0.1222882 -0.03432284 -0.1073327 -0.11471273
000130 14 90 06 be 17 bf e4 3d 23 3b 35 bb 51 de 6e be
       -0.13140899 0.1116926 -0.0027653656 -0.23326994
000140 c1 88 3b be 1d 4a 0e 3e 35 9c 33 3e 86 18 2d bd
       -0.18313886 0.1389546 0.17540057 -0.042259715
000150 5f fa 70 3e 40 dc 85 b9 91 91 05 be e0 c7 ba 3d
       0.23533009 -0.00025531836 -0.1304381 0.091201544
000160 91 6b 1a 3d d6 8d 74 bd f4 08 99 3d 01 69 3c 3e
       0.03770024 -0.059705578 0.07472411 0.18399431
000170 e1 9b 7c 3d 13 72 05 be 67 ec ba 3d a6 a1 60 bd
       0.061672095 -0.13031797 0.091271214 -0.05484166
000180 8d cd 14 3c da 7f 68 bc 4a 75 67 3d e1 e1 95 3d
       0.00908221 -0.014190638 0.05650834 0.073184736
000190 db 88 99 3e 43 f5 8a bd 26 fa 66 3d a6 ae 90 bb
       0.29987225 -0.06785061 0.056390904 -0.004415351
0001a0 ff 09 48 bd cf 72 7b bd 9d b9 9a 3d ec 7f 3f bc
       -0.048837658 -0.061388787 0.07554934 -0.011688214
0001b0 54 49 89 be e6 5c 28 be ef 79 66 3e 0b c9 4d bd
       -0.26813757 -0.16441688 0.22507451 -0.050240558
0001c0 27 1b 44 bd da b1 fa 3d cf f4 a9 3d b8 0b 66 be
       -0.047877457 0.12240954 0.08298647 -0.22465408
0001d0 6c 40 45 3c c3 b2 1b be a4 b2 2e 3e db 2e 76 be
       0.012039285 -0.15204911 0.17060333 -0.24041311
0001e0 0b 32 03 be 29 be 20 3e 91 43 78 bc 42 35 86 3e
       -0.12812059 0.1569754 -0.015152828 0.26212507
0001f0 e5 8b 44 3e 9e 3a 3f bd 39 d1 14 be 7d 3a 84 3d
       0.1919399 -0.04668676 -0.14532937 0.06456468
000200 09 54 c5 3d 54 69 26 be b8 1f e9 3d 95 01 8d 3d
       0.09635169 -0.16251117 0.11383003 0.068850674
000210 f2 bb b1 bc 22 8b dd bd d8 19 2a be e4 19 90 bd
       -0.021696065 -0.10817553 -0.16611421 -0.07036188
000220 40 d7 18 be c5 f5 a8 bd 90 aa e6 ba f3 59 93 be
       -0.14925861 -0.08250002 -0.0017598439 -0.28779563
000230 d7 c7 d8 3d 52 96 30 bd a7 ce 97 bd 60 1e a9 3b
       0.105849914 -0.043112107 -0.07412463 0.0051610917
000240 f1 52 28 be ae cd af 3d f0 29 24 3d d8 0c 3a be
       -0.1643789 0.08584152 0.040079057 -0.18168962
000250 7c 0b 11 be 21 f0 d6 3d 3b 65 6f be 5d d4 f5 bd
       -0.14164537 0.1049502 -0.2337846 -0.12003396
000260 cb 19 36 be 44 12 f5 3d 50 ab c6 3d f8 46 a1 3d
       -0.17783277 0.119663745 0.09700644 0.07874864
000270 ec 1c 4f 3e 65 53 55 3e 14 ad 1c be c8 86 e3 3c
       0.20225877 0.20832594 -0.15300399 0.02777423
000280 54 90 d4 bd 8f b5 51 3d 38 56 87 bc 77 80 a7 bd
       -0.10379091 0.05119854 -0.016520604 -0.081787996
000290 83 08 79 3d 13 eb 3b bd 74 22 ec 3d 78 27 0c be
       0.060799133 -0.04587848 0.11530009 -0.13686931
0002a0 ff d8 c8 bc 9a 62 32 be f7 4a 20 3e 9f ea 0d be
       -0.024517534 -0.17420426 0.15653597 -0.13859032
0002b0 6a 38 3a be b9 fb 16 3e 81 f2 22 be a4 fc e4 bd
       -0.18185583 0.14744462 -0.1591282 -0.11181
0002c0 0c 20 42 3e 67 06 fa 3c fd 5c 53 be c0 65 21 3e
       0.18957537 0.030520631 -0.20640941 0.15761471
0002d0 53 ff 32 3e ff 6d 0c 3e e4 2c 5e be f9 4e e2 3d
       0.17480211 0.13713835 -0.21696812 0.11050219
0002e0 99 cc dd bd cb f6 3c 3e 98 fb c6 bc dc 92 81 bc
       -0.108300395 0.18453519 -0.024289891 -0.015817098
0002f0 d3 85 81 bd 5d 56 ae 3d 2e f0 b3 3d 74 31 f4 bd
       -0.06324353 0.08512566 0.08786045 -0.11923495
000300 38 35 9d bc 51 6c 13 3e 1e 4d c3 3c 71 da 0f 3e
       -0.019190416 0.14396788 0.023840483 0.14048173
000310 5c e9 3c 3e a6 96 1b be f9 8b 68 3e 59 d5 8e 3e
       0.18448395 -0.15194187 0.22709645 0.27897146
000320 46 83 40 3e ea 22 8a be 45 77 04 be d8 54 99 bd
       0.18800077 -0.26979762 -0.12936123 -0.07486886
000330 07 c1 01 be f3 b6 1d 3e 4d ee 29 be 27 c9 51 3e
       -0.1267129 0.15401821 -0.16594811 0.2048689
000340 df 2b bf bd ae 70 54 be 0f 9e 35 be 1b da 42 3d
       -0.093345396 -0.20746109 -0.17736076 0.047571283
000350 70 9e 5f 3e d5 70 07 be a2 b9 c6 3c 36 90 22 3c
       0.21837783 -0.13226636 0.024258438 0.009922078
000360 57 a1 0b 3d 43 d6 33 be 5d 29 f5 bc f1 fb 42 3e
       0.034089413 -0.17562203 -0.02992695 0.1904142
000370 75 9c ba 3d 43 29 3c be 0b 2b a8 bd 4a 55 8d 3e
       0.09111873 -0.18375115 -0.08211335 0.27604133
000380 c1 45 de bd dd ce 25 be 21 cb f0 3d b6 34 6a 3e
       -0.10853148 -0.16192193 0.11757494 0.2287167
000390 ca 3d e5 3d a1 23 11 bd 2b f5 d6 3c 08 11 34 be
       0.11193426 -0.03543437 0.026239952 -0.17584622
0003a0 4d 21 f8 bd b8 9c 8e 3c 30 5c fa bd 3f 12 05 3e
       -0.121157266 0.017408714 -0.122246146 0.12995242
0003b0 81 b8 09 3e 74 4f 17 be 67 5a 88 bc 2d b7 ab 3d
       0.13449289 -0.14776403 -0.01664467 0.083845474
0003c0 0f 3c 58 be d3 91 5d be 35 96 0b b9 1a 9e 27 3e
       -0.2111666 -0.21637659 -0.0001331203 0.16368905
0003d0 48 4b 9d 3e a0 82 99 3c c4 71 85 3a be 46 6c 3e
       0.30721498 0.018739045 0.0010181 0.23073861
0003e0 b7 46 d0 bd 98 b3 cc bd 3d 93 59 be d5 2d 23 be
       -0.10169738 -0.09995192 -0.21247573 -0.15935452
0003f0 11 9d f0 3c 68 8c 7b 3d b1 1b 1a 3d a3 5e 21 bd
       0.02937177 0.0614132 0.037624065 -0.039396893

1.10.bias f4 [12]
000000 f6 eb 34 be 83 02 39 3c fa ef 2f 3e 53 70 3b be
       -0.17668137 0.011292103 0.17181388 -0.18304567
000010 a5 3d 8a 3e b8 fb bc 3e 98 6a 3a be d0 86 0d be
       0.27000156 0.36910796 -0.18204725 -0.13820958
000020 c8 ff 7b 3e 1d 81 21 3e c3 87 ae 3e 3c da ba bd
       0.24609292 0.15771909 0.34087953 -0.09123656
