JSP/trained models/N_2019_rwd3.pt (torch_old, 9643 bytes, 10 tensors)

0.0.weight f4 [5, 5]
00000000: 7777 843f 8e0d 833f 9d8d 763f eb1e 803f
00000010: 31f4 823f 9c9e 8f3f 6092 7d3f eeec 6e3f
00000020: 008f 803f 3713 8b3f cdfd 883f cdc7 8d3f
00000030: 4f41 763f cee4 813f f2c3 8b3f e252 833f
00000040: 7f7e 893f 7702 753f 2143 7e3f 6da8 7f3f
00000050: aea2 893f bafc 843f 0698 883f 41f6 9d3f
00000060: 4f60 863f
1.0348958 1.0238512 0.96309835 1.0009435 1.0230771 1.1220279 0.99051476 0.93330276
1.004364 1.0865239 1.0702454 1.1076599 0.96193403 1.0147951 1.0919173 1.0259669
1.0741729 0.95706886 0.9932118 0.9986637 1.0752771 1.0389626 1.0671394 1.2340776
1.0498141

0.0.bias f4 [5, 5]
00000000: 53f0 d73c eeb3 1c3d 3992 6e3d 7ec3 97ba
00000010: 45ba e6bd bafe e43c e88e c23c ab32 5a3d
00000020: 1ed7 103d e743 c3bd a0ad 36bd d389 143e
00000030: 4e8a 0a3c 4ec9 48bd 50f9 d7bc da0d df3c
00000040: 1fc7 273d f4f8 2d3d f9f7 e43c 5dc3 3fbd
00000050: 424e 703c 42b1 84bc 42c4 92bb 273d 38be
00000060: 8ddf 073c
0.026359713 0.03825753 0.058244918 -0.0011578647 -0.11265997 0.027953494 0.023749784 0.053270977
0.0353614 -0.09534436 -0.044599175 0.14505701 0.008455826 -0.049020104 -0.026363999 0.027228285
0.04096138 0.04247375 0.027950274 -0.046817172 0.014667096 -0.016197804 -0.004478962 -0.17992078
0.008293045

1.0.weight f4 [32, 25]
00000000: 0267 2f3e fb76 173d ebb7 353d 3b87 3fbe
00000010: 7b17 a83c a85a 91ba 09b2 423e 81cb 26bd
00000020: 5103 61be 0d94 b33d dcc7 e9bd 0765 38bd
00000030: d4ac 10be e4cb 233c 3fc1 86bd 88ac 40be
00000040: e551 373e a7dc 173e a9cd 1e3e 94f9 223e
00000050: 6d4b d3bd ac49 47be fc15 b0bd aa96 c2bd
00000060: 6c59 40be a043 68bd e531 df3c f418 003d
00000070: 8ec0 86bc 8416 8d3d 27b4 fd3d 2c36 603e
00000080: d3ed 273d cafe 563e 25e7 13bd d159 ecbd
00000090: 2abf 6c3d d7c5 bc3d 55e2 bdbd 36bd 49bd
000000a0: b96b 803d b078 28be b803 81bd a970 133e
000000b0: ba74 d03d 51e4 87be 7415 7cbe dc04 0e3e
000000c0: 824e b0be 3bc3 5e3e 6251 e1bd ddb4 e2bb
000000d0: 7a1f 353e bb8f 263e 882b 4cbe 4f0f 05be
000000e0: 6d45 1ebd 5875 97bd 5145 1f3d 1ec4 263e
000000f0: 4238 053d 3377 4e3d 12ca bf3d 39ca d9bd
00000100: 5d63 09be acb4 5b3d 67e5 533e e909 27be
00000110: d738 09be 31e1 873d ee6a 97bd c1bb 1dbe
00000120: f351 29be c2a3 763d 445b e13c df71 403e
00000130: 82c7 763d 68a3 c93c 1fc5 c83d 7084 48bc
00000140: 9cbc 403e c0ef ad3d 1083 223d 88bd 03bd
00000150: 6495 083e 219e 223e 691c 45be 0edb 033e
00000160: 6f6c 1f3e 3291 06bd 7117 1abe 2153 d7bd
00000170: 53ca 9c3c 9d2c 123d 0052 5c3e 6ba1 31bd
00000180: f07f 8dbe c769 10bd e9bd 5a3d e8a6 e8bd
00000190: 816e fe3d 4b2c 2bbe 6650 aebc 3183 2fbc
000001a0: f25a 443e 1b9e c1bd c21d c5bd d49f 1e3e
000001b0: 6b7e 26be 742a a03a e4f0 3c3d b92b 29bd
000001c0: 0bc7 663d e892 273d 9b86 063e d27b b23d
000001d0: 5e18 5dbd 2a0e 28be b85d 323d e3f6 963d
000001e0: bc90 b0bd afdb 853d eae3 3dbe 488f 0fbd
000001f0: d778 d6bd 5add a43d 42d0 82bd 2fe9 973d
00000200: 8c2a 2abe 3622 123e 5540 39be 9863 fdbd
00000210: da10 cfbd 7627 4f3e 2643 533e eef4 083e
00000220: ba87 f8bd 3f0b fbbd 3296 a53d 2d49 5f3e
00000230: f9f7 37bd 6532 47bd cc22 38bd 7295 783d
00000240: eacb d53d 1566 9abd 4c92 373d 7621 673e
00000250: e18f 81bd e05c 3e3e 9284 77bd b4d5 26be
00000260: 2f5a 89be 4282 263e 7dae e83d f2a5 c9bc
00000270: 2be0 96bd 81dc 53be 92f7 05be 342a 7fbd
00000280: 2da8 5939 be3b edbd 2db0 e63d d117 783d
00000290: e236 053e ce1d d6bd bd89 223e 8e9a 383d
000002a0: 39c7 aa3d efe1 18be 404c ec3c 3422 0c3e
000002b0: ee4c 843e 96e8 72bd dfae 3ebd 9a46 16be
000002c0: d2ce 47be 4f23 0a3e c0f4 323e b691 793e
000002d0: f684 ab3c e854 28be e3a7 a23d c82d 183e
000002e0: a0e1 95bc 49f9 2a3e 8131 56be b76c a63d
000002f0: b494 a73d 0fba f03d e05d 5d3e 2069 fe3c
00000300: d6c2 38be f1af 473e a733 793d cd2d 2d3e
00000310: 9590 e43b 79df 183e 9f72 6d3d bca1 b3bd
00000320: b440 3f39 e052 03bd 4df3 8fbd 17dc 293e
00000330: 3e9b 0d3c 49bb 8b3c c52e 83bd 72ba 01be
00000340: dfd5 203e 2165 093d 264e 06bc 62ff cebd
00000350: 23f1 07bd 1d15 c53c d22a febd 64f9 703c
00000360: 8c18 1abe 1d6b 0abe 5ebe 203e 3052 9b3d
00000370: b725 223e 45f5 653d 9c72 1b3e c16c 463d
00000380: 1f07 5bbc 617e 103d be9c be3d fd70 083e
00000390: 91a6 193c 040e 05be 1b58 39bd 5c7e 2c3d
000003a0: a5f8 0d3e ccaa 233d a567 18bc d9d8 c8bd
000003b0: c66b 523e dc15 c8bd fd48 e2bc e321 0c3e
000003c0: f643 333e dea1 b53d d55b 10bd 537c 06bd
000003d0: 08b5 39be e3f0 0b3d 16f1 f4bc fcc4 f53d
000003e0: a965 2dbe b194 28be d343 053e 6a71 07be
000003f0: ee69 8fbc 0c59 803d f13e 90bd 025f 253e
0.17129138 0.036978703 0.04436485 -0.1870393 0.020519009 -0.001108964 0.19013228 -0.04072142
-0.21973921 0.08768473 -0.11415073 -0.045018222 -0.14128429 0.009997342 -0.065798275 -0.18815815
0.17902334 0.14830266 0.1550814 0.15915519 -0.10317121 -0.19461697 -0.08597943 -0.09501393
-0.18784112 -0.056705117 0.027245471 0.031273797 -0.01644924 0.0688906 0.12387877 0.21895665
0.04099829 0.20995632 -0.03610911 -0.115405686 0.057799496 0.092174225 -0.09271685 -0.04925271
0.062705465 -0.16452289 -0.062995374 0.14398445 0.10178514 -0.2654138 -0.24617559 0.13869041
-0.34434897 0.21754162 -0.11001851 -0.0069185332 0.17687789 0.16265766 -0.19938481 -0.12994121
-0.03864043 -0.073954284 0.038884465 0.1628575 0.032524355 0.050406646 0.09364714 -0.10634274
-0.1341681 0.0536391 0.20692979 -0.16312374 -0.13400589 0.06634749 -0.07393442 -0.15403654
-0.16535167 0.060214765 0.02750934 0.18793438 0.06024886 0.024614051 0.09803223 -0.012238607
0.18821949 0.08492994 0.039675772 -0.032163173 0.13338238 0.15880634 -0.19249119 0.12876531
0.15568708 -0.032853313 -0.15048005 -0.105139025 0.019139444 0.035687078 0.21515656 -0.04336683
-0.2763667 -0.035257127 0.05340377 -0.1135996 0.12423421 -0.16716115 -0.021278571 -0.010712431
0.19175318 -0.09453984 -0.096248165 0.15490657 -0.16259162 0.0012219683 0.04612817 -0.041301463
0.056342166 0.040911585 0.13137285 0.08715023 -0.053978316 -0.16411653 0.04354641 0.07371309
-0.08621356 0.06536042 -0.18543974 -0.035048753 -0.10472267 0.08050032 -0.06387378 0.07417523
-0.16617793 0.14270863 -0.18090947 -0.123725116 -0.10110636 0.20229897 0.20631084 0.13374683
-0.12135263 -0.122580044 0.08085288 0.21805258 -0.04491422 -0.048632044 -0.04495506 0.060689397
0.10439284 -0.07539002 0.044817254 0.22571358 -0.06326271 0.18590117 -0.060429163 -0.16292459
-0.26826617 0.16260627 0.11361406 -0.024615262 -0.073669754 -0.20689584 -0.13082722 -0.062296107
0.00020757383 -0.115836605 0.112640716 0.060569588 0.13009217 -0.104549035 0.15872855 0.04506927
0.0833878 -0.14929937 0.028844953 0.13684922 0.25839943 -0.059303842 -0.04655349 -0.1467537
-0.1951249 0.13490032 0.17476177 0.2437199 0.020937424 -0.16438639 0.07942178 0.14861214
-0.018296063 0.16696657 -0.20917322 0.081262045 0.0818266 0.11754238 0.21617842 0.031055987
-0.18043074 0.1950071 0.060840275 0.16912003 0.0069752433 0.14928998 0.05797064 -0.08771083
0.00018239283 -0.032061458 -0.07028828 0.16587864 0.00864297 0.017057078 -0.06405405 -0.1266878
0.15706585 0.03354371 -0.008197343 -0.10107304 -0.03318895 0.02405792 -0.12410511 0.014707897
-0.15048426 -0.13517423 0.1569762 0.075840354 0.158347 0.05614211 0.15180439 0.04844356
-0.013368397 0.035276774 0.0930724 0.13324352 0.009378091 -0.12993628 -0.04525004 0.042112693
0.13864382 0.039957806 -0.0093020545 -0.098069854 0.20548925 -0.09769794 -0.027622694 0.13684802
0.17506394 0.08868764 -0.035243828 -0.03283341 -0.18135464 0.034165274 -0.029900115 0.120004624
-0.16933312 -0.16462971 0.13014154 -0.13226858 -0.017506566 0.06266984 -0.07043255 0.16149524

1.0.bias f4 [32]
00000000: 4667 ec3d d876 55bd bffa bd3c 7e1d 34bb
00000010: 1b14 61bd a44a a1bd 117a 22be c6ed c73c
00000020: d325 e33d a4c9 b53e ee9c 05be ab56 2dbe
00000030: 0aa1 113d ebff 403d 025a a03d c9e1 573d
00000040: 8da0 9b3d 4257 a5bd 76b1 25be 17af 853d
00000050: f828 993d bfe3 0d3d 061c 65be c4a7 fc3d
00000060: 8928 bcbd 8f76 583e aeb0 b03d 54c6 2f3d
00000070: b74f 07be a88b 523e 56f2 4dbe 82b9 3a3e
0.11543135 -0.05211529 0.023190854 -0.00274834 -0.054950815 -0.07875565 -0.15866877 0.024405371
0.11091199 0.35505402 -0.13048145 -0.16927592 0.03555397 0.047119062 0.07829668 0.05270556
0.07598982 -0.08073284 -0.16180977 0.06527536 0.07478517 0.034641024 -0.22373971 0.12336686
-0.09187419 0.21138977 0.08627449 0.04291375 -0.13214003 0.20561087 -0.20111975 0.18234828

1.2.weight f4 [24, 32]
00000000: 8c7b da3d c4ed e73b fa38 f13d 52e0 0d3e
00000010: 6ce6 5ebd 5f7c d8bd 9150 d93d 6282 ff3c
00000020: 5d09 85bd c3ff 24bd 8682 873e 28cb 4d3e
00000030: 3c07 89bd 4f68 e23c 4841 d03d ccb8 123e
00000040: 670e 263e fe50 f03d 38e4 2ebe c712 ce3d
00000050: 78d6 5a3d c57a 4e3e d7ac d23d 3080 ec3d
00000060: 63ea a1bc 86f4 04be 3aa7 27be 8adc 353d
00000070: 7c75 03be 6151 1f3e 1fd2 fb3d 7ee6 5ebd
00000080: 5ca1 233d 94f1 07bd f4ad 0f3d 2df2 1bbe
00000090: ec39 58bd 013b 46bd 0fd1 743c 48d7 1c3d
000000a0: d76c 1dbe 3cad 92bd b34b 9c3d eb8a e0bd
000000b0: e10b 79bc 3239 32be 4d5e c13d 377f 3e3d
000000c0: 6a55 043e a306 aabb 924a 0e3e 259e 2c3e
000000d0: b41c 45be 4f49 3cbe 024f 253e 42e2 22be
000000e0: ffb9 2a3e 7874 f13d bb0e 393d ee68 283e
000000f0: 8634 27bd fb39 c5bd 2210 a0bd e623 48be
00000100: a1eb 08be c781 abbd 7f17 c0bd 12fb c9bd
00000110: 85cb 023d a324 613e 7f1e 85bd e112 4c3e
00000120: 7c49 b1bc bf00 38be 80e9 92be 8bcc 93bd
00000130: 63c2 923d 85c7 52bd b5cf 0c3d e8bc d23c
00000140: 6401 3f3e cd5b 333e b178 2a3e cb8b 1c3e
00000150: 0e2e 37bc 0d62 1cbe eb37 f83d 6580 1d3e
00000160: 5110 a93d 275b 71be 8399 0b3e 20af bb3c
00000170: 6cd1 d5bd 4e6e fd3d 3de3 da3c 84e3 5abe
00000180: 7a8b b03b e85a 9ebd 5e48 35be bce3 00be
00000190: 86ee 48bd 25ef 1ebd 259d ebbd 6f12 3a3e
000001a0: 5c56 123e c7dc 98bd a7c9 dc3c cb11 c1bd
000001b0: 1452 94bd 9f74 163e 0b23 60bd 8f15 1bbe
000001c0: 45b6 9dbd 3a3c ccbd 6e94 2e3d 8184 86bc
000001d0: 1518 f33d b163 a6bd 9d8a 103e 46d2 c73d
000001e0: 9f09 38bd 3e9d df3d 56b7 343e 5817 a4bd
000001f0: 5ee2 45bc c358 ccbc dafd c5bd 4831 c23d
00000200: 3a53 7cbd 0fd7 b1bd 168e 033e 127c 27be
00000210: 3dcd 2e3e 1759 a8bd 2348 cd3b e6cc fa3c
00000220: 8f0e 31be 2ea4 4bbb e2b5 8a3d c273 43be
00000230: 793b e83d f245 6cbc 6c19 0fbe f4b8 ce3d
00000240: fecd 193e 7711 4bbc 9de1 b5bd d624 bc3d
00000250: 5d7e 0c3d a8b0 e23d d554 403e 2a60 f7bd
00000260: 0f68 c43d 8fbe f4bd dbc0 213e 817b a03c
00000270: c6d7 41bd f503 15be 1e4f bd3d 70ac 103d
00000280: aa2d efbb db45 bbbd 22a4 5d3d d7d1 903d
00000290: b651 803c 9560 bdbd 6786 ff3d 520a 593c
000002a0: d53d 593d 9c1d 49bd cd5e 7cbd 841d 0cbd
000002b0: 939a 203e 1c49 863d 1ff6 1d3e dec0 b93c
000002c0: ac5b bc3d d0d2 ff3d 42da b63d caf7 883d
000002d0: 1eed bb3d 2c4a 74bc 18e6 ba3c 6557 13be
000002e0: cfd6 133e 752c c6bb d36b 283e 153a 3f3e
000002f0: f1c5 33bd 0b29 283d 87ae 01be 3ac1 c13d
00000300: ee74 023e a5a0 49be d125 17be 3df5 53be
00000310: 2ac9 13be 6396 283e 1076 333e 5e9a 77bd
00000320: 3801 c4bb 9e24 e7bd a747 02be b16b cf3b
00000330: 8631 93bc 3f76 46be 7fe0 03bd 0320 273d
00000340: 1cb4 8ebc 9e54 9b3c af38 413c 483e 3a3e
00000350: 35e3 7a3d 414a 023b bd61 cabd a973 083d
00000360: 033f 97bc a1ad 5a3e 9b32 4ebd 2e6b e7bd
00000370: 9c2e bf3d e003 fc3d a970 033e 1a55 16be
00000380: 5051 1abe c86f 4f3e 9eef 853d 02fb 18be
00000390: f579 8a3c 623f b53d 67ed 8ebd 2c80 66bd
000003a0: 63f9 ebbd 39f5 b23d d39a 863b c2a2 803d
000003b0: bc64 18be 0c59 c9bd 9b46 f3bc 9b4b d03c
000003c0: 59af 623c dbd0 0a3e e116 d9bd b245 9fbc
000003d0: d2b0 22be a1be 1a3e 0233 19bd 9530 833d
000003e0: aaee 823d 028e 7f3d c2be b8ba 349a c53d
000003f0: a0eb dd3d ab41 2c3b 0a83 8dbd d017 fd3d
0.10668096 0.0070779044 0.117784455 0.13855103 -0.054418966 -0.10570597 0.1061107 0.031190101
-0.064959265 -0.040282976 0.2646677 0.20097029 -0.06690833 0.027637629 0.101687014 0.14328307
0.16216432 0.11734198 -0.17079246 0.10062175 0.05342719 0.2016402 0.10286873 0.11547887
-0.019765085 -0.12983903 -0.16372386 0.044399776 -0.12837785 0.15558387 0.12295937 -0.054419033
0.039948806 -0.03318937 0.035078004 -0.15229101 -0.052789614 -0.048396114 0.014942422 0.038291246
-0.1537355 -0.07161948 0.07631626 -0.109639965 -0.015200586 -0.17404631 0.094418146 0.04650804
0.12923208 -0.0051887794 0.13895634 0.16857202 -0.1924923 -0.1838734 0.1614342 -0.15906623
0.16672514 0.11789793 0.045180064 0.16446277 -0.040821575 -0.096301995 -0.07815577 -0.19544944
-0.13371135 -0.083743624 -0.093794815 -0.09862341 0.031932373 0.21986632 -0.06499957 0.19929077
-0.021641485 -0.17969035 -0.2869377 -0.07216748 0.071659826 -0.051459808 0.034377772 0.025724843
0.18652874 0.17515488 0.16647603 0.15287702 -0.011180414 -0.15271778 0.121200405 0.1538101
0.08255065 -0.23569928 0.13632779 0.022910655 -0.10440335 0.123745546 0.026719684 -0.21375853
0.0053877207 -0.07732183 -0.17703387 -0.12586874 -0.0490556 -0.038802285 -0.11504582 0.18171094
0.14290756 -0.07463985 0.026951624 -0.09427222 -0.07242218 0.14692925 -0.05472092 -0.15144943
-0.07700781 -0.09972425 0.042622022 -0.016420605 0.11869828 -0.081244834 0.14115377 0.09756903
-0.04493105 0.109186634 0.17648062 -0.08012265 -0.012077896 -0.024944669 -0.09667559 0.09482056
-0.06160281 -0.08683597 0.1284717 -0.16355923 0.1707048 -0.082201175 0.006264703 0.030615281
-0.1729071 -0.00310732 0.06772973 -0.19087127 0.113394685 -0.014420973 -0.13974541 0.10093871
0.15019986 -0.012394301 -0.08880923 0.091867134 0.034300197 0.11068851 0.18782361 -0.12078889
0.0959016 -0.11950409 0.15796225 0.019590141 -0.04732492 -0.1455229 0.09243606 0.0353207
-0.0072991448 -0.09144183 0.054111607 0.07071274 0.015663963 -0.09246937 0.12476807 0.013247089
0.053037483 -0.049100503 -0.061613847 -0.034207836 0.15683965 0.06556913 0.15425919 0.022674974
0.091971725 0.12491381 0.08928348 0.06687887 0.09176086 -0.014910262 0.022814795 -0.14388807
0.14437412 -0.00604778 0.16447382 0.186745 -0.043889944 0.041054767 -0.12664233 0.09460683
0.12739918 -0.19690187 -0.1476052 -0.2069902 -0.14432207 0.16463618 0.17525506 -0.06044995
-0.0059815906 -0.11286281 -0.12722646 0.0063299765 -0.01796795 -0.19381045 -0.032196518 0.040802013
-0.017419867 0.018961247 0.0117933 0.18187821 0.061251838 0.0019880685 -0.09881923 0.033313427
-0.018462664 0.21355297 -0.05034123 -0.1129974 0.09335062 0.123054266 0.12835945 -0.14680901
-0.15070081 0.20257485 0.06539844 -0.14939502 0.016903857 0.0884998 -0.06978875 -0.056274578
-0.11522176 0.08738179 0.004107812 0.062810436 -0.14882177 -0.098314375 -0.029696753 0.025426676
0.013835751 0.13556235 -0.10600067 -0.019442413 -0.15887764 0.15111782 -0.03740216 0.06405751
0.06393178 0.06239129 -0.0014094936 0.096485525 0.108359575 0.0026284258 -0.06909759 0.123580575

1.2.bias f4 [24]
00000000: 380f f5bd 71e9 a0bc e35a 99be 0749 083c
00000010: cec7 0f3e 3bba cf3d 619e 2d3e a43f 573d
00000020: 51bf d73d 2594 693d 1466 43ba 099b cebd
00000030: c033 293d 6978 da3d 69bd 8abc 3ae6 fcbd
00000040: 0066 9c3d 269a e73d 3f39 ccbb 4e1e 733a
00000050: 3543 e73d d098 82be 4db7 afbd d846 c83d
-0.11965793 -0.019642564 -0.29952154 0.008318192 0.14041063 0.101429425 0.16954948 0.052550927
0.105345376 0.057026047 -0.00074538705 -0.10088164 0.04130912 0.10667498 -0.01693602 -0.123486
0.076366425 0.11308698 -0.00623241 0.000927423 0.112921156 -0.25507212 -0.08579884 0.097791374

1.4.weight f4 [12, 24]
00000000: d91f 063e b5e1 b0bd 22da 153e 5aa9 7f3d
00000010: f6b3 8c3d dfd7 63bb ebb6 f6bc a3ba 103e
00000020: 2352 783d 8047 293e 18fd 4a3e 2b06 70be
00000030: d7cb 5e3c 2531 5d3d fb65 1abe 9c56 433e
00000040: 4d0d 8dbd 6228 623c f034 8a3d 3d08 f73d
00000050: eaf3 393e 6ab4 4dbb b80f eb3d 8a5c d73d
00000060: 7d25 03be 94e9 943d 022f c53e 76d5 fa3d
00000070: 2b74 76bd 6754 7a3d 8a6e c0bd 7704 d3bd
00000080: 1f59 5b3c 3d88 7c3d 7e88 cabd dd3c 103e
00000090: effe 87be c4f1 c83b 2bd9 1a3e 58df 0bbe
000000a0: 9792 1dbc 10f6 c4bd 6e62 333e 7c3b d43d
000000b0: 7bec 1e3e 8007 553e 6081 c1bd 0c29 223e
000000c0: 8708 433e 18ad 9bbd 7983 90be 4d05 ec3c
000000d0: 92c1 f2bc 3cb7 c63c 28b9 0bbe a84e ecba
000000e0: 7d99 35be cbdc 18be 06c9 573c eb63 c5bd
000000f0: 612c 8e3d 1761 77be 1fb4 12bc 5453 7cbd
00000100: ccde 043e d81a 0abe 5549 0e3d 3a17 cdbd
00000110: 9d0a 52be d880 81be 9d77 93bc bd7a 7cbe
00000120: d394 da3d eda5 543d 15f9 653c 2b40 6e3d
00000130: 33a1 c4bd 9796 4b3e 492a 6d3e 8546 e8bd
00000140: 9038 2a3e b61e 3c3e 43fd 5b3e f2fd 77be
00000150: 6546 d0bc 1973 cabd bcb9 4d3e f326 3fbb
00000160: 1220 95bc 3d13 343e 720e 303e f048 283e
00000170: dbf5 843d af9f 263e eedc 3abe f157 e83d
00000180: 8bc3 9c3d 96c0 32be 06d0 afbe 8b8c 04bd
00000190: 6d6f 20be 50fc 39bd cb20 47bc dfbe 3e3e
000001a0: 5b96 2bbe 9e1f 933c 07b4 df3d d730 c83c
000001b0: 8909 513e 7c1f eb3c 07eb 47bc 8fe1 d4bd
000001c0: 6392 10be 2037 39bd 8651 12be 4807 09be
000001d0: e497 4cbe a5e6 b9bd 4bb9 ed3c a044 6ebe
000001e0: 534d 86be 4af5 8d3c 1c76 a63d 1dd7 963d
000001f0: 3f50 d03d e35e 2dbd 347d d03d 7dc2 59be
00000200: 2bcb 803e 57d2 4f3e 96fe 823d 04f3 763e
00000210: 15eb 5abe e4f2 bfbc 9e16 893d 814e 9d3d
00000220: 8d49 cabd e134 0dbe cd40 8c3d 5fb1 803d
00000230: 6e17 92bd 93b2 9f3e 7468 a83d 41d4 1d3e
00000240: c1a4 16be 3c31 1cbe bb8d 223e bf34 0f3e
00000250: e443 07be 2461 3d3e f70e 473e 39b6 16bd
00000260: 6030 22be d721 06be 1b97 ab3d 3c3e 4dbe
00000270: 5fb9 57be b0ef 163e 231d 21be 656b a4bd
00000280: 5977 763d 3e38 39be dde7 263e f8db c4bd
00000290: f4bb c9bb 898d 3d3e 08c7 a9bc 684b 61bd
000002a0: 570e ae3d 9cb9 dabd 360b e3bd 2a32 9bbd
000002b0: 8fbe 343e b341 663e 0ef2 9d3d ce88 36bd
000002c0: b029 9bbd 7685 903c 01c7 0b3d 4393 ad3d
000002d0: 66f8 9ebd 1ace e23d 78e1 ecbc 80eb 303e
000002e0: 1b9f 1e3e 0529 bfbd 2858 c5bd 2809 06be
000002f0: e187 523e 0d2a b2bd 15ec 3cbe 2e89 1bbd
00000300: 288a 9abc ca2a cdbd e3ee 14be e6d3 d9bd
00000310: b25c 413e 9070 34bd 49a3 8f3d e3ad 253e
00000320: ea32 93bb a13c 28bd e0bc 613e d67a 59bd
00000330: b197 693c c871 1b3d 1e77 443e d89c d6bd
00000340: 45ba b4bd 7a67 84bd 5a20 093e fec9 903d
00000350: cc46 bfbd 6ec5 163c 4dfb a0bd 1a86 a2bd
00000360: 03d8 26bc 96f1 84be e565 afbd 514c 63bb
00000370: 8582 13be 2a83 8ebd f326 96be d24e 733c
00000380: c8fc 75be 3092 943d 3fc0 5a3d 9d2a 643e
00000390: 04ea e1bd b6cc 39be 649d 5ebe b11f 1a3e
000003a0: 9bfc 63bd e972 4e3e ab14 17be 60df 77bd
000003b0: 0199 8bbe 12be 82be e578 bd3d 8259 e8bc
000003c0: 1d64 d03d 8ae4 01be d9ec 46be 527a c7bc
000003d0: dda5 a43c 4221 56bd eef3 04be 4f11 b73d
000003e0: 68ff 9ebd bbf3 aebd bfac 583e 7d6e 7abd
000003f0: 2cc9 2f3d 743c 43bd 957f 68be 4e33 45be
0.13098086 -0.086368 0.14633992 0.062417366 0.06870262 -0.003476612 -0.030116519 0.14133696
0.060625207 0.16531181 0.1982311 -0.23439853 0.013598404 0.054001946 -0.15077965 0.19076008
-0.068873025 0.013803573 0.06748378 0.12062118 0.18159452 -0.0031388053 0.114776075 0.10515697
-0.1280727 0.07271114 0.38512427 0.12247746 -0.06016938 0.06111565 -0.09396084 -0.10303586
0.013387947 0.061653364 -0.09889315 0.14085717 -0.26561686 0.0061323363 0.15121906 -0.13659418
-0.009617469 -0.09617245 0.17518017 0.10362908 0.15519898 0.20803642 -0.094485044 0.1583597
0.19046222 -0.076013744 -0.28225306 0.028811121 -0.029633317 0.024257295 -0.1364485 -0.0018028812
-0.17734332 -0.14927976 0.013170486 -0.096381985 0.06942058 -0.2415813 -0.008954077 -0.061602905
0.12975615 -0.13486803 0.034737904 -0.10014196 -0.20511861 -0.25293612 -0.018001372 -0.24656196
0.10672917 0.05191605 0.014036437 0.058166664 -0.09601059 0.19881664 0.23160662 -0.113415755
0.1662314 0.1837109 0.2148333 -0.24217966 -0.025424192 -0.098852344 0.20090383 -0.0029167503
-0.018203769 0.17585464 0.1719301 0.16434073 0.06492206 0.16271852 -0.1824834 0.113448985
0.07654484 -0.17456278 -0.34338397 -0.032360595 -0.15667506 -0.04540664 -0.012153815 0.18627499
-0.16756575 0.017959412 0.10923009 0.024437351 0.20413794 0.028701536 -0.012202031 -0.103945844
-0.14118342 -0.045218587 -0.14288911 -0.13381684 -0.19979817 -0.09077195 0.029019019 -0.23268366
-0.2623087 0.017328877 0.08127996 0.07365248 0.10171556 -0.04232682 0.101801306 -0.21265598
0.25155005 0.20295082 0.06396215 0.2411614 -0.21378739 -0.023431249 0.06693767 0.07680989
-0.0987731 -0.13789703 0.06848297 0.06283831 -0.07133375 0.3119093 0.08223048 0.15413
-0.14711286 -0.15253156 0.15874378 0.13984965 -0.13209492 0.18494087 0.19439302 -0.036794875
-0.15838766 -0.13098846 0.083784305 -0.20043272 -0.21066807 0.14739871 -0.15733771 -0.080282964
0.060172413 -0.18087861 0.16299386 -0.09612268 -0.006156439 0.18511023 -0.020724788 -0.055003554
0.08498829 -0.106799334 -0.11086123 -0.075779274 0.17650817 0.22486 0.07712184 -0.04456406
-0.07576311 0.017641764 0.03412533 0.084753536 -0.07762222 0.11074467 -0.028916106 0.17277336
0.15490381 -0.09333996 -0.09635955 -0.1308943 0.20559646 -0.08699427 -0.18449433 -0.03797262
-0.018864706 -0.10017927 -0.14544253 -0.106361195 0.18883017 -0.04405266 0.07013566 0.16179614
-0.0044921534 -0.041073445 0.22044706 -0.05309566 0.014257357 0.037950307 0.19186065 -0.10479134
-0.088245906 -0.06465049 0.13391247 0.07069777 -0.09339675 0.009202344 -0.07860432 -0.07935734
-0.010183337 -0.25965565 -0.08564357 -0.003468294 -0.14405258 -0.06958611 -0.2932659 0.014850335
-0.2402221 0.072544456 0.053405996 0.2228188 -0.11030963 -0.18144497 -0.21739727 0.15051152
-0.055660825 0.20161022 -0.14753978 -0.06051576 -0.2726517 -0.25535637 0.092515744 -0.028362993
0.10175345 -0.12684837 -0.19426288 -0.024350319 0.020098621 -0.05227781 -0.12983677 0.08938848
-0.077635586 -0.08542582 0.21159647 -0.061140526 0.04291646 -0.047665074 -0.22704919 -0.19257852

1.4.bias f4 [12]
00000000: e44d b23b 4f9c 47be bb21 adbd 4242 e8bd
00000010: f46f cdbd d9ea 45be 05ce 343e b461 cf3d
00000020: 05a9 8c3d fd75 003d 7acd 5abe c849 c13d
0.005441414 -0.19493221 -0.08453699 -0.11340763 -0.10031119 -0.19327869 0.17656715 0.10126057
0.068681754 0.031362522 -0.21367446 0.09437901

1.6.weight f4 [3, 12]
00000000: 27cd 0c3e e93f c9be a2b5 933e 2134 89bd
00000010: 875b 263f da67 d5be 9519 43be 9c26 37be
00000020: 6fdf 913e c36e cd3e b2e2 c83e b69a 893d
00000030: 4cd7 efba 17b0 febe 5b64 f23e 4166 9fbb
00000040: eeee d43e 6af4 d3be b5b7 6ebe 9bd7 2fbd
00000050: 5905 e23d 41c5 f43d e0c1 273e b343 e6be
00000060: fdaf 85be 5ba3 c8be 1c6e ea3e dfe0 f1be
00000070: a40b eb3e 58ea bb3d 011d dbbe bf96 ae3d
00000080: ce48 37be a626 c33e 104b e83e 6b43 91be
0.13750134 -0.39306572 0.28849512 -0.06699396 0.6498341 -0.41680795 -0.19052728 -0.17885822
0.2849078 0.40123567 0.39235455 0.06718962 -0.0018298416 -0.4974372 0.4734219 -0.0048644845
0.4158854 -0.4139741 -0.23312266 -0.042930227 0.11036176 0.11951686 0.16382551 -0.44973525
-0.2611083 -0.3918713 0.45787132 -0.47241876 0.4590732 0.09175557 -0.42795566 0.08524846
-0.17898867 0.38115424 0.45369768 -0.28371748

1.6.bias f4 [3]
00000000: 3ce7 ecbe 6b32 c1be cfff 68be
-0.46270168 -0.37733778 -0.22753833
