JSP/trained models/O_2021_rwd3.pt (torch_old, 38629 bytes, 16 tensors)

0.0.weight f4 [4, 2]
1.021028 0.9952722 1.0265212 1.1730847 1.0744345 0.97499275 1.0369376 0.9579853
00000000: 0cb1 823f 29ca 7e3f 0c65 833f a427 963f
00000010: 1287 893f 2099 793f 5fba 843f 863e 753f

0.0.bias f4 [4, 2]
-0.0077210837 0.037940048 -0.043113437 0.09851282 -0.086720355 0.02949575 -0.046048563 -0.001847832
00000000: 2501 fdbb 0667 1b3d b797 30bd 17c1 c93d
00000010: 719a b1bd 12a1 f13c 6b9d 3cbd f432 f2ba

1.0.weight f4 [64, 8]
0.17420562 0.2389066 -0.13903238 0.31118023 0.20889358 -0.35420862 0.28408682 0.04713375
0.08630957 -0.03846905 0.3200431 -0.112866566 0.29607806 0.21546215 -0.22491786 -0.113336064
-0.33767062 0.2650985 0.2492477 -0.2991861 -0.17282322 -0.27905646 0.17784782 -0.20767502
0.06218926 -0.24819352 0.22569 -0.4048058 0.26816788 -0.19593358 0.34830734 -0.0016630644
-0.0101657035 0.28293127 0.057228632 0.17845237 -0.31186092 0.34084418 -0.25924477 0.0062886965
-0.35207134 0.31470847 0.023579627 -0.23270567 -0.27936184 0.17679894 -0.12085633 0.081605315
-0.21985145 0.23229301 -0.19623306 0.40043092 0.26877472 -0.10428282 -0.35897505 -0.28588372
0.3441192 -0.10020384 -0.22750711 0.42427903 -0.008855895 0.07546843 -0.2620086 0.27335903
-0.10277839 -0.31208533 0.11942849 0.33658823 -0.18737425 0.0042218543 0.1699016 0.33432668
0.31856745 0.23449907 -0.3254567 0.2509471 -0.051167514 -0.19815001 0.32236806 -0.020457556
0.18917632 0.32329223 -0.2730455 -0.23021647 0.053747177 -0.16365041 0.20615424 -0.22854722
-0.18429498 -0.28544334 0.32282427 -0.24906154 0.037908696 0.2745425 -0.05579573 0.11017034
0.014549313 -0.22580342 0.2781482 0.20265181 -0.13529523 0.16158254 -0.22645935 -0.33882335
-0.19048868 -0.20798942 -0.032544937 -0.30337206 -0.29609492 -0.1571033 -0.35499334 0.03431365
-0.021452015 0.37127486 0.15407126 -0.05772692 -0.18715985 0.15184134 0.03981826 0.2583197
-0.33701533 -0.051966775 -0.0798455 0.0930456 0.033873018 0.17667612 -0.2739791 0.2816973
0.13394889 0.14715232 0.13835375 0.15127082 -0.28942218 0.20499586 0.023520812 0.123248406
0.054693017 -0.013250498 -0.16418925 0.35801926 -0.0062096566 -0.015870662 0.11144738 0.23648985
-0.050032172 0.10787836 0.2329584 0.12293614 -0.27353668 0.16217342 0.28165942 -0.227668
0.15834945 -0.2768328 0.09276301 -0.15692736 -0.026163809 -0.34646323 -0.30522162 -0.117388286
-0.2950516 -0.15174466 0.00041760522 -0.2901131 0.069121815 -0.33524355 0.04456092 -0.02364825
0.09922356 -0.113023825 0.32775277 0.052543532 0.38386726 0.07472524 0.34951875 0.31972
-0.084765926 -0.1389322 -0.24233204 0.32861206 -0.21186326 0.12992187 0.1450033 0.298349
-0.13253301 -0.22651492 0.2950775 -0.22492735 -0.202686 0.20256108 -0.094986014 0.2592243
-0.12023845 0.23379111 -0.10549553 -0.28087166 0.37320688 -0.17266484 0.25380683 0.28303006
0.0088790115 -0.006453069 0.18542977 0.27992773 -0.005444275 0.34484538 0.25849843 -0.13356887
-0.16236897 -0.080144815 -0.2772964 -0.40372464 -0.033287056 0.30761126 0.24483804 0.15400076
0.1578844 0.14235315 0.20900016 -0.26975653 0.2866424 -0.045510057 -0.07311481 0.22199792
-0.07194445 0.00065062224 -0.08794499 -0.28238258 0.23365486 0.19641164 -0.26258594 0.16845867
0.29502296 -0.15857553 -0.24204396 0.23073585 -0.29400828 0.35308748 0.050375927 -0.21415119
0.106937915 -0.26827726 -0.022085128 -0.40377232 0.11242597 0.08033799 0.21067356 -0.12872307
0.37115037 -0.1906729 -0.18864007 -0.015195249 0.13565245 0.3288796 -0.2755357 0.07240292
00000000: f562 323e efa3 743e 815e 0ebe 0453 9f3e
00000010: 33e8 553e d55a b5be d473 913e 520f 413d
00000020: 12c3 b03d b991 1dbd b0dc a33e 9626 e7bd
00000030: 8b97 973e 1ca2 5c3e de50 66be bd1c e8bd
00000040: 2ae3 acbe feba 873e ca3a 7f3e ec2e 99be
00000050: 92f8 30be 7de0 8ebe bd1d 363e c3a8 54be
00000060: 2aba 7e3d 7126 7ebe 481b 673e b542 cfbe
00000070: 4d4d 893e d0a2 48be 5755 b23e 2efb d9ba
00000080: 0d8e 26bc 5edc 903e 9268 6a3d 38bc 363e
00000090: 3cac 9fbe 2183 ae3e bbbb 84be 6911 ce3b
000000a0: b242 b4be 7821 a13e 102a c13c 654a 6ebe
000000b0: 8408 8fbe c80a 353e 8683 f7bd b020 a73d
000000c0: bd20 61be 38de 6d3e 52f1 48be 4805 cd3e
000000d0: d79c 893e 3b92 d5bd 94cb b7be 5a5f 92be
000000e0: 6430 b03e ac37 cdbd a0f7 68be 1a3b d93e
000000f0: 5118 11bc 318f 9a3d fe25 86be b7f5 8b3e
00000100: 7a7d d2bd a6c9 9fbe ed96 f43d 4b55 ac3e
00000110: 09df 3fbe 7b57 8a3b affa 2d3e de2c ab3e
00000120: 461b a33e 8620 703e 43a2 a6be 237c 803e
00000130: 0795 51bd d6e7 4abe 6d0d a53e 9b96 a7bc
00000140: 70b7 413e 8f86 a53e 9fcc 8bbe debd 6bbe
00000150: 0026 5c3d f993 27be 191a 533e 4808 6abe
00000160: d3b7 3cbe a125 92be 3949 a53e fd09 7fbe
00000170: 2646 1b3d d690 8c3e 108a 64bd fda0 e13d
00000180: 3e60 6e3c 0339 67be 7169 8e3e f583 4f3e
00000190: d58a 0abe e575 253e f6e4 67be 417a adbe
000001a0: 770f 43be 2efb 54be d74d 05bd 9553 9bbe
000001b0: c199 97be b0df 20be b0c1 b5be 788c 0c3d
000001c0: 23bc afbc bd17 be3e dbc4 1d3e 1073 6cbd
000001d0: d5a6 3fbe 4c7c 1b3e 7918 233d 7b42 843e
000001e0: 468d acbe 1ddb 54bd 0a86 a3bd b18e be3d
000001f0: 6fbe 0a3d 96ea 343e fd46 8cbe a13a 903e
00000200: e629 093e 19af 163e 9bac 0d3e bde6 1a3e
00000210: 252f 94be 6fea 513e b8ae c03c a969 fc3d
00000220: c905 603d 9e18 59bc 3a21 28be 4d4e b73e
00000230: 607a cbbb 3103 82bc 863e e43d 652a 723e
00000240: 89ee 4cbd 54ef dc3d a68c 6e3e f1c5 fb3d
00000250: 000d 8cbe ca10 263e aa35 903e cd21 69be
00000260: 5c26 223e 07bd 8dbe 88fa bd3d 91b1 20be
00000270: 7c55 d6bc a163 b1be 0246 9cbe 4569 f0bd
00000280: 0111 97be f462 1bbe 06f2 da39 b489 94be
00000290: bd8f 8d3d 0ba5 abbe 8385 363d fab9 c1bc
000002a0: b935 cb3d 0979 e7bd 36cf a73e e337 573d
000002b0: 408a c43e 8c09 993d 1ff4 b23e 57b2 a33e
000002c0: c299 adbd 3e44 0ebe e425 78be d73f a83e
000002d0: aff2 58be 3d0a 053e bf7b 143e 33c1 983e
000002e0: bcb6 07be 87f3 67be 6614 973e 5b53 66be
000002f0: eb8c 4fbe 2c6c 4f3e 0788 c2bd 0cb9 843e
00000300: 943f f6bd f066 6f3e 0a0e d8bd 69ce 8fbe
00000310: f914 bf3e 0dcf 30be f8f2 813e 51e9 903e
00000320: 4679 113c 4474 d3bb 4de1 3d3e b052 8f3e
00000330: e465 b2bb 938f b03e e859 843e 47c6 08be
00000340: 0d44 26be f722 a4bd cbf9 8dbe ffb4 cebe
00000350: 0258 08bd 397f 9d3e d3b6 7a3e 60b2 1d3e
00000360: 73ac 213e 06c5 113e 2304 563e 871d 8abe
00000370: cbc2 923e c168 3abd 38bd 95bd 6c53 633e
00000380: 9d57 93bd 858e 2a3a 811c b4bd 7394 90be
00000390: 3843 6f3e 2220 493e aa71 86be 6e80 2c3e
000003a0: 400d 973e a061 22be 5fda 77be 0546 6c3e
000003b0: 4188 96be e2c7 b43e fd56 4e3d 734a 5bbe
000003c0: 4402 db3d a35b 89be dfeb b4bc 3fbb cebe
000003d0: 963f e63d 3e88 a43d cfba 573e fbcf 03be
000003e0: 6c07 be3e c23f 43be dd2a 41be 7ef5 78bc
000003f0: 7ae8 0a3e e862 a83e 0413 8dbe fb47 943d

1.0.bias f4 [64]
0.1612953 -0.05617987 0.22373016 0.08411978 0.13636404 0.009573185 0.21538527 -0.24443448
0.1416711 -0.23337339 0.03482455 0.29412258 0.049544062 0.32520047 -0.26254702 -0.020902531
-0.23287149 0.12391325 -0.31104463 -0.067540385 0.11168926 -0.03562807 -0.07398255 -0.2990941
0.28306568 -0.025363356 -0.26401198 -0.29585797 -0.05320245 0.33968318 0.113101 -0.06011782
-0.14091578 -0.087301925 -0.013132479 -0.124053545 0.16927053 0.1049826 -0.06571843 -0.34935385
0.20946103 -0.30094975 -0.06693273 0.02074957 -0.06349223 -0.16289522 0.030103719 -0.27376893
-0.23082729 0.3222511 -0.2079654 0.3312092 -0.23766148 0.07773576 0.27723095 -0.1460038
-0.22418408 -0.28107727 0.1121792 -0.24331766 0.0985251 0.12811622 -0.29862556 -0.1722323
00000000: 982a 253e dd1c 66bd 8519 653e fe46 ac3d
00000010: 04a3 0b3e d9d8 1c3c f58d 5c3e 084d 7abe
00000020: 3b12 113e 6ff9 6ebe 30a4 0e3d 3c97 963e
00000030: b7ee 4a3d ad80 a63e 906c 86be c93b abbc
00000040: dd75 6ebe 3bc6 fd3d 3e41 9fbe 9d52 8abd
00000050: 57bd e43d bdee 11bd 2a84 97bd dd22 99be
00000060: fced 903e d0c6 cfbc 942c 87be b27a 97be
00000070: d0ea 59bd f4ea ad3e 7fa1 e73d 1a3e 76bd
00000080: 3a4c 10be 5acb b2bd 9c29 57bc c90f febd
00000090: 4155 2d3e 1e01 d73d 6297 86bd 82de b2be
000000a0: f47c 563e 1616 9abe 0714 89bd 01fb a93c
000000b0: 3708 82bd 01ce 26be 139c f63c 712b 8cbe
000000c0: fd5d 6cbe 19fe a43e e2f4 54be 4194 a93e
000000d0: 885d 73be ed33 9f3d 37f1 8d3e 0582 15be
000000e0: 8390 65be 5ce9 8fbe 35be e53d 4428 79be
000000f0: 87c7 c93d e630 033e 73e5 98be aa5d 30be

1.2.weight f4 [48, 64]
-0.03465375 -0.10367336 0.093697965 -0.098166265 0.0029724715 0.120021075 -0.021153988 -0.11458933
0.09792729 -0.09227369 0.039801005 0.11057056 0.080078594 0.066963814 0.082611 0.08991196
-0.035189018 0.086263135 0.065021016 0.10455305 0.073251046 0.10146134 0.035606276 -0.010402675
-0.004728755 0.05094551 0.010046863 0.07257985 0.091282 -0.08471855 -0.0506781 -0.09406359
0.06501766 -0.039258298 0.028959058 0.049705002 0.036240757 0.12255512 -0.0549698 -0.10224505
0.08624187 -0.024552139 0.042205617 0.102812536 -0.011818903 -0.03566033 0.02250169 0.08399625
-0.007205684 0.014929685 -0.051505715 -0.063362055 -0.11310333 -0.0036709812 0.008071909 -0.049984187
-0.012503339 -0.11000037 0.084697194 -0.033465594 0.017834615 -0.026714627 0.11689718 -0.09833756
-0.10443631 -0.05686346 -0.10858346 0.084265806 0.0070457924 -0.06387722 0.017939877 0.094256885
-0.089719735 -0.088505395 0.040143054 0.06493044 -0.037054375 -0.01595465 -0.103360504 0.11939749
-0.025949916 -0.025969535 -0.08298307 0.04092968 0.002535305 0.014154556 -0.03707573 0.07062131
0.07458357 0.078362904 -0.0800804 -0.049231976 0.07386999 0.032283008 0.0684909 0.07604585
-0.05188925 0.027941085 -0.08892229 -0.08871376 0.071028955 0.070594035 0.07153555 0.10148705
0.049784545 0.09492364 0.09335555 0.07156385 -0.008607034 0.00092597946 0.030217148 -0.035546433
-0.09366739 -0.035635825 0.064514875 -0.08551139 0.03196107 0.07576616 -0.124915145 -0.091487914
-0.0051904926 0.0907031 0.10293196 -0.05552409 0.013498209 0.11876345 -0.08433408 0.09705666
-0.025457855 0.01971354 -0.0152838 0.005315029 0.031669658 0.009840796 -0.055594273 -0.13954026
0.071170665 0.06872767 -0.09209685 -0.10791207 -0.001871197 -0.11132015 -0.0551971 -0.08513051
-0.11803665 -0.13866223 -0.10656757 -0.008529158 0.03674199 0.12859476 0.11772783 -0.010491795
0.096995525 -0.1108892 0.13295166 0.07079088 0.014975905 -0.068220735 -0.0043982333 0.048771266
0.10704979 0.108830005 -0.06342554 0.076289974 0.11942348 -0.09224144 -0.016932912 -0.04500864
0.027531063 0.12137893 0.092379294 -0.008039452 -0.018875955 -0.1009394 -0.11964777 0.07737736
0.10543096 -0.107352436 0.024097266 0.05455087 -0.082898356 0.024200365 -0.026810529 -0.086510934
-0.034047194 0.09921632 0.0028575808 0.07139131 0.015934192 -0.11657899 -0.06869645 0.038921945
-0.10948897 0.07301455 -0.024588712 -0.097425416 -0.07479171 -0.11576527 -0.07060847 -0.07389419
0.10939559 -0.10784061 -0.00395989 -0.12879415 0.10966434 -0.07748682 0.06764932 -7.024288e-05
0.03499372 0.023069622 -0.02781407 0.0987171 0.11595158 -0.10299176 -0.06938028 -0.04256676
0.018506737 0.048827693 0.08010105 0.13152473 0.028667606 0.015608483 0.07839573 -0.04565199
-0.0031980644 0.05262617 -0.069341846 0.031974133 -0.11120658 -0.04018546 0.056560095 0.010396756
-0.044714205 0.07326681 -0.073546045 -0.018683963 -0.080991656 -0.113485575 0.09468465 0.06441922
0.041472048 0.02158759 -0.102232635 -0.049116243 0.1118638 0.08979591 0.048112813 -0.0942855
-0.06993905 0.0029550109 -0.12513466 -0.0043962607 0.027370311 0.07271875 -0.04092836 0.114444666
00000000: 17f1 0dbd b352 d4bd b8e4 bf3d 650b c9bd
00000010: cccd 423b 9ccd f53d 214b adbc d0ad eabd
00000020: 1a8e c83d fdf9 bcbd 6106 233d d172 e23d
00000030: 3f00 a43d 5324 893d f52f a93d c323 b83d
00000040: 5c22 10bd baaa b03d bd29 853d e91f d63d
00000050: a504 963d f7ca cf3d e3d7 113d fb6f 2abc
00000060: acf3 9abb 3dac 503d 999b 243c bfa4 943d
00000070: 0ff2 ba3d eb80 adbd d793 4fbd 69a4 c0bd
00000080: fb27 853d 4fcd 20bd 8c3b ed3c 7997 4b3d
00000090: 3071 143d 2efe fa3d 0328 61bd da65 d1bd
000000a0: 949f b03d 9121 c9bc ccdf 2c3d 618f d23d
000000b0: 12a4 41bc 9110 12bd 7755 b83c 3a06 ac3d
000000c0: a91d ecbb a39b 743c a8f7 52bd f7c3 81bd
000000d0: b8a2 e7bd d894 70bb 0a40 043c 38bc 4cbd
000000e0: ceda 4cbc e047 e1bd b975 ad3d 3813 09bd
000000f0: e619 923c a2d8 dabc ca67 ef3d 3465 c9bd
00000100: b4e2 d5bd a9e9 68bd 0161 debd 8d93 ac3d
00000110: 64e0 e63b 0fd2 82bd a6f6 923c c109 c13d
00000120: fbbe b7bd 5142 b5bd 0b6d 243d 40fa 843d
00000130: 54c6 17bd 53b3 82bc acae d3bd ac86 f43d
00000140: eb94 d4bc 10be d4bc 07f3 a9bd e1a5 273d
00000150: 5c27 263b 83e8 673c b8dc 17bd e8a1 903d
00000160: 45bf 983d bb7c a03d 3101 a4bd 78a7 49bd
00000170: 2649 973d 303b 043d f544 8c3d edbd 9b3d
00000180: d289 54bd b4e4 e43c e41c b6bd 8faf b5bd
00000190: a177 913d 9b93 903d 3b81 923d 71d8 cf3d
000001a0: e1ea 4b3d 5367 c23d 3231 bf3d 1190 923d
000001b0: 8404 0dbc 6ebd 723a f489 f73c 2399 11bd
000001c0: b0d4 bfbd dff6 11bd 6020 843d 9820 afbd
000001d0: 9ce9 023d 4a2b 9b3d 83d3 ffbd 045e bbbd
000001e0: 0215 aabb 8cc2 b93d fecd d23d 3a6d 63bd
000001f0: 9827 5d3c 403a f33d 59b7 acbd a4c5 c63d
00000200: fe8c d0bc 4a7e a13c e768 7abc b229 ae3b
00000210: 0bb8 013d 4a3b 213c d2b6 63bd a4e3 0ebe
00000220: edc1 913d 18c1 8c3d 469d bcbd 0101 ddbd
00000230: f442 f5ba d2fb e3bd 5b16 62bd e858 aebd
00000240: 33bd f1bd 79fd 0dbe 1940 dabd e2bd 0bbc
00000250: c57e 163d 58ae 033e 4a1b f13d c7e5 2bbc
00000260: 97a5 c63d e019 e3bd 7b24 083e cffa 903d
00000270: 805d 753c 50b7 8bbd 0e1f 90bb 61c4 473d
00000280: ec3c db3d 44e2 de3d 40e5 81bd eb3d 9c3d
00000290: 4c94 f43d 15e9 bcbd e4b6 8abc fb5a 38bd
000002a0: d388 e13c 8495 f83d 5b31 bd3d e8b7 03bc
000002b0: bfa1 9abc 51b9 cebd e409 f5bd 0578 9e3d
000002c0: 30ec d73d 98db dbbd a167 c53c bc70 5f3d
000002d0: 9dc6 a9bd d83f c63c c1a1 dbbc a52c b1bd
000002e0: 1275 0bbd ed31 cb3d 4046 3b3b 9b35 923d
000002f0: 6c88 823c f7c0 eebd b9b0 8cbd 9e6c 1f3d
00000300: c13b e0bd a788 953d 446e c9bc fa86 c7bd
00000310: 652c 99bd 5816 edbd 2c9b 90bd d655 97bd
00000320: cc0a e03d 8adb dcbd f7c1 81bb 9de2 03be
00000330: b397 e03d 69b1 9ebd ba8b 8a3d 5c4f 93b8
00000340: 9355 0f3d 81fc bc3c 55da e3bc 312c ca3d
00000350: 0678 ed3d 58ed d2bd 4017 8ebd 7c5a 2ebd
00000360: 719b 973c 8cff 473d 050c a43d 6bae 063e
00000370: 54d8 ea3c b9ba 7f3c f18d a03d 95fd 3abd
00000380: 9e96 51bb 8a8e 573d 1903 8ebd 4ff7 023d
00000390: 47c0 e3bd 8299 24bd 8fab 673d 2857 2a3c
000003a0: 3e26 37bd e90c 963d 4f9f 96bd 1c0f 99bc
000003b0: f4de a5bd 206b e8bd 07ea c13d 39ee 833d
000003c0: 98de 293d 75d8 b03c 585f d1bd 1d2e 49bd
000003d0: d918 e53d ebe6 b73d f111 453d c218 c1bd
000003e0: 343c 8fbd dba8 413b 4d23 00be 820e 90bb
000003f0: b437 e03c 91ed 943d 7fa4 27bd f761 ea3d

1.2.bias f4 [48]
-0.024209449 -0.02687943 -0.07366016 0.05919408 0.11254694 -0.07350749 0.030008124 -0.025640355
0.036188517 0.10590561 0.09937713 -0.15375721 -0.07196826 0.041313253 0.020901557 0.088399254
0.0229624 -0.08082843 -0.03377798 -0.07362356 0.072716385 0.08276256 -0.110639416 0.025131814
0.116643734 0.021821672 -0.10543756 -0.09708288 0.020137258 0.10885696 -0.02913259 -0.07226161
0.08705418 0.07152026 -0.10217684 -0.0844596 0.11884814 0.054846957 0.11092529 0.065606914
0.0036167502 0.027901331 -0.09439105 -0.06509444 0.02435795 0.05538218 0.055931244 0.09528368
00000000: e552 c6bc 4032 dcbc 23db 96bd 7e75 723d
00000010: 037f e63d 188b 96bd 99d3 f53c b90b d2bc
00000020: 693a 143d 0ae5 d83d 3d86 cb3d 8872 1dbe
00000030: 1864 93bd 1638 293d be39 ab3c ab0a b53d
00000040: a51b bc3c 6089 a5bd c75a 0abd f3c7 96bd
00000050: 54ec 943d 6b7f a93d eb96 e2bd 3ce1 cd3c
00000060: e9e2 ee3d 5dc3 b23c a6ef d7bd 64d3 c6bd
00000070: e4f6 a43c 66f0 de3d 78a7 eebc e5fd 93bd
00000080: 7649 b23d 3779 923d 1742 d1bd 28f9 acbd
00000090: a766 f33d 34a7 603d cc2c e33d eb5c 863d
000000a0: 0007 6d3b 5591 e43c 1850 c1bd 3c50 85bd
000000b0: 538a c73c 6dd8 623d 2918 653d 1724 c33d

1.4.weight f4 [48, 48]
-0.044928204 -0.04020657 0.093565516 -0.08444056 -0.14389962 0.021169001 -0.10172354 0.1012589
-0.07422013 0.048122685 -0.018694194 -0.11609193 0.12816434 -0.12775259 -0.122123145 -0.04126742
-0.09301936 -0.12541571 0.038203433 -0.054066602 0.07643023 -0.012467049 -0.019772278 -0.04639258
0.0044068964 0.10304114 -0.030322747 0.12722135 0.061617047 -0.11330026 0.09433662 0.08775438
0.018958392 -0.12228543 -0.1420407 -0.020494059 0.07720119 0.015030383 -0.09815455 0.021146161
0.024665846 0.13474719 0.122359 0.07789468 0.15260816 0.1197033 0.06625773 -0.07829638
-0.040644493 0.06718286 -0.119801685 0.005673807 -0.10106636 -0.058579307 0.078486994 -0.09297487
-0.15634029 -0.046380144 0.027325988 0.07183025 0.03935461 0.14408797 -0.08417961 -0.008102377
-0.012182043 0.1342082 -0.14832583 -0.0494575 -0.087528504 0.01404859 0.028825756 -0.0134578245
-0.044247292 -0.022089606 -0.081707135 0.09238226 -0.04451919 0.051600967 0.14989994 0.08171021
-0.13033326 0.07796443 -0.10118911 0.14581911 0.039654613 -0.09853977 0.12388337 -0.038022287
-0.0067108036 0.08201433 -0.05506375 0.028951319 0.01409389 0.09017281 0.131179 -0.0053898757
0.039650317 -0.021713298 -0.12060998 0.08648051 0.019704973 0.113952145 0.049689792 0.066412166
-0.0839978 -0.15172605 0.10967469 -0.065238856 0.010610084 0.012860033 -0.05472078 -0.039985176
-0.14316845 0.00878182 -0.11962918 -0.039273895 0.0024476054 0.05740202 0.00632893 -0.05310033
-0.024537658 0.084830575 -0.0011788445 0.08231624 0.040424306 -0.004620694 0.08481279 -0.14563611
0.031659015 -0.058112822 -0.047378633 0.14097673 0.077801526 -0.118511245 -0.116624415 0.1292515
-0.048191633 -0.17371841 0.036986157 0.06944921 -0.15510203 -0.14747716 -0.02284754 0.09395498
0.08768122 -0.0090625575 0.12839822 -0.11701223 -0.04232951 -0.11021733 -0.113964416 0.13126741
0.05751013 0.14498806 0.10443433 -0.08139586 -0.13516034 -0.048546974 0.059646655 0.07816106
0.004174464 0.054915883 0.0050478503 -0.01803304 -0.12161897 -0.047459517 0.07637301 0.13869098
-0.10792944 0.11039623 -0.111261055 0.030541288 -0.021825712 -0.11756117 -0.04714219 -0.079339474
0.018182317 -0.13299517 0.084210485 -0.10985882 0.00015327794 -0.10857489 0.06552319 0.12278926
0.072667465 -0.083345845 -0.021747647 0.0024261929 -0.113887995 -0.10767913 -0.11337865 -0.026757278
-0.048529636 0.00193964 -0.08793997 0.06942402 -0.035530888 -0.08149194 -0.047878172 -0.014193842
0.057847645 -0.073711224 0.14337641 -0.07114898 0.1215168 0.00774188 0.102536164 0.12725185
-0.101734385 0.1008067 0.030680807 -0.08913018 0.12288266 0.0053385994 -0.0053842207 -0.013480626
0.051281188 0.03949614 -0.118947834 0.0768996 -0.12516275 0.06843268 -0.106284805 0.10874367
-0.036070406 -0.12965095 0.10315025 0.10619331 0.005054486 0.14147095 0.07185802 0.09876476
-0.01675754 0.13513649 -0.14797626 -0.041458156 -0.044012386 0.06605528 -0.032225396 0.10058487
0.11801014 0.06287952 -0.040161848 0.13203914 -0.13005535 0.13379481 0.1143693 -0.026963616
0.023836568 0.008319 0.111737624 0.1271617 -0.047554165 -0.110207304 -0.13842726 -0.011943796
00000000: a306 38bd a5af 24bd 479f bf3d 2cef acbd
00000010: 6c5a 13be 9d6a ad3c 6e54 d0bd d360 cf3d
00000020: b900 98bd 4b1c 453d 9124 99bc 9bc1 edbd
00000030: 833d 033e 93d1 02be b31b fabd 0708 29bd
00000040: ef80 bebd fa6c 00be 347b 1c3d f174 5dbd
00000050: 7487 9c3d 9842 4cbc 79f9 a1bc 2506 3ebd
00000060: ba67 903b 3c07 d33d 6967 f8bc 5046 023e
00000070: 2862 7c3d f709 e8bd 8f33 c13d 92b8 b33d
00000080: a14e 9b3c c970 fabd 1e73 11be 28e3 a7bc
00000090: a81b 9e3d ff41 763c 4105 c9bd b73a ad3c
000000a0: 0710 ca3c 2bfb 093e 5b97 fa3d 3f87 9f3d
000000b0: 5045 1c3e 0127 f53d 22b2 873d da59 a0bd
000000c0: d77a 26bd 2b97 893d 965a f5bd 58eb b93b
000000d0: e1fb cebd dbf0 6fbd cabd a03d 9c69 bebd
000000e0: ab17 20be 1bf9 3dbd c0da df3c bd1b 933d
000000f0: 4d32 213d cc8b 133e 5c66 acbd d5bf 04bc
00000100: 3197 47bc e06d 093e bae2 17be f393 4abd
00000110: 2542 b3bd 0f2c 663c fe23 ec3c 357e 5cbc
00000120: a63c 35bd 43f5 b4bc 1256 a7bd e932 bd3d
00000130: c159 36bd 895b 533d 5f7f 193e af57 a73d
00000140: 1576 05be d1ab 9f3d 3c3c cfbd 9b51 153e
00000150: e06c 223d 38cf c9bd 90b6 fd3d 42bd 1bbd
00000160: 4de6 dbbb 21f7 a73d 878a 61bd 512b ed3c
00000170: 0fea 663c 86ac b83d ca53 063e 8e9d b0bb
00000180: 5f68 223d 16e0 b1bc 5d02 f7bd b21c b13d
00000190: 536c a13c be5f e93d 8687 4b3d 1a03 883d
000001a0: 0a07 acbd 135e 1bbe 209d e03d f39b 85bd
000001b0: ebd5 2d3c e3b2 523c e622 60bd 7fc7 23bd
000001c0: c09a 12be 9fe1 0f3c 2500 f5bd aadd 20bd
000001d0: 0168 203b 611e 6b3d ea62 cf3b bb7f 59bd
000001e0: 3303 c9bc a7bb ad3d 7583 9aba 6b95 a83d
000001f0: f593 253d 3169 97bb 54b2 ad3d a221 15be
00000200: e2ac 013d b607 6ebd 1910 42bd 345c 103e
00000210: 6856 9f3d 06b6 f2bd c8d8 eebd 815a 043e
00000220: 9764 45bd 3de3 31be cc7e 173d 633b 8e3d
00000230: 11d3 1ebe 4104 17be c42a bbbc 786b c03d
00000240: 3692 b33d 1f7b 14bc d37a 033e 1ca4 efbd
00000250: b561 2dbd a0b9 e1bd 2d66 e9bd f76a 063e
00000260: be8f 6b3d c077 143e aae1 d53d dfb2 a6bd
00000270: 7967 0abe 31d9 46bd 0d50 743d e812 a03d
00000280: f1c9 883b 7aef 603d 7068 a53b 07ba 93bc
00000290: 5e13 f9bd e964 42bd 7469 9c3d 0205 0e3e
000002a0: 1c0a ddbd 6b17 e23d d6dc e3bd b931 fa3c
000002b0: d6cb b2bc e9c3 f0bd 2b18 41bd bc7c a2bd
000002c0: 15f3 943c e32f 08be 8c76 ac3d a9fd e0bd
000002d0: 3cb9 2039 835c debd 0631 863d f078 fb3d
000002e0: aed2 943d 3ab1 aabd 1f28 b2bc c300 1f3b
000002f0: 1c3e e9bd e086 dcbd 1133 e8bd 1432 dbbc
00000300: 03c7 46bd 853b fe3a df19 b4bd 2e2e 8e3d
00000310: d688 11bd 3fe5 a6bd e71b 44bd 4a8d 68bc
00000320: a7f1 6c3d e9f5 96bd 44d1 123e 8eb6 91bd
00000330: cddd f83d 99af fd3b 7bfe d13d 4f4e 023e
00000340: 1e5a d0bd be73 ce3d 5156 fb3c e289 b6bd
00000350: e7a9 fb3d 6bef ae3b 1e6e b0bb d8dd 5cbc
00000360: 390c 523d b4c6 213d ec9a f3bd 8a7d 9d3d
00000370: aa2a 00be 6f26 8c3d d9ab d9bd 00b5 de3d
00000380: 90be 13bd 38c3 04be 7040 d33d e17b d93d
00000390: 1aa0 a53b c3dd 103e 4c2a 933d 2e45 ca3d
000003a0: 1c47 89bc 3861 0a3e 1787 17be 07d0 29bd
000003b0: 5546 34bd fe47 873d c7fe 03bd 71ff cd3d
000003c0: 4daf f13d fac6 803d c080 24bd 4535 073e
000003d0: 3b2d 05be 8201 093e 743a ea3d cde2 dcbc
000003e0: e844 c33c 6a4c 083c b2d6 e43d ad36 023e
000003f0: 28c8 42bd 5eb4 e1bd e0bf 0dbe e9af 43bc

1.4.bias f4 [48]
0.14449216 -0.037263315 0.005244313 -0.039646618 0.06438952 -0.0067388657 -0.040665805 0.09646443
-0.09954793 -0.080696635 -0.021975992 -0.0838493 -0.10320342 0.058978643 0.12708147 0.0154758645
-0.11851149 0.05799432 0.12712088 -0.03450285 0.08965582 0.041577082 0.039872713 0.043418113
-0.013124413 -0.13558853 0.049569156 -0.06437429 -0.06136396 -0.0024435166 -0.04220983 0.12399255
-0.09266447 0.10719821 0.15400292 0.16447373 0.040381048 -0.020253642 -0.06320573 -0.1433777
0.046293184 0.09314202 -0.045108978 0.10926648 0.111383274 -0.09359743 -0.05590718 -0.05670006
00000000: c1f5 133e 6ba1 18bd 7cd8 ab3b 7e64 22bd
00000010: a7de 833d b4d1 dcbb 3091 26bd 258f c53d
00000020: c9df cbbd 4744 a5bd ff06 b4bc 2fb9 abbd
00000030: 515c d3bd 9793 713d a521 023e 7b8e 7d3c
00000040: 27b6 f2bd 748b 6d3d fa2b 023e dc52 0dbd
00000050: 789d b73d bb4c 2a3d 9251 233d 31d7 313d
00000060: c707 57bc b8d7 0abe 0709 4b3d abd6 83bd
00000070: c758 7bbd 6823 20bb 37e4 2cbd ceef fd3d
00000080: dfc6 bdbd bc8a db3d f1b2 1d3e cd6b 283e
00000090: 9966 253d f7ea a5bc 0172 81bd 9bd1 12be
000000a0: ec9d 3d3d 3ec1 be3d 31c4 38bd 1bc7 df3d
000000b0: ea1c e43d 02b0 bfbd edfe 64bd 523e 68bd

1.6.weight f4 [36, 48]
-0.045390233 -0.08236769 0.023565598 0.0122235315 0.055535674 -0.03914781 0.12280241 0.11630138
0.12095404 0.018686878 -0.09620005 -0.027788829 0.06761292 -0.056734264 0.013127376 -0.12708117
-0.1503463 -0.045080844 0.09726774 0.046909016 0.014604095 0.14216721 -0.021190472 0.10810702
-0.14389867 0.12004635 0.07762247 -0.13279478 -0.0041368897 0.056439593 -0.0009879264 -0.044820987
0.115230046 -0.080813885 -0.043102518 0.059634384 -0.12968184 0.03643643 0.12538056 -0.04007082
-0.07052445 -0.030981503 -0.025644964 -0.10444645 0.059584044 0.14224583 -0.12324376 0.13270867
-0.05641523 0.1147281 0.044802528 0.016228605 0.023913814 0.0010837237 0.10685591 -0.012304052
-0.057171162 -0.088956855 0.11909713 -0.036934763 -0.029220458 0.11572801 0.037709445 0.056742705
-0.052495778 0.1289406 -0.14455362 0.057712734 -0.040465575 -0.040152002 -0.13493294 0.13004957
0.028494384 0.13615392 0.04015629 0.14558837 0.13418557 0.13799508 -0.08109333 0.02256317
0.056840595 -0.031707067 -0.08610393 -0.086343065 -0.10784328 0.07102797 -0.01379791 0.12596254
-0.15188108 0.11067196 -0.053665984 0.13824621 0.07493157 -0.093075305 0.13524263 0.07584217
-0.1368833 -0.09874867 -0.051396906 0.074648805 0.14090955 -0.022486396 0.06214651 0.14477837
-0.08074281 0.076018974 0.07288662 0.12465207 -0.105575815 -0.003746301 -0.010700881 -0.026986605
0.12580928 0.09780405 -0.025553374 0.13194516 0.09967643 0.14298005 0.0026767866 0.09030376
0.15017056 0.058776703 -0.017473252 0.0026454052 0.033163477 0.03180518 -0.0073424815 0.114851385
0.11087443 0.12662359 0.042314444 0.04804266 0.10084482 0.06372894 0.14483948 -0.06620031
-0.13058431 -0.018572232 -0.090272754 -0.04461257 0.11500442 -0.12558113 0.115597546 0.02846203
-0.110381566 0.13090986 -0.06465824 0.1112854 -0.1081665 -0.02181259 -0.03251207 -0.005097133
0.030145112 0.020428905 -0.109625585 -0.13145888 0.051879704 0.10201195 -0.014685595 -0.03629867
0.024395108 0.11131302 -0.05320642 -0.09655286 -0.09583035 -0.076497674 -0.09905093 -0.14107405
-0.047738098 -0.13400245 -0.14903878 0.120221876 0.13243674 0.004143104 -0.10389199 0.04945668
0.12398566 -0.08282844 -0.09740344 0.05434041 0.03264355 0.09475181 0.036366522 -0.13287
0.13687283 -0.12326883 0.12326843 0.0907356 -0.026549468 0.1424622 0.09889014 0.047361627
-0.09049695 0.099188976 -0.059994128 -0.085989684 -0.13355322 -0.01573049 0.02700538 0.053954527
-0.04847285 0.08852576 0.027562166 -0.13243687 0.054299407 0.11960232 -0.076306365 0.1277136
-0.0864447 -0.0301418 -0.10654378 0.12663123 0.08954691 0.06833307 0.13905136 0.0062091504
-0.09058231 -0.097340785 -0.097649544 -0.034754954 0.1362818 0.10933071 0.11096316 -0.04608781
0.056954823 -0.104483865 -0.10515417 -0.025036626 0.041709322 0.0011580416 0.020162523 -0.042904966
-0.119514406 0.06576024 0.09915863 -0.058805462 -0.048749935 -0.05672053 0.06631911 0.08999047
0.06453979 -0.0062576137 -0.09449847 -0.08819832 0.061891627 0.043143667 0.010268891 -0.046338897
0.044603277 -0.04716044 -0.047143195 -0.02091167 0.0620282 0.10189791 -0.024565605 -0.002758088
00000000: 1ceb 39bd 64b0 a8bd a40c c13c 3545 483c
00000010: 6079 633d 7459 20bd d47f fb3d 6b2f ee3d
00000020: c0b6 f73d 3915 993c 8804 c5bd 66a5 e3bc
00000030: a578 8a3d 3062 68bd 3514 573c 9121 02be
00000040: 61f4 19be b1a6 38bd 4f34 c73d ab23 403d
00000050: 0446 6f3c 4894 113e a497 adbc 3767 dd3d
00000060: 2c5a 13be dcda f53d 88f8 9e3d 5bfb 07be
00000070: bf8e 87bb 342d 673d 4f7d 81ba 3696 37bd
00000080: bbfd eb3d c081 a5bd 448c 30bd 2f43 743d
00000090: 51cb 04be 5e3e 153d c363 003e 4d21 24bd
000000a0: 1f6f 90bd eccc fdbc 6315 d2bc 05e8 d5bd
000000b0: 660e 743d e4a8 113e 3967 fcbd c8e4 073e
000000c0: a813 67bd 91f6 ea3d db82 373d daf1 843c
000000d0: e7e6 c33c bc0b 8e3a 45d7 da3d ef96 49bc
000000e0: 4f2c 6abd 032f b6bd 32e9 f33d e848 17bd
000000f0: be5f efbc cf02 ed3d 3875 1a3d 0a6b 683d
00000100: d005 57bd 0109 043e dd05 14be 3064 6c3d
00000110: 3bbf 25bd 6d76 24bd dc2b 0abe b72b 053e
00000120: 0e6d e93c ef6b 0b3e ec7a 243d 1e15 153e
00000130: f167 093e 954e 0d3e 4314 a6bd 66d6 b83c
00000140: afd1 683d 45df 01bd 4257 b0bd a2d4 b0bd
00000150: f0dc dcbd 1d77 913d a110 62bc 53fc 003e
00000160: b786 1bbe fba7 e23d ddd0 5bbd 6a90 0d3e
00000170: b975 993d 449e bebd 0b7d 0a3e 2453 9b3d
00000180: 232b 0cbe be3c cabd 9085 52bd 79e1 983d
00000190: 984a 103e 6435 b8bc 578d 7e3d c840 143e
000001a0: 7d5c a5bd d6af 9b3d 9545 953d 9649 ff3d
000001b0: 2238 d8bd 8084 75bb bf52 2fbc 0313 ddbc
000001c0: 26d4 003e 7d4d c83d 4f55 d1bc a21c 073e
000001d0: 2823 cc3d 5d69 123e 076d 2f3b 2df1 b83d
000001e0: 50c6 193e d7bf 703d 1124 8fbc 895e 2d3b
000001f0: 6dd6 073d 2646 023d 3399 f0bb 3437 eb3d
00000200: 2212 e33d 9da9 013e e951 2d3d 61c8 443d
00000210: bb87 ce3d 5284 823d cd50 143e 0794 87bd
00000220: e5b7 05be cb24 98bc ece0 b8bd acbb 36bd
00000230: 7087 eb3d 5798 00be 68be ec3d 3429 e93c
00000240: bb0f e2bd 3c0d 063e 8a6b 84bd 9ae9 e33d
00000250: 6686 ddbd 51b0 b2bc 602b 05bd da05 a7bb
00000260: e2f2 f63c 855a a73c 6183 e0bd 289d 06be
00000270: d07f 543d a4eb d03d da9b 70bc eaad 14bd
00000280: 40d8 c73c 15f8 e33d faee 59bd 82bd c5bd
00000290: b442 c4bd d0aa 9cbd 37db cabd b775 10be
000002a0: 0689 43bd f037 09be 9f9d 18be e336 f63d
000002b0: 7f9d 073e e0c2 873b 53c5 d4bd 1693 4a3d
000002c0: 32ec fd3d f5a1 a9bd 747b c7bd 0d94 5e3d
000002d0: 3eb5 053d 3d0d c23d 10f5 143d 130f 08be
000002e0: 6428 0c3e 5e74 fcbd 2974 fc3d 96d3 b93d
000002f0: 457e d9bc 9ce1 113e ea86 ca3d 44fe 413d
00000300: 7756 b9bd 9723 cb3d 67bc 75bd 5c1b b0bd
00000310: 2dc2 08be 3bdd 80bc 633a dd3c 6cff 5c3d
00000320: 788b 46bd fe4c b53d 0dca e13c 889d 07be
00000330: 0e69 5e3d 10f2 f43d 8346 9cbd 5bc7 023e
00000340: eb09 b1bd f0eb f6bc a033 dabd 9eab 013e
00000350: 5f64 b73d 35f2 8b3d 7b63 0e3e 2176 cb3b
00000360: 3883 b9bd 9b5a c7bd 7cfc c7bd 365b 0ebd
00000370: 758d 0b3e c7e8 df3d a740 e33d 92c6 3cbd
00000380: 7649 693d a3fb d5bd 125b d7bd 9c19 cdbc
00000390: 65d7 2a3d 6ec9 973a e02b a53c 1ebd 2fbd
000003a0: f8c3 f4bd 4ead 863d ae13 cb3d ffdd 70bd
000003b0: 03ae 47bd c953 68bd 50d2 873d ec4c b83d
000003c0: 702d 843d ab0c cdbb 6a88 c1bd 52a1 b4bd
000003d0: 1382 7d3d 6ab7 303d da3e 283c dbcd 3dbd
000003e0: edb1 363d 4e2b 41bd 3919 41bd f34e abbc
000003f0: 4811 7e3d daaf d03d cf3d c9bc 0ac1 34bb

1.6.bias f4 [36]
0.0020306057 -0.17466484 0.059519757 -0.13395521 -0.11900607 -0.062454607 0.12817186 0.17581366
-0.014895103 -0.0075978655 -0.11703653 -0.009995235 0.088252984 0.112284265 -0.09992636 -0.10308395
-0.097247876 -0.11016812 0.07738481 -0.121742554 0.08828585 0.092318356 0.072504535 0.1448358
0.13658792 -0.2138298 -0.05515973 0.052015573 0.099174306 0.06727031 -0.049565848 0.0018326401
-0.05730412 -0.13790555 -0.082657315 -0.026714448
00000000: e913 053b 57db 32be fdca 733d 8e2b 09be
00000010: 74b9 f3bd 67d0 7fbd 7c3f 033e 7f08 343e
00000020: 970a 74bc 84f7 f8bb d9b0 efbd 0ec3 23bc
00000030: fbbd b43d 4bf5 e53d 31a6 ccbd ae1d d3bd
00000040: e529 c7bd d39f e1bd ed7b 9e3d 2954 f9bd
00000050: 36cf b43d 6811 bd3d 427d 943d d64f 143e
00000060: b4dd 0b3e 33f6 5abe 2bef 61bd 480e 553d
00000070: e61b cb3d 04c5 893d 8f05 4bbd 3335 f03a
00000080: bab7 6abd 1d37 0dbe 3d48 a9bd 42d8 dabc

1.8.weight f4 [24, 36]
0.017347366 -0.03670351 0.11631282 0.07147379 0.11155597 0.08752503 -0.12721258 -0.16642211
-0.021050593 0.094866164 0.18055229 -0.05667756 0.12596315 0.07930656 0.09754428 -0.05939748
0.08716448 0.023858726 -0.0844938 0.09427718 -0.09195102 0.08898435 0.08333868 -0.16712369
-0.06329385 0.07316238 -0.076160036 -0.09376195 -0.047725335 -0.05153079 0.1640606 0.07893119
-0.057557713 -0.12504761 0.13653524 -0.0011779317 -0.11803688 -0.013861382 -0.09211317 -0.048721742
0.16276018 0.06649697 0.070401795 -0.11838906 -0.20489857 -0.17920066 -0.11045692 0.12899138
-0.019687569 -0.0042005368 0.035197947 -0.03575118 0.08814351 -0.14955305 -0.12680057 0.089825734
-0.079903185 -0.0072825593 -0.10034371 0.05046924 -0.14760992 0.04648322 -0.026585203 -0.021491919
0.1254645 0.055552505 -0.1094366 -0.13763683 0.0765737 0.14848875 -0.027015219 -0.13897918
0.14131491 -0.08782302 0.1577568 0.06830374 0.03691823 -0.09675538 0.09061024 -0.08845678
0.13152952 0.16353741 -0.045210905 -0.15251578 -0.09795834 -0.10871013 0.1318303 0.0027066874
-0.049710672 0.00645194 -0.13869995 -0.052856926 0.15645017 -0.15571232 0.07244162 0.12946147
-0.043601558 -0.20150739 -0.00644567 -0.13120358 0.06423912 -0.026096003 -0.011032583 -0.024021788
-0.08621565 0.060733117 0.11308802 -0.044419713 0.03008603 0.14578877 -0.11237838 -0.05306959
-0.04811216 0.01782487 0.02250666 0.13715267 0.014969625 -0.018368794 -0.12959036 0.046261817
-0.120363615 -0.06823666 0.13309886 -0.14054674 0.17492008 0.13487951 0.07345587 -0.12091497
-0.11231538 -0.06947824 0.14788054 -0.0201578 -0.038577028 0.06196893 -0.05995789 -0.011824388
0.049507495 -0.16196758 -0.07045652 -0.073625974 -0.11710696 0.078986265 0.036288485 -0.019099291
-0.019637845 0.17236562 0.11399438 0.034224704 0.075554475 0.10478046 -0.03357154 -0.08243502
-0.02616036 0.13886575 -0.006267785 -0.005576395 0.003546376 0.15570143 0.024698494 -0.14198858
0.1278723 -0.02234739 0.0887223 0.0879716 0.04742514 -0.105894774 0.13463205 -0.1427009
-0.021771967 0.1513685 0.16215591 0.09889156 -0.17387997 -0.12734537 0.14333916 0.031190034
0.01989385 -0.0263471 0.0699148 0.011525232 -0.05570861 -0.12263609 0.03748634 0.16755632
-0.010320866 -0.09601119 -0.048825923 -0.12822114 -0.089431934 -0.07116148 -0.11006228 -0.12958668
-0.045567732 0.044292312 0.0014529541 0.08120886 0.12656444 0.069053955 0.09290465 -0.09882408
0.02695998 0.15776746 -0.16097574 -0.09377876 0.030875036 0.16617304 0.1097813 0.08508069
-0.028825197 -9.227429e-05 0.08949276 0.064939305 -0.056422666 -0.087306306 -0.057531524 -0.12234671
-0.06195997 -0.02519051 -0.13730504 -0.16018914 0.12637375 -0.15758409 0.14949165 -0.029898724
-0.017704863 0.06021692 0.062263895 0.007801876 -0.05052056 0.10238842 -0.1793864 -0.07613569
-0.090072066 0.1488742 0.11556379 -0.053051077 -0.032186277 0.101661816 -0.00768599 -0.12702963
0.011904774 -0.14109091 0.15124257 0.12463332 -0.11162176 0.17157191 0.030807003 -0.04009873
0.042746365 -0.17603916 -0.059958324 0.15164007 0.0499597 0.047279544 0.13737252 0.16999207
00000000: 101c 8e3c 6b56 16bd 6a35 ee3d da60 923d
00000010: 7577 e43d 5340 b33d 0444 02be 8f6a 2abe
00000020: 4b72 acbc 3149 c23d b3e2 383e bb26 68bd
00000030: 7cfc 003e 7a6b a23d 4cc5 c73d c64a 73bd
00000040: 4a83 b23d 6073 c33c 160b adbd 6514 c13d
00000050: d150 bcbd 6d3d b63d 78ad aa3d 7922 2bbe
00000060: 35a0 81bd 28d6 953d cbf9 9bbd 4406 c0bd
00000070: a47b 43bd f311 53bd 80ff 273e ada6 a13d
00000080: a3c1 6bbd 7b0c 00be e5cf 0b3e d464 9aba
00000090: 52bd f1bd da1a 63bc d4a5 bcbd 7390 47bd
000000a0: 9baa 263e 902f 883d d12e 903d f775 f2bd
000000b0: eed0 51be 6180 37be 3d37 e2bd 5116 043e
000000c0: d347 a1bc a8a4 89bb b92b 103d d46f 12bd
000000d0: 9684 b43d 6f24 19be 02d8 01be 8ef6 b73d
000000e0: 48a4 a3bd 89a2 eebb 0181 cdbd d5b8 4e3d
000000f0: 0e27 17be 3065 3e3d 36c9 d9bc d20f b0bc
00000100: c479 003e 068b 633d 4c20 e0bd abf0 0cbe
00000110: acd2 9c3d 6f0d 183e 054f ddbc 8f50 0ebe
00000120: dbb4 103e 8edc b3bd 008b 213e d5e2 8b3d
00000130: 9237 173d af27 c6bd dd91 b93d d428 b5bd
00000140: adaf 063e 5a76 273e 122f 39bd 192d 1cbe
00000150: 629e c8bd 6ba3 debd 86fe 063e ae62 313b
00000160: 6b9d 4bbd cc6a d33b 5c07 0ebe 8180 58bd
00000170: 7934 203e 0d73 1fbe 465c 943d 8c91 043e
00000180: 8c97 32bd f457 4ebe 3336 d3bb 3b5a 06be
00000190: cd8f 833d 49c7 d5bc 02c2 34bc 57c9 c4bc
000001a0: d591 b0bd 4ac3 783d b19a e73d 72f1 35bd
000001b0: fa76 f63c a749 153e a326 e6bd 805f 59bd
000001c0: 4211 45bd 7605 923c e35f b83c c071 0c3e
000001d0: 2843 753c 277a 96bc 56b3 04be 087d 3d3d
000001e0: 3381 f6bd a9bf 8bbd 114b 083e 7ceb 0fbe
000001f0: 401e 333e db1d 0a3e 0870 963d 45a2 f7bd
00000200: 9b05 e6bd 9c4a 8ebd ff6d 173e f821 a5bc
00000210: f202 1ebd 22d3 7d3d 6896 75bd 14bb 41bc
00000220: 5fc8 4a3d d4da 25be 824b 90bd 37c9 96bd
00000230: c6d5 efbd 8dc3 a13d 3ca3 143d 1e76 9cbc
00000240: 8cdf a0bc 9d80 303e e375 e93d 342f 0c3d
00000250: 4ebc 9a3d 2397 d63d 5082 09bd b1d3 a8bd
00000260: 404e d6bc d332 0e3e fe61 cdbb 31ba b6bb
00000270: 516a 683b 3270 1f3e 7f54 ca3c 7465 11be
00000280: f5f0 023e e011 b7bc 0ab4 b53d 742a b43d
00000290: dd40 423d 5cdf d8bd fcdc 093e 2f20 12be
000002a0: 205b b2bc 5800 1b3e 330c 263e a987 ca3d
000002b0: 970d 32be d366 02be 80c7 123e 3e82 ff3c
000002c0: 6df8 a23c e0d5 d7bc 7e2f 8f3d 54d4 3c3c
000002d0: b62e 64bd a128 fbbd 478b 193d e293 2b3e
000002e0: d918 29bc 84a1 c4bd b1fd 47bd 674c 03be
000002f0: 1728 b7bd 1cbd 91bd 5568 e1bd 5fb2 04be
00000300: 3ba5 3abd db6b 353d 0d71 be3a d550 a63d
00000310: 1c9a 013e 296c 8d3d cb44 be3d 4764 cabd
00000320: 2ddb dc3c cb8d 213e d3d6 24be 140f c0bd
00000330: a5ed fc3c 4429 2a3e 05d5 e03d c93e ae3d
00000340: d222 ecbc 6283 c1b8 fb47 b73d e6fe 843d
00000350: 741b 67bd a6cd b2bd 2da6 6bbd e990 fabd
00000360: bdc9 7dbd 545c cebc b199 0cbe 9f08 24be
00000370: 1f68 013e b95d 21be 5714 193e 2bee f4bc
00000380: ca09 91bc 04a6 763d 6d08 7f3d e1a6 ff3b
00000390: a6ee 4ebd 05b1 d13d 12b1 37be 07ed 9bbd
000003a0: b477 b8bd 7a72 183e b5ac ec3d 164c 59bd
000003b0: c2d5 03bd 1234 d03d c2da fbbb 0e14 02be
000003c0: 3e0c 433c 237a 10be 55df 1a3e c13f ff3d
000003d0: f399 e4bd 8cb0 2f3e f85e fc3c 913e 24bd
000003e0: d016 2f3d 9c43 34be dc96 75bd 8947 1b3e
000003f0: 8ba2 4c3d 32a8 413d 62ab 0c3e 6712 2e3e

1.8.bias f4 [24]
0.027980715 -0.091548875 0.1485096 -0.12283053 -0.063395485 -0.041177556 0.1666074 -0.17479275
0.07907153 0.013202507 0.099437036 0.0529737 -0.07530957 -0.07942166 0.12611887 0.08808167
-0.038819123 0.12948787 -0.101198874 0.01886522 0.05443315 0.17496973 0.23528814 -0.0054891915
00000000: d037 e53c fa7d bbbd e712 183e 938e fbbd
00000010: 7ed5 81bd cca9 28bd 219b 2a3e dffc 32be
00000020: 41f0 a13d 544f 583c a5a5 cb3d f3fa 583d
00000030: e73b 9abd d3a7 a2bd 4e25 013e 2a64 b43d
00000040: cd00 1fbd 7898 043e 5b41 cfbd 3c8b 9a3c
00000050: 4bf5 5e3d 442b 333e 60ef 703e adde b3bb

1.10.weight f4 [12, 24]
-0.017912617 0.056144774 -0.10680705 0.18059781 -0.17606671 -0.08681254 0.0186016 0.0748619
-0.029426308 -0.031095382 -0.06232534 -0.08373176 -0.09292905 0.06688035 0.10259427 -0.15435906
0.09887075 -0.10018778 -0.039807327 -0.19710866 0.11563472 -0.021860745 0.21824497 0.14069235
0.05174285 0.14583522 -0.1699414 -0.009338135 0.14932553 0.14719586 -0.13631818 0.16302845
-0.10872418 0.21205443 -0.23427789 -0.0992514 -0.10159305 0.16511297 -0.12108937 -0.12833156
-0.112327635 0.05874045 0.21172637 -0.09434073 0.08009144 -0.17699516 -0.22064047 -0.07624091
-0.02092776 -0.031025795 -0.1522048 -0.053859975 -0.026108097 -0.21242921 0.20332536 -0.21191563
0.037265748 -0.102649 0.008008701 0.13821067 -0.06996402 -0.13347292 -0.15848505 -0.10086985
-0.11646824 -0.15698265 -0.22949125 0.033205103 -0.11305063 -0.09329161 0.247473 0.04742193
-0.010465984 0.19068226 -0.21815836 0.23066622 0.098663315 -0.13650964 -0.09912859 0.05650728
-0.18512192 0.08472728 -0.2022523 0.006783097 0.13311256 0.020576319 -0.07569452 -0.17348218
-0.045775015 -0.046983775 -0.001396742 0.12560755 -0.12626746 -0.026763406 -0.109717846 -0.07199474
0.017591078 0.16599782 -0.21807086 0.04014354 0.16775386 -0.16076978 0.030280588 -0.047123276
0.019032076 0.22718212 -0.23895672 -0.15848458 -0.15346822 -0.16290465 0.014202232 -0.1581625
0.043946378 -0.11420161 -0.10438059 0.028758273 -0.075293876 0.06499902 -0.16469921 -0.11009832
0.16837904 -0.06169486 0.24609864 0.056351446 0.05902305 0.058408115 -0.039461356 -0.0481387
0.012593006 0.10361849 0.1092932 -0.16209084 0.059943687 0.024832238 0.23519087 -0.16609193
-0.17910132 0.15572967 -0.1812088 -0.1299086 0.092549056 -0.16942126 0.20477165 -0.14217584
0.15770558 -0.15326044 -0.20905185 -0.021342002 0.1959549 -0.078841425 0.15517353 -0.004044887
0.021089451 0.06763408 -0.0901509 -0.13552462 -0.03596459 -0.12797722 -0.23814322 -0.044401243
0.1248164 -0.21290205 0.14802557 -0.14238694 0.15011531 -0.23989075 -0.05996958 0.12417343
0.12588583 0.1561474 -0.12106735 0.02016564 -0.09961975 0.18779652 0.02933636 -0.084222
-0.1192521 -0.020945732 0.038218226 0.0333233 0.014452291 0.10695826 0.08770455 -0.10594247
-0.19487453 0.16519924 0.09286375 0.08448146 0.14483064 0.01494965 -0.03831083 -0.02338618
0.20853093 0.22460051 0.01991263 -0.051659063 -0.05851429 0.22061285 0.013570546 0.038839314
0.011069237 0.14281608 -0.032227542 -0.19527708 -0.16070443 0.20641616 -0.14989176 0.03315874
0.024447717 0.11498248 0.15152748 0.015707051 -0.10444192 -0.13444759 -0.2394991 -0.13869765
-0.063986525 -0.19492367 -0.09921898 0.0048107817 -0.15098129 0.06035998 -0.12851885 -0.15657419
-0.028091185 0.03711894 -0.048682157 0.16243368 0.04567806 0.13511321 -0.13967954 -0.021069976
0.16570367 0.04591859 -0.119686864 -0.15078032 0.10289126 0.12934092 -0.089942046 0.08424672
0.15909627 -0.052991685 0.10853787 -0.04704269 -0.044369563 -0.19280711 0.22629297 0.026045075
0.23473789 0.07251929 0.068677746 -0.12068111 0.08629481 -0.11475439 0.056864858 -0.13596816
00000000: 7bbd 92bc 10f8 653d a8bd dabd a2ee 383e
00000010: d54a 34be c6ca b1bd 6262 983c 3251 993d
00000020: 710f f1bc bebb febc db48 7fbd 8f7b abbd
00000030: 9651 bebd 91f8 883d f21c d23d 4d10 1ebe
00000040: bf7c ca3d 402f cdbd 020d 23bd dad6 49be
00000050: e5d1 ec3d 4e15 b3bc 9c7b 5f3e a811 103e
00000060: 50f0 533d d455 153e 1e05 2ebe fafe 18bc
00000070: cbe8 183e 83ba 163e fe96 0bbe eef0 263e
00000080: c8aa debd cc24 593e 8be6 6fbe 5144 cbbd
00000090: 0410 d0bd 6013 293e b4fd f7bd 5969 03be
000000a0: 080c e6bd d399 703d ccce 583e b635 c1bd
000000b0: fb06 a43d 383e 35be 93ef 61be 3224 9cbd
000000c0: b270 abbc cf29 febc 93db 1bbe 479c 5cbd
000000d0: a6e0 d5bc 0b87 59be 8634 503e 6900 59be
000000e0: f8a3 183d a439 d2bd ed36 033c 1987 0d3e
000000f0: 4c49 8fbd 20ad 08be e849 22be da94 cebd
00000100: e786 eebd 0fc0 20be c1ff 6abe 1302 083d
00000110: 1787 e7bd ac0f bfbd 9069 7d3e 7f3d 423d
00000120: 8579 2bbc 3642 433e e864 5fbe c433 6c3e
00000130: fe0f ca3d 2fc9 0bbe ee03 cbbd 2d74 673d
00000140: 9a90 3dbe 7f85 ad3d 3a1b 4fbe be44 de3b
00000150: a94e 083e ab8f a83c ba05 9bbd 50a5 31be
00000160: 957e 3bbd 0f72 40bd e212 b7ba 449f 003e
00000170: 424c 01be ee3e dbbc c0b3 e0bd fa71 93bd
00000180: 2a1b 903c 55fb 293e f84d 5fbe 8d6d 243d
00000190: abc7 2b3e d5a0 24be ff0e f83c 5604 41bd
000001a0: 28e9 9b3c 6ea2 683e 12b1 74be c849 22be
000001b0: c626 1dbe 7ad0 26be 7ab0 683c 5af5 21be
000001c0: 1e01 343d 89e2 e9bd 7ec5 d5bd 7896 eb3c
000001d0: ad33 9abd 351e 853d e9a6 28be 3a7b e1bd
000001e0: 8e6b 2c3e c0b3 7cbd 4801 7c3e c6d0 663d
000001f0: 27c2 713d 593d 6f3d 3ba2 21bd 162d 45bd
00000200: e552 4e3c ee35 d43d 1dd5 df3d 24fb 25be
00000210: 8387 753d fa6c cb3c e0d5 703e 0114 2abe
00000220: 5666 37be 9977 1f3e cd8e 39be c306 05be
00000230: 5c8a bd3d c47c 2dbe a9af 513e 8b96 11be
00000240: 927d 213e 4ef0 1cbe b011 56be 6cd5 aebc
00000250: 67a8 483e 9d77 a1bd cfe5 1e3e f98a 84bb
00000260: c9c3 ac3c bd83 8a3d 09a1 b8bd f7c6 0abe
00000270: 9b4f 13bd 760c 03be d1db 73be 14de 35bd
00000280: be9f ff3d ff02 5abe 0494 173e e2cd 11be
00000290: d4b7 193e eca5 75be aaa2 75bd a44e fe3d
000002a0: 37e8 003e 1be5 1f3e 29f2 f7bd 6a32 a53c
000002b0: 7105 ccbd bb4d 403e ce52 f03c 957c acbd
000002c0: 723a f4bd 6296 abbc b78a 1c3d 037e 083d
000002d0: 4dc9 6c3c ef0c db3d 719e b33d 5ef8 d8bd
000002e0: 308d 47be fd29 293e 5a2f be3d 9e04 ad3d
000002f0: 7c4e 143e 60ef 743c d1eb 1cbd 6094 bfbc
00000300: 2289 553e adfd 653e d01f a33c 7498 53bd
00000310: aeac 6fbd 56e8 613e ff56 5e3c f915 1f3d
00000320: bf5b 353c 613e 123e 0701 04bd b7f6 47be
00000330: b48f 24be c25e 533e 3a7d 19be 75d1 073d
00000340: 9446 c83c ef7b eb3d 052a 1b3e 13ac 803c
00000350: a5e5 d5bd a1ac 09be 413f 75be c206 0ebe
00000360: 5e0b 83bd 129a 47be 5233 cbbd c3a3 9d3b
00000370: d79a 1abe 073c 773d 729a 03be fc54 20be
00000380: 7c1f e6bc 080a 183d f166 47bd 0455 263e
00000390: eb18 3b3d 1e5b 0a3e 2708 0fbe f19a acbc
000003a0: 39ae 293e 2215 3c3d 631e f5bd 2866 1abe
000003b0: a7b8 d23d f271 043e 8933 b8bd 8b89 ac3d
000003c0: 22ea 223e cf0d 59bd 1a49 de3d d6af 40bd
000003d0: dcbc 35bd 3a6f 45be 58b9 673e 7b5c d53c
000003e0: 215f 703e fe84 943d eba6 8c3d a827 f7bd
000003f0: 55bb b03d 5a04 ebbd 20eb 683d 3d3b 0bbe

1.10.bias f4 [12]
0.12304622 -0.19893731 0.31010586 -0.006846511 -0.35490826 -0.08533736 -0.1299268 0.000101734855
-0.30549312 0.10192066 0.14550593 -0.24657686
00000000: a8ff fb3d 39b6 4bbe 32c6 9e3e b258 e0bb
00000010: 89b6 b5be 5bc5 aebd 880b 05be 7c5a d538
00000020: 9869 9cbe c7bb d03d 82ff 143e a57e 7cbe

1.12.weight f4 [4, 12]
-0.26814917 0.46936917 -0.4686963 0.11312208 0.3013881 0.005195803 0.41583976 0.121708974
0.32531992 0.026173811 -0.09503867 0.26881593 0.24551398 0.43641773 -0.0054006865 0.27477792
0.38357115 -0.21290134 0.042745244 0.1072857 0.35374752 -0.030656533 -0.04215995 0.11304911
-0.2454256 0.38946164 -0.25829196 0.12722589 0.262773 -0.17849848 0.43338537 -0.12868735
0.2888457 0.06826021 -0.3391416 0.45380846 0.22157736 0.15763427 -0.07343096 0.17207685
0.06762614 0.16914223 0.04242694 -0.13271338 0.31688303 -0.10581874 -0.3283079 0.36107916
00000000: d94a 89be 2851 f03e f6f8 efbe 8dac e73d
00000010: 8b4f 9a3e 8e41 aa3b f3e8 d43e 8e42 f93d
00000020: 5590 a63e 766a d63c a2a3 c2bd 3ea2 893e
00000030: 0468 7b3e 2572 df3e 3ef8 b0bb b1af 8c3e
00000040: 7063 c43e cf02 5abe a315 2f3d 9bb8 db3d
00000050: 651e b53e 6923 fbbc e9af 2cbd 4b86 e73d
00000060: d950 7bbe 8467 c73e d83e 84be 8147 023e
00000070: 2f8a 863e 4ec8 36be b0e4 dd3e 9ec6 03be
00000080: 95e3 933e 02cc 8b3d f8a3 adbe 9559 e83e
00000090: 2de5 623e e16a 213e f962 96bd ea34 303e
000000a0: 937f 8a3d 9f33 2d3e dfc7 2d3d 04e6 07be
000000b0: 7e3e a23e 7fb7 d8bd f917 a8be 5edf b83e

1.12.bias f4 [4]
-0.31238973 -0.59297407 -0.55122894 -0.7036161
00000000: 8cf1 9fbe 26cd 17bf 571d 0dbf 2f20 34bf
