JSP/trained models/O_2021_rwd12.pt (torch_old, 38629 bytes, 16 tensors)

0.0.weight f4 [4, 2]
00000000: ceef 7f3f c239 7f3f 1cc8 823f c062 7d3f
00000010: 87f8 7f3f 310a 833f dd3f 833f 653e 813f
0.9997529 0.99697506 1.0217319 0.98978806 0.999886 1.0237485 1.0253865 1.0097166

0.0.bias f4 [4, 2]
00000000: 8ba1 843a 8a2d ac3c e90c 11bd 7ceb 753d
00000010: 6d76 bbbc 210f 913c ec7d 87bd ccd2 233d
0.0010118944 0.021017808 -0.035412703 0.06003903 -0.022883618 0.01770741 -0.066158146 0.039995953

1.0.weight f4 [64, 8]
00000000: 969d 813e 2554 9abe 6ca3 9fbd e088 6b3e
00000010: f01f af3e d2ed e13d 6d27 663e c538 7cbe
00000020: 4ea1 01be 6099 e9bc 45c4 b9bd 4dae 6b3e
00000030: f61e 513e 2398 953d edf6 f43d 4e4f 17bc
00000040: 58ff a93e 50dd 0d3e 67db 11be 1aad 2dbe
00000050: 5980 a0be 958f 6f3d df34 b33e 544e aebe
00000060: 693b 703e d776 e9bd 8a1e 0cbe 0819 2c3e
00000070: 6d59 5b3e 63c6 ac3e 5431 833d b7d9 b33e
00000080: 88ad c83b cad9 d53d 2930 99bd d57d 86be
00000090: adff b8bd 2d76 843e c07e 943d 1803 92be
000000a0: e05b a3be 048c 81be e244 6f3e 1c10 75be
000000b0: 1b53 82be a2fe a8bd 82c8 3cbe e9b0 613e
000000c0: 4d91 bb3d 8e40 993e 24a0 0d3e d3ee 94be
000000d0: a491 cc3d b581 58be 0048 a7bd f6eb 483d
000000e0: 01fb 243e 86db 923e c6fb cabd 4414 333e
000000f0: 86a6 46be e428 bb3e 7580 6fbe 7d71 2cbd
00000100: 388e 83be a367 26be a100 68be 8916 293e
00000110: 365f 573e 33b6 2dbd dda1 8f3e 2300 e83c
00000120: e3fb 8cbe ac35 f9bd d67a 1bbe ae22 053e
00000130: b79d 553e b618 113e afcf ac3e f882 873e
00000140: dcd0 c83d f208 69be 2788 e8bc 2b2e 733e
00000150: 3d09 80be fd0f a2bd 114b dabd ef25 b1be
00000160: f637 903e f3a0 53bd 9ac9 b13e 41f4 1e3e
00000170: 0d83 5fbe d310 8c3e 3cc9 10be e11a 64bc
00000180: 483c f63d bfb4 e23c e8e7 753d e5b3 11be
00000190: d9f7 1d3e 188a 24be 250a 2cbe b437 cabd
000001a0: 782d 973d 2566 8cbd ee15 77be dd81 fabc
000001b0: 3de3 253d 730e 963d 3ab6 d4bb 748a 77be
000001c0: 7318 4d3e a2bb be3d 0023 8e3e be99 2e3d
000001d0: 211c 1a3e d1e9 a23e 05cd 71be ae33 173d
000001e0: cdb2 18bd f587 94ba e041 96be 2862 75bd
000001f0: fc92 cbbd 67fd 22be 2d6f 05be 1224 a83e
00000200: 7191 b03e c6eb 5c3e 1efe acbe bf7b 41be
00000210: 146c f1bd b080 e03b db9f b63d e742 0a3e
00000220: 109a 8f3e 09bc 983e e990 e83b ded5 86be
00000230: 4aa0 5ebe c155 fc3d c1b7 613d 3eb5 7e3e
00000240: b2ef 92bd f00d 863e 7c8e e43d 6e42 493e
00000250: a501 0dbe 4c88 ba3e 1e31 46be c23d 52be
00000260: 29bb 3f3d 7bc6 8ebd 28f5 8bbe de38 a93e
00000270: b3f2 2b3e c2a2 abbe 5709 4bbd 57e3 a83d
00000280: 486e 34be a755 873e 5a5b 8abe f3fc 993e
00000290: 77f0 acbe f32b 8dbe 41c1 0b3d 39c7 b63d
000002a0: 79e8 a83e ca5b 5bbd 5cc9 53be d11f e83d
000002b0: f79d b0bd 7365 90be 2962 0cbe 2482 153e
000002c0: a46e 4ebe 31b4 8abc e455 2abe 52ed 8abd
000002d0: 55e8 b13e d263 3cbe 464c 8a3e 8c74 a5bd
000002e0: 58df 1e3e 1b9b ff3d 8013 153e ed7d 143e
000002f0: 6609 0b3e c757 e4bd 608d 9a3e 5d25 9dbe
00000300: f3af 89be 5175 52be 9b83 753e 46a6 8fbe
00000310: d8e0 2dbe 1727 c63d 3ec1 2b3e c403 05be
00000320: d1e5 adbe c348 773c 5d8b 9ebe 105e 38be
00000330: 576c 86be 4f83 a83e d337 35be 356c ffbd
00000340: 90e2 7e3e 4950 1fbe 67b9 7f3e c694 28be
00000350: fb1a 67be 9180 2b3d da1c 14bd 8324 7e3c
00000360: 2856 263e 8669 663e f4ba af3e 086b 32bd
00000370: 88b0 053e f529 683e 3b81 b63d 1a1c 9f3e
00000380: 1022 fe3d f7de f03d 3bc6 553c bbbb 58be
00000390: 3249 dbbd 8db5 6fbe 6e40 6f3d 7c4f 22be
000003a0: 2741 3dbe a4ba 723e a394 59be f571 55bd
000003b0: d824 bcbd 004a cc3d 21f1 8b3e 5e41 0e3e
000003c0: 46be 9ebe ba23 243e d482 6fbe c721 ad3e
000003d0: 2f72 3ebe 52d0 623c 9905 95be d220 843e
000003e0: 4891 b8be 1ed7 993d e6db 43be d74f 783e
000003f0: 9168 9b3e a99c 06bd 2e5d a0be 16ff 56bd
0.2531554 -0.30142322 -0.07794842 0.23001432 0.34204054 0.11031689 0.22475977 -0.24631031
-0.12659189 -0.028515518 -0.090706386 0.23015709 0.20421967 0.073044084 0.1196116 -0.009235216
0.33202624 0.13853955 -0.14243852 -0.16960564 -0.31347921 0.05848654 0.35001275 -0.34044135
0.23460163 -0.1139962 -0.13683525 0.16806424 0.21420832 0.33745107 0.06405893 0.3512704
0.006124202 0.104419306 -0.07479889 -0.26267877 -0.09033141 0.2587141 0.07250738 -0.28517985
-0.31906033 -0.25302136 0.2336612 -0.23931926 -0.2545403 -0.08251692 -0.18435863 0.22040142
0.09158573 0.29932064 0.1383062 -0.29088458 0.09988716 -0.2114323 -0.0816803 0.049053155
0.16111375 0.28683108 -0.09911303 0.174882 -0.19399461 0.36554635 -0.23388846 -0.04210042
-0.25694442 -0.16250472 -0.2265649 0.16512503 0.21032414 -0.042410087 0.2805318 0.028320378
-0.27535924 -0.1216844 -0.15183577 0.1300151 0.20860945 0.14169583 0.337522 0.2646711
0.09805462 -0.22757319 -0.028385235 0.2374808 -0.25007048 -0.07913206 -0.10658849 -0.34599254
0.28167695 -0.051667165 0.34724122 0.15522863 -0.21827336 0.27356586 -0.14139265 -0.013922424
0.120232165 0.027674077 0.060035616 -0.1422878 0.15426578 -0.16068304 -0.16800745 -0.09873906
0.07381719 -0.0685542 -0.2412946 -0.030579502 0.040499914 0.07326975 -0.0064914497 -0.2417391
0.20028858 0.09313132 0.27761078 0.04262709 0.15049793 0.31819013 -0.23613365 0.03691452
-0.037279893 -0.0011332022 -0.29347134 -0.059908062 -0.099401444 -0.15916978 -0.13030691 0.3284002
0.34485963 0.21574315 -0.33787626 -0.18894862 -0.117881924 0.0068512782 0.08917209 0.13502084
0.28047228 0.2983096 0.0070973528 -0.26335043 -0.21740833 0.12321044 0.055106882 0.24873826
-0.071746245 0.26182508 0.11159989 0.19654247 -0.13770159 0.3643211 -0.19354674 -0.20531371
0.04680935 -0.06971451 -0.27335477 0.330512 0.16791801 -0.33522612 -0.049569454 0.08246487
-0.17620194 0.26432535 -0.2702282 0.30075797 -0.3377721 -0.27572593 0.03411985 0.089247175
0.32989863 -0.053554334 -0.20682281 0.113341935 -0.086238794 -0.282024 -0.1370932 0.14600426
-0.20159394 -0.016931625 -0.16634327 -0.067835465 0.34747568 -0.18397453 0.27011317 -0.0807887
0.15514886 0.12480756 0.1455822 0.14501162 0.13577804 -0.11149555 0.30185986 -0.30692568
-0.2689205 -0.20552565 0.23975985 -0.28056544 -0.16980302 0.096754245 0.16772935 -0.12989718
-0.33964399 0.015093031 -0.309657 -0.18004632 -0.26254532 0.3291268 -0.17697076 -0.12471811
0.24891114 -0.1555797 0.24973069 -0.16463003 -0.22568886 0.041870657 -0.036160327 0.015511635
0.16243804 0.22501191 0.3432232 -0.043559104 0.13055623 0.22672255 0.089113675 0.31076127
0.12408841 0.11761277 0.01304775 -0.21165363 -0.1070732 -0.234091 0.058411054 -0.15850633
-0.18481885 0.2370401 -0.21248107 -0.05211063 -0.09186715 0.09975052 0.27332404 0.13892123
-0.31004542 0.16029254 -0.2338975 0.33814833 -0.18598245 0.013843613 -0.29105833 0.2580629
-0.3604834 0.075117335 -0.19126853 0.24249206 0.30353215 -0.032864247 -0.3132109 -0.052489363

1.0.bias f4 [64]
00000000: 7541 94be d983 953e 0028 37bd 11fb 143e
00000010: 362c 16be faed ae3e 73f2 1abe b49e dabd
00000020: f1a6 2dbd cc54 eb3d 2783 a5be dc79 d0bc
00000030: 6c95 fbbd e8c3 8b3e f27b 08be b806 9f3e
00000040: 49a2 9f3e a00d a4be afc9 a4bd abd6 653e
00000050: e6a6 bdbc 5d68 e13d fe0f 10be c407 41bd
00000060: a986 a73e 0543 0dbe e442 a03e e9c1 adbe
00000070: 04ef 59be 388e 0a3e 05b1 843e 4f8f 0d3e
00000080: 0435 b6be 7023 02be 065c 52bd 087c d63d
00000090: 3afe acbe 9a2d b1be ddc0 80bc 386e 873e
000000a0: 6e0e 30be d9ed 353e 0669 c23b fe86 82be
000000b0: ff12 56be 7393 5dbe 6cda a13e f8c3 403e
000000c0: 3798 85be 0613 8bbe a82e 82be 8eb3 993e
000000d0: 390a 6ebd ffb3 8abe 09b1 263e 72f0 67be
000000e0: ee1b 4e3c 940b 643e 3358 723c 3d55 863e
000000f0: 835d a3be 3a5a 36be 4323 a83e 6d28 8c3e
-0.2895619 0.29202154 -0.04471588 0.14548899 -0.14665303 0.34165937 -0.1513155 -0.106748015
-0.042395536 0.11490783 -0.32326624 -0.025448732 -0.12284359 0.27297902 -0.13328531 0.31059813
0.311785 -0.32041645 -0.080462806 0.2244517 -0.023150872 0.11006234 -0.140686 -0.047126547
0.32719925 -0.13795097 0.31301033 -0.33937004 -0.21282583 0.13530815 0.25916305 0.13824199
-0.35587323 -0.12708831 -0.05135729 0.10472876 -0.3378771 -0.34605104 -0.015716964 0.26451278
-0.17193004 0.17766513 0.00593293 -0.25493616 -0.20905684 -0.21638279 0.31611955 0.18824756
-0.26092693 -0.2716295 -0.2542622 0.30019802 -0.058115218 -0.2709045 0.16278471 -0.22650316
0.012579901 0.22270042 0.014791536 0.26236907 -0.3190728 -0.17807856 0.32839403 0.27374592

1.2.weight f4 [48, 64]
00000000: b801 ff3d 8a2f 6a3b 0a51 453d 63c4 a03c
00000010: 1da2 4bbd e727 a0bd 10f6 b43c d213 ee3d
00000020: 13e9 5cbd 2470 bb3d aa3b 3cbd 6746 863c
00000030: 35ca 34bd 0599 edbd cf17 883c 775d 793d
00000040: 259b 813d f689 9a3d f3c1 cb3d bd96 38bc
00000050: d6ea f9bd 07b1 b5bd 8ec1 2fbd 86e5 8a3d
00000060: bdd2 2a3d 3008 90bd 96d7 863d 5d81 9e3d
00000070: de93 c8bd b226 663d eb2b 813d f04e 20bd
00000080: dc45 a63d 691b bd3d ef9f fabb b693 913d
00000090: 9e47 5f3d 8f04 f1bd 21fe 77bc 6540 9fbd
000000a0: e2ae 4b3d 77c0 b7bd 4fa8 c43d 84c9 8dbd
000000b0: 5575 b53d a97c e63d 6b2d 433b ed66 c5bc
000000c0: 0ff4 2a3d ba35 c2bd 6faf 2d3d 597c ccbd
000000d0: fbf8 6cbc 2d1d 983d c169 ac3d a776 9bbd
000000e0: 1134 f8bd c340 1a3c a385 debd 86b1 e6bc
000000f0: a681 45bd eba8 ec3c 7aea a5bd e714 cdbd
00000100: 38f2 0abc 91cf c8bd 222e 6cbd c726 93bd
00000110: 45d2 b7bd bd98 85bc 5559 8f3d 2b80 a9bd
00000120: 7c69 6fbd ccba ba3d e6b9 bb3d 069d e83d
00000130: 526d 1a3d b955 8d3d ca05 fcbb e6e5 5abd
00000140: 5ff0 ebbd 7dce 8e3c cd20 80bd ddfb 94bc
00000150: df67 e93a 1d38 a3bc 3292 57bc 8e2b f33d
00000160: 61a1 b73d 8e69 fabd c3ef d0bd eead c2bc
00000170: ed0c 013e 6f55 8abd 9900 e5bd 8de5 9dbd
00000180: a8e5 bbbc b0b2 8d3c 2766 3abd 0277 6cbd
00000190: 1ecb eabc 3823 fc3d 938c 64bd 6bb5 81bd
000001a0: 1ee5 dfbd 0f65 a23d 41d1 fa3d 399f 68bd
000001b0: d210 d8bd 53e6 8bbd e11c 843d 3bd7 d1bd
000001c0: c3d0 f93d 2d32 54bd cca4 da3d bf9a 743b
000001d0: a7b3 2e3c f521 5fbd 6b02 a43d 0e21 b63d
000001e0: d00e 75bd 7655 b73d 0d0b 393d a321 613d
000001f0: 070b f63c 32a6 803d ed03 1fbd c599 22bd
00000200: 1d7c 193e 7187 d23d fe53 c53d 6808 87bc
00000210: b626 653d a698 b4bd 6e36 eb3c 8aa3 d73d
00000220: 2523 ff3c c5ec a73d 05de 90bb 131c b4bd
00000230: b737 f13d 5c97 363d ccaa bbbd 3a5c ea3c
00000240: 2b83 f4bb 57c8 d63d f1f4 cebd b1a9 4fbd
00000250: df1b 4ebc 4091 17bd 2a3a d23d 06d5 9ebb
00000260: 378c b2bd 1753 4e3d 7898 833c 87d7 df3d
00000270: 160b 47bd 2c20 b7bd 3803 74bd 34cc 323b
00000280: f33c 7a3d 60a4 b73c a3bd 44bd 70cf 93bd
00000290: 6518 39bd c01f 243a 17a7 b13d eafb bcbd
000002a0: 4618 013e 1c0d 01bd 306c e8bc 182a 89bd
000002b0: 84fa 113d 6136 1abd 70db 183d dc25 81bd
000002c0: 672b 02bd a06a a33c e7cf 9bbd 6d6b 9c3d
000002d0: 96e3 2d3d 0f58 c13d b759 2ebd 254a 5fbd
000002e0: 2207 a9bd 5cfc 93bc b01e 733d 9523 0dbd
000002f0: 59a6 75bb 9eba 243d d697 2bbd 56da c9bd
00000300: 1758 a63d 136d 8dbc 4657 05bd 2b28 02be
00000310: 31ae 5dbd fae3 ef3b 990c 84bd 4549 dabc
00000320: 7dbf de3d d00a d0bd 1a59 373d 0d2b bbbd
00000330: a4cf a3bd 2c8b 84bc 7fdd 4d3d 4fff d8bd
00000340: a518 61bd a64b a9bd 9c13 903c cb9f c43c
00000350: 9330 cfbd 6a25 b23c 0f41 0b3d 99bd 4fbc
00000360: 24f9 d7bd 8758 d9bd cbf5 8fbd 0f54 fd3d
00000370: 6a5d dfbd c0ca 7d3d 0d63 04be b6b0 07be
00000380: 7149 02bd 5e0e 6b3d 2c01 0dbc 0bd6 11bd
00000390: 6448 1abd 70ba 42bd 76d0 d6bd f242 97bc
000003a0: 1ec1 9f3d 1191 87bd 8a0b 953b 98ee 43bc
000003b0: c586 cabd c742 8c3d 601a 09bd 52b5 b239
000003c0: 229f 14bd 2fc1 11bc 8879 34bd bd72 d23d
000003d0: 963e 6ab8 3359 023d e8aa 91bd ad28 c53a
000003e0: 4fef e0bc 63f2 e23d 7127 c4bd 1b8c d93d
000003f0: e284 c1bd b173 18bd 624f d13d 5886 863d
0.124515 0.0035733902 0.048172988 0.019624894 -0.04971515 -0.07820111 0.022089988 0.11624874
-0.053933214 0.091522485 -0.045955338 0.016390992 -0.044138152 -0.11601452 0.016612915 0.06088015
0.063284196 0.07545845 0.09949102 -0.011266408 -0.122029945 -0.08871656 -0.042909198 0.06782059
0.041704882 -0.07032812 0.065840885 0.07739518 -0.097938284 0.056189246 0.06307205 -0.03913778
0.08118793 0.09233744 -0.00764846 0.07108252 0.05451166 -0.117684476 -0.015136273 -0.07775954
0.049727328 -0.08972257 0.09602415 -0.06923202 0.0886027 0.11254246 0.002978171 -0.02409693
0.04173666 -0.09482904 0.042403635 -0.09984655 -0.014463658 0.0742744 0.084186085 -0.075909905
-0.12119306 0.009414854 -0.10865333 -0.028160822 -0.048219346 0.02888914 -0.081013635 -0.100137524
-0.008480601 -0.09805215 -0.057661183 -0.071851306 -0.089756526 -0.016308183 0.069994606 -0.08276399
-0.058450207 0.0911766 0.09166317 0.11358075 0.037701912 0.06901116 -0.00769112 -0.053441904
-0.115204565 0.017432446 -0.06256256 -0.018186504 0.0017807445 -0.019924218 -0.013157414 0.11873542
0.089663275 -0.12227164 -0.10201981 -0.023764577 0.12602587 -0.067545764 -0.111817546 -0.07709799
-0.022936657 0.017297119 -0.045507576 -0.057730682 -0.028661307 0.12311405 -0.055798125 -0.06333431
-0.109323725 0.07929432 0.12246943 -0.05679247 -0.10550083 -0.0683104 0.06450821 -0.1024613
0.12198021 -0.051805664 0.10675964 0.0037323681 0.01066295 -0.054475743 0.08008274 0.088930234
-0.05982858 0.08951847 0.045176554 0.05496372 0.030034555 0.06281699 -0.038822103 -0.039697427
0.14988752 0.1027974 0.09635161 -0.0164835 0.05594512 -0.08818178 0.028712478 0.105292395
0.031144688 0.08199457 -0.004420998 -0.08794417 0.11778205 0.04457794 -0.09163436 0.02860843
-0.0074619255 0.104874305 -0.101053126 -0.05069894 -0.012579887 -0.037003756 0.10265 -0.0048471717
-0.0871815 0.05037221 0.016063914 0.109297805 -0.048594557 -0.08941683 -0.059573382 0.002728236
0.061093282 0.022417247 -0.048032414 -0.072173 -0.04518928 0.00062608346 0.08674448 -0.09227736
0.12606916 -0.031506643 -0.0283719 -0.06697482 0.0356393 -0.037649516 0.037318647 -0.06306049
-0.031779673 0.019948304 -0.076080136 0.07637677 0.04245337 0.09440624 -0.042566027 -0.05451407
-0.082533136 -0.01806467 0.059355438 -0.03445776 -0.0037483184 0.040217035 -0.04189285 -0.098560974
0.081222706 -0.017263925 -0.032553934 -0.12710635 -0.0541212 0.007320878 -0.06447715 -0.026646266
0.10876367 -0.10158312 0.04476271 -0.09139071 -0.07998589 -0.016179644 0.050260063 -0.10595571
-0.054955143 -0.08266382 0.017587475 0.024001976 -0.10116687 0.021746356 0.03399759 -0.012679481
-0.10545567 -0.106125884 -0.07029303 0.123695485 -0.10906489 0.061960936 -0.1292841 -0.13251004
-0.03180832 0.05738675 -0.008606236 -0.035604518 -0.037666693 -0.047541082 -0.104889795 -0.01846454
0.07800506 -0.06619466 0.0045484947 -0.011958741 -0.098889865 0.06848674 -0.03347242 0.000340859
-0.036284573 -0.008896156 -0.044061214 0.10275791 -5.5848235e-05 0.03182335 -0.07112676 0.001504203
-0.027457861 0.11081388 -0.09577835 0.10622426 -0.094491735 -0.037219707 0.10220219 0.06568593

1.2.bias f4 [48]
00000000: 3f55 debd 9531 f2bd 2741 22be ee23 fcbd
00000010: 2ea1 d33d 2786 b83d ce9a f83d ef26 833c
00000020: 5542 0fbe 4681 353d 535f 23bd cc3e 2fbd
00000030: ccc2 90bd ce39 813d 33f2 9a3c 2377 66bd
00000040: f0c5 a7bd de28 d13d 0e63 173d bfc7 9a3d
00000050: bdf6 ccbc aff7 123d 966e dabd 31a6 16bd
00000060: e528 c0bd 219b d03b 2403 c73d 704b 1d3d
00000070: 6efe 46bd 2215 86bd f817 91bd c98e c33c
00000080: 62f3 0ebd 269d e33d 2abf 9d3d 03c8 063e
00000090: ae41 913d f179 0abe 52ab f33d 4979 edbd
000000a0: f919 a3bd f719 a7bd cc31 093e 90f6 57bd
000000b0: 52d8 9cbd 3ab4 c1bd 084b ecbc 7fb4 db3c
-0.10856103 -0.11825863 -0.15845166 -0.123115405 0.10333477 0.090099625 0.12138902 0.016009776
-0.13990147 0.044312738 -0.03988583 -0.042784497 -0.070684046 0.063098535 0.018914318 -0.05626596
-0.081920505 0.10212873 0.0369597 0.0755763 -0.025019998 0.03588074 -0.10665624 -0.036779586
-0.093828 0.006366149 0.09717396 0.03840202 -0.048582487 -0.065469995 -0.0708465 0.023871796
-0.034900077 0.11113958 0.07702477 0.13162236 0.070926055 -0.1352308 0.11897911 -0.11595399
-0.07963938 -0.08159249 0.13397902 -0.052725375 -0.07658447 -0.094582036 -0.028844371 0.026819466

1.4.weight f4 [48, 48]
00000000: b082 b4bd 4185 a53d c2e4 ebbd f0d7 babd
00000010: 2e3f 973c 7a02 d23c 52b0 cabd 7149 cdbd
00000020: 6c66 04bc a9ef 383d bb8e dd3d 5d8d d73d
00000030: 70f1 ccbd 9d9a 6c3d efe7 f2bd 7415 eabd
00000040: 515b 71bd bf97 b23d 824f fa3d 9920 f63d
00000050: e5fb 06be e8a1 e7bd 76bb 8b3d c579 81bd
00000060: a4ba 693d 1dcf fabd 8d3e 9dbd a919 143e
00000070: a962 083d 29f6 b53d eb95 e9bd 647c 523d
00000080: d7cf 6c3d f593 1abe 3501 8cbc edf1 9e3d
00000090: 15ab 13be f170 893d 7d3a c43d 5788 113e
000000a0: 6876 d63d 1f8e 663c c2fe eabd c0bd 073c
000000b0: e6a8 88bd 4da7 993d 6e9b 44bd 9a11 afbd
000000c0: acc3 fcbd 7af5 9e3d 4e56 24bb 22a2 a73d
000000d0: 1948 043e 55f7 08bc 5c88 963d bfc9 ebbd
000000e0: 9a67 98bd eee1 953d b6c9 8ebd 2754 0d3c
000000f0: e064 97bd 99df d23d ef79 1ebc ad74 13be
00000100: 0f79 f7bd 6fe5 c5bc afd4 cbbd a7f2 083c
00000110: d7f6 cfbd 64c8 e7bd 18c8 d8bd 3713 0a3e
00000120: bc43 edbd 884a 053e a8c5 d83d e885 f13c
00000130: 3a51 f6bd 1586 8f3c 70d1 403b 4e49 063d
00000140: a1c0 3bbd 99ae 0abe d235 8abd 5e42 203c
00000150: a4b1 033d c5fd cb3c 092c 0f3b 2c59 b6bd
00000160: f1a9 423c 317e 863c ad0e 8fbd 8ab0 ed3d
00000170: 4496 b83d 4c24 a3bd 7c71 ac3d 3444 0abd
00000180: 1a3b 933d f4c1 9ebd e02e 1a3e b181 e6bb
00000190: 4736 cdbd 13a2 03bc 376e b03d 94c2 8a3d
000001a0: 2d31 4b3d f804 5b3c 8b80 09bd 0de8 02be
000001b0: fb48 163c 1aaa 02be ef4b b13d f798 88bc
000001c0: bb41 a43d bc41 94bd 5cd5 0fbe c842 093e
000001d0: 897d 1d3d 76ff a2bd 6e2f febc 0434 18be
000001e0: 8d03 a23d e80e e1bd 81b2 d2bd c058 83bd
000001f0: 5162 973d c8d8 2cbd 8ae3 cfbd 8531 033e
00000200: 65e3 97bd 5294 ac3c d7ab 923d 7aed 13be
00000210: 04ad 91bb e469 1a3e 6739 093e 9726 eb3d
00000220: cfab c13d 3c42 d13d a38a a93d 9fdf 8fbc
00000230: ca56 a3bd 5562 09be 84a9 f23d af4a c33d
00000240: 0e04 3f3d 1e83 71bc cdcc 963d cda8 72bd
00000250: 6028 a23d 9a5c ad3d bc93 aebd a14c 50bb
00000260: 8215 1d3e 42b7 26bd f369 9fbd a485 ddbc
00000270: cc48 f23b ddf5 6c3d f491 7ebd 3f97 e33d
00000280: 0ab0 3c3d acf3 783c 142f 8b3b e90c e6bc
00000290: 5aa8 e2bd 642f a73d 20bb 8bbd 89a3 8aba
000002a0: 3c57 f0bd 035a d2bd e16c d8bd 335f ef3d
000002b0: 73c1 51bd 7d99 b33d 7263 e33d 687d 843d
000002c0: 4fb2 4ebc 0c56 fa3c e03d bc3d d665 9dbd
000002d0: e987 9f3c 9619 0cbd 9a45 293c 0e63 86bb
000002e0: 9a1d 1a3e 2fbc 01bd 95ae 883d 3d41 eebd
000002f0: b771 c3bb 8b64 2d3d ed13 24be eddf d33d
00000300: 6be2 98bd 3ddb 8abd 7517 8a3b 4fd9 b73d
00000310: a199 adbd 6c7f fbbc b7ce 4e3d 8f05 8fbd
00000320: 111e cabd 7aa0 063e 3643 d13c 554a e9bd
00000330: 44cf 633d 4786 9cbc 8e23 26bd fec0 c1bd
00000340: 7af8 6a3d 20ea 6abd cf75 103e d894 5c3d
00000350: 98a3 86bd 79de 88bd d262 9cbd 8c0a c9bd
00000360: 830f afbd 1a21 9ebd df2c a8bb 132d 873d
00000370: 6d9d e63d 29ba 07bc f3df c5bd 7ce1 073e
00000380: c0f7 09bd 2833 c93d 1611 ed3d 5510 61bc
00000390: b5de d93d 4170 0c3e f360 93bd 3753 aa3c
000003a0: d84c d93d a549 a5bd 6c67 043e 2961 92bd
000003b0: 9451 04be 8972 e63d 74e9 073e f3b5 5a3d
000003c0: 88e0 b33d d737 bdbd d53e 7abd 3dff 05be
000003d0: 3840 86bd a614 8e3d f966 e93d 3453 c13b
000003e0: 3e5e e2bd 4fdf 233d b762 55bd 3b44 d9bc
000003f0: 85ab db3d 5ca8 133c 7e58 0e3e 014b 11be
-0.08813989 0.08082057 -0.115182415 -0.09123218 0.018462744 0.025635947 -0.09896912 -0.100237735
-0.00808106 0.045150433 0.10818239 0.1052501 -0.10006988 0.05776464 -0.11860644 -0.11429873
-0.058924977 0.087203495 0.12222196 0.12017936 -0.13182028 -0.11310178 0.06822865 -0.06322054
0.05706276 -0.12246535 -0.07677946 0.14462914 0.033297215 0.08884842 -0.11405548 0.05138816
0.0578154 -0.15095504 -0.01709042 0.077609874 -0.14420731 0.06710995 0.09581468 0.14212166
0.10471803 0.01407197 -0.114743724 0.008284986 -0.0667284 0.07502613 -0.04799979 -0.08548279
-0.12342009 0.07761665 -0.0025075856 0.08185221 0.12918128 -0.00835975 0.07350227 -0.115130894
-0.074416354 0.07318483 -0.06972067 0.0086260205 -0.07392287 0.10296554 -0.009672626 -0.14399977
-0.12083637 -0.024157254 -0.099526756 0.008358634 -0.10154503 -0.11317518 -0.1058504 0.13483892
-0.11585185 0.13016713 0.10584575 0.029482797 -0.120272115 0.01751999 0.002942171 0.032784753
-0.045838002 -0.13543166 -0.06748547 0.009781448 0.032151833 0.02490128 0.0021846315 -0.08903727
0.0118813375 0.016417595 -0.06985221 0.11605938 0.09013036 -0.079659075 0.08420083 -0.03375645
0.07189007 -0.077518374 0.15056944 -0.0070345034 -0.10020118 -0.008034247 0.08614772 0.06775394
0.049607445 0.013367884 -0.033569854 -0.12783833 0.009172673 -0.12760201 0.08657061 -0.016674502
0.080203496 -0.072391 -0.14046234 0.13404381 0.038449798 -0.079588816 -0.031028476 -0.14863592
0.079108335 -0.10989171 -0.10287953 -0.06413412 0.07391799 -0.042198926 -0.101508215 0.12811859
-0.07416419 0.021066818 0.07161682 -0.14446059 -0.004445674 0.15079457 0.13400804 0.1148197
0.09456598 0.10217711 0.08278396 -0.017562686 -0.07975538 -0.13416417 0.11848739 0.09535729
0.046634726 -0.014740733 0.073632814 -0.059243012 0.07917857 0.08464928 -0.08524272 -0.0031783956
0.15340236 -0.040702112 -0.0778388 -0.027041264 0.007393932 0.05785166 -0.06215091 0.11112832
0.04606632 0.015194815 0.0042475555 -0.028082328 -0.11067267 0.08163336 -0.06822801 -0.0010577302
-0.11735389 -0.102710746 -0.10567642 0.1168808 -0.05120988 0.0876951 0.11102952 0.06469232
-0.012615754 0.030558608 0.09191489 -0.07685439 0.019473987 -0.03420409 0.010331536 -0.0041011637
0.15050355 -0.031673606 0.06673924 -0.11633537 -0.0059644836 0.042332213 -0.16023226 0.10345445
-0.07465061 -0.06780098 0.004214222 0.08976995 -0.08476568 -0.030700408 0.050490107 -0.06983482
-0.09869016 0.13147154 0.025544744 -0.11391131 0.055617586 -0.019106997 -0.04056125 -0.094606385
0.057365872 -0.057352185 0.1410744 0.053852886 -0.06574172 -0.06683058 -0.07636036 -0.09816465
-0.085478805 -0.07721157 -0.005132302 0.06600394 0.11260495 -0.00828413 -0.096618555 0.13269609
-0.03368354 0.098242104 0.115755245 -0.013736804 0.10638181 0.13714696 -0.07196226 0.020791633
0.1061036 -0.08070687 0.12930077 -0.07147438 -0.12921745 0.112523146 0.13272649 0.053396177
0.0878306 -0.09239166 -0.061095078 -0.13085647 -0.065552175 0.06937532 0.113965936 0.005899811
-0.110531315 0.040007886 -0.052096095 -0.026521793 0.10726074 0.009012308 0.13900945 -0.14188768

1.4.bias f4 [48]
00000000: 2c2d aabc 163d 42bc 46ff 1abe 0dd3 ae3c
00000010: 040d 20bd b341 f3bc 5cf6 24bd b5c3 02be
00000020: 40f9 d4bd 7574 693c 9ca0 b03d c693 4c3c
00000030: 9d96 853c 8deb 8d3d 5ee1 cb3d 5de4 4f3e
00000040: 76bd c63b 660c 69bd f722 623d 839c 5d3c
00000050: 69c5 fd3d 0cff 9dbc 8700 003e 7ac6 f73d
00000060: 750a 153e 1e49 d8bc 7d76 173c 9c22 f5bc
00000070: 12d2 f83d 9bfc e93d 0a62 da3d a84a 443e
00000080: 5493 dc3d 5345 b33d 9dc6 83bc 20ab b8ba
00000090: 8719 ecbd c343 49bd b8c4 413e 8472 763d
000000a0: 3cc2 b6bd 360d a83d 826d 39be f885 1e3e
000000b0: b4ea d83d febd a13d 4768 a5bd c515 8abd
-0.020773493 -0.011855384 -0.15136442 0.021340871 -0.039074913 -0.029694414 -0.04027401 -0.12769969
-0.10399103 0.014248957 0.08624384 0.012486404 0.01630717 0.06929693 0.09955095 0.20301957
0.006065066 -0.05689659 0.055209126 0.013526085 0.123911686 -0.019286655 0.12500201 0.12098403
0.1455477 -0.026402052 0.009244558 -0.02992373 0.12149443 0.11425134 0.10663231 0.19169104
0.10770288 0.08753457 -0.016085917 -0.0014089085 -0.115283065 -0.04913689 0.18922698 0.060167804
-0.08923766 0.08205645 -0.1810818 0.15480793 0.10591641 0.07897566 -0.0807653 -0.067424335

1.6.weight f4 [36, 48]
00000000: 93b5 bb3d 546e 113e a114 44b8 2b39 78bd
00000010: 664e 803d cc6a 8c3d e69e 36be df29 f7bd
00000020: 2e19 17bd 7f10 f9bd 5df6 063d e90e ca3d
00000030: 96fc f0bc 5213 ce3a 5ed1 edbd f9e2 0c3e
00000040: eb77 343d b16e 0d3d 4cdd a93b 3270 493d
00000050: fbc2 863d d433 ebbd 512d de3d df7e eebd
00000060: 0790 82bd a419 2fbd 5346 1d3e fd97 2e3d
00000070: 078d 043e f853 733d b201 633d 16ea b13d
00000080: ac9e 17bc 6b99 babd f5db 22be 7c3d 13bd
00000090: 1a25 11be 4b7d 9e3c 3172 3c3e 619e 9cbd
000000a0: ba32 1e3e 6967 0b3e 6493 19be 8ac7 403d
000000b0: e266 0f3d 2d8d dabd 225b cf3b 3dc1 7cbd
000000c0: 8679 9abc 98a5 2b3d 4c3a ec3d 392b 8dbb
000000d0: 5efb 513d 4090 d4bc 64f5 9f3d b5b9 073e
000000e0: d24c 0a3e b6aa e13d 53a5 02be 9f6f d53d
000000f0: 99ef f33b fda7 613c eeb2 563d 61be 5cbd
00000100: 4faf e5bd 8f9f 14bd 6dff 1a3d 89cd ba3d
00000110: 1ce8 a73d 8806 ae3d d199 79bc ebb8 d0bd
00000120: b7eb cdbd e045 e8bd 264e c93d b418 21bd
00000130: 2f23 cebd 443b b7bc 5bcb 16be 8959 cc3d
00000140: 5f19 c6bd d10f b7bd 870e 7f3c 9087 29bd
00000150: bfc3 9e3c 402f 99bd e4f3 0dbe 78e9 c43d
00000160: 8649 b73b 4882 87bd d876 ef3d 6658 d23d
00000170: 4ac3 1b3d 9060 71bd d451 ee3d 9258 553d
00000180: 25f4 c63d 4a96 173c 0600 26be 5b33 873d
00000190: 5b7d b3bc 3e79 ed3d d4cf ab3d 2fb6 ec3c
000001a0: 7199 6c3d 15a3 b9bd 7dd1 fe3d 7ed2 8b3d
000001b0: 8e3c 2e3d 80fb df3d 45fb c23d 847d 6dbb
000001c0: 0873 11be 20e7 743d 02e3 b2bd a576 bd3c
000001d0: 341f a23d 76c9 0abe eedc c5bc cea6 fd3d
000001e0: c3fd 1fbd 2d6c 5abd 00e1 92bd 2a52 84bd
000001f0: a3b3 f33d bef9 d2bd 5890 29bd 005f b6bd
00000200: 38f4 6cbd 5011 5e3d 0e96 e53d 31ee fdbd
00000210: 7be3 d4bc 6b74 ca3c 0101 9cbc 2087 c1bb
00000220: 48a9 a9bd b46c 413d b504 f5bd 68e8 e93d
00000230: e642 0cbb ecbe 653d 8526 de3d a7b1 1cbc
00000240: 7ceb 84bc 6a08 b93d bb37 a23d 09e3 103e
00000250: 54ca 333d 5bab 80ba 6a46 133e b804 e13d
00000260: 6a2d aabd 0fe4 f4bd 8b2a c1bd 64be bd3d
00000270: 5c78 c13c db8d e13d 70b2 20be dbf7 8ebd
00000280: e8d3 ce3d ca0b 83bd 7b6f 8e3c ee40 81bd
00000290: cbbf c93d 6ada c3bd 10d5 b9bc b5e2 703d
000002a0: 26d7 7c3d 0185 093e cc54 fabd e221 b8bb
000002b0: f0bc 24be 944d 9fbd 9e5c fe3d a235 d8ba
000002c0: 41a2 9dbd a93e 82bc 7b1b debc cb5c 1d3e
000002d0: bbd6 163e fcf8 373d 2af0 26be 9137 993d
000002e0: 1349 3b3d 45ec edbc 784a b63d c043 3fbe
000002f0: e0fa 313d 43b0 483d 9efc c3bd 3956 f9bd
00000300: 24d4 b33d 04e7 d03d 5858 a9bd 4bf5 d6bd
00000310: 344c 803d c4ff a83b 2389 8b3c 54f8 b63c
00000320: e708 c7bd 90a5 2abd 0bc5 2f3d 3e2a 5a3c
00000330: 149c 1c3e 5f33 28be 12e1 a0bd 6317 f2bd
00000340: 4bd5 993c f1ca b03c 7945 b1bd ef90 01be
00000350: b831 193e 63e3 00bd 5b70 57bd ac5a 15be
00000360: 7da3 ddbd 4e92 f9bc e10f 4bbd 3ce9 d93c
00000370: cfd2 673d 2bc7 933d 53db 143d 1bb1 633c
00000380: d05e 0abe 44da 683d 3aff 693d c3b8 553d
00000390: 6792 653d 3c2a 8c3d 6e28 24be d400 ad3c
000003a0: 12b5 003e 3917 ec3d 3db0 883d c33d fc3c
000003b0: f9c3 6bbd 458a 34bd 5fce a23d 9c23 abbd
000003c0: 02bb d53d 90ff c2bd 294d ab3d d011 c6bd
000003d0: dc70 fbbd 5776 043d 5ba1 d1bd 148f 4cbd
000003e0: 6f24 2e3b ca26 c0bd fbb8 fd3d 41df e7bd
000003f0: 827c 36bd 95fe ec3c d76d a8bd 1c81 37bc
0.09165492 0.14202243 -4.6749254e-05 -0.060601395 0.06264953 0.068563074 -0.17834052 -0.12068533
-0.036889248 -0.121613495 0.032949794 0.09866125 -0.029417317 0.0015722311 -0.11612199 0.13758458
0.044059675 0.03452939 0.0051838513 0.049179263 0.06580158 -0.11484495 0.10848487 -0.116452925
-0.06375127 -0.042749062 0.15358858 0.042625416 0.12944423 0.05940625 0.05542154 0.086872265
-0.009254139 -0.091112934 -0.1590422 -0.035947308 -0.1417431 0.019346854 0.18402936 -0.07647396
0.15449038 0.13613667 -0.14997631 0.047065295 0.035010226 -0.106714584 0.0063280025 -0.061707724
-0.018856775 0.04190597 0.11534557 -0.004308131 0.051265113 -0.02594769 0.078104764 0.13254435
0.13505867 0.11018889 -0.12758379 0.10421681 0.0074443338 0.013772962 0.052416734 -0.053892497
-0.11215078 -0.03628498 0.03784125 0.09121234 0.08198568 0.084973395 -0.015234427 -0.1019152
-0.10054725 -0.113414526 0.09829359 -0.0393302 -0.100653045 -0.022367127 -0.14726011 0.09978015
-0.09672808 -0.089385636 0.015567428 -0.041389048 0.019380448 -0.07479715 -0.13862568 0.09614843
0.0055934815 -0.06616646 0.116925895 0.10270767 0.03802804 -0.05892998 0.11636701 0.05208642
0.097145356 0.00925214 -0.16210946 0.06601592 -0.02191036 0.11595391 0.083892494 0.028895466
0.05776352 -0.090643086 0.124423005 0.068272576 0.04253822 0.10936642 0.09520582 -0.0036238143
-0.14204037 0.05979073 -0.087347046 0.023127863 0.07916108 -0.13553414 -0.024153199 0.12385331
-0.039060365 -0.05332582 -0.071718216 -0.06460984 0.11899497 -0.10301541 -0.041397423 -0.089048386
-0.057850093 0.05421573 0.11210261 -0.12398947 -0.025987377 0.024713716 -0.019043447 -0.0059060007
-0.08284241 0.047222808 -0.119637884 0.11421281 -0.002140218 0.05609028 0.10847191 -0.00956384
-0.016225569 0.09034808 0.07920786 0.14149107 0.043894127 -0.0009816693 0.1438233 0.10987228
-0.08309443 -0.11957561 -0.094319426 0.0926483 0.023616962 0.11013385 -0.15693069 -0.069808684
0.10099012 -0.06398733 0.017387142 -0.063112125 0.09851035 -0.095631436 -0.022684604 0.058809955
0.06172862 0.13429643 -0.12223205 -0.0056192735 -0.16087699 -0.07778469 0.12420009 -0.0016495476
-0.07696963 -0.01589902 -0.027112713 0.15367429 0.1473035 0.044915184 -0.16302553 0.074813016
0.045723986 -0.029043326 0.089009225 -0.18678188 0.043452144 0.04899622 -0.09569667 -0.12174649
0.08780697 0.10200313 -0.08268803 -0.10496005 0.062645346 0.0051574428 0.017033165 0.022335209
-0.09718495 -0.0416618 0.042912524 0.013315735 0.15293914 -0.16425847 -0.07855429 -0.11820867
0.018778464 0.021581145 -0.08655829 -0.12652944 0.14960372 -0.031466853 -0.052597385 -0.1458537
-0.108221985 -0.030465271 -0.04957569 0.026600473 0.056597527 0.07215723 0.036341976 0.013897206
-0.1351273 0.05684878 0.05712817 0.052178156 0.056047823 0.06843993 -0.16031048 0.021118559
0.12569073 0.11527867 0.0667424 0.030791169 -0.05755994 -0.044077177 0.079495184 -0.08356401
0.104360595 -0.09521401 0.083643265 -0.09671366 -0.122773856 0.03233942 -0.10235854 -0.049941137
0.002657201 -0.093823984 0.12388798 -0.11321879 -0.044552334 0.028929988 -0.08224075 -0.011200216

1.6.bias f4 [36]
00000000: 22c8 633d 8b16 12be c85b 023e 949a 57be
00000010: ed58 43be b4bc 08be b400 003d 1bbf 5c3e
00000020: 6a5e 043d cd74 2fbd 48a6 2c3d ae3c 303e
00000030: 88b6 13be 09b4 42be 9a18 1d3e e55f 373e
00000040: 3eb5 07bc 5a20 c1bd 1ef1 c9bc ae52 543e
00000050: 816b 64bd 9d77 3b3d bc77 053e 4ad9 40be
00000060: d557 72bb 94b1 ab3d a63f 2fbe 9304 b93d
00000070: 5772 623d 016d 28bd c387 e4bd 598d 61bd
00000080: 64a7 133e cdff 23be a9ec ecbd d4ac cdbd
0.055610783 -0.14266412 0.12730324 -0.2105506 -0.19076891 -0.13353235 0.03125067 0.21557276
0.032316603 -0.042836 0.042150766 0.17210647 -0.14425099 -0.1901399 0.15341416 0.17907675
-0.008282958 -0.09429999 -0.024651106 0.20734665 -0.055766586 0.04576837 0.13033956 -0.18832889
-0.0036978622 0.0838348 -0.17114124 0.090340756 0.055284824 -0.04111958 -0.11158707 -0.05506644
0.14419323 -0.16015549 -0.11568577 -0.1004273

1.8.weight f4 [24, 36]
00000000: 01d7 b13d b3a9 c73c 703e 0abe 3ac0 43be
00000010: 3afe c03d 43a7 03be aaa2 b33d 197f c93d
00000020: 8d2b a23b 0c77 ea3d a110 e0bd 9d7b 8fbc
00000030: 2a94 99bc 8c6c c5bc 42a2 ac3b c421 653d
00000040: 906f 2fbe 471e 12bd aad4 0ebe 24d2 fc3d
00000050: 469e d33c a8ea a9bc 3593 cbbd 15c4 ebbb
00000060: 4f75 9abd 4e51 953d 8be4 f1bd bd27 71bd
00000070: a3af a1bd 1a31 8e3d 63e8 d23d 35c6 a6bd
00000080: 520c 653d 6dad ad3d de90 2bbe b6aa 503c
00000090: 5c82 81bd 025f e23d f10e 4dbd 6416 cd3d
000000a0: e58c d03d 2bec 903c 9f5f ae3d 8998 0fbd
000000b0: af34 663d 731f 82bd 7323 95bd 831c 07bd
000000c0: 682e e33c 4b3a bd3d 0b03 15be 9991 0cbe
000000d0: 3790 57bb 3137 cd3d 50e2 283e 5aa6 8e3b
000000e0: 59a7 ab3b 9556 bfbd 5b9f 1f3e 48ac e93d
000000f0: 2ea6 e13b bee8 4a3d d352 093e 3de2 ab3d
00000100: 2bde 903d 42cf 043e 46bd 493d 18d8 123e
00000110: 3fef 2cbe a000 b93d 9bf9 483d 763f c73b
00000120: c8b8 053e cf0e 373d 14c6 79bd 5a4a f33d
00000130: 5f56 22bd 7bee a33d 6eeb d63d d0e7 3cbe
00000140: 4242 673d 2e5c 2fbe ac2c 20bd 4aa0 e4bd
00000150: 2282 843d 85cf 173e 07f3 0ebe bec9 c8bc
00000160: 30cd 0abd 786c ea3d f7b6 64bd 7093 b6bd
00000170: a53e d8bc 99aa 893d 4162 373d 0108 2d3e
00000180: c51e a3bc a907 83bd 79b4 f0bc 4696 f03a
00000190: 858c 2dbe 6e0a ff3d 69f4 48bd c3bc 283d
000001a0: e772 663d a8c0 a43c 84ea d73c f9f7 9c3d
000001b0: 832a 593e 3c2b 6dbd d93c 96bd 5eb0 0fbe
000001c0: 22bd 033d 1f55 39be 07f9 ab3d 8cd8 f1bb
000001d0: 182c 263d 2f76 acbd 92b4 373d bb39 2c3e
000001e0: e7b9 7a3d bef3 153d 7e78 a8bc 4911 3f3e
000001f0: f7ff 2a3c c4d2 e1bd 09ef ec3c 51d3 573e
00000200: 64b8 b73d 6af1 1dbb 6fe5 043e c5d1 b23d
00000210: 7285 d53d f194 cc3d 64d7 9dbd e9be 3a3e
00000220: 8311 20bd 3772 023e 4b78 85bd 2cfe 963d
00000230: edda 113e 3ce0 8d3d e491 02bd f799 30be
00000240: cb00 59be 3da5 2d3e 08a2 d13d 8aad 073e
00000250: ef51 4abd db2d 493e 22ec 933d 0efa 63bd
00000260: ea5b 40be 7b88 cbbd 7346 6a3b fa3b 02bd
00000270: 7f68 fa3d 4e60 d2bd 36d7 d73d e959 27bd
00000280: bbf2 0b3d a75a fb3d 2557 e4bd 23dc c3bd
00000290: 058a f3bd 9236 16be 8dbd febc 573a 633e
000002a0: 1bfe abbd 5c39 7c3d e0b2 dc3d 6ce1 6ebc
000002b0: 7d6b 5ebd a63f 9e3d 6610 01be 9f55 03be
000002c0: 251d 70bd 5294 c23d 9f50 cabd 5964 4fbd
000002d0: 0c9c 89bb 43a2 003e 5925 693d 1d95 23bd
000002e0: 4210 13bd 0577 803d 4a09 3bbe 1cd7 09be
000002f0: dab3 053e be9f 783c 4533 d33c 4c43 85bd
00000300: cc1c e9bd da65 aabd 576f 8d3c f9f1 1f3e
00000310: c7ad d6bc 1fe9 193e dc58 b43d ea80 a73c
00000320: 97f8 b93d 4391 2cbe 7338 d93d eac5 9f3d
00000330: a55c e0bc 7480 e23d 1199 2c3b 30c1 6c3d
00000340: 653c 18be 4ee9 1e3e 24fc 973d 882c d53d
00000350: 8562 38bd abb6 6f3d 1200 36bc b88d 093e
00000360: 4b6d 0a3e d993 f6bd aa17 2e3e d201 46be
00000370: 473e 513b 16e7 88bd 0cd7 9cbd 0323 343e
00000380: 19d7 1b3e 792b 723c 4afd 2dbe 3243 bc3d
00000390: d4b3 12be 7688 2dbe 3cb8 843d 9c79 893d
000003a0: 639b 493d 0aa9 103e 90ea 96bd 0382 e73d
000003b0: 0a4f e7bd 0f73 87bd 7511 423e 1357 56be
000003c0: 7020 afbd 0958 cabc d3cf ac3b ea10 6d3d
000003d0: f078 aebc 8dad c43d 97bf 553d 4964 0d3e
000003e0: 33c5 1dbc 98f9 46be 290f bdbd 4097 fabd
000003f0: 91de 543d ff01 40bd 768d 0d3d d892 5fbd
0.08683587 0.024372911 -0.1350038 -0.19116297 0.0942349 -0.12856774 0.0877126 0.09838695
0.0049490393 0.11448488 -0.10940672 -0.017514998 -0.018747408 -0.02409961 0.005268366 0.055940405
-0.17132401 -0.035673406 -0.13948312 0.12344769 0.025832307 -0.020741776 -0.09940187 -0.0071950057
-0.07541906 0.07290898 -0.11811169 -0.058875788 -0.07894828 0.06942959 0.102982305 -0.08143274
0.055919953 0.08480344 -0.16754481 0.012736013 -0.06323692 0.110532776 -0.050063077 0.10014036
0.101831235 0.017690739 0.08514332 -0.03505758 0.056202587 -0.06353655 -0.07282152 -0.032986175
0.02773209 0.09239634 -0.14551942 -0.13727416 -0.0032892355 0.100202926 0.16492581 0.0043533267
0.0052384553 -0.09342686 0.15588133 0.11409813 0.0068862652 0.049538366 0.13410501 0.08392761
0.07073625 0.12969688 0.04925277 0.14340246 -0.1688814 0.09033322 0.049066167 0.006080563
0.1305877 0.044691857 -0.060979918 0.11879416 -0.03963315 0.08004471 0.104941234 -0.18447804
0.056459673 -0.17125008 -0.039105102 -0.11163385 0.06470133 0.14825256 -0.13959895 -0.02451026
-0.03388709 0.1144647 -0.05583855 -0.0891484 -0.026397059 0.06721992 0.044771437 0.16897584
-0.019912133 -0.063979454 -0.029382931 0.0018355332 -0.16948135 0.12453161 -0.049061213 0.041195642
0.056261923 0.020111397 0.026356943 0.076644845 0.21207623 -0.05790256 -0.073358245 -0.14032122
0.032162793 -0.18098877 0.083971076 -0.0073805507 0.040569395 -0.08420979 0.04484994 0.16818897
0.061212447 0.036609404 -0.020565268 0.18658938 0.010437003 -0.110265285 0.028922575 0.21076705
0.089707166 -0.0024100193 0.12978147 0.087314166 0.10425843 0.09989346 -0.07707098 0.18236889
-0.0390792 0.12738882 -0.06517085 0.07372698 0.1424367 0.06927535 -0.031877413 -0.17246233
-0.21191709 0.16957565 0.10235983 0.13249794 -0.049394544 0.19646399 0.07222773 -0.055658393
-0.18785062 -0.09938141 0.0035747557 -0.03179548 0.12226962 -0.10272275 0.10539095 -0.04085723
0.034167033 0.1227315 -0.11149434 -0.09563472 -0.118915595 -0.14669254 -0.031096244 0.22190224
-0.08398076 0.06157814 0.10776305 -0.014580112 -0.054301728 0.07726984 -0.12603912 -0.1282563
-0.058621544 0.09500946 -0.098786585 -0.05063281 -0.0041995104 0.12561898 0.056920383 -0.039937127
-0.035904177 0.06272701 -0.18265262 -0.13460964 0.13056889 0.015174804 0.025781283 -0.065069765
-0.11382446 -0.08320208 0.017265005 0.15619649 -0.02620591 0.15030335 0.08806011 0.020447213
0.09080618 -0.16852288 0.1060647 0.07801421 -0.027387926 0.11059657 0.0026336352 0.057801425
-0.14866789 0.15518686 0.07421139 0.10408884 -0.04501583 0.058523815 -0.011108415 0.13432968
0.13518254 -0.120399185 0.17001215 -0.19336632 0.003192799 -0.06684701 -0.076582044 0.17591481
0.15218772 0.0147808725 -0.16991153 0.09192504 -0.14326411 -0.16946587 0.064804524 0.06712648
0.049220454 0.14126983 -0.07368958 0.11304095 -0.112943724 -0.066137426 0.18951972 -0.20931654
-0.08551109 -0.024700182 0.005273798 0.05787746 -0.021297902 0.09603415 0.052184667 0.13807787
-0.0096295355 -0.1943115 -0.09231407 -0.1223588 0.05197007 -0.046876904 0.034558736 -0.0545834

1.8.bias f4 [24]
00000000: a8a1 82bd 2fea f53d 0af0 283b 7e7a 783d
00000010: 43f8 5fbb 0558 ce3d f33b 42bb 28cf ce3d
00000020: abde b93e fbd8 333c 4201 263e 3d8b 20be
00000030: 557d edbd c610 74bd 4809 5e3e 810a f5bd
00000040: f834 a13e 2b22 72be a1d5 c1bd 704e 2abc
00000050: 0b9a 63be e32c 443e 8102 27be d13c 07be
-0.0637849 0.120075576 0.002577784 0.060663693 -0.0034175075 0.10075382 -0.0029637783 0.10098106
0.36302695 0.010977025 0.16211417 -0.15678115 -0.11596171 -0.05958631 0.21683228 -0.11964894
0.31485724 -0.23645847 -0.094645746 -0.0103946775 -0.22226731 0.19157748 -0.16309549 -0.13206793

1.10.weight f4 [12, 24]
00000000: fd3a 54be 5723 383e 25bf ce3c e47a 393b
00000010: a27a 883e aa75 4bbe 7163 aebd d4c5 583d
00000020: f0c4 f4bd 122a 043e 29f3 babd 83e8 e53d
00000030: f05f f73c 6d44 98bb cea0 69be 7f3f 32bb
00000040: 3f1c abbe 73e2 563d 6a3e c13e 4d01 abbd
00000050: 6000 2a3e b088 443d dbbb 013d 13c2 a33c
00000060: a158 98bd 4431 eabd d6da 35be 272b e6bd
00000070: e14e cf3d 606c 503d a205 ff3d cdfb 463d
00000080: 2035 643e ebad 43be 452b 653e 797b 90be
00000090: 0fed e03d f4ae 4ebe 74f3 543e 2f77 1bbe
000000a0: de45 0f3d 4cc9 73be 9ded b0be 030a 92bd
000000b0: d38e 01be 6d60 073e d242 5fbc 5501 8fbe
000000c0: f5e0 973c 3c5f 85bd 2a03 243e 8d54 7a3b
000000d0: 0e2c 473d 2f89 c63c c1c8 05be 1a1b 2cbe
000000e0: fb69 9ebe 9f2c 963e b456 58be cda8 763e
000000f0: 0aef 2c3e c5a0 003e 76c2 28bc 4489 efbd
00000100: 55b9 68be d39e a83e 6b60 173e 8dd6 41bc
00000110: 9674 723d 7c31 993d ac4d fb3c 7325 f33c
00000120: 459b 06bd e303 99bb fcc2 803c eb21 4ebe
00000130: 8992 fabb f034 ef3d c2c9 ffbd 73ff f23d
00000140: c7ba b9be f53d 863e cd63 3a3c ec18 493e
00000150: d744 283e e5a7 e1bd 9a62 9cbe dc6e 7ebd
00000160: a1c7 aabe 9857 4c3e dbf1 793e 2657 4abd
00000170: a8a6 b8bd fd37 ffbd 6372 9a3e 2500 853e
00000180: 094b 413e deec 3e3d 3373 e2bd b9e6 773e
00000190: 3ecc ddbd 2518 d53c 9d04 983e 094f 07bc
000001a0: 69d6 16bd 4fc9 e9bd 0afa 7e3e 405c 15bd
000001b0: 76b4 5abe b9d4 5a3c 18ff 363e a4fb 9cbd
000001c0: 4f78 a53d ed4d 0dbe 289f 3abe 5597 4abe
000001d0: fafe 6cbe fc67 cdbd 1f6e cdbd f2ad 2ebd
000001e0: 856f b2bd 65e7 9b3d b7c8 633d 4f8f 91bd
000001f0: d5eb 3bbe 6707 9bbd 53f0 f93d 48a5 bbbd
00000200: 0e39 953e 654d 90be 20c8 f93d 32e5 9f3d
00000210: b009 86be 377b b9bd fbfa 653d 6da6 46be
00000220: 99e4 563e 4b56 1bbe cc0b a4be 21f2 2dbe
00000230: 5382 2bbe e020 e7bd c312 63be 04a5 70be
00000240: 5e15 4b3e e957 7c3d da9d bdbd 590f 8d3e
00000250: 8340 b2bc a79c 16be d6ce 923e 04ff 65bd
00000260: b703 a33e 9931 c5bd b839 37bc b9e8 903b
00000270: 9b9d f1bd 7770 b1bd ca74 10bd c040 d7bd
00000280: e149 313c 31f1 aabe ccda 8abe 901a 923d
00000290: 046e 16be e006 3c3e 5dd4 59be 9176 15be
000002a0: c7a6 c7bc 9ed2 d4bd 9f1b 773e 7d5c 07be
000002b0: ee2d 863e 897e 103e 66a3 92be d8dc 02be
000002c0: 6632 9fbe 4dc9 8abd 97cb 77be 747c 693d
000002d0: 5602 0abe e861 86bd 17be aebd 6bad 483e
000002e0: f88d a3be 2308 9a3e 5cab b83e d333 27be
000002f0: f4a3 ecbd 561e 303e 22aa 0d3e 7abe 893c
00000300: 3992 cebc 0d5e 4d3d baab f03c ff40 083e
00000310: ea50 c0bc 165f 083e 23f6 57bd 7eab 01be
00000320: 9f6f 863e a15b 2fbe 861e e3bd c84a 79be
00000330: 7572 54be 1088 203e 7151 4b3e 4f52 93bd
00000340: b76a 583e 9716 283a acbd 40be 6629 28be
00000350: 368e 42be f0b8 2fbe 80d3 87be eb10 fcbd
00000360: 7469 153e 2edb 72bc 4fc5 453e bbdc b7bd
00000370: f8fa 76bd fc95 f9bd f70c 90be a6f4 d7bc
00000380: ed64 d8be 165d 953e a4e2 0e3e d57a 4e3d
00000390: 3f88 91b9 2ae6 d13d 4c25 fcbd 29b8 1d3e
000003a0: ea7b 26be 0af8 1d3e 73a8 2d3e 1245 573e
000003b0: 02f0 263e 4104 41be e976 883e 41d0 a8bc
000003c0: 648d 663d 8d47 0c3e bb6b 0bbe 9b9a 81be
000003d0: ae4b 143e ccf4 3abe 14e7 0cbd b997 f8bd
000003e0: 9b95 79bc e2b2 aa3d 5c79 293c dcc7 bf3d
000003f0: 1d3d e03d 8373 fd3d aee3 a03d 1c0f b73d
-0.20725627 0.17982231 0.02523763 0.0028302008 0.2665606 -0.19869104 -0.08515061 0.05292304
-0.11951625 0.12906674 -0.0912841 0.11225989 0.030197114 -0.004646829 -0.22815248 -0.002719849
-0.33419988 0.052462053 0.3774293 -0.083498575 0.16601706 0.047981918 0.031673294 0.019990003
-0.074387796 -0.11435178 -0.1775926 -0.112386994 0.10122467 0.050884604 0.12452246 0.04857998
0.2228589 -0.19109313 0.22379787 -0.28219202 0.10982715 -0.20183927 0.20795995 -0.15182184
0.03497874 -0.23807257 -0.34556285 -0.07130816 -0.1265214 0.13220377 -0.013626771 -0.27930704
0.018539885 -0.06512305 0.16016832 0.003819737 0.048626 0.024235336 -0.13064863 -0.16807213
-0.30940232 0.29330918 -0.21126825 0.2408783 0.16888061 0.12561329 -0.010300269 -0.11696103
-0.22726949 0.32933673 0.14782874 -0.011830938 0.059193216 0.074801415 0.030676685 0.029680943
-0.03286292 -0.004669653 0.015717976 -0.20130126 -0.007646863 0.11680019 -0.12489654 0.11865129
-0.36275312 0.26219144 0.011376333 0.19638413 0.1643251 -0.110183515 -0.30543977 -0.062117442
-0.3335543 0.1995529 0.24408667 -0.049399517 -0.09016162 -0.12461851 0.30165395 0.25976673
0.1887628 0.046612613 -0.11057129 0.24209107 -0.10829972 0.02601249 0.2969102 -0.00825859
-0.03682557 -0.1141535 0.2490007 -0.03646493 -0.21357903 0.013356381 0.17870748 -0.07665184
0.08079588 -0.13799258 -0.18224776 -0.19784291 -0.23144141 -0.10029599 -0.100307696 -0.042646356
-0.08712677 0.076124944 0.05561134 -0.07107412 -0.18351682 -0.07569771 0.12204041 -0.09162384
0.29145092 -0.28184047 0.12196374 0.078073874 -0.26179266 -0.090567045 0.056147557 -0.19399424
0.2098564 -0.15169637 -0.3204025 -0.16986896 -0.16748933 -0.11285567 -0.22175126 -0.23500448
0.1983237 0.061607275 -0.092586234 0.27550772 -0.021759277 -0.14708196 0.28673428 -0.056151405
0.31838772 -0.096286006 -0.011183195 0.004422274 -0.11797639 -0.08664029 -0.03526763 -0.10510397
0.010820837 -0.3338714 -0.27120054 0.07133973 -0.14690405 0.18361998 -0.21272416 -0.1459601
-0.024371518 -0.103917345 0.2413163 -0.13218875 0.26206917 0.1411077 -0.28640288 -0.12779558
-0.31093138 -0.06776676 -0.24198757 0.057003453 -0.13477454 -0.06561643 -0.085323505 0.19597404
-0.3194425 0.30084333 0.36068237 -0.16328363 -0.11554709 0.17199072 0.13834432 0.01681446
-0.025216209 0.050138522 0.02937876 0.13306044 -0.023476083 0.13317522 -0.05272497 -0.12663075
0.26257035 -0.17124797 -0.11089806 -0.24344933 -0.20746787 0.15676904 0.19855286 -0.071934335
0.21134458 0.00064120576 -0.18822354 -0.16422042 -0.18999562 -0.17160392 -0.2652855 -0.12307914
0.14591008 -0.014822764 0.19313549 -0.08977648 -0.060297936 -0.121868104 -0.2813489 -0.026361775
-0.422645 0.2917258 0.13953644 0.05041011 -0.00027758066 0.102489784 -0.12311801 0.15402283
-0.16258207 0.1542665 0.1695879 0.21022442 0.16302493 -0.18849279 0.2665322 -0.020607116
0.056287184 0.1369917 -0.13615315 -0.25313267 0.14481995 -0.18257445 -0.03440006 -0.12138314
-0.015233423 0.083349004 0.010343876 0.09364292 0.109491564 0.12375548 0.078559265 0.08938429

1.10.bias f4 [12]
00000000: 66f6 c3be 7ff9 8e3e 144f dbbe 1c37 8ebe
00000010: fd2f 3c3e 78c9 ab3e 2542 c43e 737c cebe
00000020: aa8a df3c 40bf 12bf 40ca adbe 02aa d5be
-0.38273925 0.27924725 -0.4283377 -0.2777642 0.18377681 0.33552146 0.38331714 -0.40329322
0.0272878 -0.57323074 -0.33943367 -0.41731268

1.12.weight f4 [4, 12]
00000000: 81b7 613f 35cf e6be 9ea8 3a3f ea8b 8b3f
00000010: 6636 c7be efbf 86bf d475 4dbf 726a 1b3f
00000020: 9032 2ebf 9925 923f 755b de3e 33ed 443f
00000030: c902 e53e 63ff fcbe 82fc 5a3f 6f15 523f
00000040: eb31 60bf 9828 51bf 62f0 45bf a8e5 7d3f
00000050: d3b8 e8be 4da4 513f f087 413f e7e2 4f3f
00000060: b033 2c3f 0f44 5cbf 1eb4 363f 5676 633f
00000070: 5440 0ebf 5588 1ebf dc73 21bf 0374 843f
00000080: 19b8 ecbe c343 823f 6c87 0e3f ff06 713f
00000090: 056b 403f e6a8 6abf 1a55 3c3f 6825 813f
000000a0: 0523 2bbf 84fe 5dbf 3e3b 43bf d9df 4c3f
000000b0: a624 8fbe 37d9 4e3f 8a1e 163f 02bc 2a3f
0.8817063 -0.4507996 0.7291354 1.0902073 -0.3890869 -1.0527323 -0.80257916 0.607093
-0.680459 1.1417724 0.4342915 0.7692444 0.44728687 -0.49413595 0.85541546 0.82063955
-0.8757617 -0.81702566 -0.7731992 0.9917855 -0.4545351 0.8189133 0.7559805 0.812056
0.6726637 -0.8604135 0.71368587 0.8885244 -0.55566907 -0.61926776 -0.6306741 1.0347904
-0.46234205 1.0176929 0.5567539 0.941513 0.751633 -0.9166397 0.73567355 1.008954
-0.6685031 -0.86716485 -0.7626227 0.80029064 -0.27957648 0.80800194 0.5864035 0.6669313

1.12.bias f4 [4]
00000000: e65b 97bf a3e5 9fbf 1f70 adbf 0737 9fbf
-1.182492 -1.2491955 -1.3549842 -1.2438668
