JSP/trained models/TEST_DDQN_rwd12.pt (torch_old, 43117 bytes, 16 tensors)

0.0.weight f4 [5, 5]
000000 34 39 80 3f f9 98 82 3f 64 d3 80 3f 1e 52 80 3f
       1.0017457 1.0202934 1.0064511 1.002506
000010 ba b0 80 3f 15 b2 80 3f 11 04 80 3f 35 d5 80 3f
       1.0053933 1.0054346 1.0001241 1.0065066
000020 fd 1c 80 3f 2e 4f 80 3f 0e a2 7e 3f aa 45 80 3f
       1.0008847 1.0024164 0.99466026 1.002126
000030 77 7d 80 3f 2b 1c 83 3f 68 5f 7f 3f bb 16 80 3f
       1.0038289 1.0242971 0.99754953 1.0006937
000040 57 4c 7f 3f f8 66 7e 3f 76 97 80 3f 87 91 7f 3f
       0.9972586 0.9937587 1.0046222 0.9983143
000050 88 6f 80 3f 67 80 82 3f cc 49 81 3f 7b d6 7f 3f
       1.0034037 1.0195435 1.0100646 0.99936646
000060 e4 b2 80 3f
       1.0054593

0.0.bias f4 [5, 5]
000000 fb 35 91 3a 0e 6f 44 3c 9f b8 10 bc 23 b6 85 ba
       0.001107871 0.011989368 -0.00883308 -0.0010201376
000010 e4 a2 c1 bb 0b ef c6 bb 68 2b 16 ba fb 6f 5c 3b
       -0.0059093107 -0.0060709766 -0.0005728514 0.0033636081
000020 18 05 8e 3b 42 2f 1d 3c d7 a6 3e 3c 14 e9 00 3c
       0.0043341033 0.009593787 0.011636457 0.00786807
000030 d9 95 90 bc d7 51 26 3c 66 0c 99 3b 48 f4 c6 39
       -0.017649578 0.010151348 0.0046706675 0.00037947507
000040 45 1f 91 ba 63 61 c3 bb 2a 4e 0b 3c b2 7f f9 3a
       -0.0011071941 -0.005962537 0.0085025225 0.0019035249
000050 ee 33 6b bb 14 f9 b9 3b af 1e 24 3b 14 18 06 3c
       -0.0035889107 0.0056754444 0.0025042703 0.008184452
000060 92 6c 02 3a
       0.00049752847

1.0.weight f4 [64, 25]
000000 44 e2 26 3e 92 49 3e 3e 1f 19 67 bc 7b 9a 1a 3e
       0.16297251 0.18582752 -0.01410511 0.15097992
000010 e6 3b 4e 3e 05 9b ef 3d e7 bc 42 bd 7f 5e 32 3d
       0.20140037 0.116994895 -0.047543433 0.04354715
000020 f4 c5 c9 3d a8 13 ed bd 85 6a 06 be 47 ba 23 3e
       0.0985221 -0.11576015 -0.13126571 0.15989028
000030 45 03 f1 bd 75 48 3b 3e f7 10 e0 bd 88 06 85 3d
       -0.11768202 0.18289359 -0.10940736 0.06495386
000040 f5 1c 31 be b7 e8 3d bd e6 16 0f 3d 01 f6 0f 3c
       -0.17296202 -0.046364512 0.034933947 0.008786679
000050 d5 c9 14 be de c1 3b 3e ec dd cb bd 8d 83 e0 bd
       -0.14530118 0.18335673 -0.099544376 -0.10962591
000060 49 37 a3 bc 20 4c f0 3d 2f 93 38 be 27 13 9d 3d
       -0.019923823 0.1173327 -0.18024896 0.07669669
000070 f9 60 7c bd 73 0f 1b 3e c0 9a 5c bd 3e 85 bd bd
       -0.061615918 0.15142612 -0.05385852 -0.092539296
000080 5e 8e 22 be 59 70 0b 3e fc 1e 2e 3e ea a9 05 be
       -0.15874621 0.13617076 0.17004007 -0.13053098
000090 c2 e2 bf bd d6 aa 3b be c6 bc 89 bd 54 3e 0e 3d
       -0.093694225 -0.18326887 -0.06725459 0.03472741
0000a0 e0 01 d0 3d 38 fe 89 bd ac 90 cf bc fc 98 fa bd
       0.10156608 -0.067379415 -0.02533754 -0.12236211
0000b0 22 66 1a 3e 28 5a 34 3e 06 59 46 3e b3 ae 1f 3c
       0.15078023 0.17612517 0.19369897 0.009746241
0000c0 b4 f3 88 3d a2 63 3e 3e 61 5b bd 3d 7a a0 86 bc
       0.06687108 0.18592694 0.09245945 -0.016433943
0000d0 73 9c 7e bd 41 8e ad bd ec ed 24 be 5e 2a 22 3d
       -0.06216092 -0.084743984 -0.16106385 0.039591186
0000e0 fe f2 e9 bc 9f 99 33 3e 2b 8c dd bd 8a f8 2c 3e
       -0.02855825 0.1753907 -0.108177505 0.16891685
0000f0 71 eb 30 3c e5 6b c5 3d 96 6d 27 bd 98 e2 20 bd
       0.010798321 0.0963972 -0.040875994 -0.039278597
000100 44 13 aa 3d 92 b7 3a 3e 4c 49 f4 3d 8b dc 83 3c
       0.08304456 0.18234089 0.11928043 0.016096374
000110 1f e0 ce 3a f0 4a 5d 3d 55 54 dd bd cd de fb bd
       0.0015783346 0.054026544 -0.10807101 -0.12298355
000120 92 10 17 be ff d0 2b 3e 4a 7f 0f be 52 9d ee bd
       -0.14752415 0.16778944 -0.140134 -0.116511
000130 a5 38 3f 3b 4d 97 32 be 22 a3 e8 bd ec e8 3b 3d
       0.002917805 -0.17440529 -0.1135924 0.04587643
000140 6a 2b 77 3d ec 54 32 3e 1b 4a 9f 3d 5c 84 4c bd
       0.060344137 0.17415208 0.07777806 -0.049930915
000150 e4 d3 b4 3d ac 79 e3 bd 7e d7 b0 bc ae 14 f2 bd
       0.088294774 -0.111071914 -0.02158713 -0.118203506
000160 3d 77 9c 3d e5 d9 f1 bc ba 6f 35 3e 00 04 26 3d
       0.076399304 -0.029522846 0.17718402 0.04053116
000170 62 ee 89 bd f2 b5 2d be 0d a3 34 3e 9c 22 4e be
       -0.06734921 -0.16963938 0.17640324 -0.2013039
000180 9a e9 b6 3c ae ff 59 bd 9c 99 cd bc 07 cc 91 bb
       0.022328187 -0.05322235 -0.02509766 -0.004449371
000190 ed c4 47 bd 47 cf 64 bd 31 d4 9a 3d 44 56 49 3e
       -0.048771787 -0.055861738 0.075600035 0.19661814
0001a0 78 61 21 3d 28 e6 3d be 78 cf 31 3e 90 ff 27 be
       0.039399594 -0.18544829 0.173643 -0.16406083
0001b0 9c cc 26 be 3a ba d3 bd 3c d6 10 bc 2f ad ac 3d
       -0.1628899 -0.10338254 -0.00884014 0.0843147
0001c0 f1 d3 07 3c 80 dc 41 3e 47 c6 46 bd 94 a2 2a bd
       0.008290277 0.1893177 -0.048528936 -0.041658953
0001d0 2b 92 06 be 22 c5 ed 3d 8c b3 0d 3e 82 2c 2c be
       -0.13141696 0.11609866 0.13838023 -0.16813853
0001e0 2f 48 2e bd a1 17 d8 bd f7 eb 31 be 51 6d 49 be
       -0.04254931 -0.10551382 -0.1737517 -0.19670607
0001f0 f7 0c b7 3d 69 51 c3 3d 5c a6 c7 3d 8a 90 b6 3d
       0.0893802 0.09537012 0.097485274 0.089142874
000200 9a 94 8d 3d 0f 3a c4 3d a0 e1 4c be 5a 6d 02 3e
       0.06913109 0.09581386 -0.20007944 0.12737027
000210 ca fa 91 3d cd e4 22 3e 25 3c 10 be ec 0e aa 3d
       0.07127912 0.15907593 -0.14085443 0.08303627
000220 03 dc 81 bd 19 51 37 be 19 27 a4 3d 1e e7 49 be
       -0.06340792 -0.1790203 0.0801527 -0.1971707
000230 3a b5 47 3d 2f 44 3f be 7f 88 6e 3d cf 59 e0 bc
       0.048756815 -0.18678354 0.05823564 -0.027386574
000240 58 e6 f8 bd 07 17 39 be e0 77 d6 3d 42 c7 12 3e
       -0.121533096 -0.1807519 0.10472083 0.14333823
000250 48 3a 00 be aa 1e 47 3e 17 69 85 bc 0e 58 1b 3d
       -0.12522233 0.19445291 -0.016285462 0.037925772
000260 8a 6f f0 bb bd dd 48 3e 9b be 24 3d c3 f6 eb 3d
       -0.0073375152 0.19615836 0.040220838 0.115216754
000270 74 0b f8 3d 96 d5 1f 3e 3e bb 25 3d c2 74 09 be
       0.121115595 0.1560882 0.04046177 -0.13423446
000280 2a a5 24 3e 1b 03 c8 3d 0f 5d 84 bd 99 73 1c bd
       0.1607863 0.09766217 -0.06463062 -0.03819618
000290 3d 36 e4 3d 89 39 41 be fa 62 e2 3d e5 69 9a bd
       0.11143158 -0.18869604 0.110540345 -0.07539729
0002a0 06 4b 1b 3e 2f a7 a5 3d f3 90 22 3e a0 11 fd 3d
       0.15165338 0.08088528 0.15875606 0.12356877
0002b0 18 30 12 be e9 5f 38 3e 03 58 1e 3e 85 f7 2a be
       -0.14276159 0.18005337 0.15463261 -0.16695984
0002c0 6c 56 08 bc 3c dc d4 3d ef d6 49 bd 1a 85 8b 3c
       -0.008321386 0.10393569 -0.049277242 0.017031241
0002d0 67 5a 98 bd 03 b2 2e 3e 67 1d 96 bd 3b 38 44 be
       -0.07439118 0.17060094 -0.07329827 -0.19162075
0002e0 ea e0 ba bc bd 2a ed 3c 91 de c0 3d 6e 08 de 3d
       -0.022812326 0.028951043 0.09417451 0.108414516
0002f0 72 bb 32 3e 07 50 e5 3d b1 5f 22 3e d9 fe 12 3e
       0.17454317 0.11196905 0.15856816 0.14355029
000300 4c 23 19 3e de 04 12 3e 73 c5 06 3e 64 1a 4e 3e
       0.14954871 0.14259669 0.13161258 0.20127255
000310 e4 6c 05 be 97 7b fc bd 7b 40 23 3e 2b dc ed 3d
       -0.1302982 -0.123282604 0.15942566 0.11614259
000320 59 f8 f0 3d 17 b8 2c be 06 a1 57 bc d4 f1 43 be
       0.117661186 -0.168671 -0.01316095 -0.19135219
000330 54 04 96 3d fd 20 04 be cd 85 39 be aa 53 49 be
       0.07325044 -0.12903209 -0.18117447 -0.19660822
000340 31 93 67 bc ef 2c 26 be f9 1d fc 3d 92 25 9a 3c
       -0.014134214 -0.16228078 0.12310404 0.018816743
000350 61 42 d0 3d af d9 f3 3d 8c e8 0c 3d 60 6a 9e 3d
       0.10168911 0.11906754 0.03440146 0.07735133
000360 2d c6 3f 3d db 49 e1 3d f2 5f 58 3b 27 d8 31 bd
       0.046819855 0.11000415 0.0033016172 -0.04341903
000370 31 90 9c 3d ce 2c 07 3d 21 a8 e9 bd 71 93 de 3d
       0.0764469 0.033001713 -0.11409021 0.10867966
000380 5d 39 ad bd b1 c9 2a be 52 ab 28 be b1 ce 95 bd
       -0.08458207 -0.16678502 -0.16471604 -0.07314814
000390 61 04 ac 3d fd 82 3b 3e 5a de 07 3e 41 5e 1a be
       0.08399273 0.18311687 0.13268414 -0.15075018
0003a0 23 b5 9b 3d 54 b2 a2 bc d0 3c 00 3e 74 65 2f be
       0.076029085 -0.019860424 0.12523198 -0.17128545
0003b0 ca b9 be 3d 5d 1b eb 3d 32 8e c3 3d e7 15 29 bd
       0.0931278 0.114798285 0.09548606 -0.041280653
0003c0 cd c9 9c bd 3e 44 51 3e 22 dd ee bd 57 7f 98 3d
       -0.07655678 0.20436189 -0.116632715 0.07446163
0003d0 63 54 32 bc 4b 72 3a be 5a 5b 23 be a1 c3 1f be
       -0.010884377 -0.18207662 -0.15952817 -0.1560197
0003e0 dc 8a 83 3d 07 49 19 3e 6d 21 4b 3e 70 04 37 3e
       0.0642297 0.14969264 0.1983697 0.17872787
0003f0 fc 58 40 be 2f cb 25 be c9 b5 20 be ba 22 8e 3c
       -0.18783945 -0.1619079 -0.15694346 0.017350543

1.0.bias f4 [64]
000000 9c 4b 43 3e ee a9 2f 3d c6 d6 0a be 0a 3d ff bd
       0.19071811 0.042886667 -0.13558492 -0.12462814
000010 ba 3a b8 bd fc 98 64 3d b5 82 11 3e 74 17 4f 3d
       -0.08995576 0.05580996 0.14210017 0.050559476
000020 50 f3 ff bd ab e4 b5 3d 6a fb 80 bd 83 e7 99 bd
       -0.1249758 0.088815056 -0.062979534 -0.075148605
000030 65 1e bc bd a5 59 3e 3e 87 65 36 be 0e ce 96 3d
       -0.09185485 0.18588884 -0.17812167 0.073635206
000040 a2 27 7d bd f2 7d a9 bb 4a e4 c9 3b 3f fb f2 3d
       -0.061805375 -0.0051724846 0.0061612474 0.11864328
000050 db 7b 81 bd ef 74 e9 3c 8b a6 f0 bd 96 1f 13 3e
       -0.06322452 0.028498141 -0.117505156 0.14367518
000060 5b 2e 22 3e f7 d6 98 bd 2a f7 38 be 4b 23 e8 3d
       0.15837996 -0.07462876 -0.18063036 0.113348566
000070 9d 89 bd 3d dc dd 22 3e 1f 4a a4 bd 84 cf 24 3e
       0.09254763 0.15904945 -0.0802195 0.16094786
000080 fd 8e 44 3c e9 db f1 bd 52 64 78 3d fb ee 97 bd
       0.011996982 -0.11809523 0.060642548 -0.07418629
000090 1d d4 26 3d 99 65 25 3d c9 8d 04 be b7 60 78 3d
       0.04072963 0.040380094 -0.12944712 0.06063911
0000a0 b6 0c a5 3c b9 76 15 be f7 33 18 be f4 2f 90 bd
       0.020147663 -0.1459607 -0.14863573 -0.07040396
0000b0 8d 4c 03 bd 1d c0 20 3e be 53 6a bd 42 56 f7 bd
       -0.032055426 0.15698285 -0.05720877 -0.12076999
0000c0 30 86 90 3d 85 39 00 3e 4c fe 09 3e dc f5 4e be
       0.07056844 0.12521942 0.13475913 -0.20210975
0000d0 3e 76 3c be 2f 22 01 be 9b 00 12 be 4b ae 1d be
       -0.18404481 -0.12610696 -0.14258043 -0.15398519
0000e0 02 71 2f be 07 fa 2c 3d cc 80 2f bd dc 9e f1 3d
       -0.17132953 0.042230632 -0.04284744 0.11797878
0000f0 b1 63 d7 3d ab 33 b2 3d b7 d5 8c 3b fa 6b 7f bd
       0.105170615 0.08701261 0.0042979377 -0.062358834

1.2.weight f4 [48, 64]
000000 af e9 d4 bd 07 a4 8f 3d 93 d9 fb 3b 70 01 6c 3d
       -0.10396134 0.070137076 0.007685849 0.05761856
000010 05 4f f0 bd 29 5c b3 3c d4 f6 14 3d 17 d3 d3 bd
       -0.11733822 0.021894531 0.036368206 -0.103429966
000020 47 04 fc bd 5f db 0b 3d 54 e8 5f bd 28 04 9c bd
       -0.12305503 0.034144755 -0.054664925 -0.0761798
000030 c8 d8 ef bb 86 e1 e4 3d ec 2e 94 3d c4 ec b8 3d
       -0.0073195435 0.11175828 0.07235512 0.090295345
000040 8c 0b 63 3c e1 aa 21 bd 1b 25 82 3c d6 5d d8 3d
       0.013857733 -0.039469603 0.015886834 0.10564773
000050 ab 32 cb bb 7a 91 2d bd 13 a3 20 3d 41 10 cf 3d
       -0.0062011085 -0.042375065 0.03921802 0.10110522
000060 f0 66 0f bd f4 a3 c9 3d 2f bd b9 3d a4 08 8b bd
       -0.03501028 0.09845725 0.09069287 -0.067887574
000070 4a 28 ce bd 9e 2d b6 bc 16 ec a7 3c 52 90 ce 3c
       -0.10066278 -0.022238549 0.020498317 0.025215302
000080 93 c1 ee bd 0c 6b 38 bd bf b9 ac bd 6f 66 aa 3d
       -0.11658015 -0.045023963 -0.08433866 0.08320319
000090 b4 4b 6c 3d 77 2c a6 3d d2 7c 2b 3d 9b 7a 46 3d
       0.057689384 0.0811395 0.041867085 0.04845677
0000a0 39 63 ff bd dd c7 b5 3b 42 c5 b0 3d e8 6c 85 3d
       -0.12470097 0.005547507 0.08631374 0.06514913
0000b0 fe 0c bd 3d 3c 62 24 3d 10 ab bc 3d a8 ca a2 bd
       0.09230994 0.040132746 0.09212315 -0.0794881
0000c0 89 71 18 bd 02 c3 ce bd 6f 2f cb 3d fe 66 18 bd
       -0.03721765 -0.100957885 0.099211566 -0.037207596
0000d0 ec f5 86 3c 75 af f1 3d 98 a4 81 bd 89 46 15 bd
       0.016474687 0.11801044 -0.06330222 -0.03644422
0000e0 10 59 96 3d e9 f6 6f 3d e4 4b 04 bd 2f 31 ba 3d
       0.07341206 0.05858508 -0.032298937 0.09091412
0000f0 9c 42 d5 bc cd 2d 63 3d 46 98 18 bd 79 82 29 3d
       -0.026032738 0.0554636 -0.037254594 0.041384194
000100 d0 8f 4c 37 a5 33 ce 3d b7 fe e6 39 51 2c e5 3d
       1.21928315e-05 0.10068444 0.00044058796 0.11190093
000110 59 fe 64 3d 4f f4 42 bd d5 82 32 bc a1 b2 cd 3b
       0.055906627 -0.047596272 -0.010895451 0.0062773977
000120 0c 89 84 3d e6 7f 9d 3d a6 02 84 3d d2 e6 c4 bc
       0.06471452 0.0769041 0.06445818 -0.024035845
000130 36 22 ce 3c db 7a e1 3d 2b ec 3c bc 59 63 17 bd
       0.025162797 0.11009761 -0.011530916 -0.03695998
000140 dd d8 a9 3d 3a cf 78 bd 30 10 b9 bc 44 15 96 3c
       0.082933165 -0.0607445 -0.022590727 0.018320687
000150 ca 49 bf bb e3 6d aa bd 19 5b fb 3d 8e c1 06 bc
       -0.0058376538 -0.083217405 0.12273235 -0.008224858
000160 ca aa 17 3c 82 d7 5b 3d 74 ed bb bd 06 ee 04 3e
       0.009257028 0.05367232 -0.0917615 0.12981424
000170 73 45 dc 3d d9 6a a7 39 26 03 98 bd 47 6b 09 3d
       0.10755434 0.0003193233 -0.074224755 0.033549573
000180 28 1e 59 3c 8d cc c8 bc 7e e3 40 3d 42 49 aa 3d
       0.013251819 -0.0245116 0.047091953 0.08314754
000190 6e 36 5c bc 58 9f 84 bd 45 2d 2c 3d 5a 95 87 3d
       -0.013440711 -0.06475705 0.04203536 0.066202834
0001a0 94 21 3e bd 4f df 06 bd 84 98 71 bc 4b 33 89 3d
       -0.04641874 -0.032927807 -0.014745835 0.066992365
0001b0 ff 3c e7 3d fd 31 08 3d ef 7e 50 3b ca 73 38 bc
       0.11290931 0.033250798 0.003181394 -0.011258075
0001c0 e0 4b 39 3d 12 6e 12 3c a3 78 85 bc a5 29 17 bd
       0.045238376 0.008937376 -0.016292876 -0.03690495
0001d0 b8 c7 4e bd 5d 1e b2 bd e4 9c 83 3d ed c1 27 bd
       -0.050483435 -0.086971976 0.06426409 -0.040956426
0001e0 34 11 d6 bd 32 ba 07 be 86 ed 84 bd 4f b8 d3 bd
       -0.104525 -0.13254622 -0.064906165 -0.103378884
0001f0 84 34 89 3d 8d a4 4a bc 70 82 38 3d 3b 07 0b bd
       0.0669947 -0.0123683335 0.04504627 -0.033942442
000200 e8 0c 20 bc 54 cc d8 3d 18 8a 7e bc 36 24 73 bd
       -0.009768702 0.105858475 -0.015535854 -0.059360705
000210 64 d9 7d bb 86 47 cf 3d 9c b6 9d 3d d7 7e ff bd
       -0.0038734311 0.10121064 0.077008456 -0.12475365
000220 9f 72 6f bd 3c 1c be ba 9f e9 c7 3d b8 36 06 bd
       -0.05845892 -0.0014504264 0.097613566 -0.032767028
000230 8a 5e 2a bd 93 59 e3 3d 1e 28 a1 bd 9b 91 a6 bd
       -0.041594066 0.11101069 -0.0786898 -0.08133241
000240 b3 ce ba 3c ac 64 43 3d c4 36 fc 3c 94 81 96 3d
       0.02280364 0.04770343 0.030787833 0.07348934
000250 bf 79 c3 bd 12 5f e7 bd 6b 23 5b bd 8b 31 ec 3d
       -0.095447056 -0.1129743 -0.053500574 0.11532887
000260 1e 0e d1 bd 5c b2 cb 3d 14 2d 8a 3d 65 ce 7c 3d
       -0.10207771 0.09946129 0.06746879 0.06172027
000270 b7 a9 80 3b df e1 d9 bd 5b f9 eb bd 07 cf 57 3d
       0.0039264816 -0.106387846 -0.1152217 0.05268767
000280 12 58 95 bd fa 35 fa 3d 8a 93 cf bd 0e 19 e9 3d
       -0.07292189 0.122173265 -0.10135563 0.11381732
000290 58 5b 2c 3d 2a 09 c6 3c e5 b7 b5 3d 09 46 e9 3d
       0.0420793 0.024174292 0.08872966 0.11390311
0002a0 c6 68 8a bd 92 fb e8 bd 33 fd bf 3d b7 f1 4d 3b
       -0.06758265 -0.11376108 0.09374466 0.003142459
0002b0 8d 0d e6 3d 43 48 9e bd 84 6a 04 3d 0f 9c a5 3d
       0.11233053 -0.077286266 0.032328144 0.080864064
0002c0 4b 97 43 bd d1 62 a1 3d d2 f7 ba bd 64 c3 dd 3d
       -0.047751706 0.07880176 -0.09129299 0.108282834
0002d0 18 6d d2 3d ca 44 09 bd 64 03 3a bd c6 84 99 bc
       0.10274714 -0.033512868 -0.04541339 -0.01874007
0002e0 a8 b0 a7 3d 7f 99 7f 3d 02 a1 1f 3d 9d f5 0f bd
       0.081879914 0.062402245 0.03897191 -0.035146344
0002f0 18 86 df 3d 26 26 a7 bd 68 43 91 3d 4f 52 0f 3c
       0.10914248 -0.08161573 0.07092935 0.008747651
000300 62 13 10 3d 7d 27 bf 3d 3d 20 db bb 61 1f 0b b9
       0.035174735 0.09333704 -0.0066871927 -0.00013267763
000310 23 c4 18 bd 37 49 0e bd 06 0b 0f 3d 6f 28 fb bd
       -0.037296426 -0.034737792 0.034922622 -0.122635715
000320 9a ac 94 bd 0f 63 be bd 93 88 00 3e 45 de bb 3d
       -0.07259484 -0.09296238 0.12552099 0.09173254
000330 34 71 e2 bd 91 8f fa bd 52 4e 34 3c 8c 8d e9 bd
       -0.11056748 -0.12234414 0.011005001 -0.11403951
000340 28 da 7a 3d 19 fd b3 3d e4 08 6a bd 59 87 0a 3d
       0.061243206 0.08788509 -0.057137385 0.033820484
000350 47 d6 5d bc 72 d0 c2 3c 4a 08 9a 3d f8 6c ce 3c
       -0.013539857 0.023781035 0.07521112 0.025198445
000360 42 99 b3 bd 77 37 16 bd 28 28 f4 3c 61 09 f6 3d
       -0.08769466 -0.03667399 0.029804304 0.12013508
000370 9e 30 e6 3d ee 2a 10 3b f8 e7 76 bb 94 e6 a3 3d
       0.11239742 0.0021998244 -0.0037674885 0.08002964
000380 e2 ec a9 3d 73 cb d4 3d 02 87 92 3d 22 2b 8e bd
       0.08297135 0.10390367 0.07154657 -0.06941821
000390 03 a2 91 3d 3e 84 21 3d 2c 7c 9b 3d 8c e3 1d 3c
       0.071109794 0.039432757 0.07592043 0.009636771
0003a0 a4 ec 01 be 6c 56 bc bb b8 e8 d8 3d 6f b8 91 3d
       -0.12687927 -0.005747607 0.105912626 0.07115256
0003b0 3b 60 80 bc 1b 09 dd 3d 78 c8 c1 3d ae 41 ad 3d
       -0.015670886 0.10792752 0.094620645 0.08459793
0003c0 01 e2 de bd 52 64 fd 3a 3b 27 c3 3d 63 ef 73 bc
       -0.108829506 0.0019332266 0.09528967 -0.014888617
0003d0 06 ca ac 3d 3d de a6 bd da 4c 51 3d 00 e3 5d 3d
       0.084369704 -0.08147857 0.051098682 0.054171562
0003e0 50 a1 96 3b ec 21 15 3d 41 33 ee 3a 8c 0a 41 bd
       0.0045968667 0.036409304 0.0018173234 -0.0471292
0003f0 75 6a 0e 3c 99 b7 bf bc 62 41 8a 3c c7 9b 53 bd
       0.0086923735 -0.023402976 0.01687688 -0.051662233

1.2.bias f4 [48]
000000 58 45 e1 3d 4c b6 f9 3d 95 e7 bf bd c3 2a 72 3c
       0.109995544 0.121929735 -0.09370343 0.014780703
000010 61 f9 ff 3d f1 75 11 3d d8 1a 0d 3e 68 74 c4 3d
       0.12498737 0.03551287 0.13779771 0.09592515
000020 2e f2 95 3d 0f c2 b0 3d 35 10 6b bc e9 ed 45 3d
       0.07321583 0.08630764 -0.014347126 0.048322592
000030 c6 ee 2c bd 69 81 89 bd ff 96 37 3d bb b6 6e 3d
       -0.0422199 -0.06714136 0.044821735 0.058279734
000040 e7 7d f2 bd 1a 5a aa bd 01 c7 ad bc 74 66 09 bd
       -0.1184042 -0.08317967 -0.021213057 -0.033544973
000050 07 14 03 be 8c cf 51 3d f9 b7 62 bc 58 b1 80 bd
       -0.12800609 0.051223323 -0.013837808 -0.06283826
000060 a5 a6 8e bd 5b 69 a3 3d 04 ea 12 3d e3 c1 98 bd
       -0.06965379 0.07979079 0.035867706 -0.07458856
000070 1a 17 e2 3d 0b 4d b5 bd 2f 65 66 bc ac e1 f9 bd
       0.110395625 -0.088525854 -0.01406221 -0.122012466
000080 c5 05 0b 3e 65 bc bc bc 13 c8 8c 3d 55 ed cd 3d
       0.1357642 -0.023039052 0.06874099 0.10055033
000090 b0 67 49 3d a1 ba 63 bd 72 7d b4 bd 6d 25 df 3d
       0.04917115 -0.055597905 -0.08812989 0.1089581
0000a0 51 fe a5 bc 53 a8 99 3d 0f e1 93 bc 35 0a 93 3d
       -0.02026287 0.075028084 -0.018051652 0.07179681
0000b0 1e 09 47 3d 66 e9 5a bd b8 37 a9 3d ee 6e 86 bd
       0.04859268 -0.053445242 0.08262581 -0.06564127

1.4.weight f4 [48, 48]
000000 0a c7 26 ba 42 01 4b bd dd 23 63 3d 99 12 5b bd
       -0.00063620566 -0.049561746 0.055454124 -0.053484533
000010 c2 fb a4 3d 38 d4 97 bd b2 36 25 3d 13 9a 82 3d
       0.080558315 -0.074135244 0.040335365 0.063770436
000020 56 92 c6 bc 70 8d f0 3d 1c 0c 98 bd db 62 13 3e
       -0.0242397 0.11745727 -0.07424185 0.14393179
000030 35 8b 0b be 92 74 5b 3b 91 93 2a 3d bf 8a 10 3e
       -0.13627322 0.003348623 0.041644637 0.14115427
000040 73 d5 76 bd c9 7e f0 bd 38 59 8d bd 80 fe 8a 3d
       -0.060262155 -0.11742932 -0.06901783 0.06786823
000050 5b 5b aa 3d db 77 c5 bc 88 9d 70 bc 8e 9b 4b bd
       0.08318206 -0.024105003 -0.014685996 -0.049708895
000060 90 08 b9 3d c3 c5 59 3c a6 3b d2 bd 8e 46 09 be
       0.09034836 0.013291779 -0.10265283 -0.1340582
000070 92 22 3b 3d 32 6a fd bd e5 fe 70 3d 66 99 8a bd
       0.045687266 -0.12373771 0.058836836 -0.0676754
000080 30 6f d3 3b 9f ac bb bd 25 f1 d5 3d 54 6a bb bc
       0.0064524636 -0.09163784 0.10446385 -0.02287785
000090 d0 c5 a9 3d 76 b3 98 3a 2f 60 ed 3d a0 ff 82 bd
       0.08289683 0.0011650163 0.11590611 -0.06396413
0000a0 66 92 ca 3d f3 38 0a be 0a cf 88 bc 49 b6 11 3e
       0.098912045 -0.13498287 -0.016700286 0.14229693
0000b0 76 96 ac 3d 26 d2 13 be 1a b2 1c 3d 1b 67 b5 bd
       0.08427136 -0.14435634 0.03825579 -0.088575564
0000c0 b6 e4 97 3d 70 33 d5 3d 7d 43 90 bd 9e c1 f0 bd
       0.0741667 0.104102015 -0.07044122 -0.117556795
0000d0 1c 40 cd 3d dc 23 c2 bd 56 6f 08 3e 47 9d f3 bd
       0.100219935 -0.09479496 0.13323721 -0.11895233
0000e0 98 98 ca 3c 75 8b d5 3d e4 1f 3f 3c a5 25 96 3d
       0.024730965 0.1042699 0.011665318 0.07331399
0000f0 43 a2 97 bd 45 70 e3 bc 30 1a 7d bd f5 0b b0 3d
       -0.07403996 -0.027763495 -0.061792552 0.085960306
000100 0f 03 4e 3c 82 ba 78 bd 89 f5 51 bd 80 6b 25 bc
       0.012573971 -0.060724743 -0.05125955 -0.010096431
000110 a4 4c bb 3d 69 c4 0f bd 9a 64 8e 3d 17 98 0f 3e
       0.091454774 -0.03509942 0.06952782 0.14022861
000120 39 40 da bd 54 09 23 3d d9 a6 61 3c 24 b9 7e bc
       -0.10656781 0.039803818 0.01377269 -0.015547071
000130 0a 7a fd 3d 5a 4f 00 be 03 ee 8d bd 34 67 7f 3c
       0.12376793 -0.1253027 -0.06930163 0.01558857
000140 85 0b bb 3d 22 63 c7 3c 4d 7c 36 bd 4c 1d 14 3e
       0.091330566 0.024339262 -0.044552136 0.14464301
000150 68 38 d6 bd de 94 9a bd a6 fd 9e bc 43 f2 05 bc
       -0.104599774 -0.075479254 -0.019408058 -0.0081754355
000160 d5 46 b1 bd 6d 46 a3 bc b7 94 f0 3d 3f 0f bd 3d
       -0.08656088 -0.019931043 0.11747115 0.092314236
000170 ff 0b 60 bd 41 fc 09 3e 65 b8 12 3e 99 12 ed 3d
       -0.05469894 0.13475133 0.14328153 0.11575813
000180 5a 3c 95 3d 8a d4 91 3d 0c 93 06 3d 34 8b 16 be
       0.07286902 0.07120617 0.03285508 -0.1470154
000190 3a 1f 84 3c 76 fb 8d 3c c0 3e 95 3d 25 a4 bb bd
       0.016128171 0.01733182 0.07287359 -0.091621675
0001a0 dc 36 ae 3d 83 17 64 3d c5 5e eb bd 08 fa c0 3c
       0.08506557 0.055686485 -0.11492685 0.023556724
0001b0 fd 07 45 3d ba 48 00 be 21 a8 08 be c9 30 8c bd
       0.04810332 -0.12527743 -0.13345386 -0.068452425
0001c0 aa a6 87 bd d0 b5 cf bd 15 8b 06 be 7f 7a 70 3d
       -0.066235855 -0.101421 -0.13138993 0.05871057
0001d0 78 b1 26 bc 91 74 55 3d 24 e3 fd bc 0e f8 d5 3c
       -0.010174148 0.05211312 -0.030992098 0.026119258
0001e0 7b 68 3b 3d ac a2 e5 3d 00 cb 5d bd cc 2c 3b 3d
       0.045753937 0.11212668 -0.054148674 0.04569702
0001f0 39 52 59 bd 50 86 0f be 8c 4f 29 bd 16 c9 d0 bc
       -0.05305693 -0.1401608 -0.041335627 -0.02548651
000200 0f 88 8d 3d d2 3b 03 be 33 31 8e bd 27 52 ea bd
       0.06910717 -0.12815788 -0.06942978 -0.114414506
000210 1f 2c 4c 3d 43 ba 18 3d 44 ad 82 3c 83 34 a7 bd
       0.049846765 0.037287008 0.01595176 -0.08164313
000220 87 0f ff 3d 0a 57 cc bc b6 93 9c ba 4e 0c ef 3c
       0.124541335 -0.024943847 -0.0011945877 0.029180672
000230 4a b9 7f 3d 98 29 90 bc d5 f4 5d bc 8a b1 04 bd
       0.062432565 -0.017597958 -0.013547142 -0.032395877
000240 bf 55 be 3d 0a 40 02 be 57 98 08 3d 45 ce 18 3c
       0.092936985 -0.12719741 0.033348408 0.009326522
000250 96 cb 1b 3e 77 20 04 3e 2b 5d a2 bd 50 ba 4a bc
       0.1521438 0.1290301 -0.07927927 -0.012373522
000260 fd ff cc bb 9b ec c5 bc bc 1a 52 bd 05 8b 85 3c
       -0.006256102 -0.024160674 -0.051295027 0.016301641
000270 16 cf ae 3c 6e 0e d8 3d 9d 7e 80 3d 66 6e ee bd
       0.02133898 0.10549627 0.062741496 -0.116421506
000280 1b 99 bd 3c 01 18 fe 3d 57 97 0c 3e 86 c2 00 3e
       0.023144295 0.12406922 0.13729607 0.12574205
000290 21 cf 0d 3e 9e 54 be bd c4 c1 ce bd d2 70 03 be
       0.13848545 -0.09293483 -0.100955516 -0.12836006
0002a0 55 ac 2f 3d f1 e5 08 be df 79 13 3e 34 ba 72 3d
       0.042888958 -0.13368966 0.14401959 0.05925961
0002b0 83 3a 10 3d 90 a8 98 bd 7c 80 e8 3d 26 4d 78 bd
       0.03521205 -0.07454026 0.113526314 -0.06062045
0002c0 0d 53 11 be be a7 88 3d 24 d4 cf bd 38 e8 90 bd
       -0.14191838 0.06672619 -0.101478845 -0.07075542
0002d0 f5 14 c1 3b 6b a8 08 3d d5 f8 49 bd a8 9e af 3d
       0.005892391 0.03336374 -0.04930957 0.08575183
0002e0 24 0c b0 3c 51 1d e0 bd 2b 0b 9b 3d a1 78 eb bd
       0.021490164 -0.10943092 0.075704895 -0.114976175
0002f0 f2 4c 15 3d 55 ec 00 3e 45 dd 74 3d 70 51 08 3d
       0.036450334 0.12590154 0.05978133 0.03328079
000300 d6 9a bc bd 5a 1b e5 3d 8c c9 6c bd d0 12 a8 bd
       -0.0920922 0.111868575 -0.057809398 -0.08206713
000310 db ba 98 bd 3b 97 02 be 34 90 c2 3d ae e1 6d 3d
       -0.07457515 -0.12753002 0.09500161 0.058076553
000320 3e 7e 0c 3e 84 ef 4c 3d 9a c5 cd 3d da 58 ef 3b
       0.13720033 0.050033107 0.10047455 0.007304293
000330 00 25 96 bd 4e 8b 5b 3d 7c 2b 8c bd 89 c7 e9 bb
       -0.07331276 0.05359965 -0.068442315 -0.007134382
000340 6b 07 07 be 7a 99 f0 bd ce aa b0 bd 82 12 0f 3e
       -0.13186423 -0.11748023 -0.086263284 0.13971904
000350 0a 1c 49 bb b7 87 1a bd a2 c7 5f bc 25 3c ff 3c
       -0.0030686879 -0.037727084 -0.013658436 0.031156609
000360 48 35 d9 3d 07 0b 99 bd 25 8d 8f bd 39 8a 1d bc
       0.10605866 -0.074728064 -0.07009343 -0.009615474
000370 80 4a 8f 3c bd ea 4d 3d 9e 91 63 3d 42 d1 9d 3d
       0.017491579 0.050272692 0.055558793 0.077059284
000380 b0 76 dc bd 3a 05 be bc 8e 1e 25 3c 44 74 13 3e
       -0.10764825 -0.023195852 0.010078086 0.1439982
000390 c7 89 f6 3d 03 81 bb 3d 8c 3a ba bd 0c e8 41 bd
       0.12037998 0.091554664 -0.09093198 -0.047340438
0003a0 f3 b0 c7 bd 50 b3 b5 3d 8a 5a aa 3d e2 a4 eb bc
       -0.09750547 0.08872092 0.0831805 -0.028765146
0003b0 9b 3e d6 bd d5 7e 03 be 73 f9 da 3d ce a2 3e bd
       -0.1046116 -0.12841351 0.1069211 -0.04654198
0003c0 28 bf f5 3c f1 3c 88 3d 2f 26 70 3d 17 84 cf bd
       0.029998377 0.06652249 0.058630165 -0.10132616
0003d0 a2 7b e4 bd 85 a0 9e 3d d9 05 d3 bd 90 64 de 3d
       -0.111563936 0.077454604 -0.1030385 0.108590245
0003e0 05 64 db bc 4b 20 aa bd 2e eb 02 be bf 39 00 be
       -0.026781091 -0.08306941 -0.12785026 -0.12522028
0003f0 ec 11 0b 3e 31 d2 ae bc d2 65 4f bd 01 87 09 3d
       0.13581055 -0.021340461 -0.050634213 0.033576015

1.4.bias f4 [48]
000000 04 8e cf 3d 9e a6 95 3b 5f f9 0e 3e ba 1d 28 3e
       0.10134509 0.0045669815 0.13962315 0.1641759
000010 af d7 b0 3c 2b 4b c1 bd 8a 39 9c 3d 3a be e3 3d
       0.021587221 -0.09438165 0.07628162 0.11120267
000020 f3 62 2c bd 5f eb 63 3d e2 61 30 3d 1e f7 5a 3d
       -0.042086553 0.05564439 0.0430621 0.053458326
000030 5f 2f 40 3d 32 e7 1d bd 52 9d 97 bd 92 4d 0c be
       0.046920177 -0.038550563 -0.07403053 -0.13701466
000040 5e 85 15 3d 22 c1 e6 bc fd a2 33 bd c4 aa 9e bd
       0.036504142 -0.028168265 -0.04385661 -0.07747415
000050 ea ab eb bd bb 8f 1b bd db 3b 03 be 08 67 0b be
       -0.115073994 -0.03797887 -0.12815802 -0.13613522
000060 8f 32 ae 3d fc 48 48 bc 0c 71 67 3d 79 0f 50 bd
       0.08505737 -0.012224432 0.056504294 -0.050796006
000070 d5 46 dd 3b bf 63 00 3d 55 23 cb 3c c1 59 c7 bd
       0.0067528286 0.031345125 0.024797121 -0.09733916
000080 d8 ca 05 bd 57 b6 51 bd 62 0f 5d bd 62 14 ef bd
       -0.03266415 -0.051199283 -0.05396975 -0.116738096
000090 a9 f8 77 3d 8e bb 7e 3d 7d 4a 90 bd f2 f0 3c 3d
       0.060539875 0.062190585 -0.070454575 0.04612822
0000a0 2c 09 ad bd 4c a5 9b bd aa 01 0c be df 8b 08 3e
       -0.08449015 -0.07599887 -0.1367251 0.13334607
0000b0 77 15 fb 3d d9 cd 2d 3d 78 30 08 3d e6 8d 10 be
       0.122599535 0.04243264 0.03324935 -0.1411663

1.6.weight f4 [36, 48]
000000 9c 54 06 bd 43 44 9b bd c8 10 de 3c 1d b1 85 3c
       -0.032795534 -0.07581379 0.027107611 0.016319806
000010 06 68 ea bd 49 83 f4 3d b1 19 d5 3d a2 e8 de bd
       -0.11445622 0.11939103 0.10405291 -0.10884215
000020 bb 98 b7 3d d4 17 22 bd 38 e2 73 bc cf b3 dc bd
       0.08964678 -0.039573506 -0.014885478 -0.10776483
000030 90 aa 00 be 0d de e0 bd 5e ad e5 3d f7 87 3f bc
       -0.12565064 -0.10979853 0.11214708 -0.011690131
000040 9d 22 87 bc f6 af 8c 3d 01 22 ed bd dd a2 50 bd
       -0.016495997 0.068694994 -0.11578751 -0.05093657
000050 b4 67 a0 3c 63 25 e5 bc 23 81 d4 3d 98 12 a1 bd
       0.0195807 -0.027971929 0.103761934 -0.078648746
000060 d4 ab ce 3d ef 71 6d 3c da 5e 05 3e 15 6a f7 bd
       0.10091367 0.014492496 0.13024464 -0.120807804
000070 9f 2b 7d 3d 6d 1c e1 bc 3e f8 51 3d 6a bc 04 be
       0.06180918 -0.027479375 0.051262133 -0.129625
000080 40 cd 10 be 23 49 8f 3d f6 96 e9 3b a0 2a c2 bd
       -0.14140797 0.069963716 0.0071285916 -0.09480786
000090 66 23 b8 bd ea 49 10 3e bd d7 02 3d 8e 34 07 bc
       -0.08991127 0.14090696 0.031944025 -0.008252276
0000a0 52 77 bc 3b fb 46 89 bd 0d 94 18 3e 90 26 8d bd
       0.005751529 -0.067029916 0.14900227 -0.06892121
0000b0 4c 4b db 3d 40 32 67 bc f6 44 40 3a b5 ff fe bd
       0.10707721 -0.014111102 0.0007334495 -0.12451116
0000c0 2d ec 06 be f1 c5 df bb 9d a6 4f 3d 90 41 e7 bc
       -0.13176031 -0.0068290164 0.050696004 -0.028229505
0000d0 66 e8 54 3d 42 38 b0 bd 74 bf bf bd fb 24 c2 bc
       0.051979445 -0.0860448 -0.09362689 -0.023699274
0000e0 e9 52 c6 bd 8f b6 19 bc 22 84 1a 3e 45 f1 a5 3c
       -0.096837826 -0.009381904 0.15089467 0.020256648
0000f0 5f 7c 6c 3c f8 79 ef 3d 39 e4 0a 3e be e2 ca bc
       0.014433949 0.116931856 0.13563623 -0.024766322
000100 15 ee 16 3e e3 75 e9 3d 9c d4 83 3d af ff 0a 3d
       0.14739259 0.11399438 0.064370364 0.033935245
000110 37 f5 c2 3c 65 88 8d 3d c7 89 4e 3d 4e 21 c4 3d
       0.023798568 0.06910781 0.050424363 0.09576665
000120 6e 27 b4 bd 60 de ce bd 18 71 b6 bd c0 10 27 3c
       -0.08796583 -0.101010084 -0.0890829 0.010196865
000130 7a 33 c1 bd c7 0a a5 bc 25 9e 0d be 2d cb b0 3d
       -0.094336465 -0.02014674 -0.13829859 0.08632503
000140 da cf 81 3d 38 4e e8 3d 1a f1 10 3e 7c cc 0a be
       0.06338473 0.11343044 0.14154473 -0.13554567
000150 61 7a 81 bc e1 02 7d 3d 2f 41 de bd 2a 73 a0 bd
       -0.015805425 0.061770324 -0.108522765 -0.07834466
000160 d3 27 55 3d 51 bb 45 3d 57 02 0d 3e 9f de 87 bc
       0.052039932 0.048274342 0.13770424 -0.016585646
000170 9c 21 9e bd 1c 81 a3 bc b0 ee 80 bc c5 26 f6 3d
       -0.07721254 -0.019959025 -0.015738815 0.120191135
000180 ac 36 a1 bd 20 c2 78 3c f8 03 8d bd a0 e6 00 3e
       -0.07871756 0.015183002 -0.068855226 0.12587976
000190 87 91 63 bd 17 31 4c bd 53 6d fc 3d f3 b6 af bc
       -0.055558708 -0.049851503 0.123255394 -0.021449542
0001a0 8e a9 17 be 1c 2a 8d bc 79 3b 4b 3c 15 0f 0a bd
       -0.14810774 -0.017231993 0.012404316 -0.03370579
0001b0 db c6 b4 3d c3 27 12 be 85 1f 58 bd 66 86 ea 3d
       0.08826991 -0.1427298 -0.052764434 0.11451416
0001c0 bc 57 bf 3d ce a7 c3 3d ca ee d8 3d 39 97 16 be
       0.09342906 0.095534906 0.105924204 -0.14706124
0001d0 dc a7 13 3e fa a9 82 3d cf 5b 3f 3d 8f 27 dc bd
       0.14419502 0.06380077 0.046718415 -0.10749733
0001e0 2c 2e b3 3d c3 82 b8 3c c8 49 17 3e 6c 9f e7 bd
       0.08749041 0.02252329 0.14774239 -0.11309704
0001f0 f9 e1 8a 3c 7e 4a 0b bc c2 a0 ce bd 33 70 06 3d
       0.016953455 -0.008501647 -0.10089256 0.032821845
000200 3b 79 3d b9 70 ba 14 be 71 1e f8 3b 87 f3 09 bd
       -0.00018069606 -0.14524245 0.0075719883 -0.03367951
000210 cd 3d 55 bc 8b e9 3a bd e6 a7 1c be bb 5e e8 bc
       -0.013015223 -0.04563288 -0.15298423 -0.028365484
000220 2e df fe bd 67 01 8c bd 4c 27 b3 bd e7 8e c5 3c
       -0.12444912 -0.06836205 -0.0874773 0.024115993
000230 17 f0 d4 bd 28 45 4d bc 7a ea 03 be 66 b5 dd bd
       -0.10397356 -0.012528695 -0.12882414 -0.10825615
000240 a8 08 e8 3d 64 8c 0e 3d ef 02 fc bd 3d af a9 bc
       0.11329776 0.034801856 -0.12305247 -0.020713443
000250 8f f9 00 be 9d d3 c2 bd 2e 80 66 3d 3b d1 df 3d
       -0.12595199 -0.09513018 0.056274585 0.109285794
000260 6f 9e 01 bd a3 61 a3 3a 95 81 ad 3d 10 09 77 bd
       -0.031645235 0.0012465011 0.084719814 -0.060311377
000270 36 fa df 3d d0 e5 4b bc 87 65 b5 bd 33 8b 12 3e
       0.10936396 -0.012444928 -0.088572554 0.14310913
000280 f1 9f 01 3e dd 60 91 3d eb 38 9e bd 18 35 d7 3d
       0.12658669 0.07098553 -0.077257 0.10508174
000290 40 d0 b4 bd d0 90 ac 3d b2 47 f5 bd cf 70 9b 3d
       -0.08828783 0.08426058 -0.119765654 0.07589876
0002a0 5e ea 43 3d 34 f6 54 bd f2 e3 f1 3a 4f 26 77 bd
       0.04783093 -0.05199261 0.0018454774 -0.06033927
0002b0 2b b4 a9 3d d4 84 45 3d 9e e4 b8 bd ea eb 87 bd
       0.082863174 0.048222378 -0.0902798 -0.06636794
0002c0 1c 95 b7 bd 0a c5 8f bd f2 82 91 bd 28 7e e6 3c
       -0.08963987 -0.07020004 -0.07105054 0.028136328
0002d0 8e 46 0a 3e 08 2f 62 3c f6 ff 13 3e 6b 0d 10 3e
       0.13503477 0.013805158 0.1445311 0.14067619
0002e0 ef 8f b0 bc 6e f2 5f bd 5d cd ee 3b 97 c6 67 bd
       -0.021553008 -0.05467456 0.007287665 -0.056585874
0002f0 5b 63 b4 3d be 35 8e bd 8c 10 ce 3d a7 68 ae bd
       0.08808013 -0.06943844 0.1006175 -0.085160546
000300 8e 13 61 3d de 2a 97 3d 56 d9 05 3e df d2 58 bd
       0.05495029 0.07381223 0.13071188 -0.052935477
000310 aa c4 2d bd 73 f5 1a 3d a7 8f 1a 3e 86 f7 e3 3d
       -0.04242388 0.037831735 0.15093862 0.11131196
000320 8a ca fd 3d d7 fd 08 3d 94 1b 16 3e 56 bd 0d 3e
       0.12392147 0.033445206 0.14658958 0.13841757
000330 d6 40 bc bd 25 12 3a 3d 70 b5 36 3d 35 bb a8 3d
       -0.09192054 0.04542746 0.044606626 0.08238832
000340 98 60 00 3e 72 6c b3 3d f5 0d d0 3d 7f 22 9d 3d
       0.12536848 0.08760919 0.10158912 0.07672595
000350 fa a8 70 3d d6 0c 8f 3d d0 0b 11 3e 94 94 6c 3d
       0.0587549 0.0698487 0.14164662 0.057758883
000360 ad e5 0b be 89 5e a3 bc c5 bb 09 be dd 32 f5 bd
       -0.13661833 -0.019942539 -0.13450535 -0.11972592
000370 b6 6a 61 3d 39 e6 9b bd d1 9a 14 3d 4b c1 e6 bd
       0.055033408 -0.07612271 0.036280457 -0.112673365
000380 38 c6 b6 bd 91 21 d6 3c 36 9e b0 bd 70 25 3b bd
       -0.08924526 0.026139053 -0.08623926 -0.04569
000390 ac 15 7f bd 94 05 d2 3d 99 36 3e 3d 26 d4 94 ba
       -0.062276527 0.1025497 0.046438787 -0.0011354729
0003a0 de 3d 14 be bd 33 07 be 7c 4f 4b 3d b4 10 a0 bd
       -0.14476725 -0.1320333 0.04963635 -0.07815686
0003b0 c6 f9 18 be e7 89 9d 3d 71 58 e5 3d 64 3e 10 3e
       -0.14939031 0.076923184 0.111985095 0.140863
0003c0 59 44 ad 3d f8 c1 9a 3d 20 16 91 bc 2e e2 aa 3d
       0.08460302 0.07556528 -0.017710745 0.083439216
0003d0 45 15 d6 3d b7 37 8c 3d e2 12 0f bd b6 a5 06 be
       0.104532756 0.06846564 -0.034930117 -0.13149151
0003e0 b2 b0 cf bd d6 66 02 be 8a 0d 05 3d 96 d7 a8 bd
       -0.10141124 -0.12734541 0.032483615 -0.08244245
0003f0 ac 51 7e bd 1f 01 52 3d 6a d2 67 3d 76 c1 e7 3d
       -0.062089607 0.0512706 0.05659715 0.113161966

1.6.bias f4 [36]
000000 20 9a 96 3d e4 34 45 be 64 53 b1 3d a5 60 c5 bd
       0.07353616 -0.19258457 0.086584836 -0.09637574
000010 c9 fc 40 3d 69 54 20 be c0 25 e7 3d ac 5b b3 bd
       0.047116075 -0.156572 0.11286497 -0.087577194
000020 6e 8e 1f 3e 3a b9 f5 3d 1a f9 24 3d 9b c4 de bc
       0.15581676 0.1199822 0.040276624 -0.027193358
000030 cc 17 0d 3e 22 70 22 3d 8d c3 87 3d 0f c0 18 bd
       0.13778609 0.03965772 0.06629095 -0.037292536
000040 c4 f1 a8 3d 2e 0c 17 3d 6f 96 30 3e d5 ef 47 3e
       0.08249238 0.03687685 0.17244886 0.19525082
000050 30 49 cf bd d6 9c 0b be c1 59 a9 bd 0f e4 ae bd
       -0.10121381 -0.13634047 -0.08269072 -0.085395925
000060 ae fb f4 3c e4 4b 4b bd 48 a7 1f be 00 6a c6 3d
       0.029905166 -0.04963292 -0.15591156 0.09688187
000070 03 7a 00 bd e4 cb 81 bd 82 b8 36 be 23 28 34 be
       -0.03136636 -0.06337717 -0.17843822 -0.17593436
000080 34 23 56 bd 9e 66 1d 3d 91 95 95 bd 0c 81 18 be
       -0.052279666 0.03842794 -0.07303918 -0.14892977

1.8.weight f4 [24, 36]
000000 54 01 f8 3d b8 d9 17 be d5 e0 58 bd 9e d2 d1 bb
       0.12109628 -0.14829147 -0.05294879 -0.0064032814
000010 aa fd a3 bd 38 ab f2 bc 2b f0 bc 3d 1d fc c6 3d
       -0.08007367 -0.02962266 0.09225496 0.097160555
000020 11 00 1a be 2e d9 09 bd 46 41 37 bb 8f 25 0f 3e
       -0.15039088 -0.033654384 -0.002796249 0.13979171
000030 d2 aa 3a 3e 62 e1 ba 3c 1b 45 3e 3d ee 91 e2 3d
       0.18229225 0.022812549 0.046452623 0.1106299
000040 94 10 95 3d fd 5e 0f be 4d 5e e5 bc 2a 5a 15 3d
       0.07278553 -0.14001079 -0.027999068 0.03646294
000050 f6 b6 a9 bd 7b 33 59 3d 98 02 f8 3c d2 65 2d 3d
       -0.0828685 0.05302761 0.030274674 0.04233343
000060 7d 24 1c bd e8 2c 00 3e 64 1b b2 b9 0a a1 61 3d
       -0.038120735 0.1251713 -0.00033971213 0.05508522
000070 ed 50 ec 3d ec 31 e4 3d ae 57 37 be d6 12 96 bd
       0.11538873 0.11142334 -0.17904541 -0.073278114
000080 95 a5 ce 3d fb 51 03 be 4b 1f 30 bc b9 ef 09 be
       0.10090176 -0.12824242 -0.010749648 -0.13470353
000090 d5 51 da 3d 7b ed d9 bd a4 e7 fc bd b2 70 67 3d
       0.106601395 -0.10640999 -0.123488694 0.05650396
0000a0 6b bb 7d bd ae 1f 58 3d c9 b4 9a 3c 00 b7 4f 3d
       -0.061946314 0.052764587 0.018885033 0.05071163
0000b0 e9 a6 b6 bd 42 ff fe 3d a9 9e 25 be a7 36 86 3c
       -0.08918554 0.1245103 -0.16173805 0.016383482
0000c0 5b fa 49 3d fb 74 a5 bc 41 ec 89 bd 3b 51 0c 3d
       0.049311023 -0.020197382 -0.06734515 0.034257155
0000d0 e3 81 4e 3c 5c c0 c5 3d 6e fd 9e bd 0e 19 21 3e
       0.01260421 0.0965583 -0.077631816 0.15732214
0000e0 02 77 4d bb 4c 29 b5 3d 5c 0e ec bd b5 ee 04 be
       -0.0031351452 0.088457674 -0.11526176 -0.12981685
0000f0 de 84 8b 3d 09 94 27 bd 13 93 66 bd 7f 4d 83 bd
       0.06812452 -0.04091266 -0.056292605 -0.064112656
000100 1a 85 99 bd 6e 5a cc bb 60 fd a6 3d 7a 3c 6d 3c
       -0.0749609 -0.006236366 0.08153796 0.014479751
000110 26 00 d4 bd 90 39 ba 3d 31 db 0a be 7d 05 d3 bd
       -0.10351591 0.090930104 -0.13560177 -0.10303781
000120 8b df e5 3d 6d 7b f4 bd 30 34 70 3d 3b 66 1a 3e
       0.11224278 -0.11937604 0.05864352 0.1507806
000130 88 b8 2c be 16 47 c2 3c 34 ed 11 bd 2b d3 29 bd
       -0.16867268 0.023715537 -0.035626605 -0.04146115
000140 55 66 f2 3c 78 c0 d8 3c 89 4a 29 be 9b 21 e4 3d
       0.029589811 0.026458964 -0.16532339 0.11139222
000150 50 ff f9 bd 67 d1 77 bd 6c 90 38 be f4 6d 0a be
       -0.122069 -0.060502436 -0.18023843 -0.13518506
000160 f3 7f 02 be a7 6b bd bd ea f5 81 bd 3e 4b d4 3d
       -0.12744121 -0.09249049 -0.063457325 0.10365914
000170 7f 12 5e bd 84 d9 47 bd 0b b3 86 bd 34 ed f4 bd
       -0.054216858 -0.048791423 -0.065771185 -0.119593054
000180 a3 57 fe bb 06 cc ed bd df ef 9d bc ae b0 7d 3d
       -0.007761912 -0.1161118 -0.019279419 0.061936073
000190 cd 8a 1b 3e 99 d0 ee 3d fe 3e 26 3e 2d eb d8 bc
       0.15189667 0.116608806 0.16234967 -0.026479328
0001a0 6e 00 0f bd 16 fb e7 3d 5e 47 15 3e 76 72 fe bd
       -0.03491252 0.11327188 0.14578006 -0.124241754
0001b0 af fb fa bd 11 b6 1a be 97 c1 57 3c 69 a7 06 3e
       -0.12255036 -0.15108515 0.013168714 0.131498
0001c0 01 f7 0b be 90 0e cc 3d 88 f8 01 be 50 ea 01 be
       -0.13668443 0.09963715 -0.12692463 -0.1268704
0001d0 87 0a 09 3e 0a af 90 bd b8 2c 21 bd 39 f3 29 bd
       0.13382922 -0.07064636 -0.039349288 -0.04149172
0001e0 9b c1 c4 bd 47 3e 22 3d 7a 32 68 bc 52 3f 42 3d
       -0.0960724 0.039610174 -0.014172191 0.04742367
0001f0 d9 22 a8 bd 10 b7 b4 bd 15 2a ed bc 7e 8a 78 3c
       -0.08209772 -0.08823979 -0.02895073 0.015169738
000200 49 82 04 3e a4 e8 87 bd e2 02 1c 3e 03 ae ee 3d
       0.12940325 -0.066361696 0.15235475 0.11654284
000210 9c 9c 2f 3d fe 1f 91 3c 42 76 1c bc 50 b9 81 3d
       0.042873964 0.01771545 -0.009549679 0.06334174
000220 08 6d 38 bd 8c d0 15 be 7c 98 20 be 96 a2 18 be
       -0.045025855 -0.14630336 -0.15683168 -0.14905772
000230 4d de 20 be 7c d4 d7 3d d7 ab 22 3e db dc 09 bb
       -0.15709801 0.10538575 0.15885864 -0.002103618
000240 c2 45 b9 3d 08 67 08 bd de bc f0 3d 8a 58 8d bd
       0.09046508 -0.033301383 0.117547736 -0.06901653
000250 7a af 4b 3d 7c ae 27 bc 0f 9b b3 bc 38 fc 43 be
       0.049727894 -0.010234471 -0.021924524 -0.19139183
000260 97 7e f0 bd 31 a1 cb bd 94 2d 27 be 42 67 10 3d
       -0.11742895 -0.09942854 -0.1632598 0.035254724
000270 03 2c 2f 3e 4f f2 b6 bd 62 a1 07 3e a6 09 17 3c
       0.17106633 -0.089329354 0.13245156 0.009218609
000280 bf 02 1a 3c 2f 37 11 be 09 e2 01 3e d5 2a ed 3b
       0.009400069 -0.14181207 0.12683882 0.007237772
000290 f0 fe 78 bd 4f 18 22 be b8 ed 62 bd e3 2f 09 be
       -0.060790002 -0.15829585 -0.055402488 -0.13397174
0002a0 12 ce ee bc 7d c4 d2 bd e7 39 1e be 3f f3 c9 bd
       -0.029150996 -0.102913834 -0.15451775 -0.09860849
0002b0 d5 95 54 3d 9c b5 e0 3d 6d 64 65 3d f7 40 91 3c
       0.051900703 0.10972139 0.056003977 0.017731173
0002c0 96 c9 03 3d 91 63 0b be 0c a1 98 3d 4a dd 8d bd
       0.03217467 -0.136122 0.07452592 -0.06926973
0002d0 a1 23 ff 3d 9f 34 82 3d 53 5b 08 be fc f3 54 3d
       0.124579675 0.06357693 -0.13316087 0.051990494
0002e0 be 48 12 3e 90 91 df 3d ba 68 86 3d 03 2a e0 3d
       0.14285561 0.10916436 0.06562944 0.10945513
0002f0 24 4b 0d 3e 3a c1 9b bd 86 73 16 be 8e 2a 02 3e
       0.13798195 -0.076052144 -0.14692506 0.12711546
000300 57 dd 0f 3d 05 b2 2e 3d 7d f0 9f 3c 83 d1 7e bd
       0.035123195 0.04265024 0.019523853 -0.062211525
000310 1f 6d 0c 3e ea 51 22 3e 04 e0 1a be b7 54 ff 3d
       0.13713501 0.1585156 -0.15124518 0.1246733
000320 14 a4 11 3d 24 e5 7f bd af 9a 1b 3e a8 d1 11 be
       0.035556868 -0.062474385 0.15195726 -0.14240134
000330 7c 50 10 be 56 23 c3 3b 4c c5 9a 3d e9 a9 7a bc
       -0.14093202 0.00595514 0.07557163 -0.015299299
000340 57 4e dc 3d 96 2e 87 bd bd 2a 23 be 63 db d4 3d
       0.1075713 -0.066006824 -0.15934272 0.10393407
000350 35 f7 13 bc 00 71 87 bd 0b 5b 4e 3d e7 ab 08 bd
       -0.009031107 -0.0661335 0.050379794 -0.033367064
000360 2c e4 9c bd 91 0d 9e bd ca 72 26 3e f2 62 0c 3e
       -0.07660708 -0.07717431 0.16254726 0.1370962
000370 ec 1b d4 bd 45 0b 61 bd 01 00 19 3e b9 3c c5 bd
       -0.10356888 -0.054942388 0.14941408 -0.096307226
000380 98 26 d2 3c ce 98 2e be a0 ea ea bd f6 a8 02 3e
       0.025653169 -0.17050478 -0.114705324 0.12759766
000390 74 75 9f bd 32 c9 9f 3d 41 bc 24 be a9 f2 71 bd
       -0.07786074 0.07802047 -0.16087438 -0.05906931
0003a0 b7 64 40 bd 58 e7 06 3e 6d 11 ad 3c 87 f0 08 be
       -0.04697105 0.13174188 0.021126473 -0.13373004
0003b0 a1 9b 7a bd ef e0 fb 3d 31 b3 94 3c 17 07 ff 3d
       -0.061183576 0.12298762 0.018151851 0.12452524
0003c0 ef 8d eb 3d 76 79 13 be 82 bc 51 3d ed c0 5d bd
       0.11501681 -0.14401802 0.051205166 -0.054139066
0003d0 eb 5b 29 3e fe f3 5c 3d 50 72 fa 3c 43 69 b3 bd
       0.1653897 0.053943627 0.030572087 -0.087603115
0003e0 e5 d4 b8 bc 93 24 95 bd 92 3f b0 3c b8 a9 a7 ba
       -0.022562454 -0.072823666 0.021514688 -0.0012791669
0003f0 f5 47 16 3e c7 fd 1e 3e 97 1f 87 3b 96 8e ca 3d
       0.14675887 0.15526496 0.004123639 0.09890477

1.8.bias f4 [24]
000000 72 5e bb 3d f7 e7 20 3e 27 fc 81 bc 8d 86 0a be
       0.091488734 0.15713488 -0.015867306 -0.1352789
000010 35 a3 58 3e be 6d aa 3d 69 15 31 3e a0 a2 64 bd
       0.21156009 0.08321713 0.17293324 -0.055819154
000020 1b 26 22 3e 71 0a 63 bd 2b 30 43 3e 42 4a 70 be
       0.15834849 -0.05542988 0.19061343 -0.23465827
000030 e6 ac 83 be dd 13 48 3e b8 fb 72 3e 6e 20 d2 3d
       -0.2571785 0.19538827 0.23728836 0.10260092
000040 ae 43 29 bd f8 ce 91 bd bd d7 be 3d 6f 3f d0 bd
       -0.04132431 -0.07119554 0.093184926 -0.10168349
000050 f4 8c 8d 3b e5 6c c7 3c b6 01 aa 3d 98 22 d9 bd
       0.0043197814 0.024343917 0.083011076 -0.10602301

1.10.weight f4 [12, 24]
000000 36 c6 fd 3d d1 d6 18 be 82 9d 99 bc d1 f8 1f 3e
       0.12391321 -0.14925696 -0.018751863 0.1562226
000010 44 d8 66 be 2a 75 24 3e 9e f3 e0 3c 10 40 97 bb
       -0.22543436 0.1606032 0.027459916 -0.004615791
000020 9f f1 d1 3d 7e 69 e2 3d 05 64 bb bd bd 49 2a 3e
       0.10251164 0.11055277 -0.091499366 0.16629691
000030 99 95 c5 3d 57 2b ae bc 4e 50 de 3d e0 10 c2 bd
       0.09647674 -0.0212609 0.10855161 -0.09475875
000040 a8 e8 1b be 3c c7 ab bd 13 7b b0 bd 1b 77 2f 39
       -0.1522547 -0.0838761 -0.086172245 0.00016733671
000050 64 17 97 3d 7d 34 fd bc 2b e1 2e 3e f7 89 26 bb
       0.07377508 -0.030908817 0.17078082 -0.0025411823
000060 63 cf 2f 3e c6 44 0f 3d e0 36 5a be 96 0f b5 3d
       0.17168956 0.034977697 -0.21309996 0.088408634
000070 42 64 17 bc d1 a4 50 3e 20 08 26 bd 74 dc 0a 3e
       -0.009240212 0.20375372 -0.040535092 0.13560659
000080 dd a7 7a 3d 75 5b cb 3d 51 1f e8 3c 58 d0 59 be
       0.061195243 0.099295534 0.028335245 -0.21270883
000090 83 8d 09 bd c7 f4 0b be 9f d9 17 3e 35 fc 10 3e
       -0.03358222 -0.13667594 0.1482911 0.1415871
0000a0 db 61 46 3e 78 d1 2a 3e ad 73 21 be 07 37 e8 3d
       0.19373266 0.16681468 -0.15766783 0.11338621
0000b0 60 39 1f be 60 85 a6 bc 5a e7 6c bb c1 95 2d 3e
       -0.1554923 -0.02032727 -0.0036148638 0.16951658
0000c0 f5 b5 bf bd 7f 32 14 be dd 93 5e bd 53 10 b6 3c
       -0.093608774 -0.14472388 -0.054340232 0.02222458
0000d0 d3 80 2c 3e f8 61 33 bd ef 12 32 bd a4 91 c9 3d
       0.16846018 -0.043794602 -0.043475088 0.09842232
0000e0 4b 11 5f be f5 11 f1 bc 05 a5 0e be 92 bd f9 3d
       -0.2178394 -0.029427508 -0.13930137 0.12194361
0000f0 f2 53 5a bd ee c6 e6 bd 26 cb 20 be 7b 6b bc bd
       -0.053302713 -0.112684116 -0.15702495 -0.09200188
000100 4f 0f e2 3d f5 13 dd bd 24 5f 05 be b0 f6 42 be
       0.11038076 -0.10794822 -0.13024575 -0.19039416
000110 97 44 e8 3b e7 c9 10 be b9 19 59 bd b0 aa c8 bd
       0.0070882547 -0.1413952 -0.053003047 -0.09798181
000120 f3 48 e9 3d 6f 32 6b bd 31 95 0a bc 66 7f 22 3e
       0.11390867 -0.057421144 -0.008458422 0.15868911
000130 3b ca 3b 3e 69 fd 80 3d 60 e0 36 3e c2 13 ea 3c
       0.18338864 0.06298334 0.1785903 0.028573874
000140 69 cc 8a 3e 9d 6c 0d bc 4e d7 88 3e 1c 96 5f be
       0.27109078 -0.008631852 0.26726764 -0.21834606
000150 e6 ab 02 be 3f 50 16 bd c2 75 9e 3e 37 e8 d5 3d
       -0.12760887 -0.036697622 0.30949217 0.10444682
000160 8f c5 b8 bd 2b 05 e1 3d bf 8e 84 3e 40 87 87 3d
       -0.09022056 0.10987314 0.25890157 0.06617594
000170 d2 31 5f 3d ce 59 3b be 8c e6 01 3e 9c 9e 4b 3d
       0.05449087 -0.18295977 0.12685603 0.04971181
000180 1f 7f 5e 3e 61 92 bf bd a3 fd fb bc b2 e9 af 3c
       0.2172818 -0.093540914 -0.030760592 0.02147374
000190 9a 05 06 bd e9 3c 81 bd 37 19 d0 bd e1 26 bb 3c
       -0.032720186 -0.06310446 -0.10161059 0.022845687
0001a0 6e 2d 32 3e 1b 7f 87 3d ce 37 7f 3e 4e 3c 29 be
       0.17400143 0.0661604 0.24923632 -0.1652691
0001b0 09 f2 26 be f1 3a df 3c 04 5f 8b 3e ce 62 a1 bd
       -0.16303267 0.027249785 0.2722093 -0.078801736
0001c0 96 f6 61 3c 3d d4 0c be 5c e2 76 3e 8c 5f 77 be
       0.013791701 -0.13752837 0.24109787 -0.24157542
0001d0 13 a7 6b 3d 41 c7 2e be 05 ec 30 3d ad 1e 1d bc
       0.05753238 -0.17068197 0.043193836 -0.009589833
0001e0 c8 57 1b be 9c 23 e4 3d e3 fc c3 bd e2 6a 01 3d
       -0.15170205 0.111396044 -0.09569719 0.031596072
0001f0 2d ca 33 bd 5c 23 30 be d6 7c 98 bd 70 91 f4 3d
       -0.04389398 -0.17200989 -0.074456856 0.119418025
000200 73 81 f7 bd 3e 4a 02 3e bd c8 66 3e b7 85 6f be
       -0.12085237 0.12723634 0.22537513 -0.23390852
000210 85 66 c1 bd 23 a8 0c 3e ad a4 95 3d c1 81 e7 3d
       -0.09443382 0.13736014 0.073068 0.113040455
000220 1a 5e 02 3d cc 92 1b be 6e 0b 6c 3d b1 74 2f be
       0.031828023 -0.15192717 0.057628088 -0.17134358
000230 31 9a 99 3d b0 a7 10 be 6f 8b 21 3e f7 be 45 bd
       0.07500113 -0.14126468 0.15775846 -0.04827782
000240 8f 9a cd bd 3b 11 5c be c4 1b 30 bd aa 24 36 3e
       -0.10039245 -0.21490948 -0.04299523 0.17787424
000250 9a ce ce bc 2c 19 96 bc 0e 1c 85 3d e5 36 08 3e
       -0.025245 -0.01832255 0.06499492 0.1330219
000260 bd 30 5f be 04 83 38 be 2d 30 aa bd 4c 1d 67 3e
       -0.21795936 -0.18018728 -0.0830997 0.2256977
000270 97 09 36 3e e6 27 31 be a8 fa 57 be dd 8c ee 3c
       0.17777096 -0.17300376 -0.21091712 0.029119903
000280 1c 86 de bd a2 6e fc 3d 01 3e 08 3e 80 d5 ca 3d
       -0.10865423 0.12325789 0.13304903 0.09904003
000290 23 60 b5 bc 86 98 2d be 81 46 25 be 30 56 93 3c
       -0.022140568 -0.16952714 -0.16140176 0.017985433
0002a0 f1 f9 63 be 20 17 e0 3d 03 71 fd bc eb 8f 04 3e
       -0.22263314 0.10941911 -0.030937677 0.12945525
0002b0 8c 04 9d 3c 04 5d 4d bd 46 68 0f be 0b 01 b3 3c
       0.019167207 -0.050137535 -0.14004621 0.021851083
0002c0 07 7b 8b be 45 5c d1 3c c9 a2 98 3d 94 d1 a0 3e
       -0.272423 0.025556693 0.07452924 0.31409895
0002d0 a3 52 58 bd f6 63 64 be a3 98 d0 bd 1b 7d 15 3e
       -0.052813184 -0.22303757 -0.10185363 0.14598505
0002e0 90 a7 32 3c 1d 3c dd 3d da e7 7d be 79 7e 42 3e
       0.010904208 0.10802481 -0.24795476 0.18993558
0002f0 d8 57 7e be 8e 8c b4 bd 5c 59 fe 3d 45 d5 0a 3d
       -0.24838197 -0.08815871 0.12419388 0.033894796
000300 50 03 66 3c 61 32 18 3e df 70 35 3e 8b 54 0c be
       0.014038876 0.14862968 0.17718838 -0.13704126
000310 57 37 7b 3e 9e b3 51 3e 2a 75 80 3e 97 13 03 3c
       0.24532829 0.20478675 0.2508939 0.008000276
000320 27 97 b9 bd 62 72 07 3e 49 22 94 3e a7 c4 98 be
       -0.09062033 0.13227227 0.28932407 -0.29837534
000330 d0 d0 2b be d5 fe 98 3d 9a 49 0e 3e 1f 79 81 bd
       -0.16778874 0.0747048 0.13895264 -0.0632193
000340 58 47 a8 3c c2 8b 74 be 29 f0 f0 bd 13 d2 bb bd
       0.020541832 -0.23881438 -0.11764557 -0.09170928
000350 21 09 65 3e e5 80 46 3e 33 6c 32 3e 1b e1 3d 3d
       0.22366764 0.19385107 0.17424087 0.046357255
000360 31 3f 08 bd 29 09 62 be 24 12 4a bd cb db 2c bc
       -0.03326339 -0.22073807 -0.049333706 -0.01055045
000370 39 6e ba bd cd b9 b5 3d 0b c5 0a 3c d2 0c 80 3d
       -0.091030546 0.08873329 0.00846983 0.06252445
000380 9e 7e a7 bb 3f fc 16 bd 46 cc 98 be 34 89 1a 3e
       -0.0051115295 -0.036861654 -0.29843348 0.15091401
000390 0c dc 72 3e 3a 47 81 be 7e c3 87 be bf fa 22 bd
       0.23716754 -0.25249654 -0.26516336 -0.03978991
0003a0 a4 f3 54 be fa 95 aa bc be 40 08 3e 56 d5 70 3e
       -0.20796067 -0.020823468 0.13305947 0.23518881
0003b0 0d 54 f8 bb c4 05 db 3c a7 a4 f9 3d 0c ce 1f 3d
       -0.007578379 0.026736148 0.12189608 0.03901486
0003c0 f5 16 20 be 9b 82 be 3d 3e 88 18 3e 90 01 4b 3e
       -0.15633757 0.09302255 0.14895722 0.19824815
0003d0 5d 59 b1 3d 14 df f7 3d d6 89 75 bb e6 97 8d bc
       0.08659623 0.12103096 -0.003746619 -0.017284345
0003e0 66 d4 50 3e 18 1c d3 bd b1 4c 5e 3e 85 d9 13 be
       0.20393524 -0.10308093 0.21708943 -0.14438446
0003f0 ad d2 0d 3e 2d 83 38 3e 33 19 f9 3c 3e 3f ed 3c
       0.13849898 0.1801879 0.030407524 0.02896082

1.10.bias f4 [12]
000000 35 03 31 be b1 20 a8 bc af 2e df bc 83 c7 8a 3e
       -0.1728638 -0.020523401 -0.02724394 0.2710534
000010 52 a7 99 3d 69 59 a8 3c a6 59 86 be c1 a6 f0 be
       0.07502617 0.020550447 -0.2624027 -0.47002223
000020 51 57 ac 3e 93 0b 6e be a2 4d 1f 3e 59 0f 91 be
       0.33660367 -0.23246603 0.15556958 -0.28332022
