JSP/trained models/TEST_AS_rwd3.pt (torch_old, 42853 bytes, 14 tensors)

4.0.weight f4 [64, 25]
0	0x3dc31728	0.09525901
1	0xbe02b536	-0.12764439
2	0x3e73c0e7	0.23804055
3	0xbceca6f3	-0.028888201
4	0xbdf88f1f	-0.12136673
5	0xbe058f8a	-0.13043037
6	0xbe16ad54	-0.14714557
7	0x3e095c06	0.1341401
8	0xbe005c63	-0.12535243
9	0xbbfb9bfd	-0.0076785074
10	0xbe3d0f0d	-0.18462773
11	0xbe21649a	-0.15761033
12	0xbc566659	-0.013085925
13	0xbe0a5efe	-0.13512799
14	0xbdb5fc84	-0.08886054
15	0xbc024860	-0.007951826
16	0xbea022e1	-0.3127661
17	0x3e6e4e53	0.23272066
18	0xbe219008	-0.157776
19	0xbe267046	-0.16253766
20	0x3dd61d6d	0.10454831
21	0xbda2ab04	-0.07942775
22	0x3e3d6148	0.18494141
23	0x3c827479	0.01592468
24	0x3e010894	0.12600929
25	0xbe400833	-0.18753128
26	0xbd2f4421	-0.042789582
27	0xbd808fa0	-0.06277394
28	0x3d4f7d21	0.05065644
29	0x3e605b93	0.21909933
30	0xbc7a1195	-0.015262981
31	0x3e2799a7	0.16367207
32	0xbd864bad	-0.06557403
33	0xbe14b90c	-0.14523715
34	0x3e3ba94c	0.183263
35	0x3be6b4ac	0.0070405807
36	0xbd9455f5	-0.072429575
37	0xbdcdbafd	-0.10045431
38	0x3cf17ab5	0.029477457
39	0x3e2b2ea8	0.16717017
40	0x3d95c8d7	0.07313698
41	0x3e807986	0.25092715
42	0x3c4f4135	0.012649824
43	0x3e3b61b4	0.1829899
44	0x3e151a4a	0.1456081
45	0x3dde7d4f	0.108637445
46	0xbd003794	-0.031303003
47	0x3e7b0c4d	0.24516411
48	0xbd624575	-0.05524202
49	0xbe344ed1	-0.17608191
50	0x3e218b4c	0.15775794
51	0x3daf268d	0.08552275
52	0xbea4b948	-0.32172608
53	0xbd5d3bca	-0.054012097
54	0xbd507f77	-0.05090281
55	0x3e288504	0.16456991
56	0x3a2874d5	0.0006426101
57	0xbe6fa854	-0.23404056
58	0xbe13d71b	-0.14437525
59	0xbcd50f0c	-0.026008151
60	0x3da78155	0.08178965
61	0xbdaef5df	-0.0854299
62	0x3d7153ed	0.05891793
63	0x3d1dade1	0.038495902
64	0xbdca52da	-0.09879084
65	0xbcc1f515	-0.023676435
66	0x3e36c5e9	0.17848934
67	0x3d987813	0.07444777
68	0xbe0a9810	-0.1353457
69	0xbd1a1533	-0.037617873
70	0x3e1a9479	0.150957
71	0x3e26db29	0.1629454
72	0x3e1d6572	0.1537073
73	0xbdf7c65d	-0.12098382
74	0xbdab63a9	-0.08368618
75	0x3cd7e2e7	0.026353313
76	0x3e43b11a	0.19110528
77	0xbe2459a4	-0.1604982
78	0x3e375074	0.17901784
79	0xbdb51a54	-0.08842912
80	0x3ce62048	0.028091565
81	0x3e571285	0.21003158
82	0x3da0b3a0	0.07846761
83	0x3ddd12c6	0.107945964
84	0x3e13050f	0.14357398
85	0x3e5b1bfb	0.21397392
86	0x3c949672	0.018138144
87	0xbd322ef2	-0.0435018
88	0xbe2f749e	-0.1713433
89	0x3d4487a4	0.04798092
90	0x3d9a23e4	0.07526377
91	0x3f02a222	0.51028645
92	0xbe38d576	-0.18050179
93	0xbd82b941	-0.06382991
94	0x3d0ab62d	0.033865143
95	0xbe0ea90f	-0.13931678
96	0x3d2a7e90	0.041624606
97	0x3cb2e276	0.0218365
98	0x3d1da14b	0.0384839
99	0x3b3eafca	0.0029096478
100	0x3e7c7504	0.24654013
101	0x3e17004e	0.1474621
102	0xbe3ab5ab	-0.18233363
103	0x3cb99d4b	0.022658011
104	0x3e3a504a	0.1819469
105	0x3d9ef75a	0.07762022
106	0x3dc3de13	0.09563842
107	0x3dcb3899	0.099229045
108	0xbcacf921	-0.021114888
109	0x3d778b22	0.06043542
110	0xbe4f2b4f	-0.20231365
111	0x3e80e8d1	0.25177625
112	0x3c1316df	0.008977621
113	0x3de44b9f	0.11147236
114	0x3e009496	0.12556681
115	0xbe3919d4	-0.18076259
116	0xbe930533	-0.28714904
117	0xbe0f74cf	-0.14009403
118	0xbe2c80ea	-0.16846052
119	0xbda8a743	-0.08235028
120	0x3e3c0533	0.18361358
121	0x3e4a3b42	0.19749168
122	0x3ea8322a	0.32850772
123	0x3de51647	0.1118589
124	0xbe0fc5dc	-0.14040321
125	0xbc3c6788	-0.011499293
126	0xbd8b8f69	-0.06814463
127	0xbe03d0ff	-0.12872694
128	0x3b2f3f0a	0.0026740455
129	0xbd762c73	-0.060100984
130	0xbe050474	-0.1298998
131	0x3da14fbe	0.07876538
132	0x3e51ca58	0.20487344
133	0x3dd1af3e	0.10238503
134	0x3e131ae5	0.14365728
135	0x3c37b9c6	0.011213725
136	0xbd2ee7ba	-0.04270146
137	0x3d5cdc7f	0.05392122
138	0xbce5a58e	-0.028033044
139	0xbd46f9b9	-0.048577998
140	0xbe2ce55b	-0.16884367
141	0xbd4e23c5	-0.05032708
142	0x3d6b6412	0.05746848
143	0xbd1aefef	-0.037826475
144	0x3d9a051d	0.075205065
145	0xbe1e77fe	-0.15475461
146	0x3e560e97	0.20904003
147	0xbd985884	-0.07438758
148	0xbde3791a	-0.11107083
149	0xbd407060	-0.04698217
150	0x3e2021d5	0.15637906
151	0x3ec4dae5	0.38448253
152	0xbe59c969	-0.21268238
153	0x3dd65e6f	0.104672305
154	0xbe2f5a81	-0.17124368
155	0x3e22a248	0.15882218
156	0x3e839d24	0.25705826
157	0xbd03ef39	-0.032210562
158	0xbd9974bd	-0.07492969
159	0x3cdd86fe	0.027041908
160	0x3e564497	0.20924602
161	0x3db8276f	0.08991896
162	0xbe2a0952	-0.16605118
163	0x3d47ffee	0.048828058
164	0x3e479fec	0.19494599
165	0x3e179b41	0.14805318
166	0x3e88d7b8	0.2672708
167	0x3de44c13	0.111473225
168	0x3c2e9ec9	0.0106579745
169	0xbe1ed227	-0.15509854
170	0xbe1c3e41	-0.15258123
171	0x3df21d4b	0.118219934
172	0xbe1ee289	-0.15516104
173	0xbd152f0d	-0.036421824
174	0x3e71990b	0.23593538
175	0xbc956528	-0.018236712
176	0xbe3722a1	-0.17884304
177	0x3e400804	0.18753058
178	0x3d4cd4fd	0.05000781
179	0xbaecb046	-0.0018057905
180	0x3e00357a	0.125204
181	0xbde6a0c5	-0.11261133
182	0x3e43b465	0.19111784
183	0xbd986296	-0.07440679
184	0xbe786bbd	-0.24259849
185	0xbe519b2b	-0.20469348
186	0x3d2b1e45	0.041776914
187	0xbd4e9520	-0.050435185
188	0xb9609b38	-0.00021420128
189	0x3e541d01	0.20714189
190	0x3e091510	0.13386941
191	0xbeb6f0ea	-0.35730678
192	0xb9d460ea	-0.00040507998
193	0xbdb6f840	-0.08934069
194	0xbbca88e4	-0.0061808694
195	0x3dd4f521	0.10398317
196	0xbd2b3d4c	-0.041806504
197	0x3d60db25	0.054896493
198	0xbdc74705	-0.09730343
199	0xbd31ee9f	-0.043440457
200	0x3d09fa5a	0.03368602
201	0x3e41850d	0.18898411
202	0x3cfb5b4d	0.030683184
203	0xbe3cc793	-0.18435507
204	0x3e15fa12	0.14646176
205	0xbe00c531	-0.12575223
206	0x3e1c9102	0.15289691
207	0x3d2cf754	0.042228058
208	0xbe1f5990	-0.15561509
209	0x3d7f105c	0.06227146
210	0x3da0f103	0.07858469
211	0xbe2371dd	-0.15961404
212	0xbd977bef	-0.07396685
213	0xbe01ae9f	-0.12664269
214	0x3e21d212	0.15802792
215	0xbcb97139	-0.022636997
216	0x3e01349a	0.12617722
217	0x3dc7f881	0.09764195
218	0xbdced9ff	-0.10100173
219	0x3d4b4e88	0.04963544
220	0x3e4148a9	0.18875374
221	0xbe07895a	-0.13235989
222	0xbd572e14	-0.052534178
223	0x3e4374f9	0.1908759
224	0x3e4af936	0.19821629
225	0x3e0e3f3e	0.13891312
226	0xbcc2a75a	-0.02376144
227	0xbc5af1ae	-0.013363285
228	0xbdc65663	-0.09684446
229	0xbe200dcf	-0.15630268
230	0x3e0d6d54	0.13811237
231	0xbd44372b	-0.047904175
232	0xbe5c3a2e	-0.21506569
233	0xbe4bfd45	-0.19920833
234	0xbdd4aa2f	-0.103840224
235	0xbd9d01c0	-0.076663494
236	0x3e0fa64a	0.14028278
237	0xbdb65c43	-0.08904316
238	0x3d91f147	0.07126098
239	0x3dfb56d0	0.122724175
240	0x3ddf1ae6	0.10893802
241	0xbdf80835	-0.1211094
242	0xbd387f70	-0.04504341
243	0xbd8e9a33	-0.06963005
244	0x3d8dab5b	0.06917449
245	0x3e21f586	0.15816316
246	0xbcc6635e	-0.024217304
247	0x3d4118f0	0.047142923
248	0x3db13fd5	0.08654753
249	0x3d7955ad	0.060872722
250	0xbe1cde1c	-0.15319103
251	0x3e90e81d	0.28302088
252	0xbe8959d1	-0.26826337
253	0x3e4e8543	0.20168023
254	0xbe558fe7	-0.20855676
255	0x3e511f7a	0.20422164

4.0.bias f4 [64]
0	0xbe333459	-0.17500438
1	0xbca349ac	-0.01993259
2	0xbcb1edb8	-0.021719798
3	0xbe14059d	-0.14455266
4	0x3e58cbf5	0.21171553
5	0x3d3a680e	0.04550939
6	0x3daa1ee0	0.0830667
7	0xbcc46161	-0.023972215
8	0x3d263e65	0.040586848
9	0xbe093682	-0.133997
10	0xbe3868b3	-0.1800869
11	0xb8ea2483	-0.0001116479
12	0x3e0bca0d	0.13651295
13	0x3c88ab91	0.016683372
14	0xbc73a204	-0.0148701705
15	0x3d8db117	0.06918543
16	0x3e211426	0.15730342
17	0x3e0755be	0.13216302
18	0xbe1dde80	-0.15416908
19	0x3e31eaf5	0.17374785
20	0x3da5deb0	0.08099115
21	0xbdf0a3e4	-0.1175001
22	0x3e0a4fac	0.13506955
23	0xbe5e8e97	-0.21734081
24	0x3d4dee56	0.050276123
25	0xbdba1c3a	-0.09087415
26	0x3d8ef04b	0.06979426
27	0xbe17f1cb	-0.1483833
28	0xbe2df2e3	-0.16987185
29	0x3ae2f8d0	0.0017316584
30	0x3c945003	0.018104559
31	0xbdaa41c8	-0.08313328
32	0x3cdc2b45	0.026876101
33	0xbd9e45e8	-0.07728177
34	0x3cff8fba	0.031196464
35	0x3d48a9b7	0.048989978
36	0xbd31b3d0	-0.043384373
37	0xbe422113	-0.1895793
38	0xbe0193b4	-0.12654
39	0x3d964e0f	0.07339107
40	0xbe1dbc73	-0.15403919
41	0x3e2a3b6e	0.16624233
42	0x3dc1d18f	0.09463798
43	0x3e2248a3	0.15848021
44	0xbc9e681d	-0.019336754
45	0xbcd74c4a	-0.026281495
46	0x3e18dfa6	0.14929065
47	0x3e2d768a	0.1693975
48	0x3deb559c	0.11490938
49	0x3d80c6b4	0.062878996
50	0x3bda9c32	0.006671452
51	0x3de9ec2b	0.114219986
52	0xbd8d0726	-0.06886129
53	0x3ca80f77	0.020515187
54	0x3de7fe01	0.11327744
55	0xbcf0a474	-0.029375292
56	0xbbb7cf5c	-0.005609436
57	0x3db3f873	0.08787622
58	0x3e3d3fdc	0.18481392
59	0x3c6c3b15	0.014418383
60	0xbde5a101	-0.1121235
61	0xbd37e579	-0.044896577
62	0xbdf372c4	-0.11887124
63	0x3e396b4e	0.1810734

4.2.weight f4 [48, 64]
0	0xbd56a112	-0.052399702
1	0x3de63945	0.11241392
2	0x3ddd613f	0.10809564
3	0x3e03c940	0.1286974
4	0xbca21b86	-0.019788515
5	0xbce4632c	-0.02787932
6	0xbdcee70b	-0.10102662
7	0xbc8c9ccf	-0.017164616
8	0xbdb82c9f	-0.08992886
9	0x3d174ec0	0.036940336
10	0x3d1f9c8d	0.038967658
11	0x3d484094	0.04888971
12	0xbc9d1269	-0.019173818
13	0x3da02ad0	0.07820666
14	0xbcc5ab02	-0.024129394
15	0xbd65b967	-0.056085017
16	0x3cca26e9	0.024676757
17	0x3dd4a579	0.10383124
18	0xbc0a5521	-0.008443148
19	0xbd266f1c	-0.040633306
20	0x3d9c240d	0.07624064
21	0xbd034776	-0.032050572
22	0xbdd10e51	-0.10207809
23	0xbe1186f5	-0.14211638
24	0xbdb5032c	-0.088384956
25	0xbcfa78ec	-0.030575238
26	0xbdf0577b	-0.117354356
27	0xbdf8c29a	-0.12146492
28	0x3e0ba790	0.13638139
29	0x3dda8b7a	0.10671134
30	0xbdb49113	-0.08816733
31	0x3df55bab	0.11980375
32	0x3d9235c9	0.07139165
33	0x3d56c19c	0.052430734
34	0xbc970e65	-0.018439481
35	0x3d8db489	0.069192
36	0x3d87b321	0.06625963
37	0x3dc801e5	0.09765986
38	0x3cff211c	0.031143717
39	0xbdf23b32	-0.11827697
40	0xbd004aec	-0.03132145
41	0xbdef7e32	-0.11693992
42	0xbd758b55	-0.05994733
43	0xbdfe932f	-0.12430417
44	0x3dfc6cf2	0.12325467
45	0xbdd7ab1b	-0.10530683
46	0xbb471a24	-0.0030380571
47	0xbcbf18e9	-0.023327308
48	0xbe0cbfeb	-0.13745086
49	0xbc6266cb	-0.013818453
50	0x3d7bd112	0.06147868
51	0xbb9564c0	-0.0045591295
52	0x3df5dca8	0.120049775
53	0xbdbc9b83	-0.09209349
54	0xbd3b1b4e	-0.045680337
55	0x3d1cfd44	0.03832747
56	0x3df24a36	0.11830561
57	0xbd4b9a99	-0.049707983
58	0xbc345458	-0.011006437
59	0xbdb6b6ff	-0.089216225
60	0x3d717e2f	0.05895823
61	0xbcd16ba7	-0.025564028
62	0x3d73a72c	0.0594856
63	0xbda3d4ce	-0.07999574
64	0x3c2194eb	0.009862165
65	0xbba15278	-0.004923161
66	0xbd4bfd65	-0.049802203
67	0x3c03c38f	0.00804223
68	0x3df68943	0.12037899
69	0x3d0aae67	0.03385773
70	0x3d94bb69	0.07262308
71	0x3c959c6e	0.018263068
72	0xbcb4a05e	-0.022049125
73	0xbde7d082	-0.113190666
74	0xbddc6ea0	-0.107632875
75	0xbdd49249	-0.10379464
76	0xbcf5187d	-0.029918903
77	0x3d967f66	0.07348518
78	0x3d0a0504	0.03369619
79	0x3c55e74f	0.013055637
80	0x3d762ed4	0.060103253
81	0xbc250c1a	-0.010073686
82	0x3d0e1587	0.0346885
83	0xbdbe2196	-0.0928375
84	0xbd81a5b2	-0.06330432
85	0xbd075bdf	-0.0330466
86	0x3c5970fa	0.013271565
87	0x3d9c673f	0.0763688
88	0x3d4fc0d1	0.050720993
89	0x3d2af63f	0.041738745
90	0x3d3f97d7	0.046775665
91	0x3dd15f54	0.102232605
92	0xbdf569b5	-0.11983053
93	0xbdf52917	-0.11970728
94	0x3e057d52	0.13036087
95	0xbd5053b8	-0.05086109
96	0xbdda1a4d	-0.10649548
97	0xbd99a5da	-0.07502337
98	0x3db104a8	0.08643466
99	0xbd8db2d2	-0.06918873
100	0xbcca3081	-0.024681332
101	0x3b452632	0.003008258
102	0x3d02ae12	0.031904288
103	0x3d3a13c1	0.045428995
104	0xbdb526a0	-0.08845258
105	0xbbedb65d	-0.0072544054
106	0x3cb9eb65	0.022695253
107	0xbd1ce632	-0.03830547
108	0x3d437d80	0.047727108
109	0x3d73ff7c	0.05956982
110	0x3d2fa488	0.04288152
111	0x3b4e3b15	0.003146832
112	0xbcb09e7a	-0.021559943
113	0x3d91a0ff	0.07110786
114	0xbde5dbfb	-0.112235986
115	0xbb8fb6cc	-0.0043858048
116	0x3d895b2b	0.06706842
117	0xbdcc98f6	-0.099901125
118	0xbd39ba28	-0.045343548
119	0x3d6fdbf3	0.05855937
120	0xbc83d906	-0.016094696
121	0x3dc8b42f	0.09799992
122	0xbe039f4b	-0.12853734
123	0x3b3a1032	0.0028391
124	0xbd528e23	-0.051405083
125	0x3ac40b50	0.0014956985
126	0x3d631b30	0.05544585
127	0xbcefbba0	-0.029264271
128	0xbcf6a372	-0.030107234
129	0x3dab1e3b	0.083553754
130	0x3d9286a5	0.07154588
131	0x3d02468b	0.031805556
132	0xbd90e97c	-0.070757836
133	0xbdccd635	-0.10001794
134	0x3de09274	0.10965434
135	0xbdcaa42a	-0.09894593
136	0xbd0e70a5	-0.034775395
137	0xbb6f9c9f	-0.003656186
138	0xbcfe8f76	-0.031074267
139	0x3d964f3f	0.07339334
140	0xbd86577d	-0.06559656
141	0xbd90f239	-0.0707745
142	0xbbd1ae5f	-0.0063989605
143	0x3cbc861f	0.023013173
144	0xbd0f245c	-0.034946784
145	0xbce692e2	-0.028146211
146	0xbd3d0a2d	-0.046152283
147	0x3cbd5115	0.023109952
148	0x3c262de4	0.010142777
149	0xbd7cf4bd	-0.061756838
150	0xbd3ff1f8	-0.04686162
151	0xbdb12a94	-0.08650699
152	0xbdaad554	-0.0834147
153	0xbcad2a1d	-0.021138245
154	0x3dbb6506	0.09150128
155	0x3cf80a7b	0.030278435
156	0xbdc84c83	-0.097802185
157	0x3db9c0ec	0.0907
158	0xbd23881f	-0.039924737
159	0x3ddface6	0.1092165
160	0x3d838702	0.06422235
161	0x3d76a31e	0.060214154
162	0xbd90608d	-0.070496656
163	0x3c89f16a	0.016838748
164	0xbdc2f8a6	-0.09520082
165	0xbd614818	-0.055000395
166	0x3dbc94d5	0.09208075
167	0x3d04036c	0.032229826
168	0x3c0d0134	0.008606244
169	0x3da82417	0.082100086
170	0x3c711f34	0.014716912
171	0x3b7d8953	0.0038686588
172	0xbcca9855	-0.02473084
173	0xbdcc0a5f	-0.09962916
174	0xbda88e4c	-0.08230266
175	0xbcef0f70	-0.029182166
176	0x3ca6a8ee	0.020344224
177	0xbc5df1ad	-0.0135463895
178	0x3d03f104	0.032212272
179	0x3e027638	0.1274041
180	0x3d980ef3	0.07424726
181	0xbdc37f0f	-0.09545719
182	0x3ddd316e	0.108004436
183	0x3d5e7e4f	0.054319676
184	0xbca19f36	-0.019729238
185	0x3dbd88fa	0.09254642
186	0x3d8844a9	0.06653721
187	0xbd0d0774	-0.034430936
188	0x3dbaf444	0.09128621
189	0xbd3e3595	-0.04643782
190	0x3d05015d	0.032472003
191	0x3d080803	0.033210766
192	0xbe08e18f	-0.13367294
193	0x3dde29b8	0.10847801
194	0x3dc715f2	0.097209826
195	0xbc8ee65d	-0.01744383
196	0x3928c89f	0.00016096466
197	0xbdf1594a	-0.11784609
198	0xbd55598e	-0.05208736
199	0xbe15e3dc	-0.14637703
200	0x3ce50e57	0.02796094
201	0xbd5f6a5f	-0.054544803
202	0x3e22f870	0.15915084
203	0x3d9f32e9	0.07773382
204	0x3d005812	0.03133399
205	0x3e011e2e	0.12609169
206	0x3bcb74ab	0.0062089763
207	0xbdbeb9bf	-0.09312772
208	0xbde8a62f	-0.11359822
209	0x3bfad2f0	0.0076545402
210	0xbd0a1744	-0.033713594
211	0x3c9bb8ea	0.019009072
212	0xbd587928	-0.05284992
213	0x3b807796	0.0039205058
214	0x3be185d9	0.006882411
215	0xbce0af93	-0.02742747
216	0x3a755065	0.0009357988
217	0xbc6e70fa	-0.014553303
218	0x3d896f68	0.06710702
219	0x3da18dc1	0.078883655
220	0x3c9a2f08	0.018821254
221	0xbd806b99	-0.062705226
222	0xbdf3a79b	-0.118972026
223	0x3dd0b3e8	0.101905644
224	0x3cc0aced	0.023519957
225	0x3d07604d	0.033050824
226	0x3d55901a	0.05213938
227	0x3d8231d7	0.063571624
228	0x3da8d025	0.082428254
229	0x3c84bbdd	0.016202861
230	0xbd9caae2	-0.07649781
231	0x3dc9ba5a	0.09849997
232	0x3dbea965	0.09309653
233	0x3ca38d6f	0.019964902
234	0x3d4c166c	0.04982607
235	0x3d689a65	0.056787867
236	0x3d0650da	0.03279195
237	0xbce9a217	-0.028519673
238	0x3c85e6ec	0.016345464
239	0xbcc35a3a	-0.023846734
240	0x3d80a927	0.06282263
241	0xbaeb9758	-0.0017974181
242	0x3d6f9a55	0.058496792
243	0x3dd9668a	0.10615261
244	0x3cd33ff8	0.025787339
245	0xbc8296b4	-0.015941001
246	0xbdddb4dc	-0.10825512
247	0x3dab4452	0.083626404
248	0xbb34c1c5	-0.0027581316
249	0xbde38291	-0.11108888
250	0x3d5ac348	0.05340889
251	0xbb8e69a0	-0.0043460876
252	0xbd483632	-0.04887981
253	0x3db83aae	0.08995567
254	0x3d93a3b2	0.07208957
255	0xbdc95340	-0.09830332

4.2.bias f4 [48]
0	0xbd1a5b4d	-0.037684727
1	0xbcdc1e1f	-0.026869832
2	0xbda6fb4b	-0.08153399
3	0xbdbc343e	-0.09189652
4	0xbd55215e	-0.052033775
5	0xbe18ef8b	-0.14935128
6	0xbd1a7186	-0.03770592
7	0xbdcf0f9d	-0.101104
8	0x3c9d9052	0.019233856
9	0xbd20a996	-0.03922423
10	0xbc807ddc	-0.015685014
11	0xbcdf2680	-0.027240038
12	0xbd2e537b	-0.042560082
13	0xbd57468a	-0.052557506
14	0x3d43501d	0.047683824
15	0x3d8e250f	0.06940662
16	0xbcbd1780	-0.023082495
17	0x3ca1b538	0.019739732
18	0x3d29b5aa	0.041433014
19	0x3d184c08	0.037181884
20	0x3c02b632	0.007978009
21	0x3da99d0b	0.08281907
22	0x3e0d802e	0.13818428
23	0xbdf456b3	-0.11930599
24	0x3d954ae8	0.07289678
25	0xbd87f4bd	-0.06638477
26	0x3dd6e8fd	0.10493658
27	0x3b22996e	0.002481069
28	0xbbf61e2c	-0.007510921
29	0xbd37e37c	-0.04489468
30	0xbda17de2	-0.07885338
31	0x3d7945a9	0.06085745
32	0xbdea5afa	-0.11443134
33	0x3dd5795a	0.104235366
34	0x3db5e3b4	0.088813215
35	0xbe21364d	-0.1574337
36	0x3dd16132	0.10223617
37	0x3dc1d281	0.094639786
38	0x3bb2e1e7	0.0054590586
39	0xbdf54b2b	-0.11977228
40	0x3d7b535b	0.06135879
41	0x3ce8491c	0.028355174
42	0x3c0bbbd5	0.008528669
43	0x3d276eaa	0.04087702
44	0x3d0f37b1	0.03496522
45	0xbc27d7d9	-0.010244333
46	0x3d2214a2	0.03957046
47	0x3de9b7b0	0.11411989

4.4.weight f4 [48, 48]
0	0x3dd19399	0.1023323
1	0xbdfca439	-0.123360105
2	0xbe1179aa	-0.14206567
3	0xbe0be8b3	-0.13662986
4	0xbdf1959c	-0.11796114
5	0xbdb93608	-0.09043509
6	0xbd4b96ce	-0.049704365
7	0x3dc8c265	0.09802703
8	0xbcfe2196	-0.031021874
9	0xbcca64ac	-0.024706207
10	0x3d6b1b06	0.05739882
11	0x3d703ecf	0.05865365
12	0xbd9114ea	-0.07084067
13	0xbe003b58	-0.12522638
14	0x3d4ec96a	0.050485052
15	0xbde7840b	-0.11304482
16	0xbdbc9807	-0.092086844
17	0x3d94b0ba	0.072602704
18	0xbde96f3a	-0.11398168
19	0x3e450994	0.19241935
20	0x3d855e5a	0.06512137
21	0x3def51ec	0.11685547
22	0x3da20c7f	0.0791254
23	0x3dfa17b9	0.12211556
24	0xbd05e480	-0.032688618
25	0xbc74c743	-0.014940086
26	0xbd4d4d29	-0.050122414
27	0x3d7915f5	0.060811955
28	0xbe36b81f	-0.17843674
29	0x3de3e99d	0.111285426
30	0x3dbcf11b	0.09225675
31	0xbe117f39	-0.14208688
32	0xbc20157e	-0.009770749
33	0xbd6aac34	-0.057293132
34	0x3ddc504c	0.10757503
35	0xbd79765a	-0.060903884
36	0xbc597872	-0.013273345
37	0x3dd1aaef	0.10237681
38	0x3ddd15b8	0.10795158
39	0xbd180ff9	-0.037124608
40	0xbdcff3fa	-0.10153957
41	0x3e0f4f1c	0.13995022
42	0xbdaf275f	-0.08552431
43	0xbd080be3	-0.03321446
44	0x3d8dc45e	0.0692222
45	0xbdc64438	-0.096809804
46	0xbdd85655	-0.105633415
47	0xbdafc070	-0.085816264
48	0x3c5c64e6	0.01345179
49	0xbdcbeab8	-0.099568784
50	0x3df79cfe	0.12090491
51	0xbdfd2432	-0.12360419
52	0x3d05f129	0.03270069
53	0x3daa98b7	0.08329909
54	0x3d0d8a12	0.034555502
55	0x3aee4815	0.0018179441
56	0xbd990990	-0.07472527
57	0x3db901b1	0.09033526
58	0xbe078d22	-0.13237432
59	0xbde70c24	-0.112816125
60	0xbd4dfb67	-0.050288584
61	0xbe03f87e	-0.12887761
62	0xbe1a4e6a	-0.15068975
63	0xbda93592	-0.08262171
64	0xbd9b1086	-0.07571511
65	0xbd0e5d4e	-0.03475695
66	0xbd03e108	-0.03219703
67	0xbe21bb40	-0.15794086
68	0x3d570bef	0.052501615
69	0xbad84025	-0.0016498609
70	0xbe0cea54	-0.13761264
71	0x3d0cca57	0.034372654
72	0x3c33099e	0.010927586
73	0x3dc12a23	0.09431865
74	0xbe006275	-0.12537558
75	0xbd2eb0bf	-0.042649027
76	0xbc1bb95e	-0.009504644
77	0xbd9c27aa	-0.07624753
78	0xbdb2c136	-0.08728258
79	0xbe163541	-0.14668752
80	0x3e0161f2	0.1263502
81	0xbe0ffa01	-0.14060213
82	0xbe1782e8	-0.1479603
83	0x3dd3db6f	0.10344588
84	0x3e0e61bb	0.13904469
85	0xbe224d2a	-0.15849748
86	0x3d9bf150	0.07614386
87	0x3bf6b737	0.007529165
88	0xbd95697e	-0.07295512
89	0x3cff9e2c	0.031203352
90	0xbc4bc8b7	-0.012437991
91	0x3d90599c	0.07048342
92	0xbdc1687b	-0.09443756
93	0x3db608b6	0.0888838
94	0x3db6250c	0.08893785
95	0x3d88f90b	0.06688126
96	0xbd93001a	-0.07177754
97	0xbda4ce81	-0.080472
98	0x3d51a0e6	0.051178835
99	0x3e161ca8	0.14659369
100	0xbdf049d7	-0.11732834
101	0x3c8ac6a1	0.016940417
102	0xbe2ac800	-0.16677856
103	0xbd88444f	-0.06653654
104	0xbdf154e8	-0.11783773
105	0x3e17626c	0.14783639
106	0xbdc73244	-0.09726384
107	0x3d9d4b3b	0.07680365
108	0x3d597e0f	0.053098734
109	0xbc730f3c	-0.014835175
110	0x3db6ce6b	0.0892609
111	0x3c8ab305	0.016931066
112	0x3de38cd7	0.111108474
113	0x3dc6789b	0.096909724
114	0x3e0111e2	0.12604478
115	0xbdd1ff10	-0.102537274
116	0xbce554da	-0.027994562
117	0xbe048fed	-0.12945528
118	0xbd5b4fc4	-0.053542867
119	0xbd31a327	-0.043368485
120	0x3ce6e823	0.028186863
121	0xbda7d5de	-0.08195089
122	0xbdda14a2	-0.10648467
123	0xbd85c1ad	-0.06531081
124	0x3dc8d951	0.09807075
125	0x3e0a396a	0.13498464
126	0x3b4cb3c0	0.003123507
127	0xbdfc9fce	-0.12335168
128	0x3e1bfc07	0.1523286
129	0xbe038f5d	-0.12847658
130	0xbc542725	-0.012948786
131	0xbd046159	-0.0323194
132	0xbcf478ec	-0.029842816
133	0xbd80fd1e	-0.06298278
134	0xbdc59f6b	-0.09649547
135	0xbe172b1c	-0.14762539
136	0x3d85da24	0.06535748
137	0x3dfcb54d	0.12339268
138	0x3d9ef72f	0.0776199
139	0x3d9372af	0.071996085
140	0x3d031189	0.031999145
141	0xbc34473b	-0.011003311
142	0xbd3b3eab	-0.04571406
143	0x3d975520	0.07389283
144	0x3d8628ea	0.065507725
145	0x3d9a5a30	0.07536733
146	0xbd0b34f8	-0.03398606
147	0x3d94456c	0.07239804
148	0xbc46a69f	-0.0121246865
149	0x3d8a5a02	0.06755449
150	0x3da34a3f	0.07973146
151	0x3e2ee0b2	0.17077902
152	0x3cc174ca	0.02361526
153	0xbc6b6890	-0.014368191
154	0x3cf539a4	0.029934712
155	0xbd860193	-0.06543269
156	0xbd692295	-0.056917746
157	0xbd68bc43	-0.056820165
158	0xbd9a5d22	-0.07537295
159	0x3d44c497	0.048039045
160	0x3c532d97	0.012889287
161	0xbdb0c380	-0.08631039
162	0xbd822f7d	-0.06356714
163	0x3e23292a	0.15933672
164	0x3d6ab711	0.057303492
165	0x3d27b1a9	0.040940914
166	0x3e24eda9	0.16106285
167	0x3df93f08	0.121702254
168	0xbc612190	-0.013740912
169	0x3d8841e0	0.0665319
170	0x3dfa8820	0.12232995
171	0xbcbea10b	-0.02327015
172	0xbdf465bb	-0.11933466
173	0xbd8e1428	-0.06937438
174	0x3e22d6aa	0.159022
175	0xbdfc4388	-0.12317568
176	0x3d212ed5	0.039351303
177	0x3d22bd86	0.039731525
178	0xbd14a702	-0.036292084
179	0x3d207a36	0.03917905
180	0x3e02a8b1	0.12759663
181	0x3dfdf429	0.124000855
182	0xbda030a5	-0.07821778
183	0xbd6b3739	-0.05742571
184	0x3d63750b	0.055531543
185	0x3dd3e822	0.1034701
186	0xbdd5ae57	-0.10433643
187	0xbd03b1b9	-0.03215191
188	0xbd593b5b	-0.05303512
189	0x3dacfba3	0.084464334
190	0xbd74f876	-0.059807263
191	0x3d9a0f2d	0.07522426
192	0x3d529861	0.05141485
193	0x3dd74e3a	0.105129674
194	0x3c93c0c4	0.018036254
195	0xbcb2c887	-0.021824135
196	0xbd09237e	-0.033481114
197	0xbd29f8a4	-0.041496888
198	0x3db56018	0.08856219
199	0x3d7d5583	0.06184913
200	0xbdb12408	-0.086494505
201	0x3c99d3b0	0.018777698
202	0x3ded13c1	0.115760334
203	0xbda0f066	-0.07858352
204	0xbe1715ec	-0.14754456
205	0xbd01268e	-0.03153091
206	0x3e137ee2	0.1440387
207	0x3d4e01ed	0.050294805
208	0x3d0a5879	0.03377578
209	0x3e0082cb	0.12549894
210	0x3c5dc977	0.0135368025
211	0x3dfc4308	0.12317473
212	0xbdcb1a21	-0.09917093
213	0x3da99054	0.082794815
214	0x3e2c3813	0.16818266
215	0x3d95d46b	0.07315906
216	0x3db5ecd2	0.088830605
217	0xbce6fc1d	-0.028196389
218	0xbd20b88e	-0.039238505
219	0x3c626126	0.013817107
220	0xbdf482eb	-0.11939033
221	0x3d8f83f1	0.07007588
222	0x3dd4ecdd	0.103967406
223	0x3ce3b897	0.02779798
224	0xbe019a4d	-0.12656517
225	0x3e2a3285	0.16620834
226	0xbd63e99c	-0.05564271
227	0xbd5d4485	-0.054020423
228	0xbbe09051	-0.0068531414
229	0x3dd262ee	0.102727756
230	0xbd958230	-0.07300222
231	0xbe0e3e97	-0.13891064
232	0x3d82feea	0.06396277
233	0xbcd4edf9	-0.02599238
234	0xbc42e45e	-0.011895267
235	0x3df9e6d2	0.122022286
236	0xbd96c4b4	-0.07361737
237	0x3d791c44	0.06081797
238	0x3dabd8bb	0.083909474
239	0x3e0e0e2f	0.13872598
240	0x3dcd8ec6	0.100369975
241	0x3d15567b	0.036459427
242	0xbde12627	-0.10993605
243	0xbd13fe10	-0.036130965
244	0xbc102cce	-0.008799745
245	0xbd37fde1	-0.044919852
246	0xbb128a64	-0.002236032
247	0xbc18cfbe	-0.009326873
248	0x3daeb8e8	0.08531362
249	0xbce72237	-0.028214557
250	0xbdc1b6eb	-0.09458717
251	0xbddd3053	-0.10800233
252	0x3e0034da	0.12520161
253	0x3de060c5	0.10955957
254	0xbd1cfed9	-0.03832898
255	0x3e184374	0.14869481

4.4.bias f4 [48]
0	0xbd2bf262	-0.0419792
1	0xbe32f002	-0.17474368
2	0x3d09a881	0.033607963
3	0x3dc9648b	0.0983363
4	0x3d64e1b5	0.055879313
5	0x3ca8b5c5	0.020594487
6	0x3e195730	0.14974666
7	0xbd81b5a6	-0.06333475
8	0x3c3321c2	0.010933341
9	0xbd3db5ec	-0.046316072
10	0xbd58fd42	-0.0529759
11	0xbd85d803	-0.065353416
12	0x3e1bf2f0	0.15229392
13	0x3d344c8a	0.044018306
14	0xbc911167	-0.017708493
15	0xbdd4cfaf	-0.10391175
16	0xbc1970c1	-0.0093652615
17	0x3de24370	0.11048019
18	0x3e387444	0.18013102
19	0x3e07920a	0.13239303
20	0xbdc953dd	-0.09830449
21	0x3d8c4b1a	0.06850262
22	0x3dfa46c6	0.1222053
23	0xbd1d7a43	-0.038446676
24	0xbd604124	-0.054749623
25	0xbda539d6	-0.08067672
26	0x3ddf4d07	0.10903364
27	0x3da42c7c	0.08016297
28	0xbd8c2838	-0.068436086
29	0x3dd5ceb4	0.10439816
30	0xbd19863f	-0.037481543
31	0xbd7d3cc1	-0.061825518
32	0x3cd3505d	0.025795156
33	0xbd3fe456	-0.046848617
34	0xbd301869	-0.04299203
35	0xbe10817e	-0.14111897
36	0x3c82473e	0.015903112
37	0x3d8aa5b9	0.0676989
38	0xbd26346c	-0.040577337
39	0xbd5ac080	-0.05340624
40	0x3dea98ba	0.114549115
41	0x3d0de95e	0.034646384
42	0xbe3e4979	-0.18582715
43	0xbdf00700	-0.11720085
44	0xbda4d24d	-0.08047924
45	0x3d514dab	0.05109946
46	0xbdb7a84a	-0.089676455
47	0xbd220b9b	-0.03956185

4.6.weight f4 [36, 48]
0	0x3b6a04c6	0.0035708412
1	0xbc1d60b2	-0.0096055735
2	0xbc268818	-0.010164283
3	0xbc2190aa	-0.009861151
4	0x3d4ec294	0.050478533
5	0xbd28d327	-0.041216996
6	0xbdae616b	-0.08514675
7	0xbded6793	-0.11592021
8	0x3c00bd3b	0.007857616
9	0xbb93fefa	-0.0045164796
10	0xbde57381	-0.11203671
11	0x3dd5f37c	0.104468316
12	0xbd93f871	-0.07225121
13	0xbc8788d9	-0.016544746
14	0xbd933951	-0.071886666
15	0x3cbd9c42	0.023145799
16	0xbd05d3dd	-0.03267275
17	0x3d8d3b39	0.068960615
18	0xbcbb9b8f	-0.022901325
19	0xbdf5bf9a	-0.11999436
20	0xbddc5e47	-0.107601695
21	0x3c8c9695	0.017161647
22	0x3d5aec62	0.05344809
23	0xbd85c800	-0.065322876
24	0x3df9a1b4	0.121890455
25	0x3d27e27c	0.040987477
26	0x3cc7c63f	0.024386523
27	0x3dbafc00	0.091300964
28	0xbdc4c39d	-0.09607623
29	0x3bcdc023	0.006279008
30	0xbd9b618a	-0.075869635
31	0xbd080db4	-0.033216193
32	0xbd9810bb	-0.07425066
33	0x3dd98d18	0.106226146
34	0x3ce4bdf0	0.0279226
35	0x3d8bc3e8	0.068244755
36	0xbdef1ba6	-0.116751954
37	0xbd8cf34f	-0.06882345
38	0x3e056890	0.13028169
39	0x3d5f3960	0.054498076
40	0xbe2bffc0	-0.1679678
41	0x3e04c62d	0.12966223
42	0xbcf6f42e	-0.03014573
43	0x3e21ce82	0.15801433
44	0x3d91c4dd	0.07117627
45	0x3da84b3b	0.08217474
46	0x3950e6fb	0.00019922473
47	0xbe074d4d	-0.13213082
48	0x3da773d6	0.08176391
49	0x3d005d5c	0.031339034
50	0x3dd9bd55	0.10631815
51	0x3ddbe147	0.107363276
52	0xbd376c68	-0.04478112
53	0x3db9eed4	0.09078756
54	0x3e056b9d	0.13029332
55	0xbb769d97	-0.0037630552
56	0x3bf08b65	0.007340836
57	0xbe152593	-0.14565115
58	0xbdff153e	-0.124552235
59	0x3baf8c4c	0.005357301
60	0x3cd66e73	0.026175713
61	0xbc238da9	-0.009982505
62	0x3d1f3d30	0.038876712
63	0xbdf0b49c	-0.117531985
64	0xbda889f8	-0.082294405
65	0xbcaeae93	-0.021323478
66	0x3c45cbbe	0.012072502
67	0xbda946dd	-0.08265469
68	0x3deba0f0	0.11505306
69	0x3d871635	0.065960325
70	0x3d7bb083	0.06144763
71	0xbdc6823a	-0.096928075
72	0x3b252aad	0.0025202439
73	0xbdd28f5e	-0.10281251
74	0xbdbb967b	-0.09159561
75	0xbda22bf4	-0.0791854
76	0x3db38e16	0.08767335
77	0x3e20460b	0.1565172
78	0x3cb5df07	0.022201074
79	0xbe188309	-0.14893736
80	0xbcda53ab	-0.026651224
81	0x3d47b839	0.048759673
82	0xbdf355cd	-0.118815996
83	0xbdf8f57b	-0.12156197
84	0xbe08f35e	-0.13374087
85	0x3910d630	0.00013812701
86	0xbd1aba81	-0.03777552
87	0xbd86f0a4	-0.06588867
88	0x3db7683e	0.089554295
89	0x3d5d230d	0.053988505
90	0xbdd98f57	-0.10623043
91	0xbd1eebf5	-0.038799245
92	0x3dda6020	0.10662866
93	0x3d011d2e	0.03152197
94	0xbdf15e18	-0.11785525
95	0xbd088392	-0.0333286
96	0x3e030ffb	0.12799065
97	0xbe1deeba	-0.15423098
98	0xbd74c856	-0.059761368
99	0x3d27676a	0.040870108
100	0x3d5409ee	0.051767282
101	0xbcf05b99	-0.029340552
102	0x3c39bdc9	0.011336752
103	0x3e10e965	0.14151533
104	0xbdfc3357	-0.1231448
105	0x3da3bb3b	0.07994696
106	0xbd537630	-0.051626384
107	0xbca77b4a	-0.020444531
108	0x3e0b91ed	0.13629885
109	0xbd211f59	-0.039336536
110	0xbdb3ce7f	-0.087796204
111	0x3c4cf803	0.0125103025
112	0x3c402890	0.011728421
113	0xbd404d42	-0.04694868
114	0xbc9d7a92	-0.019223485
115	0xbd7812c4	-0.06056477
116	0xbba952fb	-0.0051673627
117	0xbde13501	-0.10996438
118	0x3c9ea1cd	0.019364262
119	0xbdd4f2b8	-0.103978574
120	0x39ade8b5	0.00033170512
121	0xbb5d90ce	-0.0033808234
122	0x3d6961f5	0.056978185
123	0x3db0167a	0.08598037
124	0xbc2847e8	-0.01027105
125	0x3d5d9f33	0.054106902
126	0x3c9e9445	0.01935781
127	0xbdab7d0c	-0.0837346
128	0x3c412b5a	0.011790121
129	0xbde9613c	-0.11395499
130	0xbdd50d5f	-0.10402941
131	0x3deb44d7	0.114877395
132	0x3d4ee558	0.050511688
133	0x3db28dc5	0.08718447
134	0xbd6ce1ff	-0.057832714
135	0x3d9b081d	0.07569907
136	0x3d161328	0.036639363
137	0xbbe7f025	-0.007078188
138	0xbe358317	-0.17725788
139	0xbc8c998d	-0.017163062
140	0x3e0ad0c9	0.13556208
141	0x3daeeae8	0.085408986
142	0xbc8800bc	-0.016601913
143	0xbddacf03	-0.106840156
144	0xbd9926e7	-0.07478123
145	0xbc9bad6f	-0.019003598
146	0x3df46523	0.11933353
147	0xbd95cfe2	-0.07315041
148	0x3d5a57f7	0.053306546
149	0x3c9af7e9	0.01891704
150	0xbe141af1	-0.14463402
151	0xbe09c3f5	-0.13453658
152	0x3e1d5814	0.1536563
153	0x3c8bc502	0.017061714
154	0x3c3e9ffc	0.011634823
155	0xbe1e92c8	-0.1548568
156	0x3d8f1e8f	0.069882505
157	0x3da50339	0.08057255
158	0x3bf315e6	0.007418382
159	0x3de53720	0.11192155
160	0xbe130c84	-0.14360243
161	0x3d749726	0.05971446
162	0xbe13cd6e	-0.14433834
163	0xbc697580	-0.014249206
164	0x3c4e8193	0.012604135
165	0x3cfd3ce1	0.030912818
166	0x3daebf19	0.08532543
167	0xbd84e273	-0.06488504
168	0x3dbade04	0.09124377
169	0x3dc9a3fd	0.098457314
170	0xbdc5c9c4	-0.09657624
171	0x3c9cbac1	0.01913202
172	0xbe074586	-0.13210115
173	0xbdacc33e	-0.08435677
174	0x3dbef2a3	0.09323623
175	0xbdba7b7d	-0.09105585
176	0x3d1b113b	0.03785823
177	0xbddb081e	-0.106949076
178	0xbd1f4b6c	-0.038890287
179	0xbd11ceb5	-0.03559752
180	0x3e21fa77	0.15818201
181	0xbd759fd4	-0.059966877
182	0xbdd8b2ed	-0.105810024
183	0xbdca2101	-0.09869576
184	0x3c23a74e	0.009988619
185	0xbe00352c	-0.12520283
186	0xbdbb4e7a	-0.091458276
187	0xbde5ad64	-0.11214712
188	0x3bb905eb	0.0056464574
189	0xbe1576e0	-0.14596128
190	0x3ced8820	0.028995574
191	0x3dd29988	0.1028319
192	0x3baa5d62	0.0051991204
193	0xbdfb530b	-0.122716986
194	0xbe02c5e1	-0.12770797
195	0xbddff8ba	-0.10936113
196	0xbd4a783e	-0.049431078
197	0x3d5e2233	0.054231834
198	0xbcf90265	-0.03039665
199	0xbe0e4496	-0.13893351
200	0x3de5f9df	0.112293
201	0xbc12e564	-0.008965824
202	0x3d88f277	0.066868715
203	0xbd7af620	-0.06126988
204	0xbcc6c2fd	-0.0242629
205	0xbde24ba8	-0.110495865
206	0xbd9b5de6	-0.07586269
207	0xbdb9f1f0	-0.09079349
208	0xbdf188e9	-0.11793692
209	0xbd98e8a7	-0.0746625
210	0xbe0e67ed	-0.13906832
211	0x3e0019ff	0.12509917
212	0x3a3eed45	0.0007283281
213	0xbe093bac	-0.1340167
214	0x3d3ba41e	0.04581081
215	0xbd282019	-0.041046236
216	0x3c84a750	0.016193062
217	0x3dcc681e	0.09980796
218	0x3c5533b5	0.013012816
219	0xbdd20ed2	-0.10256733
220	0xbcb1eb86	-0.021718752
221	0x3d69d470	0.05708736
222	0xbcc840ce	-0.024444964
223	0x3e131e70	0.1436708
224	0x3cfb5d0f	0.030684022
225	0x3e03965b	0.12850325
226	0xbdd2486e	-0.10267721
227	0x3e02500d	0.1272585
228	0x3dfd3a2c	0.12364611
229	0x3cbf779e	0.023372468
230	0x3ded3cbf	0.11583852
231	0xbe0adbea	-0.13560453
232	0xbd832ed8	-0.06405419
233	0x3d3020f8	0.04300019
234	0x3d08c4c7	0.033390786
235	0x3d8b85cf	0.06812631
236	0x3b6541d5	0.0034981866
237	0xbdae95a5	-0.08524636
238	0x3e023edb	0.1271929
239	0x3dfa1e66	0.12212829
240	0x3dcf11f5	0.10110847
241	0xbd2339b2	-0.039849944
242	0xbdc6a696	-0.096997425
243	0xbdbb5d63	-0.091486715
244	0xbd1fab76	-0.038981877
245	0xbd9e6673	-0.077343844
246	0xbd53a087	-0.051666763
247	0xbdfb8892	-0.12281908
248	0x3dbba045	0.09161428
249	0x3c52ad66	0.012858724
250	0x3dc6cf0c	0.0970746
251	0x3c5b6df6	0.013392916
252	0xbdd87ba1	-0.10570455
253	0x3d6c2018	0.057647794
254	0x3daa58e5	0.083177365
255	0xbd569b1b	-0.052394014

4.6.bias f4 [36]
0	0x3caa0cf2	0.020758126
1	0xbd2dd973	-0.042443704
2	0xbc7ac47b	-0.015305634
3	0xbd08df69	-0.033416186
4	0x3d06e970	0.032937467
5	0xbd10177f	-0.035178658
6	0x3de55df6	0.11199562
7	0x3e178aff	0.14799117
8	0xbd858db8	-0.06521171
9	0xbdb6990e	-0.089159116
10	0x3ca7307c	0.020408861
11	0xbd426c14	-0.047466353
12	0xbe7165ef	-0.23574041
13	0xbe4dbd47	-0.20091735
14	0x3e515075	0.20440848
15	0xbd4efe5f	-0.050535556
16	0x3e012fb7	0.12615858
17	0x3dc6a49b	0.09699365
18	0x3d939754	0.07206598
19	0x3c117976	0.008879056
20	0xbd8af324	-0.06784657
21	0x3d918e0d	0.07107172
22	0x3da7de35	0.081966795
23	0x3d9197ad	0.07109008
24	0x3c916895	0.017750064
25	0x3d9240fe	0.071413025
26	0xbe325284	-0.1741429
27	0x3d721fe3	0.05911244
28	0x3cfac965	0.03061361
29	0x3c6de506	0.0145199355
30	0xbdd3875f	-0.10328554
31	0x3dbc2dcc	0.091884226
32	0x3dc6bb65	0.097037114
33	0x3d2b57c4	0.041831747
34	0x3db8cf6f	0.0902394
35	0x3e48eeb5	0.1962231

4.8.weight f4 [24, 36]
0	0xbdd83488	-0.105568945
1	0x3e37390d	0.17892857
2	0x3c56cf68	0.013110973
3	0xbdc0b88d	-0.094102
4	0xbdae71c5	-0.085177936
5	0xbe07cba7	-0.13261281
6	0xbcf30180	-0.029663801
7	0x3e058cb3	0.13041954
8	0x3c01f64f	0.00793226
9	0x3e033178	0.1281184
10	0x3e1f6a7d	0.15567966
11	0x3ca5d05e	0.020240959
12	0xbe333b05	-0.17502983
13	0xbd483f46	-0.048888467
14	0x3e49c6a1	0.19704677
15	0xbe838e81	-0.2569466
16	0x3d6962cb	0.056978982
17	0x3e0c252f	0.1368606
18	0x3e389f99	0.18029632
19	0x3d27c723	0.040961396
20	0x3de88074	0.113526255
21	0x3e83a7a1	0.25713828
22	0x3e0b1903	0.1358376
23	0x3ea168fa	0.31525403
24	0xbdf40786	-0.119154975
25	0xbe4d0db6	-0.20024762
26	0x3e06b752	0.13155869
27	0x38ec04b3	0.00011254232
28	0xbdb65c4b	-0.08904322
29	0x3d3434fe	0.04399585
30	0xbe0d55ce	-0.13802263
31	0x3dbe48bf	0.09291219
32	0x3c15e915	0.009149809
33	0x3d7ececb	0.062208932
34	0xbe0f66d8	-0.14004076
35	0x3e5b0a0a	0.21390548
36	0x3c924b9e	0.017858323
37	0x3c3109b2	0.010805534
38	0x3de47ce6	0.11156635
39	0x3e2c0bd0	0.16801381
40	0xbdb4bfbc	-0.08825633
41	0xbdd9eea4	-0.1064122
42	0xbd174122	-0.03692735
43	0x3d7f351e	0.062306516
44	0x3d8b7351	0.06809104
45	0x3e18b455	0.14912541
46	0xbe13d741	-0.14437582
47	0x3e0138cc	0.12619323
48	0xbdf317ad	-0.1186975
49	0x3d9173d4	0.071021706
50	0xbe342de9	-0.17595638
51	0x3d4d9e85	0.050200004
52	0xbdebb933	-0.11509933
53	0x3de4467d	0.11146257
54	0xba5deb80	-0.0008465573
55	0x3db98d3b	0.09060141
56	0xbc1d7084	-0.009609345
57	0x3b76361c	0.0037568873
58	0x3d3644c1	0.044499163
59	0x3df777c2	0.12083389
60	0xbdbe8e61	-0.093045
61	0xbdac3bab	-0.08409818
62	0xbde38f2c	-0.11111292
63	0xbd59027f	-0.052980896
64	0xbe033b2a	-0.12815538
65	0x3d7e9bfc	0.062160477
66	0xbe00eb2a	-0.12589708
67	0xbd9c05af	-0.076182716
68	0xbdc25916	-0.09489648
69	0xbe284bc7	-0.16435157
70	0x3dcada8f	0.09904968
71	0x3dc677ab	0.096907936
72	0x3d74fccd	0.059811402
73	0x3d3a59b9	0.045495722
74	0xbcea35c9	-0.0285901
75	0xbd31bfc1	-0.04339576
76	0x3de782cc	0.113042444
77	0xbd75e7b3	-0.06003542
78	0xbd95b3c2	-0.07309677
79	0xbdf13660	-0.11777949
80	0xbd7951a6	-0.06086888
81	0xbe19b5c0	-0.15010738
82	0x3dcb0254	0.099125534
83	0x3df37c75	0.11888973
84	0xbdb746f8	-0.08949083
85	0xbe0693b2	-0.13142279
86	0xbe1ee14d	-0.15515633
87	0xbd1f86b3	-0.03894682
88	0x3cf6fcb5	0.030149797
89	0xbdf92dc1	-0.1216693
90	0xbd61e220	-0.05514729
91	0xbe25c0d6	-0.16186842
92	0x3d2c1fb0	0.042022407
93	0x3d9067ba	0.07051034
94	0x3db4c283	0.08826163
95	0x3d7575fb	0.059926968
96	0x3cff3f4d	0.031158114
97	0xbafc4fe8	-0.0019249888
98	0xbcfc81ac	-0.030823551
99	0xbe1498f5	-0.14511473
100	0x3dd71f23	0.10503986
101	0xbd84eb7e	-0.06490229
102	0x3da286f6	0.07935898
103	0x3db98db5	0.090602316
104	0xbe2b7fc9	-0.16747965
105	0xbe08a685	-0.13344772
106	0xbddd299e	-0.107989535
107	0x3dcd1675	0.10014049
108	0xbd18ef65	-0.03733768
109	0xbcb4b6a9	-0.022059755
110	0xbdb4f533	-0.088358305
111	0x3e1e99f1	0.15488411
112	0x3dc0c07c	0.094117135
113	0xbe1c8752	-0.15285996
114	0xbdf9ab66	-0.12190895
115	0x3e107b36	0.14109501
116	0x3d1376a5	0.03600182
117	0xbc7863b6	-0.015160492
118	0xbe3667b7	-0.17813002
119	0xbdd49eea	-0.10381873
120	0xbddb50af	-0.107087485
121	0x3dca49b4	0.09877339
122	0x3d24e2c3	0.04025532
123	0x3e22bea2	0.15893033
124	0x3de328a8	0.11091739
125	0xbc258d33	-0.010104465
126	0xbb8f8168	-0.00437944
127	0xbc479a21	-0.012182743
128	0x3d834a79	0.06410689
129	0xbd7fa853	-0.062416386
130	0xbe2d8103	-0.16943745
131	0xbe253964	-0.16135174
132	0xbd6bf933	-0.0576107
133	0xbe257d08	-0.16160977
134	0x3e3ea3ae	0.18617126
135	0x3d2ed8ce	0.04268723
136	0x3e1ce1d0	0.15320516
137	0xbd4c03f7	-0.04980847
138	0x3c73ddff	0.014884471
139	0x3d6f540e	0.05842977
140	0xbe1aaa22	-0.15103963
141	0xbe013423	-0.12617545
142	0xbd11208a	-0.035431422
143	0xbe001fa1	-0.12512065
144	0xbd995e45	-0.074886836
145	0xbe11756d	-0.1420495
146	0xbc2312c7	-0.009953207
147	0xbdf6a0ed	-0.12042413
148	0xbd3b7e04	-0.045774475
149	0x3d10f5fb	0.035390835
150	0xbe4d95b1	-0.20076634
151	0xbdd56b29	-0.1042083
152	0x3d367bd2	0.044551678
153	0xbdbbaebd	-0.09164188
154	0xbe25d9b2	-0.16196325
155	0x3d2744c0	0.04083705
156	0xbdae93d0	-0.08524287
157	0x3d80efa1	0.062957056
158	0xbcf3bc37	-0.029752834
159	0x3d959341	0.07303477
160	0xbda51744	-0.08061078
161	0xbdf01adb	-0.11723872
162	0xbe163730	-0.1466949
163	0xbdbd81e5	-0.09253291
164	0x3e0bf5d5	0.13667996
165	0xbe24acc5	-0.16081531
166	0x3df4f4a4	0.11960724
167	0xbde71456	-0.11283176
168	0x3df446dc	0.11927578
169	0x3e444791	0.19167925
170	0x3c2917ec	0.010320645
171	0xbdbf01c7	-0.09326511
172	0xbcf28704	-0.029605396
173	0x3dfd8155	0.12378184
174	0x3d14e180	0.036347866
175	0xbdd476a3	-0.10374191
176	0x3c9ae55e	0.018908199
177	0xbddb8a30	-0.107197165
178	0xbd30dd1d	-0.04317962
179	0xbe0c68fa	-0.1371192
180	0xbd5eafc6	-0.05436685
181	0xbdf4b52d	-0.11948619
182	0x3e1d9a24	0.15390831
183	0xbdccd9ca	-0.100024775
184	0x3d5d1ec2	0.05398441
185	0xbdd4ae04	-0.10384753
186	0x3e24f98e	0.16110823
187	0xbd2ea05e	-0.042633407
188	0x3da9fde8	0.08300382
189	0xbd97af43	-0.074064754
190	0x3c332d9b	0.010936166
191	0x3d319f42	0.04336477
192	0xbe1e209b	-0.15442125
193	0x3bc28a6f	0.0059369127
194	0x3d6faa88	0.05851224
195	0xbd9b831e	-0.07593368
196	0xbc2d9f60	-0.01059708
197	0xbbf02a82	-0.007329286
198	0xbd792cd4	-0.060833767
199	0x3e31933c	0.17341322
200	0xbe258cdc	-0.16167015
201	0xbdd9b3cf	-0.10629999
202	0xbd964a5b	-0.07338401
203	0x3e446f23	0.1918302
204	0x3c4725c4	0.012155
205	0x3d1373f6	0.03599926
206	0xbdd124a0	-0.10212064
207	0xbd720515	-0.059086878
208	0x3da66fa5	0.08126763
209	0xbd9c3e5a	-0.0762908
210	0x3d8145ff	0.06312179
211	0x3c784606	0.015153414
212	0xbda32698	-0.079663455
213	0x3e22b281	0.15888406
214	0xbd8443b9	-0.064582296
215	0x3e2e9b37	0.17051397
216	0xbc16c536	-0.009202292
217	0xbe2a43ca	-0.16627422
218	0xbdbbbf33	-0.09167328
219	0xbcc59d09	-0.024122732
220	0x3da5918b	0.08084401
221	0xbe1f0af0	-0.15531516
222	0xbde20789	-0.110365935
223	0x3d7f577c	0.06233929
224	0x3db7303a	0.08944745
225	0x3dfdb58b	0.12388142
226	0x3b85cf82	0.0040835747
227	0xbda4077c	-0.0800924
228	0xbde3a4c8	-0.11115414
229	0xbda89467	-0.082314305
230	0xbe00a771	-0.12563874
231	0xbd94f6af	-0.07273614
232	0x3d0fce7c	0.03510903
233	0xbda78165	-0.08178977
234	0x3d0025a8	0.03128591
235	0x3d9edda9	0.07757122
236	0xbd95b3e3	-0.07309701
237	0x3dc74c38	0.097313344
238	0xbdbf6227	-0.09344893
239	0x3d433d32	0.047665782
240	0x3dfe8de1	0.12429405
241	0xbbfa7613	-0.00764347
242	0x3d011e82	0.031523235
243	0x3dc8c6aa	0.09803517
244	0xbce9448f	-0.028475074
245	0x3d824916	0.06361596
246	0xbe0a1bf7	-0.1348723
247	0xbe03247b	-0.12806885
248	0xbe219b2f	-0.15781854
249	0xbdb5772a	-0.08860619
250	0xbe45c0c7	-0.1931182
251	0x3d90abf2	0.07064046
252	0x3cb609c3	0.022221452
253	0x3dd079a2	0.101794496
254	0x3d1de4ac	0.038548157
255	0x3da8046d	0.08203969

4.8.bias f4 [24]
0	0x3cfd153f	0.03089392
1	0xbe885a80	-0.26631546
2	0xbe0a53b9	-0.135085
3	0xbd81d29e	-0.06339
4	0xbd87e592	-0.06635584
5	0x3e330550	0.17482495
6	0xbe367bec	-0.1782071
7	0xbb298883	-0.002586872
8	0xbda82f59	-0.08212156
9	0x3e79a175	0.24377997
10	0xbdc1da0e	-0.09465419
11	0xbe9724ae	-0.29520172
12	0x3defc29f	0.11707043
13	0xbe685367	-0.22688065
14	0xbe5a3243	-0.21308236
15	0xbc642a05	-0.013926034
16	0x3d4570c0	0.04820323
17	0x3e87c33f	0.26516148
18	0xbe8de6f9	-0.2771528
19	0xbe2e4994	-0.17020255
20	0xbe9c0d37	-0.30478832
21	0x3bce262c	0.0062911715
22	0x3e6c23d1	0.23060538
23	0xbcd2dbbd	-0.025739545

4.10.weight f4 [12, 24]
0	0xbe17d2ca	-0.14826503
1	0x3e574746	0.21023282
2	0xbd3b6f71	-0.045760576
3	0x3c652c3e	0.013987599
4	0xbd197010	-0.037460387
5	0x3d2e0c3c	0.042492136
6	0x3d93c8e9	0.07216055
7	0xbda6e792	-0.08149637
8	0x3e83d185	0.25745788
9	0xbcc61043	-0.024177676
10	0xbd9ca6d3	-0.07649007
11	0x3e1c45b7	0.15260969
12	0xbe768db7	-0.24077497
13	0x3e8def81	0.2772179
14	0xbd2af974	-0.041741803
15	0x3e31b34d	0.17353554
16	0x3d89b9c6	0.067248866
17	0xbe3b3ed0	-0.1828568
18	0x3e35d0a6	0.17755374
19	0x3e293219	0.16523017
20	0xbc9086af	-0.017642347
21	0x3e35a82f	0.17739938
22	0xbdf3e153	-0.119082116
23	0x3dbd9130	0.09256208
24	0xbd8bccb6	-0.06826155
25	0xbd0e7a2e	-0.03478449
26	0x3d33b8ba	0.04387734
27	0x3d56adeb	0.052411955
28	0x3e5bc305	0.21461113
29	0xbe41c3c6	-0.18922338
30	0x3e459da8	0.19298422
31	0xbce0dfb2	-0.027450416
32	0x3e0e92e0	0.13923216
33	0xbdc75109	-0.09732253
34	0x3df4b502	0.11948587
35	0x3e194a66	0.14969787
36	0xbe11a6f8	-0.1422385
37	0x3e87e69a	0.26543123
38	0x3e7e57cb	0.24838178
39	0xbe56c1e5	-0.20972402
40	0xbe0c6788	-0.13711369
41	0xbe12518b	-0.14288919
42	0x3e97d751	0.2965646
43	0x3e407783	0.1879559
44	0xbd23e037	-0.04000875
45	0xbe45fdbb	-0.19335072
46	0xbdc0b97d	-0.09410379
47	0x3d635fd1	0.0555113
48	0xbe06e5ef	-0.1317365
49	0x3d4753bf	0.04866385
50	0x3d324a78	0.04352805
51	0x3e094b2d	0.13407584
52	0xbdfb578b	-0.12272557
53	0x3d8c3726	0.06846456
54	0xbe015713	-0.12630872
55	0xbe00ce9b	-0.12578814
56	0x3e80eabe	0.25179094
57	0x3d52ac02	0.05143357
58	0xbdeb1f67	-0.11480599
59	0x3e897c05	0.26852432
60	0xbe7fb1d1	-0.24970175
61	0x3e274d5d	0.16338105
62	0xbd4608da	-0.048348285
63	0x3dae1a73	0.085011385
64	0xbe3a3b04	-0.18186575
65	0xbd2a917e	-0.04164266
66	0x3e81af8a	0.25329238
67	0x3e3ea89a	0.18619004
68	0x3df0f440	0.11765337
69	0xbdce1c22	-0.1006396
70	0xbcb847a4	-0.022495098
71	0xbd91b9aa	-0.07115491
72	0x3e985986	0.297558
73	0xbe1a330a	-0.15058532
74	0x3c91be4b	0.017790934
75	0xbe3e49fd	-0.18582912
76	0xbe81bb25	-0.25338092
77	0x3ced9b1b	0.029004624
78	0x3d99e95a	0.075152114
79	0x3ca1bf23	0.019744461
80	0xbdfdb467	-0.12387925
81	0x3e1e8f41	0.15484335
82	0x3c17549b	0.00923648
83	0xbe95798d	-0.29194298
84	0xbdd1017b	-0.102053605
85	0xbe36a354	-0.17835742
86	0xbdd8a6ca	-0.105786875
87	0x3e3d7d73	0.18504886
88	0x3d24ffbd	0.040282954
89	0x3bc2f370	0.00594943
90	0x3d59f0ba	0.05320809
91	0xbd0e4681	-0.034735207
92	0xbe83a102	-0.25708777
93	0x3ccd7bd9	0.02508347
94	0x3dc9ff4f	0.098631494
95	0x3dc44149	0.09582765
96	0x3e92129f	0.28529832
97	0xbcfc3194	-0.03078536
98	0xbc5681e2	-0.01309249
99	0x3e0eaaa1	0.13932277
100	0xbe6223ef	-0.2208402
101	0x3e29d7cc	0.16586226
102	0x3e351945	0.17685421
103	0x3e15d0c7	0.14630423
104	0xbe5c41a2	-0.21509412
105	0x3e54fcab	0.2079951
106	0xbda02f9b	-0.0782158
107	0xbde62f78	-0.11239523
108	0xbd6b702b	-0.05748002
109	0xbe5f8dd1	-0.21831442
110	0xbe7a4671	-0.24440934
111	0xbe467532	-0.19380644
112	0x3c359ae5	0.011084293
113	0x3dcf3e8a	0.1011935
114	0x3d9051b5	0.070468344
115	0x3d237dd4	0.03991492
116	0xbe810bb9	-0.25204256
117	0xbe8b7918	-0.27240825
118	0x3e302585	0.17201813
119	0xbdfb4405	-0.12268833
120	0x3e8757d4	0.26434195
121	0x3d2d3ba2	0.0422932
122	0xbe4d6835	-0.20059283
123	0xbe2e0aad	-0.1699626
124	0xbe6c2258	-0.23059976
125	0x3e8cb4fe	0.27481836
126	0xbdccc38b	-0.09998234
127	0x3e40bfdb	0.18823187
128	0xbdc4dd61	-0.09612537
129	0x3e0ec8be	0.13943765
130	0xbdf1dd3b	-0.118097745
131	0xbcf5fb8d	-0.030027175
132	0x3d382d7c	0.044965252
133	0xbd7b26a5	-0.06131615
134	0xbe12b6c3	-0.1432753
135	0xbd1e791a	-0.03868971
136	0xbe235de9	-0.15953793
137	0xbe0b6012	-0.13610867
138	0x3b41a3a2	0.0029546996
139	0xbe3de2b0	-0.18543506
140	0x3c812248	0.015763417
141	0x3e46331c	0.19355434
142	0x3e5e5c98	0.21715009
143	0x3e1d898d	0.15384503
144	0x3dfbcff0	0.1229552
145	0x3c1a615d	0.009422627
146	0x3d05c6c2	0.032660253
147	0x3e69fcf8	0.22850406
148	0x3bbfbd2a	0.0058514075
149	0xbc8902ac	-0.016724907
150	0x3c1f8ed2	0.009738641
151	0xbdfcaa4d	-0.1233717
152	0x3e704039	0.23461999
153	0xbe2ab353	-0.1666997
154	0x3db311e6	0.08743648
155	0xba33b419	-0.0006855145
156	0xbe772652	-0.24135712
157	0x3e4ee505	0.20204552
158	0x3e39d9e7	0.1814953
159	0x3dca3fe1	0.09875465
160	0xbaa8bae1	-0.0012873077
161	0xbe7dd3b7	-0.24787794
162	0x3e642e51	0.22283293
163	0xbe0ca3e9	-0.13734402
164	0x3e7358c2	0.23764327
165	0xbe30feaf	-0.17284654
166	0xbc1a9ef0	-0.009437308
167	0x3dfd5fd1	0.12371791
168	0x3e3ccce3	0.18437533
169	0xbd9988fe	-0.07496832
170	0xbe5a0378	-0.21290386
171	0x3e005869	0.12533726
172	0xbd949865	-0.072556295
173	0x3da1cfed	0.07900987
174	0xbe0d911a	-0.13824883
175	0xbe15296d	-0.14566584
176	0x3d61d2fb	0.055132847
177	0x3be59991	0.007006832
178	0xbd919b17	-0.07109659
179	0xbe292366	-0.1651741
180	0x3d84d31c	0.064855784
181	0xbe876d2e	-0.26450485
182	0xbe76b8f0	-0.24093986
183	0x3d8ec6a6	0.06971483
184	0x3d5fda0f	0.054651316
185	0x3bb2f9cb	0.0054619065
186	0xbe4a1b49	-0.19736971
187	0xbe6be502	-0.23036578
188	0xbda4c5df	-0.080455534
189	0x3db79160	0.08963275
190	0x3d91f906	0.071275756
191	0x3dadbd26	0.08483343
192	0x3da83102	0.082124725
193	0x3e23600f	0.15954612
194	0xbe35abdb	-0.17741339
195	0x3d20d479	0.03926513
196	0xbd957324	-0.07297352
197	0xbe76281a	-0.24038735
198	0x3e2fb1f0	0.17157722
199	0xbe2f699f	-0.17130135
200	0xbd80d375	-0.06290332
201	0xbde06f70	-0.10958755
202	0x3e0c1482	0.13679698
203	0x3e807d2a	0.25095493
204	0xba867a6c	-0.0010259873
205	0x3cf607dd	0.030033046
206	0xbd5a1f58	-0.053252548
207	0x3d590220	0.052980542
208	0x3bd4609e	0.006481244
209	0x3e0fe36a	0.14051595
210	0x3db210bc	0.08694598
211	0xbd7e6b0e	-0.062113814
212	0x3e34a80a	0.17642227
213	0x3c9cc4ec	0.019136868
214	0xbe286e79	-0.16448392
215	0xbe2c5964	-0.16830975
216	0xbe743cdb	-0.2385134
217	0x3e4c3e2b	0.1994559
218	0x3dae674a	0.085157946
219	0xbce0e3fa	-0.027452458
220	0x3d6a3919	0.05718336
221	0xbc862ab1	-0.016377779
222	0x3e64fdb6	0.22362408
223	0xbe1f6034	-0.15564042
224	0x3d9a092e	0.07521282
225	0xbe6da08e	-0.23205778
226	0x3ad9ae32	0.00166077
227	0x3e6d16cb	0.23153226
228	0xbe305311	-0.17219187
229	0x3d8afc24	0.06786373
230	0x3e880a46	0.26570338
231	0x3cd20862	0.025638763
232	0xbbbb3a2d	-0.005713722
233	0xbc8359f1	-0.016034098
234	0x3cb8494d	0.02249589
235	0x3e4e055a	0.20119229
236	0x3e1789bb	0.14798634
237	0x3dbf6aef	0.09346568
238	0xbe8585a0	-0.2607851
239	0x3e38caac	0.18046063
240	0x3da377d0	0.07981837
241	0x3cb3b36a	0.021936137
242	0x3dfea969	0.12434656
243	0x3df85bbc	0.12126872
244	0x3d5684be	0.052372687
245	0xbe53a3e3	-0.20667987
246	0x3d4ffa14	0.050775602
247	0x3d86d736	0.06584017
248	0x3db12435	0.08649484
249	0x3e322450	0.17396665
250	0x3e2ab48f	0.1667044
251	0xbcbd8c51	-0.023138197
252	0xbe181935	-0.14853366
253	0x3de83d50	0.113398194
254	0x3e406ac4	0.18790728
255	0xbc98e970	-0.018666

4.10.bias f4 [12]
0	0xbf0be354	-0.5464375
1	0xbee5fd4a	-0.44919807
2	0xbf001484	-0.50031304
3	0x3eca33bc	0.39492595
4	0x3e5fb99f	0.21848153
5	0x3eb9198b	0.361523
6	0xbf17e311	-0.5933085
7	0x3f16ce35	0.58908397
8	0xbe23aa27	-0.15982877
9	0xbe82b960	-0.25532055
10	0x3d6e9503	0.058247577
11	0xbec0a2e6	-0.37624282

4.12.weight f4 [4, 12]
0	0x3eb36ce2	0.35044008
1	0x3f3fff93	0.7499935
2	0x3ec4ebd5	0.38461176
3	0xbf0d45f0	-0.5518484
4	0xbe871657	-0.2638423
5	0xbf18cefe	-0.59690845
6	0x3f23c297	0.63968796
7	0xbebe1db0	-0.37132025
8	0x3e7b26d3	0.24526529
9	0x3f29a842	0.66272366
10	0x3e81b4f2	0.25333363
11	0x3eda2e6a	0.42613536
12	0x3f12ec72	0.57392037
13	0x3f29f866	0.6639465
14	0x3f26b8e9	0.651259
15	0xbf1fadad	-0.62374383
16	0xbf0f9666	-0.56088865
17	0xbee2319d	-0.44178477
18	0x3f03c848	0.5147748
19	0xbf284768	-0.6573396
20	0x3de16a8c	0.1100665
21	0x3ea1a2da	0.31569558
22	0xbd6c0604	-0.057622924
23	0x3dc83ea6	0.09777574
24	0x3f26c645	0.65146285
25	0x3f21eba8	0.6325021
26	0x3f0098f4	0.5023339
27	0xbf16ade6	-0.588591
28	0xbf2aba17	-0.666902
29	0xbdf21049	-0.118195124
30	0x3f11c7dd	0.5694559
31	0xbed5a3ce	-0.41726536
32	0x3ea33dda	0.31883126
33	0x3e61ee92	0.22063664
34	0x3ccddb04	0.025128849
35	0x3e8f44a2	0.2798205
36	0x3f208c7c	0.6271436
37	0x3f06d614	0.5267041
38	0x3e99ff35	0.3007752
39	0xbe9a4e51	-0.30137876
40	0xbeec3330	-0.46132803
41	0xbf1b5450	-0.60675526
42	0x3f0c82aa	0.5488688
43	0xbf266400	-0.6499634
44	0xbd599ee3	-0.05313004
45	0x3ec8e141	0.39234355
46	0x3d87adfb	0.06624981
47	0x3f08d24f	0.53445905

4.12.bias f4 [4]
0	0xbf53b784	-0.827019
1	0xbf5ef6bc	-0.87095237
2	0xbf8bb542	-1.091469
3	0xbf8686c2	-1.0509875
