JSP/trained models/TEST_DDQN_rwd5.pt (torch_old, 43117 bytes, 16 tensors)

0.0.weight f4 [5, 5]
1.1029803 1.0748682 1.0967575 0.9794587 1.0623784 1.2362176 1.1208509 1.1009537
0.9963418 1.1531097 1.116697 1.0812418 1.0693705 0.96857566 1.0851717 1.033378
1.0458193 0.866498 1.0035497 0.9931943 1.2222257 1.2578311 1.0552787 1.3352301
1.0795918
00000000: 752e 8d3f 4895 893f 8d62 8c3f cebd 7a3f
00000010: 04fc 873f 613c 9e3f 0b78 8f3f 0dec 8c3f
00000020: 4210 7f3f 1999 933f edef 8e3f 2266 8a3f
00000030: 22e1 883f 93f4 773f e8e6 8a3f bb45 843f
00000040: 68dd 853f d0d2 5d3f 5174 803f fb41 7e3f
00000050: e471 9c3f 9c00 a13f 5f13 873f d2e8 aa3f
00000060: 1030 8a3f

0.0.bias f4 [5, 5]
-0.13689929 0.04661689 0.019477066 -0.095823064 -0.10482097 -0.015884612 0.055675004 0.09686542
-0.020720402 -0.11912971 -0.045150828 0.1425408 0.09619378 -0.058935788 -0.09360279 0.009581144
0.0766968 0.0863291 -0.0194743 -0.079580545 -0.1693922 -0.022460094 0.035562914 0.006189804
-0.05937173
00000000: 542f 0cbe 5af1 3e3d 5e8e 9f3c e23e c4bd
00000010: 60ac d6bd 7220 82bc 790b 643d 6161 c63d
00000020: d5bd a9bc 47fa f3bd 13f0 38bd 37f6 113e
00000030: 3f01 c53d a766 71bd d2b2 bfbd 3bfa 1c3c
00000040: 3613 9d3d 50cd b03d 9188 9fbc 20fb a2bd
00000050: 2675 2dbe 3bfe b7bc 6baa 113d d7d3 ca3b
00000060: c52f 73bd

1.0.weight f4 [64, 25]
-0.11301076 0.07506578 0.1983232 0.05735733 -0.11082478 0.0018114689 -0.17672095 -0.04259002
-0.09945137 0.20411554 -0.15351166 -0.17660326 0.05974463 0.01317614 0.12645395 -0.20963562
-0.069362685 -0.15332001 0.035157107 0.14944926 0.19658007 -0.20072787 -0.00081554224 -0.06559021
0.21649002 -0.027004143 0.16666745 -0.09613557 -0.07799439 0.1049069 0.15797564 0.07225115
-0.025214978 0.09410042 -0.052619748 -0.068942435 -0.10085443 0.12702675 -0.18433627 0.01681092
-0.044608932 -0.15721385 -0.008522131 -0.10222641 -0.0073580323 0.1745048 0.01612674 0.022717929
0.00917464 -0.041584156 0.17182453 -0.0016783988 -0.051136833 -0.029272176 -0.0076979417 0.0917941
0.13182037 0.010966086 0.13406332 -0.21493806 0.11890219 0.17378922 -0.007752292 -0.24560995
-0.20538235 0.17919494 0.16279086 -0.02730944 0.044076387 0.036960308 0.17964633 -0.21709716
0.05766919 0.0030935335 0.16658512 0.15730275 0.16462149 -0.23126826 -0.109691635 -0.14602959
-0.15178367 0.0512167 -0.08509943 0.06580149 0.051172886 0.1934251 0.14318189 -0.14331692
0.07419328 -0.18185432 0.077777125 0.09110831 -0.016966924 -0.100136556 -0.012544216 -0.14303833
-0.16866192 -0.089773595 -0.02982771 0.1402545 -0.051004697 -0.21229106 -0.008794087 0.18623331
-0.18852948 -0.045217626 0.08003537 -0.113022394 0.1530043 0.13402164 0.16539124 -0.16669956
0.04542194 0.14164972 0.18359728 0.15950799 -0.14122087 0.11476422 -0.15085092 0.10584528
0.21036355 0.011844903 0.018207561 0.07469313 -0.122093156 -0.1315126 0.037729472 -0.22806089
-0.17525949 -0.17437264 -0.02368148 -0.14449628 0.073170304 0.14377847 0.16808814 0.011041025
-0.11387089 -0.19958854 -0.096419305 0.14218175 -0.025977585 -0.12068604 0.041347742 -0.15456904
-0.0043829847 0.23589925 -0.29102388 -0.026437618 0.15504308 0.22072086 -0.13899831 -0.008217324
-0.20741382 0.09292163 -0.0006596621 0.030001892 -0.09178038 -0.13986005 -0.09542217 -0.025203569
0.16612034 -0.19880316 -0.14337291 -0.03499321 0.1846584 0.12928618 0.19320053 0.2297203
0.07785363 -0.11276602 0.07781977 0.10053731 -0.19376601 0.052049723 0.096853025 0.018200276
-0.08248409 0.10798902 0.02690001 0.02695998 -0.19410537 0.034667738 0.026026323 -0.050363403
0.11391573 -0.035555873 -0.05326553 0.20412943 -0.12520747 -0.021154368 -0.12504214 -0.05555107
0.18996058 -0.09606478 -0.03527945 0.030750142 -0.17934701 0.06377508 -0.2778014 -0.06768023
-0.048646376 0.10789338 0.034436982 0.0022379751 -0.10254478 0.16971317 0.06892466 0.31610945
-0.008154359 0.06563079 -0.12086337 -0.27593493 -0.11891762 -0.12050226 -0.031920504 0.17116708
0.038320594 0.11607493 -0.06555946 0.0123100085 -0.20194875 -0.1587342 0.19286391 -0.20735219
0.1591464 0.09363179 -0.12457087 0.17633636 -0.17744926 -0.1633022 0.18273498 -0.0013279421
-0.11333861 -0.16326809 -0.082903765 -0.1840907 0.17541449 -0.044412017 0.044418797 0.20109254
0.15667024 -0.053144753 -0.087487005 0.039609574 0.15178841 0.09552368 -0.03182208 -0.055963565
0.05136269 0.03480635 -0.084353946 0.21392637 0.12312594 -0.050859068 -0.14054687 -0.065729246
00000000: 2f72 e7bd 16bc 993d 3d15 4b3e 85ef 6a3d
00000010: 1af8 e2bd cf6e ed3a 56f6 34be df72 2ebd
00000020: 29ad cbbd aa03 513e 2932 1dbe 7cd7 34be
00000030: c9b6 743d bde0 573c 257d 013e b8aa 56be
00000040: 060e 8ebd ecff 1cbe e600 103d 3a09 193e
00000050: 494c 493e 9b8b 4dbe 1dca 55ba 2954 86bd
00000060: 8faf 5d3e cb37 ddbc dfaa 2a3e bae2 c4bd
00000070: 86bb 9fbd 6ed9 d63d 5ec4 213e 69f8 933d
00000080: a48f cebc b9b7 c03d ce87 57bd b131 8dbd
00000090: c48c cebd 4d13 023e a6c2 3cbe 0eb7 893c
000000a0: dbb7 36bd abfc 20be 68a0 0bbc 145c d1bd
000000b0: a61b f1bb 63b1 323e 3a1c 843c f31a ba3c
000000c0: 3b51 163c 2654 2abd c5f2 2f3e b8fd dbba
000000d0: db74 51bd 34cc efbc 043f fcbb 8cfe bb3d
000000e0: ebfb 063e 19ab 333c e547 093e b918 5cbe
000000f0: fe82 f33d cdf5 313e f006 febb 2d81 7bbe
00000100: c04f 52be e17e 373e a6b2 263e 0cb8 dfbc
00000110: 7189 343d b163 173d 35f5 373e b84e 5ebe
00000120: 8736 6c3d e1bc 4a3b 4a95 2a3e f913 213e
00000130: 8992 283e 96d1 6cbe 02a6 e0bd c888 15be
00000140: 2e6d 1bbe 9ac8 513d 9c48 aebd eec2 863d
00000150: a99a 513d 3b11 463e 469e 123e acc1 12be
00000160: a5f2 973d 0538 3abe 9d49 9f3d fe96 ba3d
00000170: 38fe 8abc 6514 cdbd 4186 4dbc a478 12be
00000180: b6b5 2cbe 38db b7bd 3e59 f4bc e09e 0f3e
00000190: 4dea 50bd d462 59be 1315 10bc f2b3 3e3e
000001a0: df0d 41be 1e36 39bd 96e9 a33d 4978 e7bd
000001b0: 29ad 1c3e f83c 093e 525c 293e 4ab3 2abe
000001c0: 5b0c 3a3d a00c 113e ed00 3c3e 1056 233e
000001d0: 349c 10be 8109 eb3d aa78 1abe 69c5 d83d
000001e0: 8b69 573e 2011 423c 0628 953c b6f8 983d
000001f0: fa0b fabd 3dab 06be 388a 1a3d cb88 69be
00000200: 3977 33be be8e 32be aaff c1bc d5f6 13be
00000210: 50da 953d aa3a 133e 4c1f 2c3e 6ae5 343c
00000220: 2435 e9bd f060 4cbe 7c77 c5bd 1898 113e
00000230: f2ce d4bc 3e2a f7bd 405c 293d 5947 1ebe
00000240: 249f 8fbb 938f 713e 1501 95be b493 d8bc
00000250: 9dc3 1e3e a604 623e 9355 0ebe f4a1 06bc
00000260: 4a64 54be b24d be3d 2ded 2cba 87c6 f53c
00000270: 5af7 bbbd 7937 0fbe b36c c3bd b777 cebc
00000280: 731b 2a3e 0e93 4bbe 59d0 12be 0a55 0fbd
00000290: 1717 3d3e 9963 043e 5cd6 453e cc3b 6b3e
000002a0: b971 9f3d dff1 e6bd f95f 9f3d 81e6 cd3d
000002b0: 996a 46be 1732 553d e15a c63d bf18 953c
000002c0: 6bed a8bd 5929 dd3d 695d dc3c 2ddb dc3c
000002d0: 8fc3 46be c2ff 0d3d 2835 d53c db49 4ebd
000002e0: a64c e93d 09a3 11bd f52c 5abd 4e07 513e
000002f0: 6336 00be ed4b adbc 0c0b 00be 8589 63bd
00000300: 0785 423e 9dbd c4bd 2f81 10bd b9e7 fb3c
00000310: bea6 37be 829c 823d fc3b 8ebe ef9b 8abd
00000320: 6c41 47bd 34f7 dc3d cb0d 0d3d feaa 123b
00000330: ff02 d2bd 4ac9 2d3e 5f28 8d3d 19d9 a13e
00000340: dc99 05bc 7069 863d 3787 f7bd 5847 8dbe
00000350: 158b f3bd e4c9 f6bd 13bf 02bd 6c46 2f3e
00000360: 0ef6 1c3d b1b8 ed3d 0a44 86bd ebaf 493c
00000370: a7cb 4ebe 388b 22be 1e7e 453e 2254 54be
00000380: 46f7 223e 06c2 bf3d 031f ffbd 8591 343e
00000390: 42b5 35be b138 27be e11e 3b3e 580e aeba
000003a0: 131e e8bd c02f 27be 73c9 a9bd 4682 3cbe
000003b0: db9f 333e 60e9 35bd 7cf0 353d 34eb 4d3e
000003c0: 2a6e 203e 50ae 59bd 632c b3bd a63d 223d
000003d0: 6c6e 1b3e eba1 c33d df57 02bd 0d3a 65bd
000003e0: af61 523d 1a91 0e3d c3c1 acbd 840f 5b3e
000003f0: 7429 fc3d 9951 50bd 85eb 0fbe 0e9d 86bd

1.0.bias f4 [64]
0.016490089 -0.10556014 -0.0262792 -0.17918105 -0.07867308 -0.008856076 0.002554434 0.22893108
0.02167456 0.18770932 -0.070443794 0.13343783 0.11446862 0.18545455 0.10199498 -0.17135072
0.18811299 0.16976571 0.100888595 0.16727108 -0.21089347 -0.038735315 0.06070558 -0.054240067
-0.13635719 -0.0037592798 0.032553893 -0.048706714 -0.065644786 0.12707922 0.10959855 -0.08983207
-0.043168373 0.21755259 0.15564327 0.15916468 -0.3981411 0.009476526 0.14209919 0.19761972
0.123441756 0.02471339 -0.03774686 0.17993061 0.07965426 0.10330242 0.13235228 0.19653009
0.2028719 -0.22957256 -0.0865882 -0.18704355 -0.059637215 -0.09437374 -0.24845156 0.060315143
0.13666195 0.21180923 0.15314491 0.026669849 0.01882014 -0.22166306 -0.09158358 0.21114835
00000000: 3916 873c ea2f d8bd 7a47 d7bc 3d7b 37be
00000010: 5a1f a1bd 1319 11bc 4a68 273b e96c 6a3e
00000020: d98e b13c df36 403e d644 90bd eda3 083e
00000030: 866e ea3d cce7 3d3e bee2 d03d 9076 2fbe
00000040: b1a0 403e 10d7 2d3e ae9e ce3d 1c49 2b3e
00000050: 75f4 57be eca8 1ebd 6aa6 783d d52a 5ebd
00000060: 38a1 0bbe 405e 76bb 3b57 053d b180 47bd
00000070: c670 86bd 0e21 023e 3475 e03d e0f9 b7bd
00000080: 52d1 30bd 1bc6 5e3e f360 1f3e 11fc 223e
00000090: 26d9 cbbe 6e43 1b3c 7382 113e d35c 4a3e
000000a0: 08cf fc3d bc73 ca3c 749c 1abd bb3f 383e
000000b0: c621 a33d 3890 d33d 5b87 073e 2f3f 493e
000000c0: a7bd 4f3e 1215 6bbe 2755 b1bd 5888 3fbe
000000d0: 2746 74bd 0547 c1bd 166a 7ebe 030d 773d
000000e0: 1cf1 0b3e 85e4 583e 05d2 1c3e ba7a da3c
000000f0: b22c 9a3c a4fb 62be 2c90 bbbd 4637 583e

1.2.weight f4 [48, 64]
0.12073107 0.0052492474 -0.083544776 0.019583587 0.0030506088 -0.10170958 -0.11168456 -0.025652954
-0.107312776 0.11233418 -0.096251756 -0.113792345 0.033221092 -0.13356106 0.03666945 -0.06361006
0.005242268 0.033756442 0.0044814995 -0.028861776 -0.14154917 -0.10663268 -0.09838801 -0.034588825
0.061216123 0.11751511 -0.11001043 -0.118315816 -0.046030406 -0.09330855 0.118297555 -0.026039602
0.0519897 -0.1160723 0.06487133 -0.09056136 0.11746538 -0.121981 -0.13781656 -0.011447431
0.04031142 0.043133575 -0.08445381 -0.014618098 -0.039981216 -0.08802219 0.07106358 0.043617196
-0.05549207 0.1034381 0.06358731 0.039298173 -0.06703355 -0.10227651 -0.08024134 0.032768894
0.025651256 0.09020155 0.03916068 -0.051179253 0.1257293 -0.09979682 -0.0044885846 0.02732349
0.1268055 -0.104108885 -0.032363616 -0.107128054 -0.064838074 -0.09289597 -0.058186878 -0.062693074
-0.06409318 -0.0585664 -0.033574477 -0.070418075 0.08204793 0.12270374 -0.018579813 -0.06823519
-0.048230935 0.014533179 0.048730124 0.051377125 0.07010061 -0.03163131 -0.07484123 0.014633028
0.04198784 0.013670949 -0.07125758 -0.0037506893 -0.11254309 0.062680826 -0.06071857 -0.12588057
0.045900244 -0.043609 -0.09411923 -0.042873826 0.0045276065 0.043311886 -0.06513408 0.020706533
0.09530277 -0.092359155 0.0664334 0.0840191 0.056083545 -0.12070529 0.0953327 0.031592768
-0.05931536 0.04897623 0.09510456 0.032387234 -0.055764955 0.020083116 0.07558458 0.02982032
-0.06368141 -0.087670945 -0.06624187 -0.12020057 0.083889015 -0.0048880386 0.10338027 0.03260298
-0.01274969 0.0446988 0.0768054 0.10398707 -0.031746525 0.079829246 -0.0010460783 -0.07373755
0.05911446 0.11271659 -0.089982584 0.047836047 -0.07974522 -0.017044256 0.05053484 -0.09386517
-0.016040042 -0.11481332 0.026738537 0.09991515 0.109814234 0.071392424 -0.0655285 -0.003138392
0.13531785 -0.13795495 -0.033224814 0.14345527 0.12840642 0.084335804 -0.004693724 0.026769193
-0.07399679 -0.061565552 -0.04348954 -0.09164875 0.03647104 -0.1691424 0.15053292 0.029455937
0.017144289 0.009486572 0.04501029 -0.045232102 -0.074575804 -0.034510117 -0.044988617 -0.02084241
-0.005928332 -0.06745423 0.04736853 0.11122844 0.1219273 -0.12695584 0.080622 -0.040984143
0.046216793 0.070775986 0.031666316 -0.15857066 -0.098532915 0.14827941 -0.09514521 0.06850338
-0.12185252 -0.08900241 -0.03801891 0.00813884 -0.053179767 -0.027972205 -0.044415064 -0.13344549
0.015332087 0.0055555194 -0.1415131 -0.0021585424 -0.044134595 0.07527765 -0.07450398 -0.10547533
-0.040100403 -0.05801629 -0.07937996 -0.036811054 0.07145792 -0.028824497 -0.008742853 -0.063497625
-0.08362324 0.07967602 -0.11547482 -0.11695265 -0.022035293 0.12865551 0.019158952 -0.050540958
0.10655415 -0.0983419 -0.01706724 -0.10601857 -0.04182044 -0.07834496 0.14969881 0.07500966
0.01247203 0.08857974 -0.009829672 0.047964532 -0.026380036 -0.0631925 0.05944134 -0.10512252
-0.09307602 -0.06265714 -0.06777508 0.06312753 0.08616503 -0.05951914 0.1277757 -0.045620013
0.08518707 -0.026258927 0.10101524 -0.044837654 -0.026328893 -0.02704176 0.05482729 -0.081112854
00000000: da41 f73d e101 ac3b 8619 abbd c26d a03c
00000010: b9ec 473b 1d4d d0bd e0ba e4bd 2526 d2bc
00000020: cdc6 dbbd 760f e63d a41f c5bd f60b e9bd
00000030: d712 083d 3bc4 08be b532 163d fe45 82bd
00000040: 55c7 ab3b 3244 0a3d 8bd9 923b 886f ecbc
00000050: 44f2 10be 3c62 dabd a77f c9bd 03ad 0dbd
00000060: c2bd 7a3d c3ab f03d 264d e1bd 904f f2bd
00000070: 618a 3cbd 8e18 bfbd fd45 f23d 0151 d5bc
00000080: 27f3 543d 50b7 edbd 43db 843d 3c78 b9bd
00000090: b091 f03d 2dd1 f9bd c91f 0dbe 018e 3bbc
000000a0: 961d 253d d5ac 303d 1ef6 acbd bf80 6fbc
000000b0: 58c3 23bd fa44 b4bd c889 913d f2a7 323d
000000c0: a74b 63bd 5bd7 d33d 103a 823d 1ff7 203d
000000d0: e348 89bd 5976 d1bd 9255 a4bd ad38 063d
000000e0: 9522 d23c 97bb b83d f366 203d 56a1 51bd
000000f0: 2ebf 003e 4662 ccbd fa14 93bb 83d5 df3c
00000100: 4dd9 013e 0a37 d5bd b68f 04bd f465 dbbd
00000110: d3c9 84bd 3e40 bebd 5d55 6ebd 3a65 80bd
00000120: 4943 83bd 52e3 6fbd 6485 09bd 5a37 90bd
00000130: bf08 a83d 194c fb3d b134 98bc e4be 8bbd
00000140: cd8d 45bd 921c 6e3c 3d99 473d d270 523d
00000150: e990 8f3d d58f 01bd 5c46 99bd 5ebf 6f3c
00000160: 71fb 2b3d 1efc 5f3c 7eef 91bd 20ce 75bb
00000170: fe7c e6bd ce5e 803d 09b4 78bd d6e6 00be
00000180: e501 3c3d 5a9f 32bd 95c1 c0bd 779c 2fbd
00000190: 515c 943b ce67 313d 0465 85bd bfa0 a93c
000001a0: 192e c33d cc26 bdbd 3c0e 883d 3512 ac3d
000001b0: dcb7 653d 5634 f7bd ca3d c33d 6b67 013d
000001c0: aaf4 72bd 4d9b 483d 2ec6 c23d 7aa8 043d
000001d0: cb69 64bd 5985 a43c 17cc 9a3d be49 f43c
000001e0: 666b 82bd d38c b3bd d1a9 87bd b72b f6bd
000001f0: 01ce ab3d d72b a0bb 09b9 d33d b48a 053d
00000200: 13e4 50bc 1716 373d 264c 9d3d 2cf7 d43d
00000210: a508 02bd 847d a33d 901c 89ba b603 97bd
00000220: 0122 723d f5d7 e63d ca48 b8bd bbef 433d
00000230: 7651 a3bd 65a0 8bbc 9ffd 4e3d 623c c0bd
00000240: 6866 83bc 3f23 ebbd c70a db3c 50a0 cc3d
00000250: 49e6 e03d 3136 923d ce33 86bd 7bad 4dbb
00000260: c390 0a3e 1044 0dbe be16 08bd f0e5 123e
00000270: f97c 033e 40b8 ac3d d0cd 99bb 114b db3c
00000280: a18b 97bd 292c 7cbd 1722 32bd 57b2 bbbd
00000290: a862 153d aa33 2dbe 4d25 1a3e 944d f13c
000002a0: 2e72 8c3c 916d 1b3c b65c 383d 4c45 39bd
000002b0: 33bb 98bd 7b5a 0dbd fc45 38bd b4bd aabc
000002c0: 7442 c2bb 7125 8abd 8105 423d bdcb e33d
000002d0: 05b5 f93d b600 02be 261d a53d fdde 27bd
000002e0: d24d 3d3d 00f3 903d 8ab4 013d 5960 22be
000002f0: a0cb c9bd 8fd6 173e 7edb c2bd 804b 8c3d
00000300: d08d f9bd e546 b6bd b7b9 1bbd c558 053c
00000310: 07d3 59bd f725 e5bc 92ec 35bd efa5 08be
00000320: 6f33 7b3c 130b b63b cfe8 10be 5576 0dbb
00000330: 7ac6 34bd 2b2b 9a3d 8b95 98bd 7303 d8bd
00000340: 5240 24bd 7da2 6dbd f691 a2bd 30c7 16bd
00000350: 8858 923d 5a21 ecbc 2f3e 0fbc 0b0b 82bd
00000360: a942 abbd 2e2d a33d 107e ecbd df84 efbd
00000370: 5c83 b4bc 45be 033e 3cf3 9c3c 0904 4fbd
00000380: 1039 da3d 7a67 c9bd 99d0 8bbc 4420 d9bd
00000390: e94b 2bbd 5373 a0bd a54a 193e aa9e 993d
000003a0: 7c57 4c3c 4b69 b53d a20c 21bc 7576 443d
000003b0: f21a d8bc 126b 81bd c378 733d 7a4a d7bd
000003c0: a49e bebd 6352 80bd a9cd 8abd 0249 813d
000003d0: 4b77 b03d 57ca 73bd a2d7 023e 0ddc 3abd
000003e0: 8f76 ae3d f61c d7bc 14e1 ce3d b0a7 37bd
000003f0: b1af d7bc ae86 ddbc 9592 603d 7f1e a6bd

1.2.bias f4 [48]
0.035970427 -0.04554062 -0.017022995 0.022488829 0.015644277 0.11837458 0.09045293 -0.24858573
-0.11240945 0.15970789 -0.038354192 0.0094446475 -0.05625609 -0.07827711 0.015434848 0.063292064
0.044598214 -0.14146492 0.14214541 0.06646642 0.09451703 0.12135501 0.021354733 0.010300589
0.020955278 -0.09090516 -0.10069587 -0.037055653 -0.17175032 0.18811435 0.105142616 -0.013047926
-0.36593902 0.03527708 -0.21140909 -0.11279638 -0.07740192 0.122724965 0.0376613 -0.08531697
-0.18342374 0.032906067 0.046130132 -0.081512064 0.052784402 -0.025981322 0.16882661 -0.1241381
00000000: ba55 133d cd88 3abd cf73 8bbc 7e3a b83c
00000010: 6d28 803c 5f6e f23d 633f b93d 428d 7ebe
00000020: ed36 e6bd 778a 233e 4919 1dbd b9bd 1a3c
00000030: c96c 66bd c04f a0bd 72e2 7c3c 459f 813d
00000040: 9eac 363d 2edc 10be 918e 113e 8c1f 883d
00000050: 2592 c13d fa88 f83d 1ff0 ae3c cdc3 283c
00000060: 67aa ab3c 7c2c babd a339 cebd abc7 17bd
00000070: 51df 2fbe 0ca1 403e 0355 d73d f8c6 55bc
00000080: 5c5c bbbe b37e 103d a07b 58be ca01 e7bd
00000090: e684 9ebd 3a57 fb3d bc42 1a3d aaba aebd
000000a0: 6fd3 3bbe 83c8 063d f3f2 3c3d ccef a6bd
000000b0: 7534 583d c8d6 d4bc e2e0 2c3e 1e3c febd

1.4.weight f4 [48, 48]
0.011818538 0.07037247 0.122486904 0.12901501 0.11884133 0.072507806 -0.002030332 -0.06770338
-0.008082548 -0.02112406 -0.029808737 -0.05072767 -0.057071637 0.07402566 -0.18850896 -0.14058572
-0.093530186 0.099656515 -0.09689891 -0.0956726 -0.023953285 0.000489581 0.04149043 -0.021195007
-0.061695024 0.08046186 0.10767245 -0.05724694 -0.06900475 0.11453445 -0.034138825 -0.13521951
-0.1910871 -0.031939443 0.011193875 0.059155565 -0.008364325 -0.079857945 0.09079429 0.089438654
-0.02750473 0.106704846 -0.0064182463 -0.053546112 0.021748038 0.014367108 0.060060304 -0.12060047
0.07614064 0.06777488 -0.14051414 0.029202063 0.008941088 -0.101647705 0.14338975 -0.033058103
0.05806746 0.07534694 0.055510223 -0.09494849 0.02933507 0.061342247 0.1127776 -0.10968179
-0.078891255 -0.051771745 0.107199155 -0.09598779 0.06022425 0.13062184 0.0031321875 0.06488934
-0.15456721 -0.11910179 0.09829122 -0.07742865 0.115296185 0.12840123 0.05307609 -0.08044142
-0.063965715 0.0845252 0.067733675 -0.048870936 -0.0059766 0.0751408 0.10421776 -0.09696427
-0.15815075 -0.017137343 0.100536965 0.10846086 -0.06284058 -0.11576428 0.13385242 0.065377794
0.051127847 0.040691283 -0.05094158 0.13037159 0.005378256 0.039839104 -0.031003915 -0.118586704
0.10747471 -0.052578427 0.043966394 0.10804151 -0.063567035 -0.10175431 0.05972431 -0.0671995
0.011763745 -0.009700485 0.10992994 -0.06740367 -0.08430296 -0.03863328 0.12263858 -0.14560163
-0.07853722 -0.07911858 -0.0335151 -0.15056741 -0.15906748 0.08204764 -0.13101636 -0.11423328
-0.017927678 0.017303104 -0.012997647 0.009332616 0.083671056 -0.032279216 0.16836293 -0.085346766
-0.0078211995 -0.084829904 -0.029027482 0.05409777 -0.06887289 0.11707918 0.08436558 0.014951809
-0.003224014 -0.0027702681 -0.02961098 0.01691645 0.0124827465 0.043859262 0.13581355 -0.10079948
-0.032091927 0.0965063 -0.0023327884 0.0915013 0.07001547 -0.11520288 0.043204572 -0.13434668
0.009734801 0.013061424 -0.0063524586 -0.043480206 0.1437922 -0.021215659 -0.026790975 -0.019935815
-0.11387856 -0.0829032 0.10195483 -0.042697515 0.08436692 -0.016169894 0.03096809 -0.048090488
0.16683346 0.08407279 0.0136104 0.0801526 0.14175121 -0.054087196 0.09539749 0.111583225
-0.0907858 0.030886319 -0.06782243 0.04384149 -0.0748107 0.014226389 -0.14544278 0.06739295
0.13119557 -0.0012895253 0.1311973 -0.035218067 -0.019047627 0.055701885 -0.06963053 -0.092404135
-0.14020821 -0.045051046 0.07153514 0.13768998 0.05736433 -0.09557942 0.13301934 0.108809836
-0.102043085 -0.08945852 -0.079804756 0.07313887 -0.07047791 -0.07356545 -0.05271529 0.076963976
0.14114156 0.07256472 0.0054711853 0.15452501 -0.04528461 -0.104129195 -0.07489564 0.016114922
0.021618063 -0.055831 0.11793484 -0.06331855 -0.066249214 -0.063008636 0.083933994 -0.11239744
0.11442699 0.12699161 -0.17966488 0.061657395 -0.08273758 0.122032166 -0.11200505 0.031098513
-0.07324592 0.029588493 -0.08146645 0.048336055 -0.11594729 -0.079056695 -0.051305503 -0.12730321
-0.13237415 0.15397583 -0.080123074 0.0738715 -0.09823628 0.106636405 0.03321262 -0.107162856
00000000: 8ba2 413c 711f 903d 6ada fa3d 831c 043e
00000010: 1563 f33d f97e 943d 520f 05bb 12a8 8abd
00000020: aa6c 04bc 5d0c adbc 7431 f4bc d1c7 4fbd
00000030: f3c3 69bd c49a 973d 7e08 41be b4f5 0fbe
00000040: c18c bfbd b718 cc3d f072 c6bd ffef c3bd
00000050: ae39 c4bc 3a57 003a def1 293d 27a1 adbc
00000060: ecb3 7cbd 30c9 a43d 6083 dc3d c47b 6abd
00000070: 5d52 8dbd 0a91 ea3d 27d5 0bbd fc76 0abe
00000080: 56ac 43be efd2 02bd 8466 373c 1b4d 723d
00000090: 860a 09bc 908c a3bd 5bf2 b93d 9d2b b73d
000000a0: 9951 e1bc 1288 da3d 2750 d2bb 2b53 5bbd
000000b0: f128 b23c 0564 6b3c cb01 763d 61fd f6bd
000000c0: a0ef 9b3d 8ecd 8a3d f0e2 0fbe 2a39 ef3c
000000d0: a47d 123c ac2c d0bd c3d4 123e ef67 07bd
000000e0: 25d8 6d3d 7f4f 9a3d b05e 633d 5b74 c2bd
000000f0: 1a50 f03c 0242 7b3d f1f7 e63d d9a0 e0bd
00000100: bd91 a1bd 9c0e 54bd 3b8b db3d 3f95 c4bd
00000110: b4ad 763d bbc1 053e 6345 4d3b b4e4 843d
00000120: de46 1ebe a4eb f3bd e84c c93d e992 9ebd
00000130: 6820 ec3d 9d7b 033e 5066 593d 79be a4bd
00000140: 7500 83bd 8c1b ad3d f4b7 8a3d e42c 48bd
00000150: 5bd7 c3bb 6be3 993d 1f70 d53d 3495 c6bd
00000160: 45f2 21be 9d63 8cbc 53e6 cd3d ba20 de3d
00000170: 90b2 80bd d315 edbd 9c10 093e cbe4 853d
00000180: 6f6b 513d e7ab 263d 1ea8 50bd 2180 053e
00000190: 153c b03b 542e 233d ecfb fdbc 96dd f2bd
000001a0: b31b dc3d 7a5c 57bd 1b16 343d de44 dd3d
000001b0: 6f2f 82bd 9064 d0bd 7aa1 743d e49f 89bd
000001c0: b9bc 403c c8ee 1ebc f322 e13d ef0a 8abd
000001d0: 08a7 acbd ee3d 1ebd f029 fb3d 9818 15be
000001e0: 1fd8 a0bd ec08 a2bd 2147 09bd 582e 1abe
000001f0: 96e2 22be 9808 a83d 2729 06be 23f3 e9bd
00000200: 11dd 92bc 3dbf 8d3c 15f4 54bc d4e7 183c
00000210: bb5b ab3d 3637 04bd 5567 2c3e 49ca aebd
00000220: 7d24 00bc 4dbb adbd 0bcb edbc a095 5d3d
00000230: 3b0d 8dbd 36c7 ef3d dcc7 ac3d 6ff8 743c
00000240: fb49 53bb 638d 35bb ba92 f2bc 5e94 8a3c
00000250: 6f84 4c3c c5a5 333d b512 0b3e f56f cebd
00000260: d372 03bd 18a5 c53d b2e1 18bb 0965 bb3d
00000270: 4564 8f3d 7def ebbd 47f7 303d 2d92 09be
00000280: b77e 1f3c 95ff 553c 4928 d0bb 4d18 32bd
00000290: 433e 133e 76cc adbc bf78 dbbc 6f50 a3bc
000002a0: 2a39 e9bd 27c9 a9bd b2cd d03d 97e3 2ebd
000002b0: 90c8 ac3d ba76 84bc cbb0 fd3c 88fa 44bd
000002c0: 64d6 2a3e 5b2e ac3d 28fe 5e3c 0c27 a43d
000002d0: 3b27 113e 898a 5dbd c25f c33d bf85 e43d
000002e0: e8ed b9bd 4e05 fd3c 7ce6 8abd 2293 333d
000002f0: 5a36 99bd cd15 693c f4ee 14be 5105 8a3d
00000300: 2258 063e 4a05 a9ba 9658 063e d240 10bd
00000310: c509 9cbc a927 643d 749a 8ebd 613e bdbd
00000320: be92 0fbe 7287 38bd 0481 923d 9afe 0c3e
00000330: dcf6 6a3d 25bf c3bd 3936 083e b1d7 de3d
00000340: f7fb d0bd 0736 b7bd ad70 a3bd d5c9 953d
00000350: b956 90bd 7ca9 96bd fdeb 57bd 4a9f 9d3d
00000360: 6a87 103e d09c 943d a147 b33b ce3b 1e3e
00000370: 5b7c 39bd b041 d5bd e362 99bd 7103 843c
00000380: 5d18 b13c 0caf 64bd d287 f13d 28ad 81bd
00000390: abad 87bd ac0a 81bd 96e5 ab3d a130 e6bd
000003a0: b358 ea3d 170a 023e 12fa 37be 778c 7c3d
000003b0: 5272 a9bd 00ec f93d e762 e5bd 4fc2 fe3c
000003c0: f501 96bd 9163 f23c e2d7 a6bd 07fc 453d
000003d0: c675 edbd 7ae8 a1bd b825 52bd c65b 02be
000003e0: 178d 07be d7ab 1d3e 9117 a4bd f149 973d
000003f0: 1a30 c9bd 3064 da3d f509 083d 3378 dbbd

1.4.bias f4 [48]
-0.018480565 0.008734053 -0.055783466 0.099702656 -0.13835019 -0.032856073 -0.08118225 0.05378644
0.10417987 0.13523282 0.087940544 -0.00903979 0.034749128 -0.14448749 -0.014231837 -0.1112601
0.06336103 0.091515586 -0.035169993 -0.0042890096 0.0006866155 -0.026982646 0.04686559 0.023503555
0.019753614 0.065468565 0.077205054 -0.027704176 -0.16679908 -0.0014382544 -0.06538682 -0.06527126
-0.12256014 0.18896374 -0.01624651 0.106186315 -0.04098306 0.06643807 0.019072212 0.009002805
0.046016283 0.1014924 0.0007210389 -0.08016994 -0.19348742 -0.100584924 -0.0541535 -0.07956998
00000000: 8e64 97bc 4619 0f3c 347d 64bd e830 cc3d
00000010: acab 0dbe 1794 06bd e142 a6bd 2c4f 5c3d
00000020: 415c d53d 797a 0a3e 2c1a b43d a11b 14bc
00000030: 1a55 0e3d 87f4 13be a72c 69bc 56dc e3bd
00000040: 6dc3 813d 866c bb3d 690e 10bd d28a 8cbb
00000050: fcfd 333a b60a ddbc 22f6 3f3d 878a c03c
00000060: 55d2 a13c 6214 863d af1d 9e3d def3 e2bc
00000070: 61cd 2abe cf83 bcba 86e9 85bd f0ac 85bd
00000080: d000 fbbd b67f 413e 6717 85bc 3678 d93d
00000090: dadd 27bd af10 883d 543d 9c3c 8080 133c
000000a0: 927b 3c3d 3fdb cf3d 1a04 3d3a 2330 a4bd
000000b0: 9121 46be 78ff cdbd 0fd0 5dbd 96f5 a2bd

1.6.weight f4 [36, 48]
-0.099275194 0.004132462 0.14368653 0.12880027 0.02341077 0.11925457 -0.04345491 -0.10646974
-0.022680866 -0.13521762 -0.059082102 0.049602233 -0.024167253 0.14526495 0.14758508 0.116211526
0.114154965 0.12053293 -0.14308964 0.11602929 -0.092212155 0.04937132 0.06612533 0.13528891
-0.12366417 -0.04447278 0.02029915 -0.090981305 0.05256711 0.0786681 0.11646574 0.030294416
0.046474174 0.1401594 0.00337374 0.0008828924 -0.025767306 0.0037756946 -0.10698673 -0.066344
-0.08620271 -0.059806917 -0.13039002 -0.18720305 -0.09815987 -0.108437955 0.1041723 0.11749829
0.016765933 -0.08745702 0.047933646 0.09230788 -0.11930614 0.15067028 -0.14336719 0.14551581
0.061177425 -0.15808181 -0.1645765 0.0743377 0.03236823 0.036611225 -0.02711311 -0.060492493
-0.096478745 -0.12619227 0.019313704 0.08517388 0.1138822 -0.06380105 0.10662032 -0.07169327
0.025265425 -0.041884143 -0.1285764 0.026514115 -0.11679345 0.012878523 -0.03939551 -0.14349882
-0.073689155 0.033753462 0.10750869 0.057933744 -0.11344158 0.04092642 -0.14535066 0.002822094
0.120055825 -0.043458175 0.012840534 -0.057758555 -0.0506398 0.019175362 -0.037118454 0.11242735
0.10591558 0.09726813 0.10371774 -0.13560724 0.04142877 0.10604397 -0.09408384 -0.0023319316
-0.055127274 0.054468706 0.102558546 -0.1339922 -0.058108047 -0.051618997 0.12301411 0.017594805
0.06712897 0.06187592 0.015572168 -0.0027047566 0.0486499 0.021585023 0.15828077 0.1253067
-0.072689354 -0.055862397 0.01964101 0.02598331 -0.15741481 -0.11236422 -0.11532025 -0.06335929
-0.10311481 -0.07032053 0.10030944 -0.094338566 0.009313648 -0.15527906 -0.09372877 -0.12465829
0.12327066 0.16514245 -0.14431737 0.10363428 -0.122978754 0.088759705 0.07024645 -0.114004165
-0.039627664 0.037325732 -0.011825066 -0.070606425 0.028453391 0.09223221 -0.08201056 0.1015858
0.06455507 0.088001706 -0.13425978 -0.08971085 -0.024355194 0.010572727 -0.123197585 0.13785078
0.102292776 -0.019537192 0.019558517 -0.06677014 0.050850384 -0.14573257 0.13368322 0.12482983
0.046640575 -0.062059432 -0.025867248 -0.123712435 -0.11281986 0.0071616713 -0.044247396 0.040433567
0.03593587 0.08838473 0.08448099 -0.038587514 -0.07272177 -0.092308044 0.061867405 -0.07982124
0.0059868135 0.04592373 -0.054706346 -0.042562045 0.07257238 0.069921695 0.10362586 0.13223317
-0.058966238 -0.0044541596 -0.066670805 0.031547554 -0.05394439 -0.11275086 0.056143455 -0.14246988
-0.049717408 0.14373681 0.12661365 0.037488595 0.10024323 0.039111663 -0.10890273 -0.018974958
-0.092635505 -0.04910123 0.1511956 -0.029770998 0.081394084 0.09335901 0.071268454 0.106416024
-0.1642021 -0.11011796 0.011485993 -0.14784974 0.037412826 -0.10797202 0.122154504 0.07201386
-0.12554373 0.0055484134 0.1285613 -0.061461158 -0.0787615 -0.08436684 0.083973944 -0.06333823
-0.07976938 0.10827545 -0.03655609 0.04461289 0.09554579 -0.061455164 0.08408272 -0.14601876
0.08967158 0.011667697 0.14143266 -0.09419954 0.0027445096 0.07474602 0.0015466413 -0.04003069
-0.037914723 -0.08416768 -0.00505666 -0.01866012 -0.107658625 0.093074076 0.0773679 -0.062459875
00000000: cb50 cbbd 9b69 873b 9022 133e 38e4 033e
00000010: f1c7 bf3c bd3b f43d c7fd 31bd cf0c dabd
00000020: 39cd b9bc 7d76 0abe 1300 72bd b62b 4b3d
00000030: 67fa c5bc 56c0 143e 8b20 173e 4f00 ee3d
00000040: 14ca e93d f8d9 f63d 1786 12be c4a0 ed3d
00000050: bad9 bcbd 9539 4a3d b86c 873d 2d89 0a3e
00000060: a443 fdbd 1729 36bd 674a a63c 6854 babd
00000070: 9c50 573d be1c a13d 9785 ee3d ff2b f83c
00000080: b45b 3e3d f285 0f3e f719 5d3b e871 673a
00000090: f515 d3bc a571 773b dc1b dbbd 5ddf 87bd
000000a0: 0c8b b0bd 19f8 74bd f684 05be 28b2 3fbe
000000b0: 0b08 c9bd b814 debd 4958 d53d f2a2 f03d
000000c0: b658 893c ab1c b3bd 1256 443d ea0b bd3d
000000d0: c756 f4bd 4f49 1a3e d9ce 12be 1902 153e
000000e0: 2e95 7a3d 33e0 21be be86 28be 5d3e 983d
000000f0: 8d94 043d a7f5 153d 501c debc fac6 77bd
00000100: a696 c5bd 8c38 01be c637 9e3c a56f ae3d
00000110: 123b e93d 20aa 82bd c15b da3d ecd3 92bd
00000120: 70f9 ce3c b58e 2bbd 88a9 03be 2134 d93c
00000130: 6831 efbd 7100 533c 305d 21bd 5bf1 12be
00000140: 57ea 96bd 1241 0a3d 842d dc3d ef4b 6d3d
00000150: 0f54 e8bd 76a2 273d ced6 14be e1f2 383b
00000160: d4df f53d 3301 32bd 1a61 523c 3c94 6cbd
00000170: ae6b 4fbd a615 9d3c 8509 18bd 4f40 e63d
00000180: 45ea d83d 8334 c73d f769 d43d a0dc 0abe
00000190: 37b1 293d 952d d93d 07af c0bd 52d3 18bb
000001a0: 23cd 61bd 941a 5f3d 370a d23d 4035 09be
000001b0: b402 6ebd 716e 53bd d2ee fb3d fb22 903c
000001c0: ea7a 893d 9b71 7d3d 6822 7f3c 4942 31bb
000001d0: 1e45 473d 13d3 b03c 5b14 223e 6650 003e
000001e0: 28de 94bd f8cf 64bd 2fe6 a03c f3da d43c
000001f0: 5931 21be 361f e6bd 062d ecbd 84c2 81bd
00000200: dc2d d3bd 3604 90bd 096f cd3d 9434 c1bd
00000210: 4598 183c 7901 1fbe dff4 bfbd d84c ffbd
00000220: 5475 fc3d 1a1b 293e efc7 13be 363e d43d
00000230: 49dc fbbd a6c7 b53d 5fdd 8f3d 047b e9bd
00000240: 9e50 22bd dee2 183d ecbd 41bc 1a9a 90bd
00000250: 1617 e93c 3ee4 bc3d 27f5 a7bd 370c d03d
00000260: 7335 843d 3d3a b43d 657b 09be 52ba b7bd
00000270: 8b84 c7bc 3b39 2d3c 044f fcbd c128 0d3e
00000280: e07e d13d 760c a0bc 2f39 a03c c8be 88bd
00000290: 7e48 503d eb3a 15be 41e4 083e c8a6 ff3d
000002a0: 300a 3f3d 0832 7ebd 8de7 d3bc f25c fdbd
000002b0: 190e e7bd 74ac ea3b c23c 35bd ab9d 253d
000002c0: 7e31 133d 0e03 b53d 5f04 ad3d f10d 1ebd
000002d0: 27ef 94bd 000c bdbd ad68 7d3d 5179 a3bd
000002e0: 082d c43b 851a 3c3d c313 60bd 8a55 2ebd
000002f0: d4a0 943d 1b33 8f3d cb39 d43d 2268 073e
00000300: 9586 71bd 33f4 91bb b48a 88bd 0238 013d
00000310: cbf4 5cbd ece9 e6bd aef6 653d a0e3 11be
00000320: 7ba4 4bbd be2f 133e 02a7 013e a48d 193d
00000330: 534c cd3d 8d33 203d 6508 dfbd 5f71 9bbc
00000340: afb7 bdbd 5f1e 49bd 05d3 1a3e 4fe2 f3bc
00000350: f1b1 a63d 0233 bf3d 32f5 913d a5f0 d93d
00000360: 9824 28be 8685 e1bd bf2f 3c3c ec65 17be
00000370: 313e 193d 6f20 ddbd 242c fa3d 017c 933d
00000380: 898e 00be 77cf b53b 93a5 033e b2be 7bbd
00000390: b64d a1bd 86c8 acbd 88fa ab3d 79b7 81bd
000003a0: 215e a3bd 85bf dd3d d7bb 15bd 01bc 363d
000003b0: 83ad c33d 69b8 7bbd 9033 ac3d f185 15be
000003c0: bca5 b73d de29 3f3c b9d3 103e b0eb c0bd
000003d0: 3bdd 333b 7114 993d acb8 ca3a 39f7 23bd
000003e0: 784c 1bbd 1b60 acbd 57b2 a5bb 1cdd 98bc
000003f0: 207c dcbd 9f9d be3d 1073 9e3d edd5 7fbd

1.6.bias f4 [36]
-0.053488817 0.0014597 -0.09469614 0.034055825 -0.017142711 -0.058653556 0.087618515 0.10061159
-0.04237633 0.032344658 -0.11547827 0.07388043 -0.11184366 0.1397834 0.054218538 -0.18452863
-0.11856202 -0.05584196 0.022267962 0.0792175 -0.10615101 0.0054697865 -0.03297553 -0.044240415
-0.06757451 0.12675685 -0.053128976 0.05360157 0.08165669 -0.0059746215 0.01508454 0.06354658
-0.18651855 0.007446864 -0.1054828 -0.059426967
00000000: 1717 5bbd 6853 bf3a 0df0 c1bd 1f7e 0b3d
00000010: df6e 8cbc b63e 70bd 5671 b33d 730d ce3d
00000020: cd92 2dbd d57b 043d df7f ecbd 9f4e 973d
00000030: 4a0e e5bd 6123 0f3e 4214 5e3d 13f5 3cbe
00000040: a5d0 f2bd 8aba 64bd 4d6b b63c c93c a23d
00000050: b365 d9bd e53b b33b 5911 07bd 7035 35bd
00000060: 8164 8abd 8ccc 013e c59d 59bd 528d 5b3d
00000070: 9f3b a73d c2c6 c3bb 2525 773c b624 823d
00000080: b8fe 3ebe d304 f43b 5e07 d8bd b169 73bd

1.8.weight f4 [24, 36]
0.084340505 -0.0435976 -0.012925504 0.06885838 -0.071826175 0.031599298 -0.15605836 -0.1654028
0.12882711 -0.18554872 0.062736824 0.030690676 -0.16033879 -0.0330915 -0.023772983 0.12629327
-0.12718435 -0.17895232 0.092327826 -0.032335535 0.18654233 -0.04098399 0.099133976 0.07278125
0.06142232 -0.11837443 0.0035862918 -0.021642031 -0.00936078 -0.03208254 -0.005095905 0.15005927
0.11988813 0.01244794 -0.08564623 -0.053787462 -0.003757445 -0.039167196 0.13558105 0.13605636
-0.061885227 0.027450064 0.09406164 -0.11470088 0.056625698 0.032437455 0.023473475 0.033366673
-0.11481987 0.127916 0.05073278 -0.091321915 -0.1019179 -0.050659694 0.068106316 -0.078983404
0.14262101 0.032607615 0.017287513 -0.003348887 0.04086852 -0.12671344 -0.0543359 -0.04619077
0.11376549 0.10105303 0.11183429 0.068694554 -0.07639255 0.0979842 0.07435467 0.05120856
0.16490526 0.07869209 0.13626489 -0.10737569 -0.07239904 -0.08014264 0.095838144 -0.12621492
0.15070434 -0.06559851 0.10860851 0.03390819 0.12723675 0.035104524 -0.0585127 -0.025088929
0.10462605 -0.1673545 0.052919287 -0.20230581 0.09457802 0.10941914 -0.12038977 0.06735475
0.14412305 0.15860425 0.1318974 -0.06950352 -0.06581005 0.053294912 -0.08317609 -0.13855575
0.11183905 0.09036819 -0.11314292 0.11985259 -0.15380646 -0.0034564156 0.17731695 0.14046565
-0.039787516 -0.054871697 -0.046864327 0.01177927 -0.11196033 -0.13104843 -0.11545548 -0.0062336596
0.0062337825 0.0064340066 0.041543156 0.114758074 0.10076945 0.008741656 0.08416977 -0.10855647
-0.0992976 0.08006637 0.07835283 -0.095606595 0.10167332 -0.009237227 -0.06018621 -0.10128939
0.028785627 -0.055391144 0.11890408 -2.5248244e-05 -0.09331073 -0.07160362 -0.16974774 0.11380307
-0.07051934 0.033474524 0.0022788171 0.10097355 0.07954248 -0.060542803 0.0040250565 0.072048105
-0.013288041 0.18341425 -0.1554343 0.089043245 -0.10293153 -0.054845452 -0.034876615 -0.0014542942
0.08758077 0.12958239 -0.070452034 0.10428864 -0.15258548 0.11871562 0.055335276 0.025408166
0.15363578 -0.15971844 0.13240527 -0.10479682 -0.035496183 0.039653536 0.0453118 0.12319964
-0.098122545 -0.07886316 0.15306506 0.09468477 0.10564871 -0.0064675477 0.08291836 -0.017292367
0.19248606 -0.116433494 -0.19217749 0.044467695 0.10938959 0.13967796 0.043018922 -0.13419262
0.0938956 -0.03184983 -0.022626814 0.21067616 -0.0024759343 0.116961084 0.19089676 0.0031731843
0.10388224 0.0068266853 0.01595717 0.12571946 -0.11618439 -0.098754875 0.14795926 -0.0631041
0.106822945 -0.016889798 -0.17230046 -0.0462015 -0.07409024 0.13713168 -0.03603091 -0.035814453
0.12529954 0.090485916 0.058806755 0.14499858 0.08643404 -0.17077771 -0.05955658 -0.17747667
-0.15576838 0.00019970555 -0.15776132 -0.08195377 -0.12958536 0.05427011 0.13528197 -0.23738517
-0.17213371 -0.15948558 -0.12291455 0.042559404 -0.13182084 -0.017935453 0.12164008 -0.14686644
0.083048366 -0.15704973 -0.047918737 -0.13242629 0.013406254 -0.015561749 0.06820699 0.12885137
-0.03476915 -0.16054991 -0.047575172 -0.13846147 -0.13350178 0.16588455 -0.09767881 -0.12206846
00000000: b7ba ac3d 6693 32bd 7ec5 53bc 9f05 8d3d
00000010: 9a19 93bd 446e 013d c3cd 1fbe 5a5f 29be
00000020: 41eb 033e 7c00 3ebe 2a7c 803d 036b fb3c
00000030: da2f 24be f48a 07bd 8fbf c2bc 0653 013e
00000040: 9d3c 02be 473f 37be 5f16 bd3d 4472 04bd
00000050: f404 3f3e d4de 27bd c106 cb3d 560e 953d
00000060: f895 7b3d 4b6e f2bd fe07 6b3b a14a b1bc
00000070: f55d 19bc fb68 03bd 8dfb a6bb 23a9 193e
00000080: e887 f53d 72f2 4b3c 4a67 afbd 3e50 5cbd
00000090: 773f 76bb c86d 20bd c2d5 0a3e 5c52 0b3e
000000a0: 5d7b 7dbd f5de e03c 64a3 c03d 4ce8 eabd
000000b0: 59f0 673d 23dd 043d 724b c03c 7eab 083d
000000c0: ae26 ebbd 69fc 023e 2dcd 4f3d fc06 bbbd
000000d0: 55ba d0bd 8a80 4fbd 537b 8b3d 0dc2 a1bd
000000e0: 3e0b 123e 908f 053d 8b9e 8d3c 0079 5bbb
000000f0: c065 273d 2bc1 01be 528f 5ebd 8832 3dbd
00000100: e2fd e83d e4f4 ce3d 6009 e53d bbaf 8c3d
00000110: b273 9cbd f1ab c83d 4347 983d 11c0 513d
00000120: eddc 283e 5229 a13d 0689 0b3e c9e7 dbbd
00000130: f345 94bd d321 a4bd ca46 c43d 7c3e 01be
00000140: 3d52 1a3e 8358 86bd 236e de3d 50e3 0a3d
00000150: 5a4a 023e c3c9 0f3d 03ab 6fbd 4c87 cdbc
00000160: 2f46 d63d fa5e 2bbe e5c1 583d 4129 4fbe
00000170: 1fb2 c13d 2417 e03d e98e f6bd 4af1 893d
00000180: fe94 133e 2769 223e 1d10 073e dd57 8ebd
00000190: 6bc7 86bd c44b 5a3d 3a58 aabd 8fe1 0dbe
000001a0: df0b e53d f512 b93d 7ab7 e7bd 4675 f53d
000001b0: 717f 1dbe 0885 62bb 9392 353e 3ad6 0f3e
000001c0: 3cf8 22bd 25c1 60bd cff4 3fbd d7fd 403c
000001d0: 754b e5bd 8f31 06be ec73 ecbd ba43 ccbb
000001e0: c244 cc3b 5cd4 d23b 2829 2a3d 4806 eb3d
000001f0: 3760 ce3d 2a39 0f3c 3361 ac3d db52 debd
00000200: 8a5c cbbd d6f9 a33d 7377 a03d 64cd c3bd
00000210: 1a3a d03d bd57 17bc d185 76bd d070 cfbd
00000220: d6cf eb3c d3e1 62bd fb83 f33d 31cc d3b7
00000230: b219 bfbd eba4 92bd 5ad2 2dbe 9511 e93d
00000240: 726c 90bd 951c 093d 3558 153b 38cb ce3d
00000250: 2be7 a23d bbfb 77bd 9fe4 833b f58d 933d
00000260: 15b6 59bc f2d0 3b3e 2b2a 1fbe 4e5c b63d
00000270: c4cd d2bd a0a5 60bd c8da 0ebd 049e beba
00000280: 8c5d b33d 3fb1 043e 2849 90bd 4895 d53d
00000290: 5e3f 1cbe 2d21 f33d 3ea7 623d c924 d03c
000002a0: b352 1d3e 3b8d 23be 3f95 073e b79f d6bd
000002b0: 7264 11bd bf6b 223d de98 393d 1850 fc3d
000002c0: 79f4 c8bd 0283 a1bd 16bd 1c3e 17ea c13d
000002d0: 5a5e d83d b9ed d3bb 1ad1 a93d b9a8 8dbc
000002e0: 111b 453e af74 eebd 2dca 44be c223 363d
000002f0: a607 e03d bd07 0f3e 9c34 303d ca69 09be
00000300: 564c c03d f874 02bd de5b b9bc 7ebb 573e
00000310: 4943 22bb 4b89 ef3d 717a 433e 33f5 4f3b
00000320: 36c0 d43d 63b2 df3b 9cb8 823c 9abc 003e
00000330: 15f2 edbd ff3f cabd a282 173e b93c 81bd
00000340: fdc5 da3d 795c 8abc 886f 30be c93d 3dbd
00000350: a0bc 97bd 3f6c 0c3e 2695 13bd 2db2 12bd
00000360: 864e 003e ae50 b93d 5adf 703d 827a 143e
00000370: 5404 b13d 5ae0 2ebe 9af1 73bd 72bc 35be
00000380: bf81 1fbe 0d68 5139 2f8c 21be 61d7 a7bd
00000390: 06b2 04be 564a 5e3d 5b87 0a3e 1915 73be
000003a0: d243 30be 3050 23be a0ba fbbd c552 2e3d
000003b0: 0bfc 06be 5fed 92bc 6f1e f93d 2864 16be
000003c0: 4315 aa3d a5d1 20be 7046 44bd c29a 07be
000003d0: e8a5 5b3c b5f6 7ebc 1bb0 8b3d 9df1 033e
000003e0: 196a 0ebd 3267 24be 2fde 42bd d8c8 0dbe
000003f0: b1b4 08be a4dd 293e d40b c8bd 07ff f9bd

1.8.bias f4 [24]
0.09730335 -0.19678845 0.12052153 -0.16408609 -0.15674731 0.09534217 -0.052165926 0.116196506
0.026061073 0.19603738 0.121597044 -0.10212558 -0.029809156 -0.0031974805 -0.10534778 -0.12550937
-0.026762106 -0.1252591 -0.05634835 -0.007353507 0.041559387 0.0052549713 0.045648947 -0.07126179
00000000: fb46 c73d e982 49be fed3 f63d 2f06 28be
00000010: 5e82 20be c142 c33d f0ab 55bd 6ff8 ed3d
00000020: 087e d53c 06be 483e df07 f93d 3727 d1bd
00000030: 5532 f4bc d28c 51bb 94c0 d7bd 8785 00be
00000040: 343c dbbc ec43 00be 87cd 66bd b0f5 f0bb
00000050: 2d3a 2a3d e531 ac3b 64fa 3a3d b4f1 91bd

1.10.weight f4 [12, 24]
-0.028822264 -0.1468625 -0.13568829 0.1350994 -0.17883721 0.02109622 -0.04385054 -0.054710574
-0.18029536 -0.044789653 -0.22251314 0.25092873 0.08084704 -0.14267516 -0.21716042 -0.30051437
-0.21988799 -0.056494065 0.04735328 -0.05334365 -0.20638402 0.20888522 0.22914533 0.1321916
0.03700571 -0.10613365 0.12133084 -0.24143568 -0.13101925 -0.07605787 -0.18383592 0.069667906
-0.15956326 0.15593913 -0.10922682 0.0341066 0.0924647 -0.25985992 0.004736043 -0.23130703
-0.093823105 -0.13848986 -0.0017046839 -0.18312423 0.27168828 0.117579825 -0.00032137777 -0.22901444
0.102363825 -0.07746289 -0.23838964 0.23361018 -0.15233319 0.15493187 -0.089818254 -0.20937917
0.07449472 -0.18478686 0.16926391 0.051208984 0.1288721 -0.24107537 -0.13460715 -0.03696981
0.107049674 0.100734636 0.17259036 -0.043678086 0.032516103 -0.042125896 -0.17595644 -0.096385404
-0.21314211 0.20322703 -0.2640975 0.02231888 0.06877302 -0.22006086 0.110085905 -0.015678918
0.25427428 0.15004124 0.15502657 -0.17555906 -0.1274666 -0.1924344 -0.15302488 0.042293377
0.2082929 0.21641518 0.077230595 -0.04477301 -0.13438733 -0.17979452 0.062868826 -0.03178953
-0.12715074 0.050504588 0.15814391 0.15946645 0.05384746 0.046239935 0.15573385 -0.10910812
-0.1643315 -0.06905735 -0.13540855 -0.135565 -0.032145325 0.12634945 0.22796452 -0.120063014
0.049558952 0.28837052 -0.026058093 0.1874502 0.2092386 -0.050576694 -0.015352638 -0.04847861
0.11398933 -0.13052976 0.040472668 -0.18637164 -0.07564136 0.24145286 -0.2626484 0.24549413
0.1042018 0.04872368 -0.18921569 -0.11290085 0.15054165 0.06472207 0.010845652 0.14340037
-0.24119377 -0.044460587 -0.2597921 -0.21105978 -0.11116141 -0.0018955244 0.14854853 -0.125394
-0.00942599 -0.06682088 0.030851401 -0.002557983 -0.07341172 0.06650848 -0.22581615 0.08689038
0.13321906 0.20439813 -0.019805096 -0.0324704 -0.15668789 -0.07870136 0.10414368 -0.19020125
0.038248103 -0.15249401 -0.16732243 0.22068867 -0.04629152 0.1506523 -0.029069973 0.12317691
0.07260605 -0.040132895 -0.2282282 0.07026532 0.19843532 -0.22397827 0.15845561 -0.072758034
0.2883349 -0.060768984 0.24532199 -0.060621154 0.12376877 0.01840737 -0.011584879 -0.0054740827
0.05008333 -0.1506773 0.014643057 0.18939395 -0.017358402 -0.1675879 -0.0616123 0.074815296
-0.047947083 -0.2554204 -0.14252539 0.108571455 0.1624302 0.21165249 -0.2772188 0.1366696
-0.22824219 -0.090588965 -0.1456657 0.0002563924 -0.05314314 -0.081707366 -0.14999713 0.011914038
0.055069663 -0.16844058 0.116663575 -0.06865703 0.21054208 -0.15391895 -0.07116593 0.19905257
-0.1631203 -0.14947231 -0.123926826 -0.10635904 0.11561112 0.21469107 -0.29312408 0.007385884
0.21995772 0.0069812024 -0.17892325 0.18932588 -0.025364647 -0.22229128 0.011777351 -0.24669117
-0.14340447 -0.037148748 -0.14276236 0.16293275 -0.13528533 0.17532822 0.23779938 -0.05188623
-0.060025513 -0.08681367 -0.1403258 -0.012960304 -0.17022423 0.15067986 -0.08332762 -0.020190625
-0.2032671 -0.13143754 -0.033627987 -0.0142806135 0.017486729 -0.17228267 0.1464655 -0.078689784
00000000: ab1c ecbc 2063 16be dff1 0abe 7f57 0a3e
00000010: 1a21 37be fbd1 ac3c a09c 33bd 3218 60bd
00000020: 599f 38be 5b75 37bd 7cda 63be bb79 803e
00000030: 2293 a53d 7019 12be 4d5f 5ebe 05dd 99be
00000040: 512a 61be 5266 67bd 83f5 413d df7e 5abd
00000050: 5556 53be 02e6 553e 13a5 6a3e 3c5d 073e
00000060: 4d93 173d 995c d9bd 4e7c f83d ea3a 77be
00000070: e929 06be 3bc4 9bbd 7c3f 3cbe 0cae 8e3d
00000080: 8d64 23be 82ae 1f3e 50b2 dfbd 5db3 0b3d
00000090: 225e bd3d 5c0c 85be cf30 9b3b c0db 6cbe
000000a0: 5426 c0bd 49d0 0dbe b36f dfba eb84 3bbe
000000b0: ba1a 8b3e b1cd f03d 987e a8b9 c382 6abe
000000c0: 20a4 d13d dda4 9ebd 6a1c 74be 8237 6f3e
000000d0: 3bfd 1bbe 76a6 1e3e a2f2 b7bd 7e67 56be
000000e0: b090 983d c438 3dbe 8553 2d3e 83c0 513d
000000f0: 0cf7 033e 76dc 76be 75d6 09be a86d 17bd
00000100: dc3c db3d f64d ce3d 87bb 303e cbe7 32bd
00000110: 9b2f 053d 348c 2cbd ed2d 34be b665 c5bd
00000120: ed41 5abe bf1a 503e ca37 87be 15d6 b63c
00000130: ded8 8c3d a257 61be b874 e13d 1371 80bc
00000140: 3d30 823e 69a4 193e 49bf 1e3e c1c5 33be
00000150: 9b86 02be 860d 45be 8eb2 1cbe d23b 2d3d
00000160: bc4a 553e f19b 5d3e 132b 9e3d e763 37bd
00000170: d59c 09be 0e1c 38be 5fc1 803d bd35 02bd
00000180: ce33 02be e6dd 4e3d 7af0 213e 2c4b 233e
00000190: 278f 5c3d 1666 3d3d b278 1f3e 1474 dfbd
000001a0: 8446 28be f16d 8dbd 8aa8 0abe 8dd1 0abe
000001b0: d1aa 03bd c061 013e 886f 693e 99e3 f5bd
000001c0: 54fe 4a3d 4da5 933e c877 d5bc f2f2 3f3e
000001d0: a542 563e 8229 4fbd a289 7bbc 8291 46bd
000001e0: 3d73 e93d 98a9 05be abc6 253d 35d8 3ebe
000001f0: dbe9 9abd 6b3f 773e da79 86be d062 7b3e
00000200: c167 d53d 7b92 473d c2c1 41be 9038 e7bd
00000210: 9727 1a3e 018d 843d f6b1 313c 8cd7 123e
00000220: 80fb 76be 4e1c 36bd 7803 85be 0e20 58be
00000230: 98a8 e3bd 3f73 f8ba 1b1d 183e 4967 00be
00000240: 786f 1abc 63d9 88bd 14bc fc3c d5a3 27bb
00000250: e258 96bd 9935 883d 593c 67be 95f3 b13d
00000260: 946a 083e be4d 513e 4c3e a2bc afff 04bd
00000270: ca72 20be 2e2e a1bd 4849 d53d 1ec4 42be
00000280: 0baa 1c3d 6427 1cbe 9256 2bbe 36fc 613e
00000290: 2d9c 3dbd 9944 1a3e 2724 eebc 2d44 fc3d
000002a0: 7bb2 943d 6462 24bd a7b4 69be 44e7 8f3d
000002b0: a132 4b3e 8f5a 65be 3042 223e 2a02 95bd
000002c0: a2a0 933e e6e8 78bd b035 7b3e e34d 78bd
000002d0: 7b7a fd3d 0ecb 963c 81ce 3dbc ef5f b3bb
000002e0: 2e24 4d3d 264b 1abe 6fe9 6f3c 7df0 413e
000002f0: 3533 8ebc 2a9c 2bbe 2e5d 7cbd c338 993d
00000300: 2964 44bd 76c6 82be 2df2 11be b65a de3d
00000310: 1a54 263e 6ebb 583e 9fef 8dbe 1ef3 0b3e
00000320: 52b8 69be b586 b9bd 6429 15be 686c 8639
00000330: 9fac 59bd 3156 a7bd d998 19be 1933 433c
00000340: ba90 613d b07b 2cbe 50ed ee3d 0f9c 8cbd
00000350: 5898 573e ee9c 1dbe 71bf 91bd 70d4 4b3e
00000360: 0209 27be 450f 19be 59cd fdbd c5d2 d9bd
00000370: 86c5 ec3d fad7 5b3e 5c14 96be 4905 f23b
00000380: 993c 613e 92c2 e43b a837 37be a5de 413e
00000390: 85c9 cfbc 53a0 63be caf5 403c 9c9c 7cbe
000003a0: 9fd8 12be 4929 18bd 4c30 12be d8d7 263e
000003b0: 3d88 0abe 3e89 333e ae81 733e a886 54bd
000003c0: 50dd 75bd 5ecb b1bd 91b1 0fbe 7457 54bc
000003d0: 434f 2ebe d24b 1a3e aca7 aabd cf66 a5bc
000003e0: 4025 50be 9097 06be 80bd 09bd 3cf9 69bc
000003f0: 5440 8f3c de6a 30be 0dfb 153e 1c28 a1bd

1.10.bias f4 [12]
0.11286969 0.073008515 -0.15884334 -0.16310567 -0.17865808 0.030436506 0.35763013 -0.073927104
0.2082617 0.11508553 -0.05325604 0.2646969
00000000: 3928 e73d 7d85 953d d4a7 22be 2c05 27be
00000010: 25f2 36be fb55 f93c 4c1b b73e 1867 97bd
00000020: 8e42 553e f6b1 eb3d 0123 5abd 5a86 873e

1.12.weight f4 [4, 12]
-0.18707375 -0.37096444 0.37278125 0.5586593 0.27412024 -0.45755926 -0.20985277 0.38780615
-0.4776358 0.017598571 -0.08845884 0.28187048 -0.27031428 0.034725334 0.42611766 0.577068
0.29863337 -0.4102992 -0.50924045 0.00049123645 0.04046706 -0.088554814 0.09035354 -0.33674073
-0.41171005 -0.41770154 -0.051658966 0.20557943 0.19055437 -0.23912425 -0.42678073 0.24741508
-0.28699237 -0.6670547 0.04950335 0.0025249526 -0.19805817 -0.562574 -0.16354746 0.53468144
-0.12779525 -0.066752404 -0.045860324 0.49548474 0.06391132 -0.16589522 -0.24010043 -0.46412492
00000000: 4390 3fbe 0def bdbe 2fdd be3e 4c04 0f3f
00000010: 7d59 8c3e 3545 eabe a5e3 56be 878e c63e
00000020: ae8c f4be e12a 903c e929 b5bd 5451 903e
00000030: a266 8abe 273c 0e3d 182c da3e baba 133f
00000040: 79e6 983e bd12 d2be 955d 02bf 52c6 003a
00000050: cac0 253d 3a5c b5bd 470b b93d 4869 acbe
00000060: a9cb d2be fadc d5be 5a98 53bd 6a83 523e
00000070: af20 433e fddc 74be 0183 dabe 615a 7d3e
00000080: aaf0 92be 19c4 2abf 06c4 4a3d ad79 253b
00000090: c3cf 4abe da04 10bf fc78 27be e2e0 083f
000000a0: c2dc 02be 7cb5 88bd 09d8 3bbd 2db0 fd3e
000000b0: f0e3 823d 70e0 29be e3dc 75be c8a1 edbe

1.12.bias f4 [4]
-0.58330065 -0.6535729 -0.825594 -0.8386544
00000000: 3153 15bf 8e50 27bf 215a 53bf 0eb2 56bf
