JSP/trained models/TEST_DDQN_rwd11.pt (torch_old, 43117 bytes, 16 tensors)

0.0.weight f4 [5, 5]
1.4485574 2.0637894 1.6494411 1.5761297 1.4379869 2.2009883 2.1297452 1.6762058
1.8414072 1.5705065 1.4107504 1.6796283 1.8664489 1.4792331 1.6942872 1.124747
1.371408 1.2851516 1.2943977 1.3091929 1.297142 2.0955944 2.0716007 2.258715
1.4786183
00000000: 546a b93f 2015 0440 e320 d33f 9ebe c93f
00000010: f40f b83f fedc 0c40 bf4d 0840 e98d d63f
00000020: 3bb3 eb3f 5b06 c93f 7893 b43f 0ffe d63f
00000030: cce7 ee3f 8357 bd3f 67de d83f b6f7 8f3f
00000040: 4c8a af3f d97f a43f d3ae a53f a293 a73f
00000050: c008 a63f 381e 0640 1b95 0440 c98e 1040
00000060: 5d43 bd3f

0.0.bias f4 [5, 5]
-0.32673126 0.25226524 0.15096182 0.083113246 0.10192725 0.25068316 -0.14393938 0.26803127
0.025748206 -0.045325298 0.07257988 -0.043919425 0.4439516 -0.31721103 0.0793451 0.18615744
-0.10976296 0.51564014 0.119638845 -0.26438797 -0.009240858 0.22702877 0.37376308 -0.23568872
-0.36982918
00000000: 5249 a7be e928 813e bc95 1a3e 4737 aa3d
00000010: 3cbf d03d 8b59 803e d864 13be 653b 893e
00000020: e7ed d23c 05a7 39bd c3a4 943d dbe4 33bd
00000030: a04d e33e 7c69 a2be af7f a23d 0ea0 3e3e
00000040: 67cb e0bd fe00 043f 3605 f53d dc5d 87be
00000050: f866 17bc 3b7a 683e e05d bf3e 6258 71be
00000060: 405a bdbe

1.0.weight f4 [64, 25]
-0.39993486 -0.2986212 -0.09754167 -0.06543644 -0.19009614 -0.087474994 0.5744929 -0.7146487
0.18918581 -0.034975853 -0.18006752 0.37561512 0.16193783 0.13447656 0.18330054 -0.0011844843
-0.16470504 0.037993453 0.09116012 0.081283316 -0.040022656 0.4114139 -0.15033951 0.254316
0.155204 -0.17398176 0.029464008 0.2833029 0.46429256 -0.23442635 -0.34104925 0.28700486
-0.055806383 -0.076614924 -0.13846394 -0.046035446 -0.39265928 -0.2469627 -0.018926566 0.4790365
-0.09104454 -0.34017196 0.055704456 -0.4100224 -0.10456375 0.30485898 0.6097551 -0.47595704
-0.30038878 -0.20213658 0.029295161 0.068920344 -0.11420688 0.09901423 0.04425041 -0.09571219
0.18339892 0.21658356 -0.005165821 -0.01853273 -0.093797624 0.14569092 0.3774535 0.22763707
-0.14196122 -0.1346441 -0.0035491176 0.25396925 -0.0076648314 0.11487318 -0.22924946 0.080183364
-0.5791808 0.061253823 0.017328423 0.09063939 0.013589129 -0.24997827 0.14672352 0.1983434
-0.19825344 0.3132482 -0.030849904 0.27243024 0.21786031 0.030610872 -0.39992255 -0.027696468
0.14021327 0.106403165 0.08235427 0.18205172 -0.33838707 0.1814245 0.18873037 -0.059092805
-0.27238485 -0.27030617 -0.28115624 0.07160463 -0.21954039 0.21468417 0.17208387 0.18432024
0.12942988 -0.25002047 0.56669486 0.35651633 -0.21039028 0.14459878 -0.18561207 0.02832022
0.05970799 0.032303188 -0.5658952 -0.21056032 0.18986107 0.24023646 -0.19000122 -0.2809985
-0.07859683 -0.024562122 -0.20132223 -0.5800311 0.10247776 -0.005379185 -0.16272578 0.34227583
-0.03252962 0.0010024143 -0.54328895 0.43157676 0.34175536 0.009846232 0.17956442 0.014793404
-0.25390846 -0.05998625 -0.061210822 -0.09321504 -0.14410323 -0.04101456 -0.04086213 -0.040305555
-0.031523723 0.074980475 0.45690787 -0.18293495 -0.09237448 -0.04210602 -0.034437988 -0.19242612
0.31245163 0.26628515 -0.037260506 -0.024388487 0.36832964 -0.0085429475 0.050123632 0.43471032
0.07198102 0.13106419 0.0475295 -0.443636 0.16846146 0.013025281 0.23738031 -0.30412608
0.049824234 0.048959937 0.001721909 -0.16768537 -0.76561326 -0.050984506 0.07018306 -0.09551939
0.08208661 -0.2689888 0.10278861 0.07691933 -0.2610347 0.036317345 -0.053658392 -0.24149878
-0.16154204 -0.11437816 -0.29433143 0.108078256 -0.086696215 -0.19474852 -0.15018566 -0.0131728435
0.54121244 0.11810793 -0.031340946 -0.06415558 0.15134431 0.2169085 -0.14413062 -0.2241803
0.084888354 0.2934089 0.23714815 -0.11852283 0.038302924 0.07588192 -0.25890073 -0.036804955
0.15549242 0.40624216 0.05306718 -0.13104433 0.06353904 -0.13475123 -0.11681625 0.012194664
-0.26353768 -0.30344445 0.18252614 0.21195418 -0.088599384 -0.2410326 -0.47823465 -0.45700577
0.24603693 0.17986107 -0.020485654 0.31200632 0.3159842 -0.13512743 0.73480785 0.22290577
0.10811179 0.26537338 -0.23037139 0.3543452 0.025229407 -0.042777915 0.0412132 -0.47936955
0.09302779 -0.035550702 -0.033799753 -0.014886996 -0.2685366 0.11321823 0.22456446 0.1686658
-0.2683341 0.059767846 0.19853061 0.59512556 -0.28611493 -0.15545171 0.14097914 0.10253725
00000000: 43c4 ccbe e1e4 98be edc3 c7bd 8a03 86bd
00000010: 90a8 42be 1726 b3bd f711 133f 38f3 36bf
00000020: edb9 413e d742 0fbd 9f63 38be a050 c03e
00000030: 08d3 253e 39b4 093e 23b3 3b3e b340 9bba
00000040: 70a8 28be 069f 1b3d 28b2 ba3d de77 a63d
00000050: ccee 23bd d8a4 d23e 9af2 19be b535 823e
00000060: cced 1e3e 4628 32be 815e f13c 140d 913e
00000070: c1b7 ed3e 760d 70be 029e aebe 4df2 923e
00000080: 3c95 64bd 49e8 9cbd 7ec9 0dbe aa8f 3cbd
00000090: a30a c9be cae3 7cbe e30b 9bbc 4644 f53e
000000a0: 8f75 babd 052b aebe 5b2a 643d 75ee d1be
000000b0: 8525 d6bd 7a16 9c3e e918 1c3f a4b0 f3be
000000c0: 8fcc 99be e4fc 4ebe 68fc ef3c 1c26 8d3d
000000d0: 4ce5 e9bd f9c7 ca3d eb3f 353d c104 c4bd
000000e0: edcc 3b3e 15c8 5d3e 0c46 a9bb f4d1 97bc
000000f0: f818 c0bd 0030 153e 9641 c13e b119 693e
00000100: 485e 11be 25e0 09be 5098 68bb 4208 823e
00000110: 4429 fbbb a142 eb3d 5fc0 6abe 2d37 a43d
00000120: 3145 14bf 4ae5 7a3d 56f4 8d3c 25a1 b93d
00000130: f0a4 5e3c 4efa 7fbe b13e 163e 881a 4b3e
00000140: f302 4bbe 1162 a03e f0b8 fcbc fa7b 8b3e
00000150: c616 5f3e a7c3 fa3c a6c2 ccbe b4e3 e2bc
00000160: 1194 0f3e e7e9 d93d 5ba9 a83d c46b 3a3e
00000170: 1241 adbe 58c7 393e 8942 413e 4c0b 72bd
00000180: 0776 8bbe 9265 8abe b6f3 8fbe 73a5 923d
00000190: 32cf 60be 2bd6 5b3e c136 303e 72be 3c3e
000001a0: 4489 043e af02 80be ea12 113f 4f89 b63e
000001b0: 8d70 57be b411 143e 1711 3ebe ceff e73c
000001c0: 5e90 743d 5950 043d 82de 10bf 209d 57be
000001d0: f16a 423e 8c00 763e ae8f 42be 09df 8fbe
000001e0: 60f7 a0bd 8136 c9bc 6a27 4ebe eb7c 14bf
000001f0: dcdf d13d e043 b0bb 96a1 26be c73e af3e
00000200: c73d 05bd 7163 833a fc14 0bbf a1f7 dc3e
00000210: 8ffa ae3e 1752 213c bcdf 373e 0960 723c
00000220: 4a00 82be 24b4 75bd 33b8 7abd 87e7 bebd
00000230: cc8f 13be e2fe 27bd 0c5f 27bd 7017 25bd
00000240: 051f 01bd 5d8f 993d d4ef e93e 4d53 3bbe
00000250: d52e bdbd 5d77 2cbd d90e 0dbd 5a0b 45be
00000260: a9f9 9f3e 8756 883e 799e 18bd 5dca c7bc
00000270: b495 bc3e b8f7 0bbc 704e 4d3d 5a92 de3e
00000280: c96a 933d b135 063e 4bae 423d 4224 e3be
00000290: 2981 2c3e fd67 553c d313 733e 6ab6 9bbe
000002a0: 7f14 4c3d 378a 483d aeb1 e13a b7b5 2bbe
000002b0: 3bff 43bf 21d5 50bd 23bc 8f3d ac9f c3bd
000002c0: 061d a83d e6b8 89be d682 d23d e287 9d3d
000002d0: 57a6 85be 7fc1 143d e7c8 5bbd 754b 77be
000002e0: 476b 25be 193f eabd 9cb2 96be 2258 dd3d
000002f0: c98d b1bd 286c 47be 45ca 19be e9d2 57bc
00000300: e68c 0a3f 92e2 f13d 5d5f 00bd 0064 83bd
00000310: 01fa 1a3e 431d 5e3e fa96 13be 858f 65be
00000320: f2d9 ad3d b139 963e f7d6 723e 19bc f2bd
00000330: 87e3 1c3d fb67 9b3d a38e 84be cbc0 16bd
00000340: 6839 1f3e f9fe cf3e f95c 593d 7c30 06be
00000350: c220 823d 3afc 09be 5c3d efbd 21cc 473c
00000360: 69ee 86be 125d 9bbe 22e8 3a3e 840a 593e
00000370: 9873 b5bd 40d1 76be 2cdb f4be a9fc e9be
00000380: 1bf1 7b3e 802d 383e 88d1 a7bc 4bbf 9f3e
00000390: aec8 a13e d85e 0abe 5e1c 3c3f 6941 643e
000003a0: b769 dd3d 05df 873e 7ae6 6bbe bc6c b53e
000003b0: e7ad ce3c e537 2fbd 2ccf 283d ed6f f5be
000003c0: 5b85 be3d 9d9d 11bd 9c71 0abd 96e8 73bc
000003d0: a17d 89be f6de e73d 3af4 653e bab6 2c3e
000003e0: 1663 89be 21cf 743d 9c4b 4b3e 265a 183f
000003f0: a87d 92be bc2e 1fbe d65c 103e 0dff d13d

1.0.bias f4 [64]
-0.0013792625 -0.13993631 -0.005732879 -0.18985955 -0.43976423 0.18477832 0.19840226 -0.07869354
-0.15941697 -0.0462442 0.033338387 -0.358667 -0.18244082 -0.2385906 -0.18225145 0.20641495
-0.25910437 -0.27117306 0.045140613 -0.12918097 -0.10399992 0.031892546 -0.16517372 -0.17997718
0.11819612 0.16012621 0.12664437 -0.029586025 0.49289942 -0.20019372 0.11184909 -0.39665508
-0.10409061 -0.1753474 -0.27119976 -0.33969307 -0.2016641 0.15215112 0.024890443 0.33577025
-0.11525202 -0.055396423 -0.110419765 -0.09300269 0.35966375 0.31434032 -0.18661137 0.033772532
0.30090153 -0.25953367 -0.1367093 0.011938171 -0.009523107 0.13824096 0.2844678 0.16363199
0.0831899 -0.045368887 -0.5780707 -0.06900977 -0.18886004 -0.29011148 -0.25529912 0.027752222
00000000: 5fc8 b4ba 774b 0fbe e0da bbbb 8b6a 42be
00000010: c728 e1be 8736 3d3e f629 4b3e 142a a1bd
00000020: 343e 23be 8f6a 3dbd d58d 083d 33a3 b7be
00000030: c4d1 3abe 1851 74be 20a0 3abe 715e 533e
00000040: 54a9 84be 32d7 8abe 5de5 383d 0448 04be
00000050: e9fd d4bd c2a1 023d 4d23 29be f04b 38be
00000060: cf10 f23d 20f8 233e 10af 013e 645e f2bc
00000070: 505d fc3e 95ff 4cbe 2311 e53d 6016 cbbe
00000080: 752d d5bd 458e 33be b2da 8abe 40ec adbe
00000090: 0981 4ebe 81cd 1b3e 0be7 cb3c 14ea ab3e
000000a0: 4009 ecbd 5ce7 62bd c223 e2bd 3278 bebd
000000b0: d925 b83e 37f1 a03e 0d17 3fbe 1155 0a3d
000000c0: c40f 9a3e 99e1 84be 86fd 0bbe 5298 433c
000000d0: ce06 1cbc 0a8f 0d3e c3a5 913e 258f 273e
000000e0: 775f aa3d bad4 39bd 71fc 13bf ff54 8dbd
000000f0: 8764 41be 7e89 94be 91b6 82be a158 e33c

1.2.weight f4 [48, 64]
0.27586174 0.13622253 -0.07792469 0.069517985 0.09694453 -0.06756447 -0.017649055 -0.07971871
0.21083207 0.15119658 -0.08705813 -0.015921192 0.13143533 -0.0011746197 0.22089492 -0.13925165
0.110219285 0.05919234 0.27661932 0.2750358 0.30100155 0.080413796 0.22701317 -0.0038858824
0.3161782 0.091135524 0.079996586 -0.11071996 -0.006414095 -0.01052282 0.16664109 0.001998339
0.04916244 -0.03435199 0.26046628 0.19314148 -0.16717796 -0.0065913764 0.21850148 0.18699284
0.4385491 0.049969777 0.06690538 -0.10068875 -0.07092682 -0.11004141 0.11347048 0.03504816
-0.2531821 -0.13188553 -0.07935679 0.04858051 -0.017713197 -0.020672493 -0.027928777 0.13347322
-0.24539949 -0.027479904 0.23434275 0.07838763 -0.018623287 -0.17117791 0.0708056 -0.26912534
-0.2566321 -0.11161273 -0.11354688 0.00027168973 0.19303091 -0.04647964 -0.06340739 -0.2453521
0.1603122 0.09718181 0.10649113 -0.10474209 -0.04329985 0.0045687477 -0.06224666 0.060895566
-0.12012295 0.23513593 -0.08881431 0.07970868 0.18236223 0.062074777 0.058683783 0.098417744
-0.007355887 0.03531567 -0.10981824 -0.07386807 -0.09199134 0.055238068 -0.1360566 0.017202487
0.13355465 -0.05006817 0.106426425 -0.046035986 0.051028084 -0.10592117 0.17259984 -0.02927751
-0.10786591 0.20393711 -0.07507345 0.09285003 0.14478903 -0.106015965 -0.14893736 -0.07129591
0.09137839 -0.07314198 0.049118966 -0.07735051 -0.06882894 0.04419409 0.10631005 -0.06357886
0.33816892 0.035719465 0.057278864 -0.19025393 -0.19038266 0.12721765 0.09920825 0.06665604
0.20122421 0.15492575 0.017823389 -0.064315744 -0.17065805 0.031300355 0.15210609 0.09587723
-0.049644005 -0.21515279 0.093375005 0.06884572 -0.15972431 -0.081505775 0.13043164 0.16509882
-0.13293988 -0.18900314 -0.014176126 -0.08121127 -0.0749893 0.11575126 -0.08451229 0.19480671
0.31733367 -0.15326795 -0.21958646 0.023290332 0.1368678 0.12451027 0.12866876 0.08011749
-0.1306067 0.15324582 0.13287191 -0.072563544 -0.15152954 0.051479083 -0.27999952 -0.08607608
-0.37816355 -0.24816526 -0.17110565 -0.20513311 -0.19811012 0.030395586 0.09065739 -0.049307533
-0.21929446 0.032421548 0.121600375 0.097743444 0.35819447 0.03861085 0.011586696 0.20555662
-0.22334878 -0.53077686 0.033274837 0.07033781 0.16117942 -0.06864099 -0.07342542 0.16117342
-0.21080874 -0.085301265 -0.03631665 -0.1210901 0.19287007 -0.07664851 -0.05494193 -0.107059166
0.082744814 0.11725239 0.04764361 0.034822892 0.12994033 0.04930041 -0.046543185 -0.10595608
-0.06355811 0.18132764 -0.15940721 0.17499962 0.1189523 -0.2970339 -0.16971783 0.040242285
-0.03494042 0.15562513 0.11975879 0.07020791 0.07904188 0.13727094 -0.063833065 0.22735813
0.1609949 0.0059323106 -0.07967259 -0.04594193 -0.0140770115 0.063439764 0.06576023 -0.15930754
0.19457133 0.18752383 -0.25584748 -0.14004289 -0.11353314 -0.21127181 -0.19123644 -0.2515582
-0.23408455 -0.018908225 0.06916112 -0.103814535 0.17538565 0.0036348025 -0.06471209 -0.018492473
0.022486927 0.0719709 0.124094404 -0.09525395 0.05876386 0.15166238 0.18389395 0.17489348
00000000: c03d 8d3e eb7d 0b3e fb96 9fbd 725f 8e3d
00000010: db8a c63d 3e5f 8abd c094 90bc 9043 a3bd
00000020: 5de4 573e 47d3 1a3e 884b b2bd 296d 82bc
00000030: fc96 063e b2f5 99ba 4732 623e fc97 0ebe
00000040: a6ba e13d ab73 723d 0ca1 8d3e 7ed1 8c3e
00000050: e01c 9a3e fdaf a43d 2476 683e 4aaa 7ebb
00000060: 1ce2 a13e 43a5 ba3d 40d5 a33d 25c1 e2bd
00000070: 542d d2bb e867 2cbc f6a3 2a3e 91f6 023b
00000080: 8e5e 493d acb4 0cbd d65b 853e e1c6 453e
00000090: b330 2bbe 79fc d7bb dabe 5f3e 0d7b 3f3e
000000a0: 8289 e03e 1cad 4c3d b005 893d e735 cebd
000000b0: 1542 91bd 645d e1bd 3663 e83d a98e 0f3d
000000c0: 16a1 81be 000d 07be d085 a2bd 5bfc 463d
000000d0: 441b 91bc 5c59 a9bc e4ca e4bc 34ad 083e
000000e0: 014a 7bbe 891d e1bc 8cf7 6f3e b289 a03d
000000f0: dd8f 98bc 4349 2fbe 8702 913d ccca 89be
00000100: 4865 83be 3795 e4bd 448b e8bd 9471 8e39
00000110: e5a9 453e 6f61 3ebd bcdb 81bd 953d 7bbe
00000120: e228 243e 4207 c73d 0618 da3d 0583 d6bd
00000130: 2f5b 31bd 6fb5 953b 5bf6 7ebd a16d 793d
00000140: 0503 f6bd 79c7 703e 47e4 b5bd 4e3e a33d
00000150: 2abd 3a3e 1f42 7e3d 685e 703d 3e8f c93d
00000160: a709 f1bb 2aa7 103d 63e8 e0bd 2548 97bd
00000170: f565 bcbd 5041 623d 6c52 0bbe 3bec 8c3c
00000180: 8dc2 083e 4814 4dbd 19f6 d93d 3b90 3cbd
00000190: d302 513d 33ed d8bd 03be 303e 63d7 efbc
000001a0: cde8 dcbd e4d4 503e 1cc0 99bd 2828 be3d
000001b0: 9343 143e e61e d9bd 0983 18be 9703 92bd
000001c0: 9824 bb3d 76cb 95bd f830 493d f269 9ebd
000001d0: 30f6 8cbd dd04 353d 15b9 d93d a235 82bd
000001e0: 7a24 ad3e 934e 123d 3e9d 6a3d edd1 42be
000001f0: acf3 42be 5845 023e b22d cb3d f682 883d
00000200: b80d 4e3e dba4 1e3e 5b02 923c f9b7 83bd
00000210: fcc0 2ebe cd34 003d b3c1 1b3e 485b c43d
00000220: 8357 4bbd 0351 5cbe 653b bf3d fcfe 8c3d
00000230: c58e 23be 80ec a6bd df8f 053e aa0f 293e
00000240: 6421 08be 0a8a 41be fb42 68bc 1852 a6bd
00000250: fd93 99bd ff0e ed3d c814 adbd 697b 473e
00000260: 8f79 a23e 46f2 1cbe 46db 60be 5ecb be3c
00000270: 1327 0c3e 3eff fe3d bec1 033e a314 a43d
00000280: c3bd 05be 79ec 1c3e 930f 083e 329c 94bd
00000290: 8f2a 1bbe bbdb 523d 195c 8fbe a848 b0bd
000002a0: a79e c1be 091f 7ebe 5236 2fbe 6a0e 52be
000002b0: 61dd 4abe 2a00 f93c 95aa b93d b2f6 49bd
000002c0: ba8e 60be 75cc 043d 9e09 f93d b72d c83d
000002d0: 4465 b73e 6926 1e3d 20d6 3d3c 6f7d 523e
000002e0: 8bb5 64be fee0 07bf 324b 083d 450d 903d
000002f0: 380c 253e a693 8cbd 1160 96bd a50a 253e
00000300: 3fde 57be 6eb2 aebd c5c0 14bd 16fe f7bd
00000310: bb7f 453e e5f9 9cbd ca0a 61bd d641 dbbd
00000320: 1d76 a93d 0522 f03d f225 433d 73a2 0e3d
00000330: 140f 053e 3aef 493d 11a4 3ebd 80ff d8bd
00000340: c12a 82bd f4ad 393e a53b 23be 1a33 333e
00000350: 439d f33d d414 98be 83ca 2dbe 18d5 243d
00000360: b01d 0fbd 325c 1f3e 1944 f53d 2ac9 8f3d
00000370: b6e0 a13d c190 0c3e e9ba 82bd 92d0 683e
00000380: d9db 243e d463 c23b 622b a3bd 9b2d 3cbd
00000390: 44a3 66bc b5ec 813d 4dad 863d 8421 23be
000003a0: b53d 473e 3f06 403e 71fe 82be 6767 0fbe
000003b0: 1084 e8bd a357 58be 7cd3 43be 3dcc 80be
000003c0: dcb3 6fbe 6ce5 9abc 58a4 8d3d b79c d4bd
000003d0: 4c98 333e de35 6e3b c687 84bd 877d 97bc
000003e0: 8136 b83c 7b65 933d 3525 fe3d 8114 c3bd
000003f0: 60b2 703d 624d 1b3e b24e 3c3e 4717 333e

1.2.bias f4 [48]
-0.25132784 0.07735777 -0.048400216 -0.07410188 0.19635154 -0.049126018 0.13220583 -0.0678165
0.1387591 0.08418897 -0.048679855 0.112200834 -0.0058799996 0.2117559 0.19117764 -0.32991147
-0.1055279 4.1054824e-05 -0.06567884 -0.010129316 0.21898077 0.09688985 -0.15356328 -0.32106668
-0.2503708 0.05476914 -0.0053567635 0.20257212 -0.034500826 0.16317613 -0.1935621 0.09920574
-0.07906051 0.06514764 -0.09423599 0.32927704 -0.021503344 0.05617865 -0.5998789 0.08190488
-0.13779134 0.14157768 0.11166227 -0.106613085 0.21297492 0.020384766 0.0031580268 -0.037694648
00000000: 0bae 80be c06d 9e3d 4e3f 46bd bac2 97bd
00000010: 6110 493e 5d38 49bd f760 073e 61e3 8abd
00000020: de16 0e3e 446b ac3d 8764 47bd 8dc9 e53d
00000030: 03ad c0bb 8ad6 583e 12c4 433e 28ea a8be
00000040: 031f d8bd 4832 2c38 a182 86bd 6ef5 25bc
00000050: 7f3c 603e 306e c63d b13f 1dbe da62 a4be
00000060: 9a30 80be 9b55 603d ca87 afbb 116f 4f3e
00000070: bd50 0dbd a517 273e 2535 46be 612c cb3d
00000080: 7aea a1bd 206c 853d ccfe c0bd 0097 a83e
00000090: c827 b0bc 961b 663d aa91 19bf bfbd a73d
000000a0: 2c19 0dbe bdf9 103e 30af e43d f657 dabd
000000b0: 1916 5a3e f4fd a63c e6f6 4e3b b465 1abd

1.4.weight f4 [48, 48]
0.0805081 0.02466949 0.12189299 0.20500617 -0.23767047 0.16488296 -0.004103836 0.11801626
0.027612535 -0.20055285 0.21112965 -0.13293128 0.056352593 0.065446675 0.043662265 0.29319796
0.11976739 -0.028205438 -0.121577196 0.1842333 -0.13922551 -0.089145966 0.06301566 0.13741119
0.22630723 0.086039685 -0.12898204 -0.0773369 0.08310802 0.009789147 -0.024434496 -0.113408394
-0.11015591 -0.07377395 0.021363059 -0.16847593 0.16979183 -0.07316438 0.30330667 -0.28930065
0.026751949 0.043004822 -0.24366286 0.17130806 0.08784544 0.10412309 -0.18951415 -0.13773362
-0.090466715 0.056301747 0.21402572 -0.097234 0.14317591 0.23374832 -0.07322799 0.1217853
-0.053525113 -0.18716541 -0.149451 -0.22872916 0.022152843 0.0788909 0.023494573 0.041630488
0.0044600763 -0.24364804 -0.09765924 0.21301527 -0.15930286 0.036045466 -0.16552825 0.018248899
0.012284432 -0.0152759 0.010054355 0.15320377 -0.013123063 -0.0018258275 0.03084759 -0.09017786
0.11714754 0.19122455 0.29555967 -0.16725565 -0.019135537 0.04895179 0.16263449 -0.103727736
-0.127351 0.070753895 -0.03676067 -0.1427542 -0.019058373 -0.018750073 0.1722672 0.006022478
-0.21800645 -0.22861424 0.14261626 -0.21873693 -0.21688034 0.09762954 -0.105678864 0.06003729
0.06504316 -0.22869752 -0.13053913 0.2819766 -0.30850655 0.3321561 -0.08336224 0.11043375
0.13251314 0.23403166 0.19228001 -0.2326543 0.11955876 -0.1388798 -0.1685639 -0.25293458
0.069676146 0.10842079 0.038229015 0.27476886 -0.026301922 0.23094217 0.020106185 0.124255545
0.26474568 0.08257543 -0.065810785 0.08289587 0.14213134 0.10397058 -0.14460275 -0.09842699
0.017469108 -0.22960675 -0.10788401 -0.07408068 -0.060361076 -0.070315026 0.013180026 -0.029651554
-0.022660201 -0.31670856 0.0815157 0.034115843 -0.0068792235 -0.04173277 -0.027001757 -0.03435135
-0.06527042 -0.21172261 0.0555292 -0.049284577 -0.060665254 0.0811538 -0.18868206 0.1887326
0.19169797 0.3222746 0.095677264 0.20008132 -0.17869289 0.15246521 -0.08687354 -0.03011789
0.44291893 -0.115726516 0.056476012 -0.12384538 0.23818244 0.041669678 -0.1311412 0.30598196
-0.04179331 -0.031947643 -0.002886019 -0.17148785 -0.19550532 0.049032018 0.40726522 0.031120347
-0.06927485 -0.0083312085 -0.1546817 -0.07071085 0.084081344 -0.043506358 -0.15874158 -0.11381582
0.1148177 -0.053249512 0.02109168 0.020856315 0.15934142 0.050036702 0.10405522 -0.10577643
0.12538674 -0.15817168 0.09510081 -0.13979103 -0.111905746 -0.023981478 -0.10772673 -0.037690785
0.08675197 0.025945973 0.114847384 -0.10515899 0.16302201 0.13153549 0.015986994 -0.11745539
0.0037606917 0.037249688 0.07763251 -0.06932231 -0.13845946 -0.080927335 -0.107595816 0.12189682
-0.15716176 0.144041 -0.15325981 0.08750762 -0.14033023 -0.13764 0.0766867 -0.058548503
-0.16842063 0.18100356 -0.09486595 0.07172364 -0.06756872 0.13559994 -0.099654466 -0.10043917
0.027096625 0.1356902 0.10863429 -0.018165989 0.069340535 0.14543903 -0.10013038 -0.011935245
-0.09805784 0.019223604 -0.082682066 0.05279938 -0.13043484 -0.031190488 0.06414169 -0.03519399
00000000: 6ee1 a43d ac17 ca3c 08a3 f93d 23ed 513e
00000010: e35f 73be 14d7 283e 7979 86bb 82b2 f13d
00000020: af33 e23c ba5d 4dbe 5f32 583e 231f 08be
00000030: fad1 663d e808 863d 34d7 323d 0b1e 963e
00000040: 9b48 f53d 170f e7bc 77fd f8bd a7a7 3c3e
00000050: 2291 0ebe 2992 b6bd 5b0e 813d 85b5 0c3e
00000060: 15bd 673e 9335 b03d de13 04be cf62 9ebd
00000070: 8a34 aa3d a962 203c da2a c8bc a942 e8bd
00000080: 6c99 e1bd cc16 97bd 9501 af3c f484 2cbe
00000090: e9dd 2d3e 35d7 95bd 034b 9b3e 371f 94be
000000a0: e726 db3c d325 303d c282 79be 616b 2f3e
000000b0: 4fe8 b33d 7d3e d53d ff0f 42be 0b0a 0dbe
000000c0: 9d46 b9bd a99c 663d 8f29 5b3e 9f22 c7bd
000000d0: b59c 123e b85b 6f3e 8ef8 95bd 926a f93d
000000e0: 263d 5bbd 4aa8 3fbe af09 19be fa37 6abe
000000f0: e179 b53c 8d91 a13d b177 c03c bb84 2a3d
00000100: d525 923b df7e 79be 9101 c8bd ad20 5a3e
00000110: 4a20 23be 69a4 133d 3d80 29be b77e 953c
00000120: a444 493c c547 7abc 05bb 243c 73e1 1c3e
00000130: 1e02 57bc 9b50 efba 16b4 fc3c 2baf b8bd
00000140: 0deb ef3d 5ed0 433e 9953 973e 1145 2bbe
00000150: 21c2 9cbc ac81 483d a889 263e 356f d4bd
00000160: 4d68 02be 6be7 903d 5b92 16bd 282e 12be
00000170: 4e20 9cbc c199 99bc d066 303e 3558 c53b
00000180: 153d 5fbe da19 6abe ff09 123e 93fc 5fbe
00000190: e115 5ebe fff1 c73d 296e d8bd a9e9 753d
000001a0: 5935 853d af2f 6abe 0dac 05be 3d5f 903e
000001b0: 92f4 9dbe 5d10 aa3e d2b9 aabd 172b e23d
000001c0: 86b1 073e ffa5 6f3e 0de5 443e ee3c 6ebe
000001d0: 39db f43d 8236 0ebe 049c 2cbe a480 81be
000001e0: 5eb2 8e3d b80b de3d 0796 1c3d 81ae 8c3e
000001f0: 2177 d7bc 1b7c 6c3e bab5 a43c b179 fe3d
00000200: bf8c 873e 4f1d a93d cec7 86bd 4fc5 a93d
00000210: e18a 113e 87ee d43d be12 14be 1794 c9bd
00000220: 601b 8f3c 081e 6bbe 4bf2 dcbd 9db7 97bd
00000230: 2d3d 77bd 5301 90bd 09f1 573c d1e7 f2bc
00000240: e3a1 b9bc a027 a2be b4f1 a63d 0ebd 0b3d
00000250: 1c6b e1bb fbef 2abd ca32 ddbc 00b4 0cbd
00000260: 7fac 85bd d0cd 58be 9672 633d a0de 49bd
00000270: 217c 78bd f733 a63d df35 41be 1e43 413e
00000280: 794c 443e 2d01 a53e 71f2 c33d 1ee2 4c3e
00000290: 45fb 36be d71f 1c3e c1ea b1bd cbb9 f6bc
000002a0: 45c6 e23e 0602 edbd 6453 673d a6a2 fdbd
000002b0: 19e6 733e d3ad 2a3d e149 06be aba9 9c3e
000002c0: 762f 2bbd 88db 02bd 5d23 3dbb 839a 2fbe
000002d0: 8c32 48be ccd5 483d 1185 d03e 19f0 fe3c
000002e0: f9df 8dbd 9f7f 08bc e164 1ebe dad0 90bd
000002f0: d732 ac3d b933 32bd 278d 22be 4518 e9bd
00000300: 8b25 eb3d 291c 5abd 75c8 ac3c ddda aa3c
00000310: 662a 233e 49f3 4c3d e71a d53d 50a1 d8bd
00000320: 6265 003e c2f7 21be 37c4 c23d 6125 0fbe
00000330: d72e e5bd ce74 c4bc d59f dcbd a761 1abd
00000340: 04ab b13d a68c d43c 1b35 eb3d 995d d7bd
00000350: 3eef 263e 3db1 063e 28f7 823c 748c f0bd
00000360: f075 763b 2193 183d cbfd 9e3d dbf8 8dbd
00000370: 51c8 0dbe 3bbd a5bd 325b dcbd 0aa5 f93d
00000380: 03ef 20be 7c7f 133e 24f0 1cbe 3237 b33d
00000390: bab2 0fbe 80f1 0cbe eb0d 9d3d 8ed0 6fbd
000003a0: 7576 2cbe ff58 393e 1449 c2bd d8e3 923d
000003b0: 7861 8abd b6da 0a3e a417 ccbd 0db3 cdbd
000003c0: bef9 dd3c 5ff2 0a3e a87b de3d d7d0 94bc
000003d0: 6902 8e3d f8ed 143e 2811 cdbd 0c8c 43bc
000003e0: 8cd2 c8bd d27a 9d3c 3755 a9bd 2a44 583d
000003f0: b690 05be 3283 ffbc b85c 833d 9327 10bd

1.4.bias f4 [48]
-0.16869636 0.09625641 0.18420598 -0.06669677 0.085374154 -0.07147065 -0.079747416 0.1498891
-0.04143392 0.043241777 -0.046364326 -0.10799207 -0.027340654 0.03554975 -0.14354813 -0.057649497
0.0050261174 -0.030406062 0.04187022 -0.08763476 -0.055821184 -0.061774205 -0.023597991 -0.047547232
0.121268846 0.0811168 -0.10317594 0.045909237 -0.10606207 0.21198867 -0.08816188 -0.20416576
0.08228098 0.028056234 -0.021489697 0.029888147 0.19418171 0.10467102 0.052965704 -0.020990381
0.060048375 -0.14682834 0.30991104 0.103054464 -0.16169453 0.13365085 -0.08036518 0.0049524205
00000000: bdbe 2cbe 1522 c53d 7ea0 3c3e 5198 88bd
00000010: a5d8 ae3d 345f 92bd 9d52 a3bd 877c 193e
00000020: 9db6 29bd 4a1e 313d 85e8 3dbd f22a ddbd
00000030: 82f9 dfbc 9d9c 113d 48fe 12be e121 6cbd
00000040: 21b2 a43b 2216 f9bc 1c80 2b3d da79 b3bd
00000050: c1a4 64bd f306 7dbd 9350 c1bc e3c0 42bd
00000060: cd5b f83d 9120 a63d e84d d3bd 530b 3c3d
00000070: 1237 d9bd 8f13 593e 378e b4bd d410 51be
00000080: ee82 a83d 30d6 e53c 290b b0bc fdd7 f43c
00000090: 92d7 463e c25d d63d 91f2 583d 05f4 abbc
000000a0: 49f5 753d 2b5a 16be a9ac 9e3e 380e d33d
000000b0: 4093 25be c5db 083e 8096 a4bd ea47 a23b

1.6.weight f4 [36, 48]
-0.11710933 -0.16879873 -0.45747298 -0.11764647 0.0802949 0.0144617 0.14748637 -0.3082992
0.059580967 -0.20821543 0.15642047 0.14220008 -0.045303766 -0.017663347 -0.11968477 0.15569815
0.050217155 0.15641367 0.13989748 0.1874442 -0.03876175 0.075940445 0.1266981 -0.10326348
0.04209299 0.113803886 -0.04985571 -0.05133569 -0.030418176 -0.1304947 0.06957315 0.09441063
-0.001521563 -0.05037707 -0.0021205144 -0.08012961 0.029141106 -0.14115319 0.06705101 -0.13440223
-0.10305991 -0.004963346 -0.16520746 -0.007746626 -0.009075456 0.07062377 0.010461192 0.1446362
-0.06551345 -0.013771481 -0.16314173 -0.099254884 -0.15537244 0.059609324 -0.061356887 0.027257977
0.009195129 0.013424137 0.01924672 0.047398176 -0.016643474 0.09482548 0.096630886 -0.08881529
0.08607996 0.21407756 0.09465752 0.13710257 0.041263666 0.07363375 0.13283741 0.15182969
-0.1377434 0.21540841 -0.07417282 -0.12764926 0.020463409 0.07845203 0.12864938 0.042917725
0.027639119 0.11487771 -0.01177893 -0.18201745 0.062424593 0.1117195 -0.076375276 -0.12390299
-0.10432125 -0.0826313 0.11684116 0.1284707 0.051646344 0.013529288 -0.01992137 0.004850858
-0.081818 0.0586341 -0.009137404 0.045065723 0.035444047 0.08225756 -0.059950776 -0.105115645
0.13970236 0.09444536 -0.062881716 -0.07002987 0.041740093 0.03509274 -0.046444975 0.023553824
0.19625136 0.16324696 0.11468509 0.10006166 -0.13693571 -0.0071682627 0.010183199 0.15897876
0.021157648 -0.013170771 -0.02759753 -0.05866095 0.13622764 0.18422239 0.18893917 0.024692483
0.19041288 0.09625842 -0.14285286 -0.1214622 -0.072560474 0.038517814 -0.0052715912 -0.11700571
-0.108151585 -0.07311889 0.24042705 0.051452976 0.06565651 -0.057141267 0.099729784 -0.008507117
0.03684845 0.020708192 0.015274151 0.06733761 -0.050431103 0.044666518 0.08917121 -0.14500152
-0.056146443 0.13411914 -0.00258416 0.0012012972 0.08503543 0.020239385 0.11482677 -0.09561644
0.20806094 0.086711206 0.115238614 -0.03330643 -0.07881611 -0.08477437 0.007579919 0.008577455
-0.052269608 0.119249016 0.10495253 -0.005628783 -0.10986263 0.13838412 0.093700506 -0.04530558
-0.038946304 0.11844756 -0.11035726 0.18226153 -0.17374599 -0.12552057 0.023998542 -0.0998978
0.017871473 0.14237969 0.16050605 0.117932476 -0.11740841 0.08232093 0.04455914 0.057844516
0.082885906 0.23493649 -0.29190767 -0.22063671 -0.043932643 -0.17537254 0.13798682 -0.17199752
-0.10904733 -0.00069523393 0.06016776 -0.07072448 0.025900524 0.01042038 -0.02944563 0.09021413
0.031263072 0.30654913 0.0395503 0.14119667 0.14213184 -0.10073821 -0.019386657 -0.053641137
-0.16344416 0.17251459 -0.040047705 0.016087666 -0.027317872 -0.105357535 -0.05452586 -0.17177854
0.090207376 -0.090820864 0.13338535 -0.011224586 0.0046032355 -0.17933297 -0.005792389 0.002820577
-0.05903744 -0.04078393 -0.18466227 0.123438194 0.20517564 -0.29182407 -0.20254181 -0.023439063
0.043752197 -0.12803702 -0.020147245 -0.1890052 -0.03966785 0.06688623 0.10941012 -0.06615469
0.050407585 -0.015544239 -0.069632456 -0.030650193 -0.10824255 0.039259005 -0.0198065 -0.075059384
00000000: 04d7 efbd 93d9 2cbe e639 eabe a2f0 f0bd
00000010: a771 a43d c4f0 6c3c ab06 173e 65d9 9dbe
00000020: 2c0b 743d 6d36 55be b02c 203e e69c 113e
00000030: 7190 39bd b9b2 90bc 4a1d f5bd 566f 1f3e
00000040: 81b0 4d3d e82a 203e 4941 0f3e 5ff1 3f3e
00000050: a4c4 1ebd aa86 9b3d 26bd 013e ce7b d3bd
00000060: b369 2c3d 0312 e93d 8035 4cbd 5f45 52bd
00000070: 8a2f f9bc 67a0 05be 5e7c 8e3d 5c5a c13d
00000080: 2f6f c7ba 3058 4ebd 54f8 0abb fe1a a4bd
00000090: 54b9 ee3c 768a 10be 0a52 893d bda0 09be
000000a0: 1311 d3bd 90a3 a2bb 252c 29be 69d7 fdbb
000000b0: 39b1 14bc 32a3 903d 6b65 2b3c 831b 143e
000000c0: ea2b 86bd c7a1 61bc a00e 27be 2546 cbbd
000000d0: f419 1fbe e828 743d 5c51 7bbd 1f4c df3c
000000e0: 2ba7 163c e9f0 5b3c 4cab 9d3c 9724 423d
000000f0: e557 88bc dc33 c23d 6ae6 c53d cae4 b5bd
00000100: b14a b03d 2637 5b3e cddb c13d 9e64 0c3e
00000110: 1704 293d 4bcd 963d 8806 083e 3e79 1b3e
00000120: 9b0c 0dbe 0694 5c3e ebe7 97bd 7db6 02be
00000130: e1a2 a73c 75ab a03d aabc 033e 7fca 2f3d
00000140: 6f6b e23c 0145 eb3d 6afc 40bc c862 3abe
00000150: eeb0 7f3d 31cd e43d a46a 9cbd dac0 fdbd
00000160: 61a6 d5bd 993a a9bd 6b4a ef3d d38d 033e
00000170: 1e8b 533d f2a9 5d3c 2432 a3bc f2f3 9e3b
00000180: 3290 a7bd 4f2a 703d 0db5 15bc d696 383d
00000190: c72d 113d a776 a83d f28e 75bd df46 d7bd
000001a0: 230e 0f3e 926c c13d 21c8 80bd d26b 8fbd
000001b0: a9f7 2a3d 68bd 0f3d 163d 3ebd f3f3 c03c
000001c0: 1ef6 483e 362a 273e 04e0 ea3d 21ed cc3d
000001d0: e038 0cbe bfe3 eabb 6fd7 263c 54cb 223e
000001e0: ce52 ad3c 38ca 57bc 3714 e2bc 7746 70bd
000001f0: 427f 0b3e cba4 3c3e 4579 413e e447 ca3c
00000200: 98fb 423e 2223 c53d 0548 12be 2dc1 f8bd
00000210: 969a 94bd dbc4 1d3d 50bd acbb b1a0 efbd
00000220: 947e ddbd 5bbf 95bd 8232 763e 5bc0 523d
00000230: ec76 863d f60c 6abd 213f cc3d 6f61 0bbc
00000240: 66ee 163d 3aa4 a93c 6f40 7a3c 4de8 893d
00000250: d890 4ebd 3df4 363d 659f b63d 477b 14be
00000260: d0f9 65bd 8756 093e 035b 29bb d874 9d3a
00000270: 0e27 ae3d 11cd a53c 4c2a eb3d 8dd2 c3bd
00000280: ed0d 553e a595 b13d 3902 ec3d 536c 08bd
00000290: 576a a1bd 2f9e adbd f860 f83b 7488 0c3c
000002a0: a818 56bd d438 f43d 5af1 d63d a771 b8bb
000002b0: a9ff e0bd 91b4 0d3e 0de6 bf3d 5892 39bd
000002c0: 2986 1fbd a294 f23d fd02 e2bd c4a2 3a3e
000002d0: 78ea 31be 7788 00be 9798 c43c 3897 ccbd
000002e0: 3267 923c fbcb 113e b35b 243e 9586 f13d
000002f0: d273 f0bd e097 a83d a583 363d 5fee 6c3d
00000300: 16c0 a93d 3193 703e ec74 95be 97ee 61be
00000310: b7f2 33bd dc94 33be 6b4c 0d3e 1e20 30be
00000320: 3554 dfbd 5c40 36ba 7872 763d ffd7 90bd
00000330: 562d d43c 3eba 2a3c f637 f1bc 30c2 b83d
00000340: b50d 003d 02f4 9c3e 7fff 213d dc95 103e
00000350: 028b 113e d64f cebd c4d0 9ebc cfb6 5bbd
00000360: e85d 27be aaa7 303e 1009 24bd 48ca 833c
00000370: bbc9 dfbc b1c5 d7bd 8256 5fbd b7e6 2fbe
00000380: a5be b83d 4a00 babd 2b96 083e 53e7 37bc
00000390: bdd6 963b 10a3 37be 15ce bdbb 6ed9 383b
000003a0: 3ed1 71bd 0d0d 27bd 1b18 3dbe 2acd fc3d
000003b0: 9019 523e f769 95be 1f67 4fbe 4703 c0bc
000003c0: 8135 333d 231c 03be d60b a5bc 948a 41be
000003d0: c17a 22bd a6fb 883d 6a12 e03d 1c7c 87bd
000003e0: 2f78 4e3d 44ad 7ebc 769b 8ebd 1d16 fbbc
000003f0: 45ae ddbd 0dce 203d 3e41 a2bc bcb8 99bd

1.6.bias f4 [36]
-0.3504111 0.07857623 0.032469656 -0.07096916 -0.14869052 -0.013250077 -0.13893048 0.07912916
-0.17813264 0.20306945 0.16149893 0.09669909 -0.032944657 0.12564452 -0.122188315 0.0044992454
-0.038451947 -0.04441608 -0.048755333 0.091323495 0.01043025 0.22501186 -0.06597058 0.0053317207
-0.11498867 0.11668406 0.24442017 -0.030775825 -0.026821112 0.12411988 0.12725033 0.15170848
0.020247221 0.13286631 0.0043956265 -0.03906598
00000000: 1569 b3be 93ec a03d e7fe 043d 4758 91bd
00000010: 5442 18be da16 59bc cb43 0ebe 780e a23d
00000020: 6768 36be 70f1 4f3e fa5f 253e 2c0a c63d
00000030: faf0 06bd f5a8 003e de3d fabd 686e 933b
00000040: ca7f 1dbd a3ed 35bd acb3 47bd d007 bb3d
00000050: a4e3 2a3c 8269 663e 951b 87bd b7b5 ae3b
00000060: 2e7f ebbd 0df8 ee3d 4849 7a3e 951d fcbc
00000070: f3b7 dbbc 9032 fe3d e94d 023e 7859 1b3e
00000080: 80dd a53c 1b0e 083e 3009 903b a603 20bd

1.8.weight f4 [24, 36]
-0.18887664 0.020619048 -0.10286486 -0.03763462 -0.27283883 -0.13089055 0.1568685 -0.21442574
-0.10004673 0.19812216 0.24316664 -0.1981906 -0.24212317 0.060234275 0.07553016 -0.17546064
-0.1290951 -0.06665693 -0.107858755 0.18352602 0.01949826 0.0148619395 -0.258343 -0.020836866
0.06756217 -0.25505996 0.0056989235 -0.06061098 0.11146104 -0.071473174 -0.016677225 0.08360835
0.024499565 -0.15548414 -0.024357764 -0.061137177 0.05233216 -0.024718052 0.22018331 0.27445436
0.0636761 -0.07956036 -0.002875519 -0.03488867 0.094690554 -0.09672138 0.22195758 0.0785288
0.039841957 -0.10515536 0.15330781 -0.15632835 0.06650841 -0.18694897 -0.17155588 -0.12591913
-0.07905433 0.09995864 -0.06928258 0.08841437 -0.043909837 0.07534832 -0.088818304 -0.0605282
0.004515386 0.042731438 -0.10573777 0.005431757 -0.045715403 0.096510194 0.024783945 -0.17841381
0.12520505 -0.25848526 -0.15542941 0.06808754 0.28181985 -0.1452738 -0.011385781 -0.19327664
0.0037423156 0.027178902 -0.057551928 -0.11615552 -0.1023319 -0.12450462 0.24478021 -0.027327785
0.2757168 -0.0051373146 0.10161485 0.20059998 0.15049435 0.039533444 0.39623448 -0.10075928
-0.17767641 -0.1442181 -0.09486623 0.028295899 -0.09625454 -0.16896918 -0.105934545 -0.17592974
0.0071305125 0.024791306 0.06297408 0.10542162 -0.26974374 -0.09724832 0.05904535 -0.16887832
-0.22289373 -0.15559965 -0.042611815 -0.008735114 -0.261459 0.23719972 0.07418999 -0.04226107
0.16852973 0.0091135595 -0.025946075 0.008096042 -0.088885866 -0.00087037747 -0.10971484 0.22904807
-0.12583911 0.20137899 -0.39036146 -0.02727385 0.08145831 -0.28210282 0.08154869 -0.17563502
0.075892046 0.15688357 -0.18793556 0.32454842 0.09737193 -0.088774994 -0.052773375 0.09179569
0.105379015 -0.04274701 -0.053820826 0.12985767 -0.22613806 -0.107016794 0.16388102 0.12099733
0.013714403 -0.14674789 0.07454064 -0.0012869384 -0.011982866 -0.09088987 0.22199872 0.1378562
0.021893501 -0.2584065 0.032208264 -0.018771956 0.06267309 -0.19555321 -0.061895717 0.03674281
0.0605214 -0.26909602 -0.030266419 -0.32454726 0.16302314 -0.10631138 0.12175362 -0.0067281346
-0.043035846 0.065488845 0.20929079 0.2750513 -0.35502437 -0.17149343 0.0017692994 -0.025938414
-0.27160966 0.08910372 -0.1637782 0.18945508 -0.0566704 0.3675421 -7.161431e-05 0.20362139
0.085503556 0.024126444 0.039143346 0.15773717 0.017986396 -0.015021703 -0.10003153 -0.03648473
0.09786454 0.38627407 -0.16666321 0.03722811 -0.25202847 -0.17777233 0.21428317 0.017943062
-0.060292065 0.22018819 0.111105435 0.32398805 0.14525944 0.0169972 0.2146236 -0.020104492
-0.14022581 0.063517205 -0.043965757 -0.119054355 -0.04467412 0.058771823 -0.12682241 0.09141268
-0.009960391 0.036720973 -0.0007885472 -0.026675181 -0.001741193 -0.0938772 0.047072504 0.142812
-0.14297985 0.20388123 0.09423458 0.13009186 0.041212212 0.07301769 0.12040998 -0.22940935
0.21062984 0.3087105 -0.14779904 0.30086574 0.05745161 -0.015844941 -0.1283887 0.13380706
0.016828183 0.13106933 -0.064071134 -0.006890011 0.045789022 0.1531725 0.17907472 0.124951154
00000000: e168 41be 47e9 a83c d0aa d2bd c226 1abd
00000010: 88b1 8bbe 2c08 06be 23a2 203e 6c92 5bbe
00000020: 4de5 ccbd 89e0 4a3e ad00 793e 7af2 4abe
00000030: 23ef 77be 37b8 763d 8eaf 9a3d f4ab 33be
00000040: 8231 04be 6e83 88bd 0de5 dcbd 3fee 3b3e
00000050: d1ba 9f3c 7e7f 733c 8945 84be 13b2 aabc
00000060: 095e 8a3d 3897 82be 09be ba3b 3843 78bd
00000070: b045 e43d 8760 92bd ad9e 88bc db3a ab3d
00000080: 50b3 c83c 3c37 1fbe ef89 c7bc fa6a 7abd
00000090: 3f5a 563d 837d cabc bc77 613e 4885 8c3e
000000a0: 9d68 823d 8bf0 a2bd 3473 3cbb 6ce7 0ebd
000000b0: 1fed c13d dc15 c6bd d948 633e b5d3 a03d
000000c0: 5231 233d b25b d7bd b9fc 1c3e 8a14 20be
000000d0: 9035 883d 8d6f 3fbe 58ac 2fbe f2f0 00be
000000e0: 3de7 a1bd 1eb7 cc3d 06e4 8dbd 9812 b53d
000000f0: cdda 33bd 3850 9a3d 5fe6 b5bd 6bec 77bd
00000100: cef5 933b 2907 2f3d 0b8d d8bd e1fc b13b
00000110: 1340 3bbd 23a7 c53d b307 cb3c 1cb2 36be
00000120: c135 003e 2e58 84be e328 1fbe 7b71 8b3d
00000130: b14a 903e a8c2 14be 6d8b 3abc 50ea 45be
00000140: a341 753b 4aa6 de3c 92bb 6bbd f2e2 edbd
00000150: 6393 d1bd 47fc febd aaa7 7a3e 85de dfbc
00000160: c12a 8d3e eb56 a8bb 721b d03d 156a 4d3e
00000170: 311b 1a3e d2ed 213d 3fdf ca3e e25a cebd
00000180: cef0 35be e9ad 13be 3a49 c2bd cdcc e73c
00000190: 1a21 c5bd 4206 2dbe 36f4 d8bd ed26 34be
000001a0: 13a7 e93b 2317 cb3c 8ef8 803d 4ae7 d73d
000001b0: da1b 8abe 212a c7bd 89d9 713d 70ee 2cbe
000001c0: 413e 64be 8455 1fbe ba89 2ebd b91d 0fbc
000001d0: f4dd 85be 7ce4 723e ecf0 973d f219 2dbd
000001e0: 0f93 2c3e 0a51 153c dd8c d4bc 43a5 043c
000001f0: cb09 b6bd 0b2a 64ba 2db2 e0bd 948b 6a3e
00000200: f8db 00be 4b36 4e3e 75dd c7be 696d dfbc
00000210: 9dd3 a63d c86f 90be 0003 a73d abd9 33be
00000220: 4a6d 9b3d 16a6 203e 2e72 40be 362b a63e
00000230: ef6a c73d aacf b5bd e528 58bd 61ff bb3d
00000240: f4d0 d73d 7d17 2fbd 3a73 5cbd 69f9 043e
00000250: bc90 67be 9f2b dbbd 6dd0 273e 73cd f73d
00000260: 60b2 603c 1445 16be c3a8 983d 7dae a8ba
00000270: c853 44bc 7824 babd a253 633e 2d2a 0d3e
00000280: 005a b33c db4d 84be d0ec 033d a5c7 99bc
00000290: c05a 803d 1a3f 48be 5d86 7dbd a17f 163d
000002a0: 4ae5 773d f4c6 89be 48f1 f7bc 0f2b a6be
000002b0: 8aef 263e c8b9 d9bd f659 f93d af77 dcbb
000002c0: 5b46 30bd 041f 863d 5350 563e 86d3 8c3e
000002d0: c1c5 b5be f99b 2fbe d6e7 e73a cc7c d4bc
000002e0: 6c10 8bbe 037c b63d 79b5 27be 8300 423e
000002f0: 391f 68bd 7a2e bc3e a42f 96b8 2082 503e
00000300: 7d1c af3d d2a4 c53c c654 203d da85 213e
00000310: 3558 933c 971d 76bc 55dd ccbd 0371 15bd
00000320: 346d c83d b7c5 c53e c3a9 2abe 817c 183d
00000330: e009 81be f309 36be 0c6d 5b3e 54fd 923c
00000340: d0f4 76bd 0379 613e 3f8b e33d c3e1 a53e
00000350: e4be 143e b63d 8b3c 4ac6 5b3e 2db2 a4bc
00000360: 5b97 0fbe 4f15 823d 7015 34bd c5d2 f3bd
00000370: 36fc 36bd b9ba 703d bcdd 01be 9236 bb3d
00000380: e830 23bc bb68 163d 82b6 4eba e985 dabc
00000390: be38 e4ba b042 c0bd 19cf 403d 4f3d 123e
000003a0: 4f69 12be 3ec6 503e 0ffe c03d cd36 053e
000003b0: 23ce 283d 4c8a 953d 8299 f63d 49ea 6abe
000003c0: 59af 573e 4d0f 9e3e a258 17be 130b 9a3e
000003d0: 6152 6b3d 40cd 81bc 5478 03be b804 093e
000003e0: 42db 893c 0a37 063e ba37 83bd 9ac5 e1bb
000003f0: 458d 3b3d 40d9 1c3e 5d5f 373e 64e6 ff3d

1.8.bias f4 [24]
-0.16490789 -0.0886681 0.15659758 0.28970838 0.21673869 0.46233642 -0.102043144 0.11333084
-0.020575192 0.04776217 0.08254027 0.15348233 0.30945697 0.056010675 -0.022454021 0.05798613
-0.124341436 0.086435884 -0.1632372 -0.047245134 0.32282874 -0.07939999 -0.10276805 0.14052564
00000000: 9ddd 28be 9f97 b5bd 1e5b 203e a854 943e
00000010: bff0 5d3e 5cb7 ec3e fffb d0bd 001a e83d
00000020: 4e8d a8bc 44a2 433d e00a a93d 792a 1d3e
00000030: 2571 9e3e 736b 653d 7ff1 b7bc dd82 6d3d
00000040: b9a6 febd 4c05 b13d a727 27be 1d84 41bd
00000050: cf49 a53e 769c a2bd 0e78 d2bd f4e5 0f3e

1.10.weight f4 [12, 24]
0.16100116 -0.3115274 0.2403939 0.3019394 0.18980172 0.4791312 0.039454784 -0.44507527
-0.017042914 -0.04686266 0.195855 -0.048979778 0.37264487 -0.21671155 -0.14917225 0.077204995
0.07425098 0.39626125 -0.085315295 0.15648435 0.35827547 0.21334489 -0.10782533 -0.04662379
-0.33330116 0.06595443 0.35306886 -0.4237508 -0.25530386 -0.35261816 0.18413363 0.33548626
0.25085393 0.32378387 0.09735036 0.2341026 -0.0009016018 0.17312965 0.29319018 0.20396657
0.047961496 0.20844859 -0.115184024 0.003079918 -0.120594434 -0.16723189 0.25430873 0.16439301
-0.03595225 0.23348553 -0.33585185 -0.14124815 -0.022453377 0.15727232 0.00058366597 0.20220643
-0.3335598 0.025933482 -0.08748229 0.15696551 -0.016842946 0.27040944 -0.317893 0.18748958
-0.5128516 -0.35609606 -0.07432125 -0.10954962 0.016783793 -0.029475493 -0.63182217 0.21136062
-0.12965515 -0.14175738 0.09966701 -0.20767985 -0.2306053 0.0524881 0.2474174 0.091924734
-0.21091683 0.014992037 -0.05111834 0.45810938 0.08962458 0.11695975 -0.27444747 0.18038394
-0.17547569 -0.106560186 0.015946236 -0.34865278 0.1642891 -0.3813562 -0.012308527 -0.0036346335
0.22527777 -0.12770873 -0.065900356 0.41929123 0.1669886 0.46659204 -0.13890956 -0.11557643
-0.033605907 0.12974426 -0.07101081 -0.20967773 0.2319266 0.033688575 0.15513784 0.04777869
0.046122033 0.29198402 -0.23514155 0.10044187 0.2582463 0.07412204 -0.028708482 0.18549693
-0.14786978 0.040903427 0.024493355 0.10248896 0.40483546 0.19870439 -0.19114825 0.16409257
-0.13693614 0.014091866 0.20531788 0.05951201 0.29908156 0.099931076 0.33611986 0.15326759
0.17545715 0.17991056 0.004636395 0.0076631056 0.22947285 -0.161197 0.28033665 0.0818857
-0.08382397 0.14530079 0.2919635 -0.14947662 -0.30963764 0.19684464 -0.04567479 0.028855285
0.30400813 -0.1711084 -0.2422102 0.16657653 -0.029687986 0.26962158 0.14901492 0.25649908
0.25848225 0.38669562 -0.22309785 -0.24364991 0.16067903 -0.04793257 0.39264578 0.19722155
0.09455501 -0.09959435 -0.022503568 -0.26991886 -0.19130646 -0.41250888 0.079671934 0.028712986
-0.15128651 0.15039086 -0.06501732 0.075148754 -0.27731183 -0.17737795 -0.09149341 -0.041125115
-0.045857504 -0.1325826 0.22255708 -0.0027837064 -0.34850314 -0.11850483 0.1085108 0.03391827
0.41430783 0.2831314 -0.053971756 0.10674643 0.055644315 -0.10767785 -0.08907986 0.062143125
0.008865609 -0.303038 -0.39946738 0.49334398 0.22765271 0.24401529 0.039167646 0.16889027
-0.48724344 0.39351282 -0.17069575 -0.52379954 -0.16490233 0.021430448 0.030990614 0.036440022
0.060619064 -0.27141166 0.15228562 -0.20239179 -0.3931523 0.12186255 0.19431745 0.09229551
0.16521189 0.13087294 0.27111903 0.3526412 -0.037723247 0.18960899 -0.4063025 -0.14319766
-0.2073355 -0.19559951 0.121200755 -0.29641393 0.17140488 0.09435924 0.005502985 0.21827692
-0.3750545 -0.19267663 0.4464405 -0.06675943 0.080695584 0.07921626 0.0012581571 0.029979317
0.34844473 0.063188426 0.0846315 0.023467971 -0.06676099 -0.08979148 0.071611986 -0.18774326
00000000: 7ddd 243e 8580 9fbe d229 763e cd97 9a3e
00000010: 625b 423e af50 f53e 579b 213d e8e0 e3be
00000020: 959d 8bbc 10f3 3fbd 378e 483e 059f 48bd
00000030: 4fcb be3e a2e9 5dbe 9cc0 18be a71d 9e3d
00000040: e610 983d c1e2 ca3e c9b9 aebd 6f3d 203e
00000050: e26f b73e 1577 5a3e 87d3 dcbd 96f8 3ebd
00000060: 73a6 aabe 1e13 873d 71c5 b43e ddf5 d8be
00000070: 30b7 82be 5e8a b4be 878d 3c3e dbc4 ab3e
00000080: ed6f 803e 00c7 a53e a05f c73d 98b8 6f3e
00000090: 7959 6cba e648 313e 061d 963e 9ddc 503e
000000a0: 4673 443d 8c73 553e 9ae5 ebbd 73d8 493b
000000b0: 37fa f6bd d63e 2bbe c134 823e a456 283e
000000c0: ab42 13bd d516 6f3e c6f4 abbe 5ba3 10be
000000d0: 25f0 b7bc ff0b 213e 2901 193a 340f 4f3e
000000e0: 5ac8 aabe 7472 d43c ea29 b3bd 91bb 203e
000000f0: 38fa 89bc 1b73 8a3e dfc2 a2be 45fd 3f3e
00000100: 3e4a 03bf 3952 b6be bd35 98bd 8d5b e0bd
00000110: 2a7e 893c 9776 f1bc 19bf 21bf eb6e 583e
00000120: 52c4 04be d928 11be 381e cc3d 07aa 54be
00000130: cc23 6cbe c3fd 563d fd5a 7d3e 0943 bc3d
00000140: 95fa 57be 29a1 753c 7761 51bd 508d ea3e
00000150: 188d b73d 9888 ef3d 6184 8cbe 91b6 383e
00000160: e6af 33be 3a3c dabd aea1 823c 9e82 b2be
00000170: 673b 283e 1f41 c3be b4a9 49bc 0833 6ebb
00000180: 37af 663e 14c6 02be c4f6 86bd 57ad d63e
00000190: 0fff 2a3e 27e5 ee3e 4f3e 0ebe 56b3 ecbd
000001a0: 59a6 09bd aedb 043e 1e6e 91bd c2b5 56be
000001b0: 2b7e 6d3e 08fd 093d 74dc 1e3e 96b3 433d
000001c0: 75ea 3c3d ee7e 953e f2c8 70be 78b4 cd3d
000001d0: dc38 843e 4ccd 973d 0d2e ebbc e8f2 3d3e
000001e0: 2d6b 17be 5a8a 273d 4aa6 c83c bbe5 d13d
000001f0: 9846 cf3e 2a79 4b3e 5ebc 43be e207 283e
00000200: fd38 0cbe 92e1 663c da3e 523e dec2 733d
00000210: 3821 993e aaa8 cc3d e717 ac3e 2ef2 1c3e
00000220: 0aab 333e 793a 383e e6ec 973b ca1a fb3b
00000230: eefa 6a3e d410 25be 4988 8f3e b1b3 a73d
00000240: e7ab abbd bbc9 143e 3d7c 953e 6610 19be
00000250: d388 9ebe a491 493e 7d15 3bbd eb61 ec3c
00000260: f4a6 9b3e 0a37 2fbe f305 78be 0a93 2a3e
00000270: 3834 f3bc d70b 8a3e 5e97 183e d953 833e
00000280: c957 843e f8fc c53e c373 64be 5d7f 79be
00000290: 0b89 243e f154 44bd de08 c93e 72f4 493e
000002a0: 0fa6 c13d 1ff8 cbbd 6759 b8bc ce32 8abe
000002b0: d7e5 43be 5d34 d3be 0a2b a33d 7f37 eb3c
000002c0: daea 1abe 1000 1a3e cd27 85bd 97e7 993d
000002d0: d1fb 8dbe 91a2 35be e660 bbbd cf72 28bd
000002e0: 14d5 3bbd bcc3 07be 01e6 633e d86e 36bb
000002f0: 016f b2be a9b2 f2bd e93a de3d e2ed 0a3d
00000300: 2820 d43e 99f6 903e 7d11 5dbd df9d da3d
00000310: 4beb 633d 3486 dcbd 806f b6bd ca89 7e3d
00000320: 0f41 113c cc27 9bbe fd86 ccbe 9597 fc3e
00000330: cb1d 693e 25df 793e 416e 203d 92f1 2c3e
00000340: f977 f9be 837a c93e deca 2ebe ba17 06bf
00000350: 28dc 28be e88e af3c 07e0 fd3c 2242 153d
00000360: b24b 783d 78f6 8abe c3f0 1b3e cb3f 4fbe
00000370: 424b c9be 1393 f93d 27fb 463e 6e05 bd3d
00000380: 4e2d 293e 8e03 063e 1dd0 8a3e 638d b43e
00000390: b183 1abd dc28 423e e206 d0be 68a2 12be
000003a0: c24f 54be 3d4b 48be 1a38 f83d 91c3 97be
000003b0: c384 2f3e 6b3f c13d 6252 b43b fc83 5f3e
000003c0: 2507 c0be 064d 45be d993 e43e 2bb9 88bd
000003d0: ba43 a53d 223c a23d bfe8 a43a 2f97 f53c
000003e0: 5967 b23e ef68 813d 4853 ad3d e73f c03c
000003f0: fcb9 88bd 98e4 b7bd 4ea9 923d c53f 40be

1.10.bias f4 [12]
0.5159005 -0.5388778 0.14301892 0.052441083 0.501413 0.78225565 0.32464862 -0.48951024
0.06086246 -0.1854809 0.15605472 0.57752484
00000000: 0e12 043f e5f3 09bf 8d73 123e 76cc 563d
00000010: 9a5c 003f e841 483f 5838 a63e 16a1 fabe
00000020: ea4a 793d b4ee 3dbe cfcc 1f3e abd8 133f

1.12.weight f4 [4, 12]
-0.8121602 1.0687766 0.37310526 1.2192919 -1.1083848 -0.9012243 -0.19879217 0.78657055
0.86925066 0.8111821 0.34002057 -1.1676075 -0.7588282 0.25564525 0.6870262 0.34004855
-0.78748626 -1.3959006 -1.2467613 0.94603366 0.027646286 0.58553743 -1.1221051 -0.7877843
-0.74250925 1.1889013 0.7725451 0.81780267 -0.901381 -0.77254665 -1.3603309 0.83956075
0.16600044 0.61095077 -0.6156445 -0.6154717 -1.310899 0.8208231 1.0855477 0.5324068
-0.911697 -0.6535587 -0.99169487 0.8011178 0.6729198 0.040110294 -0.41269022 -1.0449065
00000000: bbe9 4fbf accd 883f a707 bf3e c211 9c3f
00000010: 8edf 8dbf a3b6 66bf 2d90 4bbe b05c 493f
00000020: 3687 5e3f a1a9 4f3f 2d17 ae3e 2a74 95bf
00000030: 9142 42bf efe3 823e f3e0 2f3f d81a ae3e
00000040: b398 49bf dfac b2bf e095 9fbf 432f 723f
00000050: 777a e23c c8e5 153f 24a1 8fbf 3bac 49bf
00000060: 1615 3ebf eb2d 983f 84c5 453f 845b 513f
00000070: e8c0 66bf 9ec5 45bf 531f aebf 74ed 563f
00000080: 05fc 293e 4567 1c3f e19a 1dbf 8e8f 1dbf
00000090: 8acb a7bf 7621 523f 3af3 8a3f d04b 083f
000000a0: f964 69bf 9f4f 27bf b7df 7dbf 0e16 4d3f
000000b0: 7944 2c3f b14a 243d 224c d3be 7fbf 85bf

1.12.bias f4 [4]
-1.3747122 -1.345983 -0.89844996 -1.1633568
00000000: 92f6 afbf 2c49 acbf d100 66bf e0e8 94bf
