JSP/trained models/U_2020_rwd3.pt (torch_old, 19018 bytes, 12 tensors)

0.0.weight f4 [5, 5]
00000000: fc46 9f3f 08f7 883f 8ad0 8a3f 8ddb 943f
00000010: a8f3 b73f b8f9 ae3f 2e83 843f 400a 883f
00000020: 8cbc 683f 48f6 ab3f b6fe 9f3f b8f8 993f
00000030: 9213 763f 8065 af3f 20e7 873f dc53 a83f
00000040: 5038 b03f fe2a ab3f 2a57 a33f 06e8 b83f
00000050: dcb8 ba3f 6c90 993f d003 843f 88de a53f
00000060: 2832 a63f
1.2443538 1.0700388 1.0844891 1.1629502 1.4371233 1.3669958 1.0352533 1.0628128
0.909127 1.3434534 1.2499607 1.2029028 0.9612361 1.370285 1.0617409 1.3150592
1.3767185 1.3372495 1.2760975 1.4445808 1.4587665 1.1997199 1.0313663 1.2958536
1.2984056

0.0.bias f4 [5, 5]
00000000: 56c5 23be 386c 47bd a0d9 efbc 3883 14be
00000010: baaf b5bc 163d bd3d d0a8 bd3d 4af5 7c3e
00000020: 3879 81be f67c 12be cef2 17be aefc fb3c
00000030: 50b0 c83d ea8c 30bd dee9 44be c8d1 ebbd
00000040: 5604 5c3e 30df f7bc 362e cebc 2410 45bb
00000050: cc38 1bbe ec14 05be 8c9b 41be 663d 8f3d
00000060: 1a5b f4bd
-0.15993246 -0.04868719 -0.029278576 -0.14503181 -0.02217852 0.09240167 0.09260714 0.24702945
-0.25287795 -0.14305481 -0.14838716 0.030760136 0.09799254 -0.043103136 -0.19229838 -0.11514622
0.21486029 -0.030257791 -0.02516852 -0.0030069435 -0.15158385 -0.12996262 -0.18906993 0.06994133
-0.11931439

0.2.weight f4 [48, 25]
00000000: ba99 18bd 7c42 1f3e 3e38 a63c e474 8a3e
00000010: 48f8 c03e d942 24be 8151 0bbe da9d 0fbe
00000020: 832a ca3e 7220 913e aa76 f33d 523b 163e
00000030: 7913 b03e be3c f63e 19b8 adbe 02b6 e6bd
00000040: 580b c8be 9258 e5bd eac7 41bd 7884 323f
00000050: 8892 eebe 8f93 9fbd 1bff b1be baa7 5bbe
00000060: 7487 a43e ca38 94be 4c6a d23d 5867 d4bd
00000070: 9124 28be 2cb4 bdbc f401 da3e 1d03 7cbe
00000080: 2812 b43e 960e 163f 58a0 e03c 8269 efbe
00000090: 3416 5bbe ffc6 f4bd 129c 113f 6a06 7fbd
000000a0: 28c4 1dbe 5345 38bd a7f2 653c ace3 b93e
000000b0: 2853 333e 9e3c b5be 6cf0 01bf bc42 9a3e
000000c0: efc9 aebe 18cd 6bbe 727a 5fbe 12f7 273e
000000d0: fb91 f53d 6595 01be 7865 97be 8c88 b1be
000000e0: c937 083f d229 973e 533a 16be f6c6 7abe
000000f0: b4d3 b4be f68c ad3e 2a2e b23e 2bd3 35be
00000100: aafb 46bf feb1 dabe 5a33 f4bc ec09 383e
00000110: f430 bdbe e809 f6be 9ff3 83be 900a 4f3d
00000120: 42bc 133c d1fb 5dbd 8883 09bd 6b03 21bc
00000130: af8d 22be 206e 71bd 246a 293d 8c08 613d
00000140: 1a84 b2bd e430 8a3c 1dce 113f 6ca9 47be
00000150: b09c 2dbf 26c6 2fbe a424 0a3d 952c 3fbe
00000160: 504e 03bf 16db 183e 121f 71bd b49d 833d
00000170: d29b 913e d09d 2ebd ffc2 ff3a 2097 2c3d
00000180: fc0b 133e 58e8 ab3d f4ae 5fbe 4174 513e
00000190: 4858 b23e 8206 19be 4a31 ac3c 3e21 b83d
000001a0: 2495 c4bd c3f0 0e3f caeb 55be 58ac b8bd
000001b0: 42a3 ea3d fa63 f93e 1854 c3bd b080 1bbe
000001c0: b6af 81be cc1f 523e f9a8 5b3f e433 cf3e
000001d0: 6443 6b3e d6b9 76be 0ae5 c73e a4f9 1c3f
000001e0: 2e2c 4e3d 2ada f9bd f206 c2bc 1b33 163e
000001f0: 78fc 223e 877c c93e 7ef8 35bd 62be 113e
00000200: 749a 7ebe 27bb b3bb e002 c4bb 7450 05bf
00000210: 0b20 9abe 2412 c03e 3e60 863e f9b4 ac3e
00000220: b9ce 2bbf 57f3 a53e ecc6 36be 887e a9bd
00000230: 268e 4b3e 05d9 c1be caa3 0e3f c02c 9bbe
00000240: f0eb bfba 6840 833e 324c d3bd 818d 99bd
00000250: 4aa9 ba3d dc64 533e 4271 13be 7ebc 063e
00000260: 1382 e73d 76ee 1e3e 2a60 f03d 1d30 ddbe
00000270: a72a 8c3e 97c1 d33e db57 33be 9aef e1be
00000280: 561a 08be 0e20 553d 516b 163e d8ce 24bf
00000290: 14c1 27be 404e d3bd 683f 233e 6412 3bbe
000002a0: cfe9 60be 7865 93be cd53 b8bd c8bf c7bd
000002b0: 0436 9ebb 1430 bbbe 2cd2 213e fea8 d8bd
000002c0: 63f2 8a3e e89f 28be 9c24 433f 3846 cf3d
000002d0: 03ff 4fbe 539a 9b3e b7d4 8b3d 9e1a 3abe
000002e0: f6d4 08bf b2d2 60be 84cd 8b3e e91f 9cbd
000002f0: 68d5 463e a48b 52be aa6a 923d 2f93 053f
00000300: e008 15bf 6abb 293e f87a e73d 86a5 9dbe
00000310: 96ad 0abd daa1 bfbc 0d6d 87be 9ee4 6abe
00000320: ccff 8a3e ee89 abbb 44e2 1abf b823 da3d
00000330: bc2e 983e 257b 083f 7689 95bd 87b1 42bc
00000340: 55bf 013f 7048 503e e645 b2bc 98d8 673d
00000350: 8b1a 173c fa45 b9bd 5c41 993d a2fe 863e
00000360: fec0 3b3e a8fb 9ebc c278 51be 2ca3 91be
00000370: 5727 e23e 2414 34be 8c26 f5be 346a 3b3e
00000380: 74eb bd3e 1a25 433e a7a1 943e 423b 543e
00000390: 05bb 3ebc 8317 68be 048e 293f 76b6 bc3e
000003a0: 52bf 0abf ce2f 36be 9e86 1f3f 0cf9 7e3d
000003b0: 32cb 243b 512a 8abe 2a37 94bc f632 ea3c
000003c0: a60a cc3d 33be 003f b50e 0a3e 1eb7 debd
000003d0: 5e68 f23d bd37 23be c638 763e 622d 33bf
000003e0: 2cbd df3d 7f96 16be d2a3 1e3e 496b 923e
000003f0: c2e5 55bf e060 b2be 466d 803e de79 8b3e
-0.03725598 0.15552706 0.02029049 0.27042305 0.37689424 -0.16041125 -0.1360531 -0.1402506
0.3948556 0.28345066 0.11887868 0.14671066 0.34389856 0.48093218 -0.33929518 -0.11265184
-0.39071155 -0.11198534 -0.047309794 0.6973338 -0.4659617 -0.077918164 -0.34764943 -0.21450701
0.32134593 -0.28949577 0.10274181 -0.10371274 -0.16420199 -0.023157202 0.42579615 -0.24610563
0.35170102 0.58616006 0.027420208 -0.46760184 -0.21395189 -0.11952018 0.5687877 -0.062261976
-0.15406859 -0.044987988 0.014034904 0.36306512 0.1751219 -0.3539781 -0.5075748 0.3012904
-0.34138438 -0.23027456 -0.21824053 0.16402844 0.11990734 -0.12654646 -0.29569602 -0.3467449
0.5321012 0.29524094 -0.14670686 -0.2448996 -0.35317767 0.33896607 0.34800845 -0.17756335
-0.7772776 -0.42713922 -0.029809643 0.17972535 -0.3695141 -0.48054433 -0.25771806 0.050547183
0.009017052 -0.05419523 -0.033572704 -0.009827475 -0.1587436 -0.058942914 0.04136099 0.05493979
-0.087166026 0.016869016 0.5695513 -0.19498223 -0.6781721 -0.17165431 0.03372635 -0.1866935
-0.5129137 0.14927325 -0.05886752 0.06426564 0.28439194 -0.04263097 0.001951307 0.04213631
0.1436004 0.083939254 -0.21844083 0.20454504 0.34832978 -0.14943889 0.021019597 0.089907154
-0.09598759 0.55836123 -0.20890728 -0.09017247 0.1145692 0.4870909 -0.09537524 -0.15185809
-0.2532937 0.20519942 0.85804707 0.40469277 0.22974926 -0.24094328 0.3904193 0.6131842
0.0503351 -0.121998146 -0.023684952 0.14667933 0.15916622 0.3935282 -0.044426434 0.14232782
-0.24863607 -0.005484957 -0.005981788 -0.52075887 -0.30102572 0.3751384 0.26245302 0.3373182
-0.6711231 0.32412216 -0.1784932 -0.08276087 0.19878444 -0.37860885 0.5571867 -0.3030758
-0.0014642458 0.25635076 -0.103172675 -0.07497693 0.091143206 0.20643944 -0.14398673 0.13157842
0.113041066 0.15520653 0.11737092 -0.4320077 0.2737629 0.41358635 -0.17513983 -0.44128114
-0.13291296 0.052032523 0.14689375 -0.6437812 -0.16382247 -0.103176594 0.15942156 -0.18268734
-0.21964191 -0.28788352 -0.09000359 -0.09753376 -0.0048282165 -0.36560118 0.1580283 -0.10579108
0.2713805 -0.1646725 0.76227736 0.10120815 -0.20312123 0.30391178 0.068276815 -0.18174216
-0.5344995 -0.21955374 0.27305233 -0.07623274 0.19417346 -0.20561081 0.07149251 0.5217771
-0.5821667 0.16575399 0.11302751 -0.30790347 -0.03385695 -0.023392607 -0.26450387 -0.22938773
0.27148283 -0.0052349484 -0.60501504 0.10651344 0.29723155 0.53312904 -0.07301609 -0.011883146
0.50682575 0.20340133 -0.021761846 0.056603044 0.009222637 -0.0904655 0.074831694 0.26366144
0.1833534 -0.019407108 -0.20456222 -0.28444803 0.4417064 -0.17585808 -0.4788097 0.18302232
0.370937 0.19057122 0.2902958 0.2072573 -0.011641269 -0.22665219 0.66232324 0.36857957
-0.5419818 -0.17791674 0.62314785 0.06224923 0.0025145528 -0.2698541 -0.01809271 0.028588753
0.099629685 0.5029022 0.13482173 -0.108747706 0.11836313 -0.15939231 0.24045095 -0.69991124
0.109247535 -0.14705847 0.1549218 0.28597477 -0.8355371 -0.34839535 0.2508337 0.27241415

0.2.bias f4 [48]
00000000: 89ba 2139 f83e e13d 46cc 573e 3f54 4fbe
00000010: 3923 c13c 1525 87be 6470 43be 0f1e 903e
00000020: 7af4 f8bd dcc5 fa3d 0469 823e ced7 18be
00000030: e82b 863e 866b dfbe 08c7 143e 17d9 cebe
00000040: eecc 8f3d bfd6 87be 822d e5be 60ed 6e3e
00000050: 7eb4 523c ed4a 21be 7c03 89be c288 ef3e
00000060: 2bd1 983d 8251 323e 12c9 793e 4bdd 92bd
00000070: d85a 4f3e 473b 833e 7ef1 9fbe fc1a 2b3e
00000080: f090 a8be dff8 78be 3278 ddbd 247f d33d
00000090: f0d9 103e 1c02 c3bb 4c44 c23d 2c5b 643e
000000a0: a497 58be c66a a2be a2c4 413e 4e85 853e
000000b0: fc1e 253e bf9a 94be 8809 9fbe 944d 63be
0.00015423646 0.109983385 0.21074018 -0.20246981 0.023576366 -0.2639548 -0.19085842 0.28147933
-0.12156005 0.1224477 0.25470746 -0.14926073 0.26205373 -0.4363672 0.1452905 -0.404
0.07021509 -0.26531026 -0.44761282 0.23332739 0.0128604155 -0.15751238 -0.2676047 0.46784025
0.074617706 0.17413905 0.24393108 -0.071711145 0.20249498 0.25631163 -0.3123893 0.16709512
-0.3292308 -0.24313687 -0.10813941 0.103269845 0.14145637 -0.005951179 0.09485683 0.22300404
-0.21151596 -0.31722087 0.18922666 0.26078266 0.16125101 -0.29024312 -0.3106196 -0.22197562

0.4.weight f4 [36, 48]
00000000: 9964 28bf 7452 a9bd 3a6c 3abe 9014 cd3e
00000010: ef71 853e c291 dfbd c846 e93d ee2a 2b3e
00000020: 8900 103f e86e f03d 5c6c 623c 547d 3c3f
00000030: fad8 043e 0679 2fbe ac80 ef3c 3e02 443e
00000040: 3ee8 b93c 32bf d73d 12df 20be ac62 c3be
00000050: e2d6 e8be c992 a0bc dc3b a23e 4ef7 f5bb
00000060: 366b 84be 6648 5abe 2ec8 b53b f031 f83d
00000070: 5868 853e 44e6 af3e 988e 1fbe a3ec 803e
00000080: 532e 86be 82a1 6c3e 061a f23d 2ce6 eebd
00000090: 283b 82be b40c 38bf e4b8 683e 824d 0e3f
000000a0: d4a4 4dbe cff9 833e 0d17 fdbd 1344 833e
000000b0: 2c20 1bbd 2e85 89be 686b dc3e 798c 81bd
000000c0: d0e9 c2be df6d e63c e4ad 4cbe 26ad d03c
000000d0: e455 903e 3a5e c0be 0fd1 c3be 5edb aa3e
000000e0: b8cd f3bd 3171 be3d 9618 f53d b876 363e
000000f0: 1a8c 453e eb28 81be 6af1 743b 7b6b a5bd
00000100: 44c2 e6be 0861 ad3e 685f 423e 71ad 98be
00000110: 8a7c 3ebd fc41 bc3e 3afd e3be ff20 863d
00000120: 1038 113d 5450 c1be eafd 40be cbff a6be
00000130: d8c4 09bb b0be 2c3d 75e0 b4bd 260d fb3e
00000140: 4c3b 5ebe cd0c 8cbd b8f5 d1be d035 1f3e
00000150: 9862 e8be 9aea b6bd d433 1bbd e8b3 71bd
00000160: fa95 233b 2c24 30be eeb2 0dbe 099c 9b3d
00000170: baba b83e b89b 2e3e 6924 133f 3a07 1a3c
00000180: 7821 adbd a6a8 5ebd 2cd0 15be 40aa 263e
00000190: f662 e7bd 3d6f 853e 5293 853d ef70 49be
000001a0: 88a7 a93d 4434 babe ae7d 893e f961 143e
000001b0: a640 81be a2d0 ee3e 8468 53bd b0ff 9b3e
000001c0: c10a 0ebe 34e8 3fbe e962 313e b418 c8bd
000001d0: 603e 933e d253 d7bd aed3 c63e 2233 b8be
000001e0: 39b1 acbe 98f1 acbe 947a d33d 91a8 bd3d
000001f0: 2e30 c9be d2c2 1abe 2666 0d3e 1bb5 6ebd
00000200: 08ed 703d d4a0 a33e bc71 76be ca99 47be
00000210: a5f6 043e d5f0 92bc fc8e debd 94c5 fcbd
00000220: f3f3 7cbe b47f da3e ea54 bb3e 6e97 803d
00000230: c0be 04be e6ed 40be e4f0 0538 f4e0 243d
00000240: c279 52bd 2ac9 8f3e 16db 93be 8264 363e
00000250: d630 e93d 76f6 18bf 458a 563e 5556 d93e
00000260: 0115 a93d 50e1 bcbe 786e 863d ac04 bd3d
00000270: 6784 923d f4c6 c6bd 4015 223e f27a 7bbe
00000280: 9dcf 8b3e b051 223e 7e4f 53be 3db2 253d
00000290: 26e0 d1be 3278 fdbd bc3f 54be c0b2 173c
000002a0: f95d 013e f009 25bd 099a 0a3e f6d0 ad3d
000002b0: ecd9 d53d 0657 993d dae9 48be 50c8 db3e
000002c0: ec3d 24bf a814 a63e 00d3 17be fe87 6e3e
000002d0: 46bf 98be 6e8e ca3d f68a 6fbe 7d53 07be
000002e0: 0229 2ebe 8341 0abe 697b 26be 266d 0d3f
000002f0: 4e31 533e 1c3b d9bd a004 793e eb8e 0f3c
00000300: 5e45 a93d da1b b5be a076 173e 1418 10bd
00000310: 78a0 af3d 3cb2 16bf 52f9 ce3d 4109 2a3f
00000320: 2c51 a5bd 1037 ce3d 1245 663e f2c2 4b3e
00000330: 1021 bf3e 6425 d6be c359 873e ba98 4dbe
00000340: 96c1 a13d 36fe 213e 20bd 76be 2c35 d5bc
00000350: efcf 87bc d0b6 1b3d feca b8be 0e94 a83e
00000360: 20b5 733e 12bc 033e 08a4 9fbc 28da 83bc
00000370: be27 513e 78cb de3d 3230 1fbe 21ad cf3e
00000380: 5a8b ffbd 69f7 1c3c 3ebe babd 968d a73e
00000390: b2ad 033d 741a 833d 5604 1b3e d23c 213e
000003a0: 4468 4c3e 00ec 99bd 2c99 c0bd 4696 9b3e
000003b0: ca95 aabd e147 3cbe c2cf 283e 86c8 903d
000003c0: 08fe 15bf 3a7c adbe b463 19be 1cd1 a83d
000003d0: 986e 573e 2b07 833e 7aa0 9cbe 12da 9ebe
000003e0: 0152 d1be 2477 e03e a098 dcbd fd3e 01be
000003f0: 04e4 98be 54cf 1c3e e67b e6be 1a90 3f3d
-0.657785 -0.0826768 -0.18205348 0.4005475 0.26063487 -0.10916473 0.113904536 0.16715595
0.56250817 0.11739904 0.01381978 0.73628736 0.12973395 -0.1713601 0.02923616 0.1914148
0.02269375 0.105345145 -0.15710095 -0.38161218 -0.45476443 -0.019601243 0.31686294 -0.0075062877
-0.25863045 -0.2131668 0.005547545 0.121189 0.2605617 0.34355366 -0.15581739 0.2518054
-0.26207218 0.23108485 0.1182137 -0.116649956 -0.25435758 -0.71894383 0.2272678 0.5558702
-0.20082408 0.25776526 -0.12357912 0.25637874 -0.03787248 -0.2685942 0.43050694 -0.06325621
-0.3806901 0.028128562 -0.19988209 0.025473189 0.2819053 -0.3757189 -0.38245437 0.3337049
-0.11904472 0.09298933 0.1196758 0.17818725 0.19291726 -0.2522653 0.003737534 -0.08077141
-0.45070088 0.3386309 0.18981707 -0.29819825 -0.04650549 0.36769092 -0.44529134 0.06549262
0.035453856 -0.37756598 -0.1884686 -0.3261703 -0.002102187 0.04217404 -0.08831874 0.4903347
-0.21702307 -0.06838379 -0.4100778 0.15547872 -0.4538772 -0.089314654 -0.037891224 -0.059009463
0.002496122 -0.17201298 -0.13837788 0.07598121 0.3607996 0.1705159 0.5747743 0.009401137
-0.08453649 -0.054360054 -0.14630193 0.16275883 -0.11298172 0.2606143 0.0652224 -0.19671987
0.08283907 -0.36368 0.26853698 0.14490499 -0.25244635 0.4664355 -0.051613346 0.30468512
-0.1387129 -0.18740922 0.17322887 -0.09770337 0.28758526 -0.10514034 0.38833374 -0.3597651
-0.3372896 -0.3377807 0.10326114 0.09260667 -0.3929457 -0.1511338 0.13808498 -0.058278184
0.0588198 0.3195864 -0.24066824 -0.1949226 0.12984712 -0.017937103 -0.10867116 -0.123423725
-0.24702434 0.42675555 0.36588222 0.06278883 -0.1296339 -0.18840751 3.1934018e-05 0.040253595
-0.05138565 0.28083163 -0.28878087 0.17811778 0.11386268 -0.5975107 0.20951183 0.4244868
0.08255959 -0.3689065 0.06564039 0.09229407 0.0715416 -0.09705916 0.15828419 -0.24558619
0.27306834 0.15851474 -0.20635793 0.040453184 -0.40991324 -0.12376441 -0.20727438 0.009258926
0.12633504 -0.04029268 0.13535322 0.08487122 0.10441956 0.074873015 -0.19620457 0.42926264
-0.64156985 0.32437634 -0.14826584 0.23294064 -0.2983343 0.098904476 -0.23392853 -0.13215442
-0.1700783 -0.13501553 -0.16258015 0.5524467 0.20624277 -0.10606977 0.2431817 0.008762102
0.08265184 -0.35372812 0.14791346 -0.035179213 0.08575529 -0.58865714 0.10106148 0.6642037
-0.08072123 0.10069096 0.22487286 0.19898584 0.37329912 -0.41825402 0.2643567 -0.20077792
0.07898252 0.1581963 -0.24095583 -0.02602633 -0.016578643 0.03801614 -0.3609237 0.32925457
0.23799562 0.12864712 -0.019487396 -0.016095236 0.20425317 0.10878652 -0.15545729 0.40561774
-0.12477751 0.009580472 -0.09118317 0.3272521 0.03214807 0.0640153 0.15138373 0.15745857
0.19961649 -0.075157166 -0.09404215 0.30388087 -0.08329351 -0.18386795 0.16485503 0.07069497
-0.58590746 -0.3388384 -0.1497944 0.082430094 0.21038282 0.25591406 -0.30591184 -0.3102575
-0.40882877 0.43840897 -0.107712984 -0.12621684 -0.29861462 0.15313464 -0.45016402 0.046768285

0.4.bias f4 [36]
00000000: fba6 97be ee47 e4bd cc1b cabe 7dac aa3c
00000010: 72fa 323e 7054 653e 1627 453e 4266 c13d
00000020: 0fc0 69be 8b33 20bd dce3 bd3b 3e6a aabe
00000030: 0225 423e b63b 69be d761 813e d6ed 4ebd
00000040: 22da a73d 88ca 77be 8325 e5be 128e a83e
00000050: 9d24 10be f4d6 f33e ced1 0bbd 5374 d6bc
00000060: 5888 23be a08d 3abe 94f5 af3c 0cec ebbc
00000070: 1837 cd38 6690 eb3e 18dd 6ebd 8467 3bbe
00000080: 1e08 e2bd 589e bf3c 2861 0d3e 3f37 1abe
-0.29619583 -0.11146532 -0.39474332 0.020834202 0.1747835 0.22395492 0.19253191 0.09443332
-0.22827171 -0.039111655 0.005794985 -0.3328418 0.1895943 -0.22776684 0.25269958 -0.050519787
0.081959024 -0.24198353 -0.44755182 0.3292089 -0.14076467 0.47624934 -0.034135632 -0.026178515
-0.1596998 -0.18218088 0.021479405 -0.02879908 9.785424e-05 0.46008605 -0.05831632 -0.18301207
-0.110367045 0.023390934 0.13806593 -0.15060137

0.6.weight f4 [24, 36]
00000000: c499 323e 93bf 86be ba2b 38be 9ef8 dcbd
00000010: c879 05be 7c81 0c3f c831 cb3d 384e 6fbe
00000020: ccf6 20be 44e6 5a3d ee80 e8be 805a 6ebe
00000030: 6831 8e3d 5694 5abe 424f f8bb c8a9 463e
00000040: 8cf6 95bd f1f2 1dbb d811 99bf 62be dd3e
00000050: c802 33be cca2 a53e 1a97 e7bd 8cd8 d0bd
00000060: fae3 d5be 4c11 643e f871 5c3e b336 4f3e
00000070: 9c0c 803d 5612 7bbe dcab 97bd eb24 213e
00000080: 7691 fdbc e467 b1be 99e1 49be da09 ca3c
00000090: 0459 8a3e fe46 f83c 3747 10be 1d0a c13d
000000a0: 2f94 a63e 8ce5 f03e a4c5 af3e d2c1 963e
000000b0: adc8 c1be 9c52 a0be ee5e b6be b094 e6bd
000000c0: 3046 6f3e ea0f a7be 374e d4bc debd 403e
000000d0: ccd6 c33e e4a3 bdbe 5d06 153e 0ca4 e43e
000000e0: 188c 95be 205a c2bc 388f 0e3e 865f 7cbc
000000f0: 164b c53e 5443 11be 25ff d63d 97f9 3f3f
00000100: 06bc a5bd 2c20 bcbd 854e 0abf 4a05 733e
00000110: 9c0b 5fbe 5378 2b3f 1060 68bd 7297 6a3c
00000120: dcb0 a9bd 6829 10be 06ac 833e 186f afbe
00000130: 56f4 e1bd e599 883e 0a69 a1be 54e3 e43d
00000140: cd8d 133f e93b ca3e b34f aabd 76ed c73d
00000150: 2b96 143e a27f bf3e f412 cfbd f0a8 6a3e
00000160: c0ca 92be 1ca9 993e 880e dcbd 06ee 41be
00000170: 5140 233f e2cf 76be a494 c83e 749c 413c
00000180: 24ef 1bbe adf3 843e 8ccb 403e 8c80 6bbe
00000190: 1e6f e43d bc84 2b3c 5a8e 3ebe 0d18 8bbe
000001a0: 66e5 203f d4f9 c9bb 1cd2 9abe bd64 163e
000001b0: 1c73 c6bd e65d bdbd b9ac 023d 5875 99be
000001c0: 9ceb a5be a438 983e cd46 97be ac5b 1e3e
000001d0: f147 2e3f 865f 133f 7802 073d 7897 c53d
000001e0: 240e 98bd dc1d c13e 0884 b8be 0689 a03d
000001f0: dd74 3dbe dee0 e33e ecfc a6be 0c4d fbbe
00000200: baf6 e23e c66f 4abd ce95 333e 402f c43d
00000210: 41aa 08be 5c17 6e3e a0cd a23c 273e e9bd
00000220: 837f 85bc e6f3 febd 8878 f1bd 1830 65be
00000230: 0a8f 3e3f cce3 a23d fe33 90bd 2404 103f
00000240: 0b49 53bb fd86 4cbe c5ec 9c3d ca09 cfbc
00000250: c2d2 a3be 95d8 9c3e 806c adbe 606a 853e
00000260: 36b5 1e3f eac6 fa3e d652 e8bd 662e 2c3e
00000270: c8da 5cbd f7ca bf3d 1392 38be e102 7f3d
00000280: 1d5d 93be 25ac 0d3f 0012 81be 1d43 0cbf
00000290: 08e7 e43e ed3a e6b9 3da6 6e3e ca0e 803a
000002a0: 19bb acbd 94cb 963e 3ed6 4a3e 20f3 adbe
000002b0: a83d 9e3d 4ab7 5fbd 1af3 89bd bcf6 64be
000002c0: 6a63 1e3f 1c5f dfbd e4dd 83be af80 083f
000002d0: 6ed2 babe d44a 893e 7312 64be eeb2 263e
000002e0: fe5d 18bd 7e39 353e 547f c3bd ccf7 cabe
000002f0: b26e babd 3cac afbd 725b 3d3e 4018 84be
00000300: 94c3 43be 2cbc dabd 1d58 8b3e cfa5 f53e
00000310: 805a 21be 05da 8e3c cc88 ea3e 9213 17bd
00000320: 82cf a23d c442 a33d 3494 66be 0e92 fb3c
00000330: ca55 5a3c d6e5 49be b97f 013e 9290 a9be
00000340: fe8f 87be a83f 573e a276 b7be c4e5 1bbe
00000350: 467e 523e d712 513d 7088 2ebe 3a35 583d
00000360: d831 aabd 4092 053e 1ae0 8abe fc4f 983e
00000370: 2513 833e 0cad b23e 3964 393e 94de a6bd
00000380: 7c7f b5be ac3a b3bd c6b1 b0bd d4ba 0cbf
00000390: fca7 b13e 80a5 a0be 2cfe c03e 34eb f9bc
000003a0: 8061 2f3e e248 d1be 7ee8 603e aa70 333f
000003b0: 58e9 a8be bd8a a63e ae27 bc3b 0ee2 be3e
000003c0: d249 973c 2865 92be ac68 683e ecf7 533e
000003d0: 583f 92be 9523 83bc 9aa9 d3be 9175 0c3c
000003e0: a3ee 98be ea01 0f3f d4dd a93d 1ab8 b6be
000003f0: 6aaa 643e 9ffa 133e e7e3 963e 4cb0 cebe
0.1744147 -0.26318035 -0.1798543 -0.107896075 -0.13034737 0.5488508 0.099216044 -0.23369682
-0.15719146 0.053442255 -0.45410866 -0.2327671 0.06943017 -0.21345648 -0.0075778076 0.19400704
-0.07322416 -0.0024101103 -1.195857 0.43309313 -0.1748153 0.32350767 -0.11308117 -0.10197553
-0.41775495 0.22272223 0.2152785 0.2023571 0.06252405 -0.24518713 -0.074058264 0.1573674
-0.03095315 -0.34649575 -0.19714965 0.0246629 0.2702104 0.03030729 -0.14089666 0.09425757
0.3253493 0.4705013 0.34330475 0.29444748 -0.37848416 -0.31313026 -0.356193 -0.11258829
0.23366618 -0.3262933 -0.025916202 0.18822429 0.38249815 -0.370391 0.14553209 0.44656408
-0.29208446 -0.023724616 0.13921821 -0.015403634 0.3853385 -0.1418584 0.10497884 0.7499022
-0.08092503 -0.09185824 -0.5402606 0.23732486 -0.21781772 0.66980475 -0.056732237 0.014318334
-0.082856864 -0.14078295 0.2571718 -0.34264445 -0.110329315 0.26679912 -0.3152545 0.11176172
0.57638246 0.39498833 -0.08315983 0.09762089 0.1451041 0.37402064 -0.10111037 0.22916007
-0.2867031 0.30011833 -0.10744959 -0.18938455 0.63770014 -0.24102738 0.39175904 0.0118170865
-0.15227944 0.2596716 0.18827647 -0.22998255 0.111540064 0.010468658 -0.1860899 -0.27166787
0.62850034 -0.006163815 -0.30238426 0.14686866 -0.09689924 -0.09246425 0.031903002 -0.2997234
-0.32406318 0.29730713 -0.29546204 0.15464658 0.68078524 0.5756763 0.03296134 0.09648031
-0.07424572 0.37718093 -0.36038232 0.07838635 -0.18501611 0.44507498 -0.3261484 -0.4908222
0.44328862 -0.049423 0.17537615 0.09579325 -0.13346197 0.23251098 0.01987344 -0.11388808
-0.016296154 -0.12448864 -0.11790568 -0.22381628 0.7443701 0.07953605 -0.07041167 0.5625632
-0.0032239582 -0.19973369 0.07662348 -0.025273222 -0.31996733 0.3063399 -0.3387184 0.2605772
0.61995256 0.48979884 -0.11343925 0.16814575 -0.053919584 0.09364884 -0.18024473 0.062258605
-0.28781977 0.55340797 -0.25209045 -0.54789907 0.44707513 -0.00043912922 0.23305602 0.0009770032
-0.084341235 0.29452193 0.1980829 -0.33974552 0.07726604 -0.054618157 -0.06735821 -0.22359747
0.61870444 -0.109068125 -0.25755227 0.53321356 -0.3648867 0.26814902 -0.22272663 0.16279194
-0.037199013 0.17697713 -0.0954577 -0.3964218 -0.09103145 -0.08577773 0.18491915 -0.2579975
-0.19117576 -0.10680422 0.27215663 0.47978064 -0.1575718 0.017437944 0.45807493 -0.036883898
0.07949735 0.07971719 -0.22517473 0.030709293 0.013326118 -0.19716582 0.12646379 -0.3311811
-0.26477045 0.21020377 -0.35832697 -0.15224367 0.20555982 0.051043358 -0.17044234 0.052785136
-0.08310288 0.13044071 -0.271241 0.29748523 0.25600544 0.3489765 0.18104638 -0.08147922
-0.35448825 -0.08751425 -0.086276576 -0.5497258 0.34698474 -0.31376266 0.37693918 -0.030507661
0.17127037 -0.40875918 0.21963689 0.70093787 -0.32990527 0.32527724 0.005742035 0.3728184
0.018467817 -0.285928 0.22696179 0.20700043 -0.28563952 -0.016008178 -0.41340333 0.008572952
-0.29869565 0.55862296 0.082942635 -0.35687333 0.22330633 0.14451073 0.2947075 -0.4036888

0.6.bias f4 [24]
00000000: 559b 7bbe 26dc 57be b928 98bd 65a9 be3d
00000010: 002a 7ebd b03e 8e3e b1f6 e43c a83e e0bd
00000020: 6139 09be 24c5 3bbe b89c 843d a16c e53d
00000030: fae8 b23e 9a88 b3be f02c 49bf 530d 25be
00000040: 57c0 873d 707d edbd 46df debe 830f 413d
00000050: a68b 1a3e a63e 9f3d 0a72 30be cc0b c1bd
-0.24570973 -0.21080074 -0.07429642 0.09309653 -0.062051773 0.27782202 0.027949663 -0.10949451
-0.13400795 -0.18336922 0.06475204 0.1120236 0.34943372 -0.35065156 -0.78584194 -0.16118364
0.06628483 -0.11596191 -0.4352972 0.047133934 0.15092334 0.07775621 -0.17231002 -0.09426078

0.8.weight f4 [12, 24]
00000000: 334d 0abe 600b edbd 582e ba3e 50dd a43e
00000010: a8e7 9d3e 8ee5 29be 101d 34bf 2813 a23e
00000020: 3a48 58bf 32a1 db3e 9a31 e73e 8a1e 8ebe
00000030: 6088 6bbe 8025 893e fef0 7e3d a4ba 9a3e
00000040: d211 61be 6a9d 373e e255 09be daab 693f
00000050: ce4e ef3e 299f fd3e 7546 a0be f26a cd3e
00000060: f26d 30bd ce5a 12bf 407c 853e fe60 d93e
00000070: a003 c43e ed8d f93c d0b4 49bf 9401 2e3e
00000080: ee63 22bf 0e16 1c3f 626f d63e 9ed4 04be
00000090: 14d1 76be 0026 003f fecf 033e c4c2 c63e
000000a0: ae98 a2be 8428 de3e f645 f1bb 485d 413f
000000b0: cecd 4c3f c663 e63e ecf5 5fbe aed4 423f
000000c0: ac34 633e be66 c1bd c201 b2bd 741d 40bd
000000d0: 22d0 41bd 10f2 66be aedb 2a3d 6a28 1d3d
000000e0: 8448 24be f07a 843d 6694 edbd bad7 483e
000000f0: c897 0abf 0a9c 2bbf dacf db3e 6de6 38bb
00000100: 8c0b 51be 5282 1bbc 9e0b af3d b0c7 2abd
00000110: 225d 393d fc39 62be 80fe a53d fa42 6b3b
00000120: 6eb0 073f b1b6 d73d 3039 313e 05e2 833e
00000130: 0ae3 f03d a804 b5be be28 32be 9ce6 f93d
00000140: 805d a23d 0f46 143e 3c85 473e feea 0bbe
00000150: 0073 09bf 1a35 82bf 6e37 603e 2627 10be
00000160: deee e3bd 5a3a e5bc 1e29 0b3f f0bc bcbe
00000170: 4eb8 53bd 126f 32be e87d 81be fea3 c53a
00000180: 5260 1ebe e2b7 10bf 2637 ae3e 5819 cc3e
00000190: 3e73 e83e 74e4 3b3e d298 2abf 6880 803e
000001a0: fa80 6ebf 80c0 223f 92b5 8a3e 7124 22be
000001b0: 2355 21be 5b24 073f 4955 a7bd 5252 cd3e
000001c0: 2a7f a5be 8794 753e c8c2 5bbd 7e9e 353f
000001d0: fccf 4d3f 9eb3 913e d485 e8be 60cc 103f
000001e0: 76ec c1bd dafc bfbe 8436 1e3d 24ec bf3e
000001f0: 368a a43e 5870 0dbe 7eae 0dbf a0ab 8e3e
00000200: a9d6 00bf de72 1a3f a6fe ac3d 8370 cbbd
00000210: e39e 92be e8ff 0b3f 9845 c33d ee0e ec3e
00000220: b44a 83be 1cd6 2c3e 018e 84bd e464 493f
00000230: 0bce 2a3f 60e3 683e 34cb 13be 2ec3 e23e
00000240: bf0b 8cbd f43f c7be 9486 963e 52b5 de3e
00000250: b416 a73e febf 84be 7aa6 20bf 0e8f 313e
00000260: 7a88 c0be ff31 c33e edb5 4d3d 40db 0dbe
00000270: b6b5 43bd fe8d b73e de2d 4a3d 0a3c 993e
00000280: 809b c6be aced d03e 919f 83be fc7c 533f
00000290: 5c0a 083f 860b 033e 1811 9bbe 1d06 013f
000002a0: ab38 273e e681 3b3e cecd a6be 007c 38be
000002b0: 3625 e3be 2ab8 7cbd 21a7 ee3e 0ad8 58be
000002c0: e89b ea3e 9cba 09bf de8f 72be ba7c 3e3e
000002d0: 330b 4c3e 0be2 05bf 228c 53be 888d 32be
000002e0: d6b0 5c3e 7495 16be feff 0e3e 1915 80bf
000002f0: b054 48bf b6e9 3dbe aef2 e13d 5208 34bf
00000300: f418 443d 4b70 033f 8a0c 9dbe fecd dabe
00000310: 9e91 0bbf d1a1 033e 8c59 4b3f 32b9 91be
00000320: 655e 063f 0a24 2abf 2c36 95be 062a d43e
00000330: 1d9f a03e aec2 bcbe 739b 31be 3e58 99be
00000340: bd4d 073f d092 55be 0811 8c3e d842 3abf
00000350: a29b 31bf 6c61 e0be 958a 0d3e d68c 36bf
00000360: de4c 66bd 7085 15be 5aa7 78bd 8064 3abd
00000370: 0e01 32bd ee5e 963e 5b30 27be 8c41 a0be
00000380: 6e47 4abe 9080 f43d 7079 4e3e 887d 0dbd
00000390: 50ff d73e 0ca2 463f e173 cdbd 2a50 d2bd
000003a0: cacb 89be e8e6 c7bd 84ee e33e ba8e 92bd
000003b0: 85e6 05be 4a46 43bd c446 76be 940e d4bd
000003c0: 9877 6a3a 84a8 54be 561e 463d 18c7 8c3e
000003d0: 61a7 553e 7096 ddbd 861d abbe c614 5f3c
000003e0: 0e40 dfbe 4a8c 033f 924f 973d d352 86be
000003f0: 3a6d c6be 2e29 ac3e 0c2e 6e3e 46a7 db3e
-0.13506012 -0.11574435 0.36363482 0.32200098 0.30840802 -0.16591474 -0.70356846 0.3165524
-0.8448521 0.4289642 0.4515503 -0.27757674 -0.23001242 0.26786423 0.062241547 0.3022052
-0.21979454 0.17931142 -0.13411668 0.9127785 0.4673981 0.49535492 -0.31303754 0.40120655
-0.043073602 -0.57169807 0.26071358 0.42456812 0.38284016 0.030463183 -0.7879152 0.1699279
-0.6343373 0.6097115 0.41881853 -0.12971732 -0.24103194 0.50057983 0.12872311 0.3882047
-0.3175711 0.43390286 -0.0073630763 0.7553296 0.80001533 0.44997996 -0.21871156 0.76105773
0.22188061 -0.09443425 -0.086917415 -0.04690309 -0.04731763 -0.22553277 0.04171341 0.03836862
-0.16043288 0.06468761 -0.116005704 0.19613543 -0.5413785 -0.6703497 0.42932016 -0.0028213516
-0.20414561 -0.00949152 0.08547138 -0.041694343 0.045254834 -0.22092432 0.08105183 0.0035898075
0.53003585 0.105328925 0.17306972 0.25758377 0.11762054 -0.35355115 -0.17398354 0.122021884
0.0792799 0.1447985 0.19484419 -0.13663861 -0.536911 -1.0172455 0.21896145 -0.14077434
-0.11129545 -0.027981926 0.54359615 -0.36862898 -0.05168944 -0.17425182 -0.2529137 0.0015078781
-0.15466431 -0.5653058 0.3402645 0.39863086 0.45400423 0.18348867 -0.66639435 0.25097966
-0.9316555 0.6357498 0.27091652 -0.15834214 -0.15755133 0.5278985 -0.08170564 0.40101868
-0.3232358 0.2398244 -0.053652555 0.70944965 0.80395484 0.2845735 -0.45414603 0.5656185
-0.094689295 -0.37497598 0.03862621 0.37484848 0.32136697 -0.13812387 -0.5534438 0.27865314
-0.50327545 0.60331523 0.08447008 -0.09933569 -0.28636846 0.54687357 0.09534758 0.4610514
-0.2564293 0.16878551 -0.064723976 0.7866957 0.66720647 0.22742987 -0.14432985 0.44289535
-0.06838178 -0.3891598 0.2939955 0.4349771 0.3263451 -0.25927728 -0.62754023 0.17339727
-0.37604123 0.38124081 0.050222326 -0.13853168 -0.047780715 0.3585052 0.04936015 0.2992862
-0.38790512 0.4080633 -0.25707677 0.82612586 0.5314081 0.12797365 -0.3028648 0.50399953
0.16330211 0.18311271 -0.32578892 -0.18016052 -0.44364327 -0.06169907 0.46611884 -0.21176162
0.45822072 -0.5380037 -0.23687693 0.18602267 0.19926147 -0.5229804 -0.20658925 -0.17436802
0.21551833 -0.1470545 0.13964841 -1.0006438 -0.7825422 -0.18546185 0.110326156 -0.70325196
0.04787536 0.5134322 -0.3067363 -0.42735285 -0.5451907 0.12854697 0.7943351 -0.28461605
0.52487785 -0.6646124 -0.29142892 0.4143831 0.31371394 -0.3686728 -0.17344455 -0.29950136
0.52852994 -0.20856786 0.27356744 -0.72758245 -0.693781 -0.43824327 0.13822396 -0.7130865
-0.05622565 -0.14601684 -0.060706474 -0.045506 -0.043458037 0.293693 -0.1632704 -0.31300008
-0.19753811 0.11938584 0.20163512 -0.034543544 0.42186975 0.77591014 -0.10031868 -0.10269196
-0.2691329 -0.09760839 0.4451791 -0.07156129 -0.13076217 -0.047674455 -0.24050432 -0.10354343
0.00089442125 -0.20767409 0.048368774 0.27495646 0.20864631 -0.10819709 -0.33420962 0.013615793
-0.43603557 0.5138594 0.07388224 -0.26235065 -0.38755208 0.33625168 0.23259753 0.42901057

0.8.bias f4 [12]
00000000: 3652 023d 7e41 cc3c b402 2bbf b8d3 d3be
00000010: 909f 09be f43c c8bc 1e3f b5bc 4ef6 adbd
00000020: 0610 17be b606 623e 3881 c33d 37de 12be
0.031816684 0.024933573 -0.66801 -0.41372466 -0.13439775 -0.024443127 -0.022124823 -0.084942445
-0.14752206 0.22072873 0.09546131 -0.1434258

1.0.weight f4 [3, 12]
00000000: 5933 bebf bccf ccbf 931e 33bf e873 7a3f
00000010: 6735 d9bf f0dd a1bf efb2 aabf 3616 b33f
00000020: 87a2 bf3f 4528 503f d908 97bf fdcf b1bf
00000030: 0ca2 c8bd 9297 ce3d 2a38 9c3f a5eb aa3e
00000040: 4596 a63e 048f 9fbe 73c7 99be f509 9f3e
00000050: aa6e 71be ba5a 8f3e 5617 45be e301 bfbd
00000060: 423c 903f 41b8 883f f8be 14bf 5bd7 44bf
00000070: 55ba 7e3f 9059 723f 417f 623f b5f8 7bbf
00000080: 067a 94bf 3925 3cbf 78fb 7d3f 7a73 923f
-1.485942 -1.6000896 -0.6996853 0.9783311 -1.6969422 -1.2645855 -1.3335856 1.3991153
1.4971474 0.81311446 -1.1799575 -1.3891598 -0.09796533 0.100875035 1.220464 0.33382908
0.32536522 -0.311638 -0.3003498 0.31062284 -0.23577371 0.27998906 -0.19247183 -0.09326532
1.1268389 1.068123 -0.58103895 -0.76891106 0.9950307 0.9466791 0.88475424 -0.9842637
-1.1599739 -0.734943 0.99211836 1.1441491

1.0.bias f4 [3]
00000000: bc05 f63e ad00 89bf bb69 883e
0.4805125 -1.0703331 0.26643166
