JSP/trained models/validated_6_70.pt (torch_old, 27293 bytes, 16 tensors)

0.0.weight f4 [5, 5]
0	0x3f984141	1.1894914
1	0x3f8d4aff	1.1038512
2	0x3f7253df	0.9465923
3	0x3f9afd86	1.2108619
4	0x3fa9ef9b	1.3276247
5	0x3fe030fb	1.7514948
6	0x3fa4321b	1.2827791
7	0x3f66471b	0.8995225
8	0x3f7a85d7	0.97860473
9	0x3fa98336	1.3243167
10	0x3facaad1	1.3489629
11	0x3fa2f757	1.2731732
12	0x3f6b0c9c	0.91816115
13	0x3f8c23d0	1.0948429
14	0x3f8561ca	1.0420468
15	0x3f911782	1.1335299
16	0x3f922c79	1.1419822
17	0x3f589c62	0.8461362
18	0x3f9736c2	1.1813586
19	0x3f7aae31	0.97922045
20	0x3fa4acc7	1.2865227
21	0x3fd5cd84	1.6703343
22	0x3fa4cdff	1.2875365
23	0x3fd9053e	1.6954725
24	0x3fa9e476	1.3272846

0.0.bias f4 [5, 5]
0	0xbdb61127	-0.0888999
1	0x3d9e56c7	0.07731395
2	0x3d9cb7b1	0.07652224
3	0xbd934b56	-0.071921036
4	0xbe32194d	-0.17392464
5	0xba8711c0	-0.0010304973
6	0x3e35b832	0.17746046
7	0x3d9b7f64	0.07592657
8	0xbe09a396	-0.1344131
9	0xbd00416a	-0.031312384
10	0x3e33bbb8	0.17552078
11	0x3e54b94b	0.20773809
12	0x3e675c68	0.22593844
13	0xbe153345	-0.14570339
14	0xbdd6ac8c	-0.104821295
15	0xbc9ca5b3	-0.01912198
16	0xbcbc017a	-0.022949923
17	0x3d39a84d	0.04532652
18	0xbe136919	-0.1439556
19	0xbd8330a2	-0.0640576
20	0xbd88dcec	-0.066827625
21	0x3e328dcf	0.17436908
22	0x3d2d64af	0.042332347
23	0xbe82c6d5	-0.25542322
24	0x3d1ebb8f	0.03875309

1.0.weight f4 [48, 25]
0	0xbe88aab8	-0.26692748
1	0x3e91d4e0	0.28482723
2	0xbe8d386e	-0.27582115
3	0xbd62947d	-0.05531739
4	0xbdb27547	-0.08713775
5	0xbe6d2d1b	-0.23161738
6	0xbeb4f488	-0.35342813
7	0x3eb2f612	0.34953362
8	0xbce067ae	-0.027393188
9	0xbca30446	-0.019899499
10	0xbd8307fd	-0.06398008
11	0x3e65512f	0.2239425
12	0x3e46c276	0.19410118
13	0x3d1df69a	0.038565256
14	0xbe2140da	-0.15747395
15	0xbe006d3d	-0.12541671
16	0x3df53aa2	0.11974074
17	0xbe321960	-0.17392492
18	0x3daa62af	0.08319604
19	0xbe6ed3be	-0.2332296
20	0x3dee0cdf	0.11623549
21	0x3d1ab519	0.037770364
22	0xbe04bff8	-0.12963855
23	0xbda0afa7	-0.07846003
24	0x3d0ee797	0.03488883
25	0xbdac8cfe	-0.084253296
26	0x3df815da	0.12113543
27	0xbda52e16	-0.08065431
28	0x3ecc4a0e	0.3990025
29	0xbe64d67d	-0.22347446
30	0xbe514238	-0.20435417
31	0x3e53c577	0.20680796
32	0xba05a1c3	-0.0005097652
33	0xbdc4b5c0	-0.096049786
34	0x3cac80d6	0.021057528
35	0xbd162524	-0.036656514
36	0x3dc7e3ae	0.09760223
37	0x3e510f3d	0.20415969
38	0x3e2fa32f	0.17152093
39	0x3d126e35	0.035749633
40	0xbe041628	-0.12899077
41	0xbe83f711	-0.25774434
42	0xbe3993d8	-0.18122804
43	0x3eb192e4	0.3468238
44	0x3bd8eceb	0.0066200397
45	0x3d794866	0.06086006
46	0xbe4f8b36	-0.20267949
47	0x3d440e1f	0.04786503
48	0xbe6cdb2f	-0.23130487
49	0x3dcf94e4	0.101358205
50	0x3ea733a2	0.3265658
51	0xbe8d14de	-0.27554983
52	0xbd158ff0	-0.036514223
53	0x3c8d6c10	0.017263442
54	0xbdb38763	-0.08766057
55	0x3ea5fb20	0.32418156
56	0xbdb4e630	-0.08832967
57	0x3cb45395	0.022012511
58	0x3dbb76ed	0.09153543
59	0xbeedc50d	-0.464394
60	0x3e8aea38	0.2713182
61	0xbe22d436	-0.15901265
62	0x3e01cd90	0.12676072
63	0x3c2ce8ed	0.010553581
64	0x3da28f4d	0.07937489
65	0x3e7553bf	0.23957728
66	0xbed46fd5	-0.4149157
67	0xbddf9360	-0.109167814
68	0xbd4d8924	-0.050179616
69	0xbdb9d1cc	-0.09073219
70	0x3e81e00f	0.25366256
71	0xbcca92aa	-0.024728138
72	0x3e110c58	0.14164865
73	0xbe0d4bda	-0.13798466
74	0x3e14f293	0.1454566
75	0x3d906f49	0.07052476
76	0xbd65da87	-0.056116607
77	0x3e372430	0.17884898
78	0x3ea062c6	0.31325358
79	0x3e9871ca	0.29774314
80	0xbcabdeda	-0.020980287
81	0xbe3af4f6	-0.18257508
82	0x3ddde3f3	0.108344935
83	0x3e533461	0.2062545
84	0x3d893264	0.066990644
85	0xbd8c8704	-0.0686169
86	0xbeca7cd9	-0.39548376
87	0x3d2a9fd9	0.04165635
88	0x3d746a95	0.059671957
89	0x3e0c362f	0.13692544
90	0xbe35f52d	-0.17769308
91	0xbdb5c34b	-0.0887514
92	0x3d9fa523	0.07795169
93	0x3e5b46ab	0.21413676
94	0xbd7fc084	-0.062439457
95	0xbe67b321	-0.22626926
96	0x3dd4766f	0.10374152
97	0x3db3c671	0.08778084
98	0xbef6d51e	-0.4820947
99	0xbe46ba17	-0.19406925
100	0x3cc6a3bd	0.024247998
101	0xbd4142ae	-0.04718273
102	0x3e99f06a	0.30066234
103	0x3de146c6	0.10999827
104	0xbe83af48	-0.25719666
105	0xbd9d62f3	-0.07684889
106	0x3b5a9e7b	0.0033358622
107	0xbd85217f	-0.065005295
108	0x3e26cef6	0.16289887
109	0xbe2891e7	-0.16461907
110	0xbddb43be	-0.1070628
111	0xbe5939cc	-0.21213454
112	0x3da51fab	0.08062681
113	0xbcbd9ccd	-0.023146058
114	0xbdbc7295	-0.09201542
115	0x3ddd2baf	0.107993476
116	0x3d8df227	0.069309525
117	0x3da682c4	0.0813041
118	0x3c84a003	0.01618958
119	0x3d94dfe3	0.072692655
120	0xbe4de577	-0.20107065
121	0x3e2f317a	0.17108718
122	0xbd6afa50	-0.057367623
123	0x3e40b927	0.1882063
124	0x3e0b2dd4	0.13591701
125	0x3d741cc7	0.059597757
126	0xbded87c5	-0.115981616
127	0x3d89861e	0.06715034
128	0x3d29dbce	0.041469388
129	0xbd7abb4e	-0.061213784
130	0xbe32afaf	-0.1744983
131	0xbe371267	-0.17878114
132	0x3de6418d	0.112429716
133	0x3e5926bd	0.21206184
134	0xbdbe9bde	-0.09307073
135	0xbe8c59de	-0.27412313
136	0x3ee98eca	0.45616752
137	0x3dd9800d	0.10620127
138	0xbcfffc7f	-0.03124833
139	0x3e8fa398	0.280545
140	0xbe6a069e	-0.22854087
141	0x3eb914c6	0.3614866
142	0x3c43986f	0.0119381985
143	0x3deb603c	0.114929646
144	0xbe03a9ea	-0.12857786
145	0xbe7be19f	-0.24597786
146	0xbcfcd7d1	-0.030864628
147	0xbdc80edb	-0.097684585
148	0x3ed623be	0.41824144
149	0x3c9e71a2	0.019341294
150	0xbd9d1cd7	-0.076715164
151	0xbd0b3014	-0.033981398
152	0xbd207773	-0.039176416
153	0xbdfad614	-0.122478634
154	0xbe427134	-0.18988496
155	0xbe1b3031	-0.15155102
156	0x3d6f04f6	0.05835434
157	0x3e4fb8c4	0.20285326
158	0xbe2f7b2c	-0.1713683
159	0xbdc477d1	-0.09593166
160	0xbe538e46	-0.20659742
161	0xbe80b809	-0.25140408
162	0x3e57fc0f	0.21092246
163	0x3bc02a58	0.005864423
164	0x3d9cc9e1	0.07655693
165	0x3b6bbea8	0.0035971794
166	0xbd4b33ac	-0.049609825
167	0x3b531066	0.003220582
168	0x3e0fd29b	0.14045183
169	0xbdcb4f8e	-0.09927283
170	0xbd031469	-0.032001887
171	0x3deef9cb	0.11668738
172	0x3f06e8f0	0.52699184
173	0x3e7af71d	0.24508329
174	0xbe09811c	-0.13428158
175	0xbd8069f4	-0.06270209
176	0x3e2e4902	0.17020038
177	0xbe82eb00	-0.25569916
178	0x3e29f674	0.1659792
179	0x3e79de43	0.24401192
180	0x3e2d228a	0.16907707
181	0x3e01a0e4	0.12659031
182	0x3da082d0	0.078374505
183	0x3e523f47	0.20531951
184	0xbea6905a	-0.32532007
185	0xbddbed1c	-0.107385844
186	0xbdaa2f4c	-0.083098024
187	0xbe01bafb	-0.12668984
188	0x3aff04a5	0.001945634
189	0x3dc400c1	0.09570456
190	0x3dfcaef5	0.12338058
191	0x3e1a67fb	0.15078728
192	0xbd857ba4	-0.06517723
193	0x3d89068b	0.06690701
194	0xbd1e84b7	-0.038700785
195	0xbe20b5f0	-0.15694404
196	0x3e0934cd	0.13399048
197	0xbe27518f	-0.16339706
198	0x3e33d881	0.17563058
199	0xbd65125c	-0.055925712
200	0xbd37f127	-0.044907715
201	0xbd739971	-0.059472505
202	0xbe7705b1	-0.24123265
203	0x3e3bdb19	0.18345298
204	0x3cab8130	0.020935625
205	0xbe8036ac	-0.2504171
206	0xbe939aad	-0.28828946
207	0x3e263b4e	0.1623356
208	0x3de3d806	0.111251876
209	0xbdedf42e	-0.11618839
210	0xbd5cbea0	-0.05389273
211	0xbe9014e3	-0.28140935
212	0xbd8e48ee	-0.06947504
213	0xbdf890b7	-0.12136977
214	0x3dd6aa7c	0.10481736
215	0x3c131d01	0.008979083
216	0xbca0d8f4	-0.019634701
217	0xbe3eebe7	-0.18644677
218	0x3e591d68	0.21202624
219	0xbe4215bb	-0.18953602
220	0x3e6f2778	0.233549
221	0xbb942f8e	-0.0045222705
222	0x3ed86d9d	0.42271128
223	0x3e1d773c	0.15377516
224	0xbdd3fb66	-0.10350685
225	0xbdbcf724	-0.09226826
226	0xbd4ebb46	-0.050471567
227	0xbe97652a	-0.2956937
228	0x3d6b6e29	0.057478104
229	0x3dbb29d3	0.09138837
230	0x3ed79856	0.4210841
231	0x3de67119	0.112520404
232	0x3e28a9a8	0.16470969
233	0xbe39785b	-0.18112318
234	0x3d8b2458	0.067940414
235	0xbda0d22b	-0.07852586
236	0x3e9fde86	0.3122446
237	0x3e141fe0	0.14465284
238	0xbe553e6a	-0.2082459
239	0x3e4b86b2	0.19875601
240	0x3e57cc1c	0.21073955
241	0x3e4f7e70	0.20263076
242	0xbe07ab25	-0.1324888
243	0xbe2017e7	-0.15634118
244	0x3e628779	0.22121991
245	0xbea682cc	-0.32521665
246	0xbdf73f04	-0.12072566
247	0x3b169e4b	0.0022982534
248	0xbedfb9d9	-0.43696478
249	0x3e45065f	0.19240712
250	0x3dfc7456	0.12326877
251	0xbe302b1d	-0.17203946
252	0xbe1f9bf9	-0.15586843
253	0xbd6a44ce	-0.057194524
254	0x3dd509e3	0.10402276
255	0xbce69be9	-0.028150516

1.0.bias f4 [48]
0	0x3d221001	0.039566044
1	0xbda56f64	-0.08077887
2	0x3da5a164	0.080874234
3	0x3d06f635	0.032949645
4	0x3e34d314	0.17658645
5	0xbe0e21c3	-0.13880067
6	0xbe17a750	-0.14809918
7	0xbe34a7a5	-0.17642076
8	0xbe797f68	-0.24365008
9	0x3e92dafe	0.28682703
10	0xbe1d9647	-0.15389358
11	0xbe4bfdf3	-0.19921093
12	0xbe01b3bc	-0.1266622
13	0xbe4c2295	-0.19935067
14	0xbe7c289e	-0.24624869
15	0xbe578ba9	-0.2104937
16	0xbed78ac9	-0.42098072
17	0xbe88ac27	-0.26693842
18	0xbc21e288	-0.009880669
19	0xbd013f6c	-0.031554624
20	0x3da979e3	0.08275201
21	0x3ddc16c3	0.10746529
22	0x3e57abb2	0.2106159
23	0xbd9da5a8	-0.07697612
24	0x3d116090	0.03549248
25	0xbe7d21d4	-0.24719936
26	0xbc058499	-0.0081492895
27	0xbdb78135	-0.08960191
28	0xbd12ef0e	-0.03587251
29	0xbe772fad	-0.2413928
30	0x3d71b9ae	0.05901497
31	0xbd20b4f2	-0.039235063
32	0x3d18339a	0.037158586
33	0xbe4b8ee7	-0.19878732
34	0x3dd4506f	0.10366904
35	0xbcdb2478	-0.026750788
36	0x3d810225	0.06299237
37	0x3d58741c	0.052845106
38	0x3e032d5c	0.12810272
39	0xbbc93fa1	-0.0061416184
40	0xbbcb27aa	-0.0061997967
41	0xbebdc382	-0.37063223
42	0x3d6a450c	0.057194754
43	0xbddf66ca	-0.10908277
44	0x3e3309aa	0.17484155
45	0x3dd113f9	0.102088876
46	0xbe10e74b	-0.14150731
47	0x3e23e4a0	0.16005182

1.2.weight f4 [36, 48]
0	0xbe5b2bc5	-0.21403416
1	0x3e3f84c2	0.18702987
2	0x3e633de2	0.22191575
3	0x3e0ac0b4	0.13550073
4	0xbe13f7e4	-0.14450032
5	0xbe53e671	-0.20693375
6	0x3e692851	0.22769286
7	0xbd54c755	-0.05194791
8	0x3d8b784a	0.06810053
9	0xbd8145de	-0.06312154
10	0xbd89ed06	-0.06734662
11	0x3de76cc5	0.11300043
12	0x3e83f298	0.25771022
13	0x3e3f35b3	0.18672828
14	0x3d8b9a85	0.06816582
15	0xbddc961b	-0.10770818
16	0x3e658556	0.22414145
17	0xbe1c2569	-0.15248646
18	0xbe3e4b20	-0.18583345
19	0xbdb252de	-0.08707212
20	0xbe0ec408	-0.13941967
21	0xbdb2933c	-0.08719489
22	0xbe23592e	-0.15951988
23	0x3df684fd	0.12037084
24	0xbe82f8a3	-0.2558032
25	0xbe574377	-0.2102183
26	0xbd4ebb38	-0.050471514
27	0xbca8b4f1	-0.020594092
28	0xbdfbd66e	-0.122967586
29	0x3cc6cdd5	0.02426807
30	0x3d9e5b41	0.07732249
31	0x3d455940	0.04818082
32	0x3dc1a455	0.09455172
33	0x3e64bc0e	0.22337362
34	0xbd8b6369	-0.0680607
35	0xbe7d5f13	-0.24743299
36	0x3e485401	0.19563295
37	0x3d7bc14c	0.06146364
38	0xbe3180f1	-0.17334343
39	0xbbbd8c9b	-0.0057845837
40	0x3e184f7f	0.14874075
41	0x3dec9304	0.115514785
42	0xbc28ec15	-0.010310193
43	0x3e8d4df4	0.27598536
44	0xbce253ba	-0.027627815
45	0xbc6795b0	-0.014134809
46	0x3db47d10	0.08812916
47	0xbcb6c31a	-0.022309829
48	0x3e2c2db7	0.16814314
49	0x3ccfe889	0.025379436
50	0x3e0aa854	0.13540775
51	0xbd4cd5f1	-0.050008718
52	0x3dac427c	0.084111184
53	0xbde2a01d	-0.110656954
54	0x3dd4c72b	0.10389551
55	0x3c16edbb	0.009211953
56	0x3d0de651	0.034643475
57	0x3df9d442	0.12198688
58	0x3ddd9e3f	0.10821199
59	0x3c6b807e	0.014373897
60	0xbc9a0184	-0.01879955
61	0xbd90a80d	-0.07063303
62	0xbd99c3c1	-0.0750804
63	0xbc8e9aaf	-0.017407743
64	0xbe10a7bf	-0.1412649
65	0xbe51de36	-0.20494923
66	0xbe5ed001	-0.21759035
67	0xbe47c2e2	-0.19507936
68	0xbcf906c0	-0.030398726
69	0x3d6d8114	0.057984427
70	0xbe00928f	-0.12555908
71	0xbd877ccb	-0.06615599
72	0x3e0400cb	0.12890927
73	0x3cc2edcd	0.023795033
74	0xbe1b7dcd	-0.15184708
75	0xbdd9c077	-0.10632413
76	0x3d672bfa	0.056438424
77	0xbe0041e6	-0.12525138
78	0xbd9adce4	-0.07561663
79	0x3e1a26fa	0.15053931
80	0xbdda459c	-0.10657808
81	0x3d5617c9	0.052268777
82	0x3c7883d8	0.015168153
83	0xbd9d964e	-0.07694684
84	0xbe4fed8d	-0.20305462
85	0xbdbc62ed	-0.09198556
86	0x3d8ae5d0	0.067821145
87	0x3c9913ef	0.018686263
88	0x3dc5bc58	0.09655064
89	0x3d9798a9	0.074021645
90	0xbc5859f5	-0.013205041
91	0xbd9af273	-0.07565775
92	0x3d27e796	0.040992342
93	0xbd9c9ec1	-0.076474674
94	0xbe1821fe	-0.14856717
95	0x3dc6fce5	0.097162046
96	0xbd9a56c0	-0.075360775
97	0xbccf3afc	-0.02529668
98	0xbdb88968	-0.09010583
99	0xbd9ccd91	-0.07656396
100	0xbe190142	-0.14941886
101	0xbd5b95b3	-0.05360956
102	0xbde35a19	-0.11101169
103	0xbde2e120	-0.110780954
104	0xbda0b1d3	-0.07846417
105	0xbdd8e247	-0.10590034
106	0xbdcdd6ec	-0.10050759
107	0xbcbc23d1	-0.022966297
108	0x3d4fe2f3	0.050753545
109	0xbd273385	-0.040820617
110	0x3e770336	0.24122319
111	0xbe2430cd	-0.16034241
112	0xbd85951b	-0.0652258
113	0x3e180b4b	0.14848058
114	0xbdd528ae	-0.1040815
115	0xbd872c7c	-0.066002816
116	0xbdd84e1e	-0.10561775
117	0x3def5597	0.11686247
118	0x3db11a73	0.08647623
119	0xbe1b7bc2	-0.15183929
120	0xbddc3427	-0.10752135
121	0x3db132a1	0.08652235
122	0x3d474a71	0.048654977
123	0x3db8362d	0.08994708
124	0x3d9e3283	0.07724478
125	0xbc86beb4	-0.016448356
126	0x3e1aea52	0.15128449
127	0x3d878d18	0.06618708
128	0x3dcec40c	0.10095987
129	0x3da39602	0.07987596
130	0x3db8b965	0.09019736
131	0xbdc6d257	-0.09708088
132	0x3db3d912	0.08781637
133	0x3e571c5d	0.21006913
134	0xbd50277d	-0.05081891
135	0x3e6c9e79	0.23107328
136	0xbe02a12e	-0.12756798
137	0xbca85334	-0.020547487
138	0x3e1a0ddb	0.15044348
139	0xbcc5f94f	-0.024166731
140	0x3e064e07	0.13115703
141	0x3df4a955	0.1194636
142	0x3e2779fa	0.16355124
143	0x3db99e78	0.09063429
144	0xbd2c1e1c	-0.042020902
145	0xbd107dfc	-0.035276398
146	0x3e0563d0	0.13026357
147	0xbcefd9ba	-0.029278625
148	0x3c03069e	0.007997183
149	0x3e47699a	0.19473878
150	0xbe34989a	-0.17636338
151	0xbd38e440	-0.04513955
152	0x3e1157b9	0.1419362
153	0xbe087d98	-0.1332916
154	0xbdd8d0be	-0.105866894
155	0xbe309bc2	-0.17246917
156	0x3e1a8bbd	0.15092368
157	0xbe01f540	-0.12691212
158	0xbe29668b	-0.16543023
159	0x3e2e94c0	0.17048931
160	0x3ddd79d8	0.108142555
161	0xbc0239f9	-0.007948392
162	0x3c598d4d	0.013278318
163	0x3dc7553f	0.09733056
164	0xbcc0b14b	-0.02352204
165	0xbd0a7b81	-0.03380919
166	0x3b1382b7	0.0022508332
167	0x3e0eedfd	0.13957973
168	0xbc84c891	-0.016208919
169	0x3bd1c223	0.0064013167
170	0xbd8d9e78	-0.06914991
171	0xbe11cae3	-0.14237551
172	0xbd989d51	-0.07451881
173	0xbd842573	-0.06452455
174	0x3d1eb646	0.03874805
175	0x3d1b99aa	0.037988342
176	0x3d3578b1	0.044304553
177	0x3c8264d1	0.015917214
178	0x3d861d06	0.065485045
179	0x3e1010ef	0.1406896
180	0xbdc5de8d	-0.09661589
181	0xbb9e035f	-0.004822179
182	0xbdaf9798	-0.08573836
183	0x3d90de77	0.07073682
184	0xbe16f9f9	-0.14743795
185	0x3cfd9b14	0.030957736
186	0x3df3d7b0	0.119063735
187	0xbe2158e7	-0.1575657
188	0xbdb719f9	-0.08940501
189	0xbda30d1b	-0.07961484
190	0x3be69569	0.007036854
191	0xbdaceddf	-0.08443808
192	0xbe07e98a	-0.13272682
193	0x3e01169c	0.12606281
194	0x3db5f64f	0.0888487
195	0xbd4e83ae	-0.05041855
196	0x3d9b0c59	0.075707145
197	0xb9b02406	-0.00033596175
198	0x3dcc64a3	0.099801324
199	0x3e2ba92e	0.16763756
200	0xbbe5fe3a	-0.0070188316
201	0x3dcf53fe	0.10123442
202	0x3c2f7915	0.010710021
203	0x3cdc28a2	0.026874844
204	0xbe394049	-0.18090929
205	0xbe034be2	-0.12821916
206	0x3e82f427	0.25576898
207	0xbdbf50a5	-0.093415536
208	0x3d6cb5a5	0.057790417
209	0x3d59b28e	0.0531488
210	0x3e6ebef3	0.23315029
211	0x3dd18075	0.10229579
212	0xbd3aab23	-0.045573365
213	0x3a4d6f42	0.0007836708
214	0xbc2c3f9d	-0.010513213
215	0x3d89f4a2	0.06736113
216	0x3d7e2c97	0.062054243
217	0x3b60e708	0.0034317393
218	0x3df611d7	0.120151214
219	0x3b8f9968	0.004382301
220	0x3d784edd	0.060622085
221	0x3d9c9c88	0.076470435
222	0x3d8b97b4	0.068160444
223	0x3c028518	0.007966302
224	0xbc1004cd	-0.008790207
225	0xbe03ac2c	-0.12858647
226	0x3d81ff5c	0.06347534
227	0x3d04d456	0.03242906
228	0xbd031d93	-0.032010626
229	0x3dfc6f86	0.12325959
230	0x3e191dd1	0.1495278
231	0x3e323c82	0.17405894
232	0xbddef6bb	-0.10886904
233	0xbe00fd16	-0.12596545
234	0xbd48bf43	-0.049010526
235	0x3d48ddc8	0.049039632
236	0x3dd0c4ea	0.101938084
237	0x3e46a629	0.19399323
238	0x3e528b5c	0.20560974
239	0xbe07dd44	-0.13268
240	0x3e02b2d2	0.12763527
241	0xbe349816	-0.17636141
242	0xbe10a624	-0.14125878
243	0xbe329244	-0.17438608
244	0x3dcaf7c5	0.099105395
245	0xbd8c2930	-0.068437934
246	0x3e01ceb6	0.1267651
247	0x3d975992	0.07390131
248	0x3d4fe1fb	0.05075262
249	0x39c60f0f	0.00037776722
250	0xbdb128fa	-0.08650394
251	0x3d16178f	0.03664356
252	0x3dfcad6b	0.12337764
253	0x3a7bd622	0.00096067984
254	0x3d3d6404	0.04623796
255	0xbd066dd4	-0.032819584

1.2.bias f4 [36]
0	0xbe9249d4	-0.2857195
1	0x3c4d554c	0.012532543
2	0xbce677b9	-0.02813326
3	0x3d9bfdb1	0.07616747
4	0xbe11c3e0	-0.14234877
5	0x3d425df0	0.047452867
6	0x3e9a3f06	0.30126208
7	0x3e34e96c	0.17667168
8	0xbd1ea62a	-0.038732685
9	0x3e495f7f	0.19665335
10	0x3d8d942f	0.069130294
11	0xbd7d6c97	-0.061871137
12	0xbc22ed84	-0.009944323
13	0xbdf6140d	-0.12015543
14	0xbdbbd233	-0.09170952
15	0x3d4b1f8e	0.04959064
16	0x3e1ee251	0.1551602
17	0xbe18e8b3	-0.14932518
18	0xbe1ab62d	-0.15108557
19	0x3e4e7d8b	0.20165078
20	0xbd09cbdf	-0.033641692
21	0x3e39fbb6	0.18162426
22	0xbd10b554	-0.035329178
23	0x3df39795	0.11894146
24	0xbb48228c	-0.003053817
25	0x3e440c41	0.191453
26	0xbd6c6e4c	-0.057722375
27	0x3cbaa235	0.022782424
28	0xbd19f44f	-0.037586506
29	0x3e31d04b	0.17364614
30	0xbe7b31b2	-0.24530676
31	0x3d217816	0.039421163
32	0x3bfe8b2a	0.0077680545
33	0xbef0847d	-0.4697608
34	0xbe18b8f8	-0.1491431
35	0x3d4b7d32	0.049679942

1.4.weight f4 [36, 36]
0	0x3e99f3f5	0.30068937
1	0xbe1ff76d	-0.15621729
2	0x3dfdd14d	0.123934366
3	0x3ce10114	0.027466334
4	0xbd9d3e75	-0.07677928
5	0xbdbdb3c4	-0.09262803
6	0xbe4ef7d1	-0.20211722
7	0xbe117df1	-0.14208199
8	0x3d67bf38	0.056578845
9	0xbe5a3270	-0.21308303
10	0xbe325c22	-0.17417958
11	0x3e496dd1	0.19670798
12	0x3dec125d	0.1152694
13	0xbd49ae8f	-0.049238738
14	0x3e1ae5b3	0.15126686
15	0xbd285c69	-0.041103754
16	0xbe11a09a	-0.14221421
17	0x3e375f36	0.17907414
18	0x3e0ddaa5	0.13852938
19	0xbc9892dd	-0.018624717
20	0x3e58c13c	0.21167463
21	0xbde17ca6	-0.11010103
22	0x3dca9b21	0.0989287
23	0xbe2a4be7	-0.16630517
24	0xbdf7a185	-0.12091354
25	0xbe076121	-0.13220645
26	0x3d07f43f	0.033191916
27	0x3e47826f	0.1948335
28	0x3e0fcc90	0.14042878
29	0xbd487f6a	-0.048949637
30	0x3e524803	0.20535283
31	0xbd8f9f00	-0.07012749
32	0x3dbff281	0.09372426
33	0x3eb63c17	0.3559272
34	0x3db69c32	0.08916511
35	0xbe2102ba	-0.15723696
36	0xbe033b05	-0.12815483
37	0xbdcdda87	-0.100514464
38	0xbd1d2b8d	-0.03837161
39	0x3d1ad69f	0.037802335
40	0xbdb5ef8d	-0.08883581
41	0xbd12cfe5	-0.035842795
42	0xbd7b1eef	-0.061308797
43	0xbe0bf8bd	-0.13669105
44	0x3df03b4a	0.117300585
45	0xbd707786	-0.058707736
46	0x3e546c22	0.20744374
47	0xbe3cb699	-0.1842903
48	0x3cf4407f	0.02981591
49	0x3dc859cc	0.097827524
50	0x3d8e99d5	0.06962935
51	0xbddd98eb	-0.108201824
52	0x3e0e34a0	0.13887262
53	0xbd8ba2bb	-0.06818148
54	0xbdc1e35d	-0.09467194
55	0x3def6f28	0.11691123
56	0xbe1fa80c	-0.15591449
57	0x3dc26348	0.09491593
58	0xbe33003d	-0.1748056
59	0x3dd66015	0.10467545
60	0xbd2d61bd	-0.04232954
61	0x3e1dab9e	0.15397498
62	0x3c5b11c6	0.013370937
63	0x3e24f43d	0.16108795
64	0xbe27dde7	-0.16393243
65	0x3e1acbe0	0.15116835
66	0xbd80fb65	-0.0629795
67	0xbdc678fb	-0.09691044
68	0xbda1af26	-0.07894735
69	0xbd757285	-0.059923667
70	0x3da72937	0.08162158
71	0x3e5a4ae4	0.21317631
72	0xbdaf0b53	-0.08547082
73	0x3ddcf290	0.107884526
74	0x3d8e951e	0.069620356
75	0xbcdc5c1f	-0.026899396
76	0xbda4a025	-0.08038358
77	0xbc30432a	-0.010758201
78	0xbdccb34a	-0.09995134
79	0xbe1b5d05	-0.15172203
80	0xbd46a2c3	-0.048495065
81	0xbd9c87a9	-0.076430626
82	0x3e003e0b	0.12523668
83	0x3caff96a	0.021481235
84	0xbdf5c817	-0.12001055
85	0xbe26b7e7	-0.1628109
86	0xbdc1adb6	-0.09456961
87	0x3e2a56c8	0.16634667
88	0xbe1ac238	-0.15113151
89	0x38dac66b	0.00010432008
90	0x3d830830	0.06398046
91	0xbe3c6efe	-0.18401715
92	0xbda1ba62	-0.07896878
93	0xba92a0ed	-0.0011186876
94	0x3e258a51	0.16166045
95	0xbcd9dd08	-0.026594654
96	0xbdefa8a1	-0.11702085
97	0xbd25ab76	-0.04044672
98	0x3df4ff00	0.119627
99	0xbd53a5d0	-0.051671803
100	0xbd0223c9	-0.03177241
101	0x3dd1619c	0.10223696
102	0xbd7afe96	-0.06127795
103	0xbda68261	-0.081303366
104	0x3e0a47a2	0.13503888
105	0xbddf2a40	-0.108967304
106	0xbb19cbcb	-0.0023467417
107	0xbe083339	-0.1330079
108	0x3c75cd80	0.015002608
109	0xbd325a44	-0.043543115
110	0x3e4165a5	0.1888643
111	0xbe4a99ce	-0.19785234
112	0x3e2b2654	0.1671384
113	0xbe17e142	-0.14832023
114	0x3d02286e	0.031776838
115	0xbe05e86d	-0.13076945
116	0x3e20ea92	0.15714481
117	0xbdccedf3	-0.10006323
118	0x3c8397c7	0.016063584
119	0x3dc4a8d4	0.09602514
120	0xbdb2f2f6	-0.08737747
121	0x3cdcb30d	0.026940847
122	0xbdc9a269	-0.098454304
123	0xbdacc836	-0.08436625
124	0x3d813e38	0.063106954
125	0x3e0ce18f	0.13757919
126	0x3e2543ec	0.16139191
127	0xbdadae87	-0.08480554
128	0xbd1d784d	-0.038444806
129	0x3dd6e5c6	0.104930446
130	0xbc04858a	-0.008088479
131	0x3d5726d5	0.052527267
132	0xba8c236e	-0.0010691711
133	0xbdd9b8b8	-0.106309354
134	0xbd838227	-0.06421309
135	0xbd1b9afd	-0.037989605
136	0x3de9a6e3	0.11408784
137	0xbcb38e32	-0.02191839
138	0x3c368436	0.01113992
139	0xbdf8199e	-0.12114261
140	0xbe267e02	-0.16259006
141	0xbd8425e9	-0.06452543
142	0x3d1369db	0.035989624
143	0xbe0a3fb7	-0.13500868
144	0xbdbb60b7	-0.09149306
145	0x3e33ce35	0.1755913
146	0xbbb6d338	-0.0055793785
147	0x3defd028	0.117096245
148	0xbd742920	-0.059609532
149	0xbe3caa74	-0.18424398
150	0x3d1c0b4b	0.038096707
151	0x3a878ed1	0.0010342245
152	0xbe5a031c	-0.21290249
153	0xbdce6e07	-0.1007958
154	0x3e27e129	0.16394486
155	0xbb9839f8	-0.0046455823
156	0xbd189520	-0.03725159
157	0x3d9a81e7	0.07544308
158	0xbdf284a4	-0.118417054
159	0xbe49fa80	-0.19724464
160	0xbd82c051	-0.06384338
161	0x3d8f49d6	0.06996505
162	0x3d4dc557	0.050237026
163	0x3dcd7dbc	0.100337476
164	0x3a9b6b2c	0.0011857501
165	0xbc921a3b	-0.017834773
166	0xbdd2e5ec	-0.1029776
167	0x3dce939f	0.1008675
168	0x3dbcb29d	0.09213755
169	0x3cf00692	0.029300008
170	0xbd6a4873	-0.057198
171	0x3d4775ee	0.04869645
172	0x3d8afb76	0.067862436
173	0x3d9f7a21	0.07786966
174	0xbe44e20a	-0.19226852
175	0x3e27557e	0.16341206
176	0x3d8b0eec	0.067899555
177	0xba2f02d1	-0.000667614
178	0xbe427a81	-0.18992044
179	0xbd96ee0f	-0.07369625
180	0xbc77bd32	-0.015120791
181	0xbe38a6bb	-0.18032353
182	0xbd53e9b1	-0.051736537
183	0x3df58409	0.11988074
184	0xbe24f8b0	-0.16110492
185	0x3e02e8bc	0.12784094
186	0xbe25e1f6	-0.16199479
187	0xbdede732	-0.11616363
188	0x3d0cb09b	0.03434811
189	0xbd2b943e	-0.04188942
190	0x3c8794ec	0.016550504
191	0xbd932e5c	-0.07186577
192	0x3e255c27	0.16148435
193	0xbe3b3ab1	-0.18284108
194	0x3d1f7d94	0.03893812
195	0x3e0ea372	0.13929537
196	0xbd0f8893	-0.035042357
197	0xbcfb528e	-0.030679014
198	0x3e2c48dd	0.1682467
199	0x3db261a7	0.08710032
200	0x3dc35df1	0.09539402
201	0xbd3948ba	-0.045235373
202	0x3cb9e51b	0.022692254
203	0x3cc21547	0.023691786
204	0x3df3ac6c	0.11898121
205	0xbcf9e542	-0.030504826
206	0x3e25e400	0.16200256
207	0x3e223fe4	0.15844685
208	0xbd7de3dc	-0.06198488
209	0xbe14801f	-0.14502
210	0x3e1f4b7e	0.15556142
211	0xbe1d085d	-0.15335222
212	0xbd969710	-0.07353032
213	0x3d01a6f3	0.031653356
214	0xbdf3c7eb	-0.11903366
215	0x3d777188	0.060411006
216	0xbb41ea36	-0.0029589063
217	0xbdea679a	-0.11445542
218	0x3dc1d34b	0.09464129
219	0x3d85c6c6	0.06532054
220	0xbd04b01a	-0.032394506
221	0x3deb16d7	0.11478966
222	0x3e3f9b42	0.1871157
223	0x3e2caa3e	0.16861817
224	0x3d498e53	0.049207997
225	0xbdebb2f3	-0.11508741
226	0x3e08df1d	0.13366361
227	0xbe249ad7	-0.16074692
228	0x3e336c32	0.17521742
229	0x3b2819cd	0.0025650144
230	0xbe606980	-0.21915245
231	0x3d2da830	0.042396724
232	0x3be9f2ca	0.0071395384
233	0x3c9c293f	0.019062636
234	0x3d4cdee0	0.050017238
235	0xbdf18506	-0.1179295
236	0xbd78baa1	-0.06072486
237	0xbd7350cb	-0.059403222
238	0x3e2e8d62	0.17046121
239	0x3e0240ff	0.12720107
240	0xbd447ad2	-0.047968693
241	0x3df8226f	0.12115943
242	0xbe1e7151	-0.15472914
243	0x3dcfa696	0.101391956
244	0xbd8f6507	-0.07001691
245	0x3e42a136	0.1900681
246	0xbc01f8a2	-0.007932814
247	0xbd5bd5c1	-0.05367065
248	0xba373f91	-0.0006990368
249	0xbe46905e	-0.19391009
250	0xbc13d841	-0.009023727
251	0xbd379986	-0.044824146
252	0x3e09f687	0.13472949
253	0x3e11a81d	0.14224286
254	0xbdf662dd	-0.120305754
255	0x3c8ed3b6	0.017434936

1.4.bias f4 [36]
0	0xbe68a038	-0.22717369
1	0xbcf76267	-0.03019829
2	0xbd7cf3a0	-0.061755776
3	0xbe41a795	-0.18911584
4	0x3bcb486b	0.0062037013
5	0xbe014edd	-0.1262774
6	0x3e3ce386	0.18446168
7	0x3da62f3b	0.08114477
8	0x3cf19ec0	0.029494643
9	0x3cb43557	0.02199809
10	0x3d0e57ba	0.03475163
11	0x3d8f0bc5	0.06984667
12	0xbcc6507d	-0.024208302
13	0x3d956f9b	0.07296678
14	0x3e5affff	0.21386717
15	0x3d24c905	0.04023077
16	0xbe765871	-0.24057175
17	0x3e0c8cf0	0.13725638
18	0xbe01df7d	-0.1268291
19	0xbe08b33a	-0.1334962
20	0xbd82414e	-0.06360112
21	0x3de0bc16	0.109733745
22	0x3cddf902	0.027096275
23	0x3ebaa663	0.36455068
24	0xbed1da7c	-0.40987003
25	0xbbf3cc57	-0.0074401307
26	0xbb60e62d	-0.0034316883
27	0x3e454b8e	0.19267103
28	0xbe2b9130	-0.16754603
29	0x3d6c02b0	0.05761975
30	0xbe16a106	-0.14709863
31	0x3d4ddc7f	0.05025911
32	0x3d491304	0.0490904
33	0xbd29c70b	-0.041449588
34	0x3cbd98ba	0.023144115
35	0xb9c50ec0	-0.00037585758

1.6.weight f4 [24, 36]
0	0xbded0f4f	-0.115751855
1	0x3e593697	0.2121223
2	0x3cb5acd4	0.022177137
3	0x3e1f1e4d	0.15538903
4	0xbe3bc5b0	-0.1833713
5	0xbd0c99bc	-0.0343263
6	0xbd896680	-0.067090034
7	0x3bd41b1b	0.006472958
8	0xbdb841d8	-0.08996934
9	0x3e1c8868	0.1528641
10	0xbdb7c805	-0.089736976
11	0xbe3b1794	-0.18270713
12	0x3c275d9e	0.010215191
13	0xbe109ed8	-0.14123094
14	0x3e3442e5	0.17603643
15	0xbdac4b06	-0.08412747
16	0xbe1353e7	-0.14387475
17	0xbe3bc8be	-0.18338296
18	0x3e06a058	0.13147104
19	0x3dc767f4	0.09736624
20	0xbd9af6a1	-0.07566572
21	0xbd2796b8	-0.04091522
22	0x3de8aec7	0.11361461
23	0xbddde1e0	-0.10834098
24	0x3dd1924f	0.10232984
25	0x3cf12dee	0.029440846
26	0xba670651	-0.0008812892
27	0x3dc0d289	0.094151564
28	0x3d764e57	0.060133304
29	0x3dc5fadc	0.09666988
30	0x3d212cd8	0.039349407
31	0x3e0003ff	0.12501524
32	0xbe420da9	-0.18950523
33	0x3e42e87f	0.19034003
34	0x3c83b715	0.016078511
35	0xbd3a4374	-0.045474485
36	0xbdefec68	-0.11715013
37	0x3e491288	0.19635975
38	0xbdb127d3	-0.08650174
39	0x3e1330c1	0.14374067
40	0xbdae2d58	-0.085047424
41	0xbd01e9ae	-0.031716995
42	0x3d95036c	0.07276043
43	0x3d2f33ae	0.042773895
44	0x3e1c161d	0.1524281
45	0x3cf2fd20	0.029661715
46	0x3d543618	0.0518094
47	0xbda9038a	-0.08252628
48	0xbde34d43	-0.11098721
49	0xbd2f778e	-0.042838626
50	0xbdafb7ff	-0.08580016
51	0x3d5ebd7e	0.054379933
52	0xbe28bccd	-0.16478272
53	0xbe1ada11	-0.15122248
54	0xbe13b417	-0.14424168
55	0x3deeb0e3	0.11654832
56	0xbe2d062f	-0.1689689
57	0xbbfaa0d8	-0.0076485686
58	0x3e09938e	0.13435194
59	0xbd6c8acc	-0.057749555
60	0xbe1a57dd	-0.1507258
61	0xbe3533ae	-0.17695495
62	0xbe189254	-0.1489957
63	0xbd913894	-0.070908695
64	0xbdd390f1	-0.1033038
65	0x3d9e815c	0.07739517
66	0xbe1af970	-0.15134215
67	0xbcce1ebf	-0.025161145
68	0xbc4b5fed	-0.012413007
69	0xbe19c67e	-0.15017125
70	0xbdb7fe82	-0.089840904
71	0xbe3822c8	-0.17982018
72	0xbdda27e4	-0.1065214
73	0xbc82c4fc	-0.01596307
74	0xbd940508	-0.07227522
75	0xbe2d6985	-0.16934784
76	0x3cf01c58	0.02931039
77	0xbd07e058	-0.033172935
78	0x3e0b380c	0.13595599
79	0xbdd473ef	-0.10373675
80	0xbe01b2a1	-0.12665798
81	0xbe07e50a	-0.13270965
82	0xbd462a4c	-0.04838018
83	0x3e2e707b	0.17035095
84	0x3c563e18	0.013076328
85	0x3e494b37	0.19657598
86	0x3e10850d	0.14113255
87	0xbde7f308	-0.113256514
88	0xbd02658a	-0.031835116
89	0x3e207496	0.15669474
90	0x3c014ba4	0.007891569
91	0xbd572321	-0.052523736
92	0x3d73c6cf	0.05951577
93	0xbdcd1a35	-0.10014764
94	0xbd0b7e2e	-0.03405588
95	0xb7b6ab7b	-2.1775943e-05
96	0xbd8b30fd	-0.06796453
97	0xbdd88416	-0.105720684
98	0xbe1adc81	-0.15123178
99	0xbe1015ca	-0.14070812
100	0xbe628ba2	-0.22123578
101	0xbe2e2e6d	-0.17009898
102	0xbde83f0a	-0.11340149
103	0xbd427452	-0.047474213
104	0x3da10b09	0.07863433
105	0x3de61fd0	0.112365365
106	0x3c8b89ab	0.017033419
107	0x3d8c7a85	0.06859306
108	0x3e1035e5	0.14083059
109	0x3ccc0629	0.024905281
110	0xbdd22afd	-0.102621056
111	0xbd255d6f	-0.04037231
112	0xbe0fd200	-0.14044952
113	0x3e71b5b3	0.23604469
114	0xbc492fb2	-0.012279438
115	0xbdbe3ad9	-0.09288568
116	0x3d50e555	0.050999958
117	0x3e1c7a42	0.15281013
118	0xbdb7badb	-0.08971187
119	0xbdecf2bd	-0.11569736
120	0xbb8badd9	-0.0042626676
121	0x3c5773dc	0.013150182
122	0x3dc0c20a	0.0941201
123	0x3dab0264	0.08350065
124	0xbdafdda5	-0.08587197
125	0x3cd01dc6	0.025404822
126	0x3d6ecf65	0.058303256
127	0x3e330cc0	0.17485332
128	0xbd8ff73c	-0.07029578
129	0x3e066b05	0.13126762
130	0xbd9350a9	-0.07193119
131	0xbddb2740	-0.10700846
132	0x3e860e9f	0.2618303
133	0xbdfe5883	-0.12419226
134	0x3e18fa0f	0.1493914
135	0xbe14b104	-0.14520651
136	0xbd39b186	-0.045335315
137	0x3ddddd6b	0.10833248
138	0xbcaa2251	-0.020768316
139	0x3e0bafe8	0.13641322
140	0xbcc0a377	-0.023515446
141	0xbe201345	-0.1563235
142	0xbd6fb920	-0.05852616
143	0x3cdf78b4	0.027279235
144	0x3d5bb450	0.053638756
145	0x3e128e1d	0.14312024
146	0x3e0e9def	0.13927434
147	0x3cedfee6	0.02905221
148	0xbe289b52	-0.164655
149	0xbcac1ca2	-0.021009747
150	0xbddeec35	-0.10884897
151	0xbdf0f61c	-0.11765692
152	0xbe175f7e	-0.14782521
153	0x3e20273b	0.15639965
154	0x3cfcd5fb	0.030863753
155	0x3e23579b	0.15951388
156	0x3e0de990	0.13858628
157	0xbe224677	-0.15847193
158	0x3deadac0	0.114675045
159	0x3d9ff200	0.0780983
160	0xbd983d91	-0.07433618
161	0x3c4965d9	0.012292349
162	0xbd1c7624	-0.038198605
163	0x3d88c347	0.06677871
164	0x3e0d2b7e	0.13786122
165	0xbe012aec	-0.1261403
166	0x3d557d3f	0.052121397
167	0x3d51e908	0.051247627
168	0xbe10da62	-0.14145806
169	0x3d2333f9	0.039844487
170	0xbe4630d4	-0.19354564
171	0x3e13f23c	0.14447874
172	0x3dcaa8df	0.09895491
173	0xbccda190	-0.025101453
174	0x3dcf4ce1	0.10122085
175	0x3e044370	0.1291635
176	0x3dd600d4	0.10449377
177	0xbda36966	-0.079790875
178	0xbd53e888	-0.05173543
179	0x3e0dfafa	0.13865271
180	0xbda74028	-0.08166534
181	0xbdefd8aa	-0.11711247
182	0xbd897c8d	-0.06713209
183	0x3d5a3c91	0.053280417
184	0xbdad40ef	-0.08459651
185	0x3c92fbd7	0.017942352
186	0x3d94a058	0.07257146
187	0xbc4f5cb5	-0.01265638
188	0x3e0c5a65	0.13706358
189	0xbcf20994	-0.029545583
190	0x3cc00977	0.023442013
191	0xbd2ad8fe	-0.041710846
192	0x3d6cd13c	0.05781673
193	0xbd19237d	-0.03738736
194	0xbd273cad	-0.04082935
195	0xbcec5009	-0.028846757
196	0x3dca188a	0.09867962
197	0x3e2ec4c2	0.17067245
198	0xbe131fe6	-0.14367637
199	0xbb22a36f	-0.0024816652
200	0xbd623692	-0.055227824
201	0xbd873fee	-0.066039905
202	0x3e122ee2	0.14275697
203	0x3da1f07a	0.079071954
204	0xbda5dee7	-0.08099156
205	0x3e1d126a	0.15339056
206	0xbd5689a6	-0.052377366
207	0xbdca7390	-0.09885323
208	0xbdba1149	-0.09085328
209	0xbdb89b0d	-0.090139486
210	0x3dce6764	0.10078314
211	0x3de3180e	0.110885724
212	0xbdfc14f4	-0.12308684
213	0x3df2e49e	0.118600115
214	0xbe4506bd	-0.19240852
215	0x3dfe5171	0.124178775
216	0xbd8ab9b2	-0.067737
217	0x3dfed6cc	0.12443313
218	0xbc137978	-0.009001128
219	0x3c95a9c2	0.018269423
220	0x3e0dc352	0.1384404
221	0xbdd2374d	-0.10264454
222	0xbbe96728	-0.007122893
223	0x3bab9b96	0.005237053
224	0x3c68e397	0.014214418
225	0xbdf892ca	-0.12137373
226	0xbdf7c419	-0.120979495
227	0x3e319202	0.17340854
228	0xbe21a1f9	-0.15784444
229	0xbddd53ad	-0.108069755
230	0xbd396516	-0.04526242
231	0x3d8688ac	0.06569037
232	0x3db8dd05	0.09026531
233	0x3df399ac	0.11894545
234	0xbe1fb17e	-0.15595052
235	0xbd17d3b2	-0.037067123
236	0xbd36f5cc	-0.044668004
237	0xbd907100	-0.07052803
238	0x3d5ec156	0.0543836
239	0x3e0f2f96	0.13982996
240	0x3cf0f4b3	0.029413557
241	0x3dcebbec	0.10094437
242	0xbe1b920b	-0.1519243
243	0xbc998a2a	-0.01874264
244	0x3ba89adf	0.005145415
245	0x3ddb04f3	0.10694303
246	0xbd338bb2	-0.043834396
247	0x3dc04ed6	0.09390037
248	0xbc8d2092	-0.017227445
249	0x3c91e7bc	0.017810695
250	0x3d8e0074	0.0693368
251	0xbd1600b2	-0.036621757
252	0x3e94af30	0.29039907
253	0xbd1e3aba	-0.038630225
254	0x3e039e77	0.12853418
255	0x3dded561	0.108805425

1.6.bias f4 [24]
0	0x3cc041c2	0.023468856
1	0xbd7b32f9	-0.06132791
2	0xbd6a136c	-0.05714743
3	0x3d89f3eb	0.06735977
4	0x3df572e5	0.11984805
5	0x3d8ae9b1	0.06782854
6	0x3e32f35b	0.17475645
7	0xbd20a93a	-0.039223887
8	0x3d59a9a2	0.05314029
9	0x3b2666b2	0.00253908
10	0xbde4ae5a	-0.111660674
11	0x3e582086	0.21106157
12	0x3db3aa96	0.08772771
13	0x3d0ff352	0.035144158
14	0x3cc9dcd1	0.024641426
15	0xbe327356	-0.1742681
16	0x3e600843	0.21878152
17	0xbe37af19	-0.17937888
18	0xbe0af175	-0.13568671
19	0xbdf2c78c	-0.11854467
20	0xbe4f3b62	-0.20237496
21	0x3e281a33	0.16416244
22	0x3d52c8ba	0.05146096
23	0xbc543ef6	-0.012954464

1.8.weight f4 [24, 24]
0	0xbdee8005	-0.116455115
1	0xbcd7211b	-0.026260903
2	0x3e224b54	0.15849048
3	0xbb1a5c4a	-0.0023553544
4	0x3e374451	0.17897154
5	0x3c51a9f6	0.0127968695
6	0x3de0a52e	0.109690055
7	0x3e308d0a	0.17241302
8	0xbe0c56ea	-0.1370503
9	0x3c11fb05	0.008909945
10	0x3e4c2407	0.19935618
11	0x3e86d944	0.26337636
12	0xbd575895	-0.052574713
13	0x3d3f8a46	0.046762727
14	0x3ce7a49d	0.028276736
15	0x3e3d9d0f	0.18516944
16	0x3e8ea66b	0.27861342
17	0xbc7aed43	-0.015315357
18	0xbd14e0d0	-0.03634721
19	0x3cf60783	0.030032879
20	0x3ea79cbb	0.32736763
21	0xbde557bf	-0.11198377
22	0xbddf8348	-0.10913712
23	0x3d4a548f	0.049397048
24	0xbe55b781	-0.20870782
25	0xbd8b7e61	-0.06811214
26	0x3e08e878	0.1336993
27	0xbce681a0	-0.028137982
28	0x3ca88ae1	0.020574035
29	0x3da5a1d9	0.080875106
30	0x3e3efb7e	0.18650624
31	0x3d8a2033	0.06744423
32	0xbe07fc20	-0.13279772
33	0x3e38531e	0.18000457
34	0x3e39bf12	0.18139294
35	0x3e38748c	0.18013209
36	0xbd061416	-0.032734
37	0x3d7efdcc	0.06225376
38	0xbcae323a	-0.021264184
39	0xbe25da50	-0.16196561
40	0x3e6cc81a	0.23123208
41	0x3e06ec79	0.13176145
42	0x3e48ea05	0.19620521
43	0xbe2fd8bd	-0.17172523
44	0xbe047404	-0.12934881
45	0xbe1bd828	-0.15219176
46	0x3c2655e4	0.010152314
47	0xbe676baa	-0.22599664
48	0x3e0a579f	0.13509987
49	0xbdca80aa	-0.09887822
50	0x3b6a1ef8	0.0035724025
51	0xbe133bcb	-0.14378278
52	0x3cd32572	0.025774691
53	0xbe6118e2	-0.21982148
54	0xbe4798e3	-0.19491915
55	0xbe503a60	-0.20334768
56	0x3e03527c	0.12824434
57	0x3d51a4c8	0.05118254
58	0xbb96235d	-0.0045818524
59	0xbde18521	-0.110117204
60	0x3d22e10b	0.0397654
61	0xbde2bb3a	-0.11070867
62	0x3dd8c6dd	0.10584805
63	0xbe0e02fe	-0.13868329
64	0x3e225253	0.15851717
65	0x3d3810c3	0.04493786
66	0x3bc0aa15	0.0058796504
67	0x3ddc5b44	0.10759595
68	0xbdaf790f	-0.08568012
69	0xbda3b158	-0.0799281
70	0x3e137b54	0.14402515
71	0xbd8387de	-0.06422399
72	0xbd566894	-0.052345827
73	0xbe275a99	-0.16343154
74	0x3dcda121	0.100404985
75	0x3e3b19f9	0.18271627
76	0xbd6bb9b9	-0.057550166
77	0x3e1e517b	0.1546077
78	0xbe19586e	-0.1497514
79	0x3cc11338	0.023568735
80	0x3e3098cd	0.17245789
81	0x3dcb7c26	0.09935789
82	0xbc171e9f	-0.009223609
83	0xbe18990f	-0.14902137
84	0xbd59ba4c	-0.053156182
85	0x3e12b4ff	0.14326857
86	0xbdcc3b44	-0.099722415
87	0x3c9ad835	0.018901924
88	0x3db21904	0.086961776
89	0x3e3881ca	0.1801826
90	0xbe1b083a	-0.15139857
91	0xbd5851e8	-0.052812487
92	0xbe86933b	-0.26284203
93	0xbd5fba07	-0.05462077
94	0x3cf87660	0.030329883
95	0xbd5845eb	-0.052801054
96	0xbd5940fc	-0.05304049
97	0xbe554543	-0.20827202
98	0x3d8df9c0	0.06932402
99	0x3b90c8d0	0.00441847
100	0xbd09bec5	-0.033629198
101	0x3e6692aa	0.22516885
102	0x3cc10f7a	0.02356695
103	0xbb7e65a2	-0.0038817902
104	0x3dc6137f	0.09671687
105	0xbe8a5810	-0.2702031
106	0x3e39356b	0.18086784
107	0xbd8dddfc	-0.06927106
108	0x3e220890	0.15823579
109	0x3e6c2fca	0.23065105
110	0x3e2a827e	0.16651341
111	0xbe1601b6	-0.1464909
112	0x3cbe0e35	0.023200134
113	0x3db86b72	0.090048686
114	0x3d3137ee	0.04326623
115	0xbe19be28	-0.15013945
116	0xbe29ce80	-0.1658268
117	0x3e427c58	0.18992746
118	0x3cb61a5c	0.022229366
119	0x3e271211	0.16315486
120	0x3d7e44e4	0.062077418
121	0x3e1ea3f0	0.15492225
122	0xbdfe56bc	-0.12418887
123	0x3b87f5f9	0.0041491953
124	0x3e06b268	0.13153994
125	0xbe0532ad	-0.13007613
126	0xbe3daa92	-0.18522099
127	0x3df0953d	0.11747215
128	0xbcd411d4	-0.025887407
129	0xbe76821b	-0.24073069
130	0x3e5eedc9	0.21770395
131	0xbdfbca3d	-0.12294433
132	0xbe00744a	-0.12544361
133	0x3df69c69	0.120415516
134	0xbdb3f503	-0.08786967
135	0x3d3b0a67	0.045664217
136	0xbe4350da	-0.19073811
137	0x3e26f5b7	0.1630467
138	0x3e35eda2	0.17766431
139	0xbcca56b6	-0.02469955
140	0xbcb4b219	-0.02205758
141	0x3de9b07c	0.11410615
142	0xbe11cf32	-0.14239195
143	0xbd880896	-0.06642263
144	0x3e23df36	0.16003117
145	0xbd292015	-0.04129036
146	0xbd1698d5	-0.036766846
147	0x3ddba050	0.107239366
148	0x3e35c40a	0.17750564
149	0x3cf66b76	0.030080538
150	0x3d7adfcc	0.061248586
151	0x3e026e73	0.12737446
152	0x3caa7e46	0.020812165
153	0x3e30f657	0.17281471
154	0xbd9a0efb	-0.075223885
155	0x3c7e0264	0.0155035
156	0x3e81e78f	0.25371978
157	0xbe1a9677	-0.1509646
158	0xbe0ed474	-0.13948232
159	0xbdfd4c0d	-0.12368021
160	0xbc91a7f5	-0.017780283
161	0xbd4fd24e	-0.05073767
162	0xbe5b6a67	-0.21427308
163	0xbd16f3aa	-0.03685347
164	0x3e7fe548	0.24989808
165	0xbe714ec0	-0.23565197
166	0x3de33829	0.11094696
167	0x3d833993	0.06407466
168	0x3d6aa13e	0.05728268
169	0x3ca86c67	0.020559503
170	0x3dfe5b3b	0.124197446
171	0x3e33f79c	0.17574924
172	0xbe757bbc	-0.23972982
173	0xbde5bb10	-0.1121732
174	0xbd8860d3	-0.06659093
175	0x3ddb0bbd	0.10695598
176	0xbc7f5976	-0.015585294
177	0x3e63980b	0.22225969
178	0xbe51db34	-0.20493776
179	0x3e1f2001	0.15539552
180	0xbe4230f6	-0.1896399
181	0xbe8ebba0	-0.27877522
182	0xbd2252be	-0.03962969
183	0x3d7e8321	0.062136773
184	0xbe273ac6	-0.16331014
185	0x3deb1cff	0.1148014
186	0xbd907ae7	-0.07054692
187	0x3e69f8ff	0.2284889
188	0x3e38f9de	0.18064067
189	0xbd2f2017	-0.042755213
190	0x3e667a9c	0.2250771
191	0xbd4b6c56	-0.049663864
192	0x3e4e5e54	0.20153171
193	0xbe2ecb7c	-0.1706981
194	0xbe25c43d	-0.1618814
195	0xbe1e4b52	-0.1545842
196	0x3e50e6a1	0.20400478
197	0x3e421b6e	0.18955776
198	0x3e42f017	0.190369
199	0x3dc0a426	0.09406309
200	0xbd6c549a	-0.05769787
201	0x3e33a058	0.17541635
202	0xbe462ae4	-0.19352299
203	0xbdd2c9b7	-0.1029238
204	0x3b51795f	0.0031963212
205	0x3de8bdb1	0.11364306
206	0xbde90695	-0.113782085
207	0xbe37f549	-0.17964663
208	0xbe1798a4	-0.14804322
209	0x3e197a85	0.14988144
210	0xbe239b9a	-0.15977326
211	0xbd881513	-0.066446446
212	0x3d9a1c18	0.0752489
213	0xbda0e77c	-0.07856652
214	0x3e16715e	0.14691684
215	0x3e2725e9	0.16323055
216	0x3dd263a1	0.10272909
217	0xbd36c758	-0.044623703
218	0xbccb04c6	-0.02478255
219	0xbdd1934f	-0.10233175
220	0x3cbca9fc	0.023030274
221	0xbe336fb6	-0.17523083
222	0xbdad819a	-0.08471985
223	0xbd899809	-0.067184515
224	0x3e6204f8	0.22072208
225	0x3de13184	0.109957725
226	0xbdd93349	-0.10605485
227	0xbeca237a	-0.3948019
228	0x3dc4df50	0.09612906
229	0xbe58c488	-0.2116872
230	0xbd914157	-0.07092541
231	0xbbf1b3c3	-0.0073761656
232	0xbd747f6e	-0.05969184
233	0x3e884eb5	0.2662255
234	0x3d5e2efc	0.054244027
235	0x3e0db01b	0.1383671
236	0x3bce050e	0.0062872237
237	0x3b9bd9ba	0.0047561796
238	0xbe630073	-0.2216814
239	0xbe41fce8	-0.18944132
240	0xbe09ae91	-0.13445498
241	0x3e458415	0.19288667
242	0x3e05cfa9	0.13067497
243	0x3e19b335	0.15009768
244	0x3e2439d3	0.16037683
245	0xbda91c1f	-0.08257317
246	0xbdf6e08c	-0.12054548
247	0xbe6215d6	-0.22078642
248	0xbe4a2155	-0.19739278
249	0xbe1f1200	-0.1553421
250	0x3e53ddcf	0.20690082
251	0xbe57be6d	-0.21068735
252	0xbe05e5eb	-0.13075988
253	0x3cc781d3	0.024353897
254	0x3e15966b	0.14608161
255	0x3d929d54	0.07158914

1.8.bias f4 [24]
0	0x3c77d230	0.015125796
1	0x3e192d02	0.14958575
2	0x3dd188a8	0.10231143
3	0xbd9527eb	-0.072830044
4	0xbdab44c1	-0.08362723
5	0xbe33e016	-0.17565951
6	0x3d80eea2	0.062955156
7	0x3deae139	0.11468739
8	0x3d6694ef	0.056294378
9	0xbe9daabd	-0.30794325
10	0xbd432e63	-0.04765166
11	0x3d736234	0.059419826
12	0xbc5670df	-0.013088434
13	0xbe561b4d	-0.20908852
14	0x3d843197	0.06454771
15	0x3e576376	0.21034035
16	0x3df3cd59	0.11904401
17	0x3e06de65	0.13170774
18	0xbe90ba17	-0.28266975
19	0x3cd91774	0.026500441
20	0xbd3fddba	-0.046842314
21	0x3cd5b4bf	0.026087163
22	0xbd892ce5	-0.06698016
23	0xbe124b86	-0.14286622

1.10.weight f4 [12, 24]
0	0xbe5adf35	-0.21374209
1	0xbe6aef3d	-0.22942825
2	0x3d636e86	0.055525325
3	0x3e37c3a6	0.17945728
4	0xbc0a97d6	-0.008459052
5	0x3e5c522f	0.21515726
6	0x3dba34c6	0.09092097
7	0xbe9eaf32	-0.30993038
8	0x3e301f3b	0.17199413
9	0x3e65c6e2	0.22439149
10	0xbda60c18	-0.081077754
11	0x3e52422a	0.20533052
12	0xbe09fda9	-0.1347567
13	0x3ac01b67	0.0014656604
14	0x3e156c15	0.14592011
15	0xbe9a9e61	-0.3019896
16	0xbe576208	-0.2103349
17	0x3e2a4164	0.16626507
18	0x3da24ed5	0.07925192
19	0xbe1a99bf	-0.15097712
20	0x39c495c4	0.00037495617
21	0xbe1624c0	-0.14662457
22	0x3e09d060	0.13458395
23	0x3e32613c	0.17419904
24	0x3daf05f6	0.08546059
25	0xbe36af2e	-0.17840263
26	0xbe0a5334	-0.13508302
27	0x3c956078	0.018234476
28	0x3e763e47	0.24047194
29	0x3e16d517	0.14729725
30	0xbd867fb1	-0.06567324
31	0xbe4097ee	-0.18807957
32	0x3dd530b1	0.10409678
33	0x3e0ffe91	0.14061953
34	0x3d736dce	0.05943089
35	0xbd3a9e43	-0.045561086
36	0xbe273f44	-0.16332728
37	0xbe22bdc3	-0.15892701
38	0x3de695a7	0.11259013
39	0xbe999a26	-0.30000418
40	0xbd1dd9e4	-0.038537875
41	0xbdeceacb	-0.11568221
42	0x3e5adb5d	0.21372743
43	0xbe120305	-0.14258964
44	0xbd407f70	-0.046996534
45	0x3e03985b	0.12851088
46	0x3e6f64e7	0.23378335
47	0x3d824756	0.063612625
48	0xbda73902	-0.0816517
49	0x3e452ef5	0.19256194
50	0xbd9e2560	-0.077219725
51	0x3dc70fa4	0.0971978
52	0xbe4690eb	-0.1939122
53	0xbdb27147	-0.08713012
54	0x3e1fcfd5	0.15606625
55	0x3e76db10	0.24107003
56	0x3d7c5011	0.061599795
57	0x3dc886ba	0.09791322
58	0x3e219e62	0.15783074
59	0x3dea1a37	0.11430781
60	0xbdb93fdc	-0.09045383
61	0xbde36780	-0.111037254
62	0x3e7b895d	0.24564119
63	0x3e6ba7d7	0.23013245
64	0x3e1a556b	0.15071647
65	0x3d237a09	0.039911304
66	0xbe1f1ef3	-0.1553915
67	0xbdc88394	-0.097907215
68	0x3dd4437a	0.10364433
69	0x3d8b9529	0.068155594
70	0xbd5ee4ef	-0.054417547
71	0xbe31c273	-0.17359333
72	0xbc514fc3	-0.012775364
73	0xbe1e8540	-0.15480518
74	0x3b67fd41	0.0035398754
75	0x3e4a84ce	0.19777223
76	0x3dec6828	0.11543304
77	0xbd5c95f2	-0.053853936
78	0x3e9bc6a3	0.30424985
79	0xbda9ad16	-0.08284967
80	0x3dcbc8b6	0.09950392
81	0xbe327e73	-0.17431049
82	0xbe8ae3af	-0.27126834
83	0xbe4c9f61	-0.19982673
84	0x3e250873	0.16116504
85	0xbe2b04a5	-0.1670099
86	0xbe624cbd	-0.22099586
87	0xbd30a929	-0.043130074
88	0x3e51ab31	0.2047546
89	0x3dfca9cc	0.12337074
90	0xbe7c866a	-0.2466065
91	0xbe14db0b	-0.14536683
92	0xbeb2a12f	-0.34888598
93	0x3e8685bd	0.2627391
94	0xbd56558c	-0.052327678
95	0x3c1a207e	0.009407161
96	0xbe8aae88	-0.27086282
97	0xbd4356b3	-0.047690105
98	0xbd2dee0b	-0.042463344
99	0x3d956a87	0.07295709
100	0xbe0723c0	-0.13197231
101	0xbd831820	-0.06401086
102	0xbd7a0860	-0.061043143
103	0x3e5dca00	0.21659088
104	0x3e393bd5	0.1808923
105	0x3e44ff62	0.19238046
106	0xbe610fe6	-0.21978721
107	0x3e1ff237	0.15619741
108	0x3c5725f4	0.013131607
109	0x3bccc6d7	0.0062492895
110	0xbe81e916	-0.25373143
111	0x3e56f0d7	0.2099031
112	0xbce562f5	-0.028001288
113	0xbd2eca59	-0.042673443
114	0xbe8e1488	-0.2775004
115	0xbd689483	-0.056782257
116	0x3c8c6615	0.01713852
117	0x3e61c316	0.22047076
118	0x3e072bdc	0.13200325
119	0x3df105a9	0.11768658
120	0x3e4396bf	0.19100474
121	0x3e335741	0.17513753
122	0x3e60b8e5	0.21945532
123	0xbe05e68d	-0.1307623
124	0xbe68536d	-0.22688074
125	0xbe828cad	-0.25497952
126	0x3e4e4611	0.20143916
127	0x3dd511c2	0.10403778
128	0x3ae47baa	0.0017431874
129	0xbe2424b0	-0.1602962
130	0xbe100e50	-0.1406796
131	0x3dc85263	0.09781339
132	0xbe45518f	-0.19269393
133	0xbac9a62b	-0.0015384605
134	0x3e16593e	0.1468248
135	0xbe68d7f4	-0.2273863
136	0xbe189dec	-0.14903992
137	0x3c2a3a6a	0.010389904
138	0xbd953e71	-0.072873004
139	0x3e393af9	0.18088903
140	0xbe3329bd	-0.1749639
141	0x3e9c1db8	0.30491424
142	0x3dbfc84c	0.093643755
143	0xbe2c114b	-0.16803472
144	0x3e1068d4	0.14102489
145	0xbd7ef403	-0.062244426
146	0x3d987fe7	0.074462704
147	0x3d960161	0.07324482
148	0x3b922238	0.0044596456
149	0x3e104ffa	0.14093009
150	0x3e42c69b	0.19021074
151	0xbd8ae137	-0.067812376
152	0x3e42551d	0.1897778
153	0xbe540af1	-0.20707299
154	0xbdcb4088	-0.09924418
155	0xbe07d012	-0.13262966
156	0xbd96a576	-0.07355778
157	0xbd889c3b	-0.066704236
158	0x3e09bde1	0.1345134
159	0x3d47ccff	0.048779484
160	0x3d3cfe5b	0.04614101
161	0xbca938ef	-0.02065703
162	0xbe6b179a	-0.22958222
163	0xbd7734e6	-0.060353182
164	0xbe0cb2f4	-0.1374014
165	0xbdfe31d3	-0.12411847
166	0xbdaea559	-0.08527631
167	0x3de796ab	0.113080345
168	0xbcad98f3	-0.021191096
169	0x3e516ae3	0.2045093
170	0xba595ab9	-0.0008291412
171	0x3e44e451	0.19227721
172	0x3e467653	0.19381075
173	0x3e29f098	0.16595685
174	0xbe32736b	-0.17426841
175	0xbd215b61	-0.039393786
176	0xbdfbab81	-0.12288571
177	0x3d79fe99	0.06103382
178	0xbd908b24	-0.07057789
179	0xbd962e8f	-0.07333099
180	0x3e77ee06	0.24211892
181	0x3e5de5a5	0.21669634
182	0x3e3d51e4	0.1848827
183	0x3d786d3a	0.06065104
184	0xbbe6b2e9	-0.0070403707
185	0x3ce5d33f	0.028054832
186	0xbdcc74ff	-0.09983253
187	0x3e9ddb51	0.30831388
188	0x3ea7c24a	0.32765418
189	0xbea79304	-0.32729352
190	0x3d5f362c	0.05449502
191	0xbbafb454	-0.005362073
192	0xbe6f4c0c	-0.23368853
193	0x3bbfe32d	0.005855939
194	0xbcb306b4	-0.021853782
195	0x3e4904b4	0.196307
196	0xbd925c20	-0.07146478
197	0x3e1a760b	0.15084092
198	0xbe6449e8	-0.22293818
199	0x3d89d68a	0.06730373
200	0xbd8f412f	-0.06994855
201	0xbcc10a06	-0.02356435
202	0x3e5cbe1d	0.21556897
203	0xbd077603	-0.03307153
204	0xbd524628	-0.051336437
205	0xbd05df84	-0.032683864
206	0x3da1305b	0.07870551
207	0x3da4b7df	0.08042883
208	0xbe840f20	-0.2579279
209	0xbcaf9433	-0.021432972
210	0x3e502ec2	0.20330337
211	0x3d0603df	0.032718536
212	0xbdc752d4	-0.09732595
213	0xbb3abc9c	-0.0028493768
214	0x3e69fad6	0.22849593
215	0x3d8d121c	0.0688822
216	0x3e91e7e3	0.28497228
217	0x3e484ace	0.19559786
218	0xbe3065d1	-0.1722634
219	0xbdbeb4ec	-0.09311852
220	0x3e1348d3	0.14383249
221	0x3dcc1e7f	0.09966754
222	0x3e1d3ee1	0.15356018
223	0xbcdb8f09	-0.026801603
224	0xbe2b5676	-0.16732201
225	0xbe853b16	-0.26021641
226	0xbe3644bc	-0.17799658
227	0xbe62743f	-0.22114657
228	0xbe5d066a	-0.21584478
229	0x3d293281	0.04130793
230	0xbd5ac557	-0.053410854
231	0x3e3bb46b	0.18330543
232	0xbdb5cfd1	-0.088775285
233	0xbdb1304d	-0.08651791
234	0xbdf5ca60	-0.120014906
235	0x3cedddcf	0.02903643
236	0xbeac3e6e	-0.3364138
237	0x3e0af675	0.13570578
238	0x3da1f2be	0.079076275
239	0xbe50c3aa	-0.2038714
240	0xbdfac1f1	-0.12244023
241	0xbd986f56	-0.07443111
242	0x3e2f4b29	0.17118515
243	0xbced413c	-0.02896177
244	0xbe670700	-0.22561264
245	0xbcf6d9a6	-0.03013308
246	0x3e353581	0.17696191
247	0x3e4ac634	0.19802171
248	0xbd04945e	-0.032368056
249	0xbcc6ba7e	-0.024258848
250	0xbe866f81	-0.26256946
251	0xbda518e6	-0.080613896
252	0x3e3322a8	0.17493689
253	0xbe033cf1	-0.12816216
254	0xbd66d2db	-0.05635343
255	0x3e0b72f9	0.13618077

1.10.bias f4 [12]
0	0xbe789e07	-0.24279033
1	0xbea4fc9b	-0.32223973
2	0x3d915240	0.07095766
3	0xbcfdc415	-0.030977288
4	0xbb4a95b1	-0.0030911977
5	0x3ddd1f0c	0.10796937
6	0x3ec1a36d	0.37819996
7	0xbdaf61b9	-0.08563561
8	0xbd992dd5	-0.07479445
9	0x3e253897	0.16134869
10	0x3be66a2e	0.0070317006
11	0x3dbc2243	0.091862224

1.12.weight f4 [4, 12]
0	0x3f06fb0c	0.5272682
1	0x3eb08340	0.34475136
2	0x3e1994bf	0.14998148
3	0xbed77eae	-0.42088836
4	0x3c863349	0.016381877
5	0x3c664096	0.014053484
6	0xbf1ae976	-0.60512483
7	0x3f112932	0.56703484
8	0x3e799202	0.24372104
9	0xbf208edf	-0.62718004
10	0xbe930218	-0.28712535
11	0xbef74411	-0.48294118
12	0x3ef2f517	0.47452614
13	0x3f2dd59e	0.6790408
14	0xbebe1e47	-0.37132475
15	0xbe7fe3e3	-0.24989276
16	0xbee6ab17	-0.45052406
17	0xbcb4fb7d	-0.022092575
18	0xbeca0f23	-0.39464673
19	0x3ea53d2f	0.32273242
20	0x3ea77c33	0.32711944
21	0xbe1bbd57	-0.15208946
22	0xbf319499	-0.6936737
23	0x3d974657	0.07386463
24	0x3eb67231	0.35633996
25	0x3eaad54f	0.33365867
26	0xbe73d09e	-0.2381005
27	0xbe8d1bd6	-0.275603
28	0x3e29a96d	0.16568537
29	0xbf3a132a	-0.7268549
30	0xbe4d8782	-0.20071223
31	0x3f31f1eb	0.6950976
32	0x3ea572db	0.3231419
33	0xbee021fe	-0.43775934
34	0xbf04177b	-0.5159833
35	0xbe8883c1	-0.2666302
36	0x3f28bfc5	0.6591762
37	0x3edfad73	0.4368702
38	0xbe592c68	-0.21208346
39	0xbf12117c	-0.5705793
40	0xbd95b540	-0.07309961
41	0xbec61c68	-0.38693547
42	0xbf1b86c3	-0.60752505
43	0x3e8553b7	0.26040432
44	0xbd4d3970	-0.050103605
45	0xbe36f760	-0.17867804
46	0xbf359d37	-0.70943016
47	0xbe954b2b	-0.2915891

1.12.bias f4 [4]
0	0xbf0d0a06	-0.5509342
1	0xbf25441b	-0.64557046
2	0xbf4d5b5a	-0.80217516
3	0xbf22597c	-0.6341779
