JSP/trained models/validated_10_80.pt (torch_old, 27293 bytes, 16 tensors)

0.0.weight f4 [5, 5]
00000000: b7cb a43f 1582 8f3f d576 743f 94f6 893f
00000010: 3d67 a63f b914 cd3f cc50 a03f 0bdd 7b3f
00000020: 0425 863f 1df9 ae3f 86db a83f a635 953f
00000030: 15f8 603f aa7c 873f 134e 983f 2f0e 943f
00000040: 1046 893f abb7 633f 43cd 853f 02be 843f
00000050: e457 b43f ef1c bc3f b7f3 783f 7d1a dd3f
00000060: 716a ca3f
1.2874669 1.1211573 0.95493823 1.0778375 1.3000256 1.6021949 1.2524657 0.9838416
1.0480046 1.3669773 1.3191993 1.1656997 0.87878543 1.058492 1.1898826 1.1566828
1.0724506 0.8895213 1.0453266 1.0370486 1.4089322 1.469633 0.9724688 1.7273709
1.5813733

0.0.bias f4 [5, 5]
00000000: 3bda 81be 9058 113e dc99 2a3e 6de7 703d
00000010: 0f2c 20be f017 89bd ba37 5a3e 73f8 5d3e
00000020: 6b9d 0dbe 516b 1cbe 375e a13d dd69 8a3e
00000030: e3fa a73e 9cfb a2bd f728 ccbd 9a44 13bc
00000040: 695b 84bc 0c3f cf3d 3971 7fbd ac87 2bbe
00000050: 778a a7bd 50d3 303e 55e1 49bb 8d42 9ebe
00000060: d99a 2bbe
-0.2536181 0.1419394 0.16660255 0.058814455 -0.15641807 -0.06694019 0.2131032 0.21676807
-0.13829581 -0.15275313 0.07879298 0.27033892 0.328086 -0.07958147 -0.09968751 -0.008988524
-0.016156869 0.10119447 -0.062363837 -0.16750973 -0.08180707 0.1726811 -0.0030804474 -0.3091015
-0.16758288

1.0.weight f4 [48, 25]
00000000: 8a2d b7be c39c 803e 6854 15be 56ef dabc
00000010: 02f8 1abd 85c1 79be 3b45 8abd fca2 b33e
00000020: 65d4 dcbc 889d 6e3d 5f0e 18be 6dd5 c03e
00000030: 71c3 ce3d 3677 2fbe 07a3 74bd 50d2 4fbe
00000040: eca3 8a3e a7a7 36be e36a e0bc af4f 2abe
00000050: f055 503c b8c8 3e3c 9cb0 09be c029 28be
00000060: a7a7 b8bd fdf1 40be 2123 fc3d d3c0 0ebc
00000070: 894c 893e bc7b b23c 4ef9 0dbe e731 963e
00000080: 2717 15bd 8e6c 03be 24e6 85bd 96c3 1abd
00000090: 631c ef39 4daf ac3e 526e 253e 7472 84bd
000000a0: e28a f4bd 7a82 4dbe be52 37be 74fe 773e
000000b0: c22c 54be 0229 9cbd 3350 70bd 7152 953e
000000c0: 6a92 e4bd cfef a83d c1ad 8f3e 7fac bcbd
000000d0: 3a16 babd 265b a2bd ee49 9cbe 72a2 b43e
000000e0: 176d 78bb 5395 043a c962 043e a7c7 bfbe
000000f0: 77dd a33e 38d9 6bbe b2ba 0b3e 8e52 37bd
00000100: 8461 27bd 5762 503e 8692 69be 0309 d4bd
00000110: 95c6 f4bd f628 33be d8d9 593e a49f 3f3d
00000120: e37d 103e d03b 81bc 0f41 763e 7560 443b
00000130: 2767 1c3d f888 9e3e b81f 3c3e f94a f33e
00000140: 8f7d 82bd 47d5 f0bd c431 9e3c 8816 5f3d
00000150: 396e 673e dda9 013d e3a1 2dbe de8c ac3d
00000160: b7ed 693c 65f0 113e fc4a 01be 0f15 2dbe
00000170: b385 27bb b69e e73d 6498 63bd 1b20 b6be
00000180: 92e0 eb3d 5614 1ebd 3791 c5be 0da8 74be
00000190: ccce b8bc 56c5 c0bd a411 5c3e b046 513c
000001a0: 98ae 54be 5cb2 adbd 3a49 a03d 8677 2bbd
000001b0: fff7 4a3e ea79 b0bd dcc2 efbd ef85 24be
000001c0: c378 7f3c adae 963c 55a9 88b9 39fe a53d
000001d0: 637e a13d 0b4e a83d 4326 96bc 7b52 9d3d
000001e0: 8e55 7ebe 216c 3b3e d0be 36bd 0f68 573e
000001f0: 01eb ff3d 21ba 963d 2f0c 74be 01d9 0d3e
00000200: 3046 623d 415d 05be 5a18 19be 482e d0bd
00000210: fd1d 613d 261f 223e 739f bcba 7b2d afbe
00000220: 843f f63e 3ead 8f3d 032a d1bb b5e4 dd3e
00000230: 8df7 9bbe 4d37 913d 4f4c 333e 47d7 853d
00000240: dbbd 3dbe f431 36be e39b 7b3d defc 823d
00000250: 87c9 dd3e 95e7 8abd 6a86 a1bd eca0 0f3e
00000260: 026a df3d c62e 4fbd 5bf4 44be bb64 b4bd
00000270: 2969 cf3d 13f9 ee3d 2fb1 32be b29f cf3d
00000280: 3a2d 49be a07a 32be e163 363e 3e83 f5bd
00000290: 6b05 893d a5f1 963c 23e4 29bb 68d6 403d
000002a0: 320c ed3c 78c3 35be d10e abbd 82c7 973e
000002b0: 189e d83d e74b af3e e871 91be 65a8 b3bd
000002c0: 22b2 cf3c a745 f1bd e47c 033e 084d 243e
000002d0: a871 ec3d 8662 9e3e 1358 7b3e eb78 503e
000002e0: cf6f 2abe 4668 27be 4535 41bd 3a78 053d
000002f0: cff2 2cbc 8d48 b53d a740 943d 0641 153e
00000300: 47cd 00be 8d81 40bd 1a56 b5bd 2447 41be
00000310: fcc9 013e 0e6e 8abe f541 133e bc25 07be
00000320: 03ef c7bc 3f5e 5ebd fbd7 4ebe 4dfb 843e
00000330: 2284 b63d 0618 86be cbf8 82be b02b 1c3e
00000340: eadf 2d3e b543 3fbe a718 78bd 9ade 69be
00000350: 8e43 1fbe 111a 5ebd dc47 c73d faac a43b
00000360: f487 e9bd d58a c7bd 8198 843e 25bb 7ebe
00000370: 892c 613e 061a 38be c637 a43e fe33 ed3d
00000380: 11f4 b5bd f67a 02be 4517 1c3d 43fd 9e3d
00000390: ff92 953d 54e1 cebd 12a5 bc3e f4f2 d13d
000003a0: c3f9 b8bd 5bd2 7bbe 363c 063e 2573 94bd
000003b0: 07af 2c3e 4e27 6a3e 8413 8fbe 2c01 813e
000003c0: 6da7 4b3e ab93 cd3d ae3b 6bbe 9d9a 23be
000003d0: e944 8b3e 2c90 8fbe a708 173e 73a3 b0bd
000003e0: 7d0b b3be 37dd 563e 3292 143e 4500 1bbe
000003f0: 97fe 7b3d 444c 97bd 9062 e03c d90a d93c
-0.3577693 0.251196 -0.1458298 -0.026725452 -0.037834175 -0.24390228 -0.06751486 0.35085285
-0.026956746 0.058255702 -0.14849232 0.3766283 0.10095871 -0.17135319 -0.059725787 -0.20295072
0.27078187 -0.17837392 -0.027394718 -0.1663196 0.012715802 0.011644535 -0.13446277 -0.16422176
-0.09016352 -0.18842311 0.12311388 -0.008712965 0.26816204 0.021787517 -0.13864633 0.29334947
-0.036399033 -0.12834379 -0.065380365 -0.03778418 0.00045606782 0.33727494 0.16155365 -0.06467143
-0.11940552 -0.20069304 -0.17902657 0.2421816 -0.20720199 -0.07625009 -0.058670234 0.2916446
-0.11160739 0.08248865 0.2806225 -0.092125885 -0.09086271 -0.079275414 -0.30525154 0.35280186
-0.003790682 0.00050576514 0.12928309 -0.3745701 0.32004902 -0.23032081 0.13645437 -0.044756465
-0.040864483 0.20350014 -0.228098 -0.10353281 -0.11951939 -0.17496094 0.21274507 0.046783105
0.14110522 -0.015775591 0.24048255 0.002996472 0.03818431 0.30963874 0.18371475 0.47518137
-0.06371605 -0.117594294 0.01931084 0.054464847 0.2260064 0.031656135 -0.16956286 0.08425306
0.014277867 0.1425186 -0.1262626 -0.16902564 -0.0025561869 0.113095686 -0.055565253 -0.3557137
0.11517443 -0.038593613 -0.38587353 -0.23892231 -0.022559546 -0.09412639 0.21491104 0.012773201
-0.20769727 -0.08481285 0.07826467 -0.041862033 0.19821166 -0.08617003 -0.11707088 -0.16066717
0.015592757 0.018393839 -0.00026066104 0.0810513 0.078854345 0.082180105 -0.018328791 0.076817475
-0.24837324 0.18302967 -0.044615567 0.21035789 0.12495995 0.0735972 -0.23832773 0.13852312
0.055242717 -0.13023855 -0.14950696 -0.101650774 0.05496024 0.15832195 -0.0014390781 -0.34214386
0.48095334 0.07015465 -0.006383182 0.43338552 -0.30462304 0.07090626 0.17509578 0.065352015
-0.18529455 -0.17792493 0.061427962 0.06395887 0.43317816 -0.06782452 -0.078869656 0.1402623
0.10908891 -0.050581716 -0.19233839 -0.08808275 0.101274796 0.11668601 -0.17450403 0.10137881
-0.19646159 -0.1742959 0.17811538 -0.11987923 0.066904865 0.018425772 -0.0025923334 0.047079474
0.02893648 -0.17750347 -0.083524354 0.296444 0.10577029 0.34237596 -0.28407216 -0.08772353
0.025353495 -0.11780863 0.1284061 0.1604501 0.11545116 0.30934542 0.24545316 0.20358627
-0.16644214 -0.16348371 -0.047169942 0.03258536 -0.010555937 0.088517286 0.07238894 0.14575586
-0.12578307 -0.04699855 -0.08854313 -0.18874794 0.12674707 -0.2703709 0.1438063 -0.13197988
-0.024405962 -0.0542891 -0.20199578 0.25972977 0.08911921 -0.26190203 -0.2558044 0.1525104
0.16979948 -0.18678172 -0.060570385 -0.22838822 -0.15553114 -0.054224078 0.09730503 0.005025503
-0.11402884 -0.09743277 0.258976 -0.24876077 0.21989645 -0.17978677 0.32073802 0.11582182
-0.088844426 -0.12742218 0.03810813 0.077631496 0.07303428 -0.10101572 0.3684469 0.10251418
-0.09032013 -0.24591963 0.13108906 -0.072485246 0.16863643 0.22866556 -0.27944577 0.25196207
0.19888087 0.10037931 -0.22971985 -0.15976949 0.27201012 -0.28039682 0.14749394 -0.086249255
-0.34969702 0.20982824 0.14508894 -0.15136822 0.061522093 -0.073875934 0.027390748 0.02649443

1.0.bias f4 [48]
00000000: 1ce7 463e e143 63bc c5fa bb3d 5527 bd3d
00000010: 3110 553e aecc eabd 1a05 85bd 41aa 1dbe
00000020: 429b 84be 5751 813e 85fa 31be 8044 65be
00000030: 5397 2bbe 9fb1 3abe 8380 29be efdc 67be
00000040: 1b1c 0dbf 3c49 9cbe b0b8 1fbd 6075 b2bd
00000050: 4cd9 953d dd54 2f3d 648d 1c3e 2c2a c23d
00000060: e1d1 44bb 21aa 9abe ef10 87bd c91a 8e3c
00000070: ef49 e43c fe36 57be 6210 ea3d e5c9 bdbc
00000080: 3f4d 053c 3486 1ebe 42c8 a53d c711 dcbc
00000090: e441 893d 2d10 e43d 73c6 dc3d 961b 463d
000000a0: 9516 9b3c 6f2a c9be b1b3 b93d 3c39 f7bd
000000b0: 363f 263e 7e43 e03d b4f6 15be bf47 293e
0.19424099 -0.013871164 0.0917869 0.092360176 0.20806958 -0.11464821 -0.06495114 -0.15396978
-0.25899702 0.2525737 -0.17380722 -0.22389412 -0.16756944 -0.1823182 -0.1655293 -0.22642873
-0.5512101 -0.30524623 -0.03899449 -0.08713794 0.07316837 0.04280554 0.15288311 0.094807
-0.0030032324 -0.30207923 -0.06595027 0.017346757 0.027867286 -0.21017072 0.11428906 -0.02316756
0.008136093 -0.15480882 0.08094837 -0.026863946 0.06702021 0.11135898 0.10780039 0.04836615
0.018931666 -0.39290187 0.090674765 -0.120714635 0.1623505 0.10950373 -0.14644891 0.16531275

1.2.weight f4 [36, 48]
00000000: a4b0 4fbd b0d9 503e 2ba8 113e f70f d9bc
00000010: c852 e0bc f580 49bd f894 063e 46b3 cabd
00000020: d01f e0bc ccb1 b1bc b0f9 20be 449d 113e
00000030: c78e 6b3e 6ac0 603d 0797 9abd 21c6 13be
00000040: 91ba 923e 39e6 16be a6e9 5dbe 59ec a5bd
00000050: 3ffa 26bd 6de5 eabd 4845 8bbe b432 4d3e
00000060: 20f3 2ebe 00a1 85bd 6c51 35be 07a5 c4bd
00000070: 9c5a 753d 2eb4 7a3c d4dd 40bc b45f 103e
00000080: 1116 003e 15b7 273e d7ec d5bd ce50 2ebe
00000090: c63c 013e 8f50 593e 49f0 2bbe f0b4 28bd
000000a0: 9677 733e 32ac aa3d c00b 683d d1b4 683e
000000b0: 5a98 363d f627 adbd a6ed c0bd f833 793c
000000c0: 2ce3 063e 0da3 073d d7fd 683d 3eb5 3fbd
000000d0: 979a a73d d8d1 98bd e061 aa3d 416d ebbc
000000e0: 0cf1 803c d879 1c3e 096b b13d 1ac4 88bc
000000f0: 914c 73bd 0bce d9bd 958f 8fbd 8f8d 0fbd
00000100: 54b4 15be 807d 5bbe 1ef3 6fbe 4df9 50be
00000110: f7fd af3c 7c5e b13d 47ec 01be de43 4fba
00000120: 72f9 e43d a2cc 6b3d b4c0 47be 70a5 e3bd
00000130: 0668 143e bc9c 1fbe b35d edbd 99b2 1f3e
00000140: 4c19 10be fefa 96bc 7871 c23c f94d 19bd
00000150: 6b85 29be 7207 eebc a577 093d 7cc9 cbbc
00000160: e4b1 cf3d 37c6 aa3d f7f1 1f3d 380e c4bd
00000170: 5b21 b13d eab7 c1bc 0df9 3dbe b4eb ef3d
00000180: d6ee b6bd 846f aebc a146 0cbd e772 d8bd
00000190: 678f 13be edd0 01bd cc80 cbbd 78f6 ccbd
000001a0: 4b2c bebd 3e90 1fbe 5c6c 06be 7e41 00bc
000001b0: 738a c23d b29b 163c e351 473e 8e94 cbbd
000001c0: d949 66bd 686d 413e 1a39 cabd 180a 35bd
000001d0: 1ee3 10be 2fda 013e ebe2 b53d b0e6 3dbe
000001e0: b43f d7bd 902e e73d 3022 693d 21d8 803d
000001f0: ae84 0a3d 7402 eebc 2ca6 343e 4642 743d
00000200: 0a5e 233e 2a0a 213e 744f 7a3d 7197 f8bd
00000210: 6233 e23d 478a 273e 313e 22bd 7841 833e
00000220: 3831 0cbe 0b24 9b3c 8ccb ca3d 82b9 85bc
00000230: 60bc fe3d ff3b 993d a5b1 2f3e f663 be3d
00000240: ddf0 cabd cb45 80bd eee1 123e 5c36 6abd
00000250: 75ad e43c fe37 103e 8f9e 0bbe def1 d0bd
00000260: a40d dc3d cab7 e5bd c49b 2bbe be7c 13be
00000270: ded2 1d3e 8d15 1abe 5825 44be 77a6 1c3e
00000280: b980 bd3d 7370 c4bc 952e ce3c 0618 593d
00000290: f204 5bbb c0a9 81bc 63da e5bc 1fe3 2c3e
000002a0: 8a04 26bd 6904 573d 783c d9bd 5d78 1dbe
000002b0: 10bc 2abd 5a72 47bd 6b7a ecba 617c 263d
000002c0: 7860 643d 520b 043d 8a9a ef3d c388 2f3e
000002d0: 242f 69bd ec7e 2b3d e3cb cebd 804d 633d
000002e0: f565 1ebe 51f8 193d 52c3 013e 4564 22be
000002f0: 811d acbd 1bff fcbc c3c0 a93c 10e8 abbd
00000300: 24f9 bdbd 2d36 333e 9a08 bb3d 8680 03bd
00000310: d8a9 333d 12fa c43c 84e8 893d dec3 3c3e
00000320: 62c5 943b 9503 f23d ba85 953a fcf3 bd3c
00000330: 2b60 2dbe 741f cebd 59b3 653e e412 b6bd
00000340: 1b63 ec3d 2071 b63d a9a3 7c3e d26d 163e
00000350: 6655 a2bd 5e7d 39bd 57b1 89bc a0b2 fb3c
00000360: 0421 a73d c27d 7cbd 88c8 ef3d 58a6 7e3c
00000370: b67b cc3c aa90 b13d 5e00 993d 7e89 a8bc
00000380: e660 a93b ac37 0ebe f7f6 343d ef1e dc3c
00000390: d2d1 9cbc 8cf3 c03d cb60 0b3e 7b47 3f3e
000003a0: 7c8c ccbd b454 30be 9487 fdbc bf93 253d
000003b0: 0be1 bc3d 7290 013e eace 3c3e feab 07be
000003c0: c18f 033e 5dc8 22be 67d0 14be a7b5 3dbe
000003d0: 907b ee3d 2355 81bd 3136 fe3d cc85 803d
000003e0: 3bea 5d3d 79f9 aabc 5a67 a9bd a057 033c
000003f0: 41f5 103e 5ec5 483c 13d4 273d 29fc 3bbd
-0.050705567 0.20395541 0.14224307 -0.02649687 -0.027383223 -0.04919525 0.13142765 -0.09897475
-0.02735892 -0.021691225 -0.15720248 0.14220148 0.23003684 0.054871 -0.075483374 -0.14431049
0.28657964 -0.1473626 -0.21671161 -0.0810172 -0.040765997 -0.11469541 -0.27201295 0.20038873
-0.17084932 -0.06524849 -0.17706841 -0.09601789 0.059900865 0.015301747 -0.011771638 0.14099008
0.12508418 0.16378434 -0.10445564 -0.17023012 0.1262084 0.21222137 -0.1679088 -0.04118818
0.23776087 0.08333625 0.05665183 0.22725226 0.044578888 -0.084548876 -0.09420328 0.015210144
0.13172597 0.03311448 0.056882706 -0.046803705 0.081837825 -0.074618995 0.083194494 -0.02873862
0.01573994 0.15280855 0.086629935 -0.016695071 -0.05939919 -0.10635003 -0.07009808 -0.03504711
-0.14619571 -0.21434593 -0.23432586 -0.204076 0.021483405 0.086605996 -0.12687789 -0.00079065363
0.111803904 0.0575682 -0.19507104 -0.11115539 0.14492807 -0.15587133 -0.11590137 0.15595473
-0.1407215 -0.01843023 0.023735747 -0.037427876 -0.16554801 -0.029056285 0.033561368 -0.024876349
0.10141352 0.08338588 0.039049115 -0.095730245 0.0864894 -0.023647267 -0.18552037 0.11714879
-0.08932273 -0.02129341 -0.034247044 -0.10568791 -0.14410172 -0.031693388 -0.099366754 -0.10007948
-0.09285792 -0.15582368 -0.13127273 -0.007828115 0.09499063 0.009192394 0.19464831 -0.09940444
-0.05622277 0.18889391 -0.098741725 -0.04419908 -0.14149138 0.12680887 0.08881172 -0.18545032
-0.10510197 0.11288178 0.05691737 0.06291223 0.03381794 -0.029053904 0.17641515 0.059633516
0.15953842 0.15726534 0.06111093 -0.1213826 0.11044957 0.16361342 -0.03961009 0.25635886
-0.1369065 0.018938085 0.09902105 -0.016323809 0.124382734 0.074821465 0.1715761 0.0929641
-0.09909222 -0.06263312 0.14343998 -0.057180747 0.027914742 0.1408386 -0.13634704 -0.102023825
0.10744789 -0.112166956 -0.16758639 -0.14403054 0.1541247 -0.15047283 -0.1915487 0.15297876
0.092530675 -0.023979401 0.025168696 0.053001426 -0.0033419696 -0.015828013 -0.028058236 0.16883515
-0.040531673 0.05249444 -0.106072366 -0.15377946 -0.041683257 -0.04869304 -0.0018041854 0.04064596
0.055756062 0.03223736 0.11699398 0.17142014 -0.056929722 0.04186909 -0.10097482 0.05549383
-0.15468581 0.03759033 0.12672165 -0.15858562 -0.08404065 -0.030883363 0.020721799 -0.08393872
-0.092760354 0.17501135 0.091325 -0.03210499 0.043863147 0.024045024 0.06733802 0.18434092
0.0045401314 0.118170895 0.0011407651 0.02318763 -0.16931216 -0.10064593 0.22431697 -0.08890322
0.1154234 0.08908296 0.24671806 0.1469033 -0.07926445 -0.045285575 -0.016808195 0.030724823
0.08160594 -0.06164337 0.1170817 0.015542589 0.024961334 0.086701706 0.07470773 -0.020573374
0.005169022 -0.13888425 0.044180837 0.026870219 -0.019143019 0.09421453 0.13611142 0.18679611
-0.09987733 -0.17219812 -0.030948438 0.040424105 0.09222611 0.12652758 0.18438306 -0.13249204
0.12847807 -0.15896745 -0.14532624 -0.18526326 0.116446614 -0.06315067 0.1241268 0.0627552
0.054178458 -0.020870911 -0.08271666 0.008016497 0.14156057 0.012254087 0.040973734 -0.045894776

1.2.bias f4 [36]
00000000: bfc2 19be 0a26 2b3d 63f0 90bd e539 993d
00000010: 7e2f 26be 5cf4 7b3d 5053 813e bca6 293e
00000020: 7097 4cbd 106b 3c3e 2cf9 7e3d 5889 bdbd
00000030: a020 d83c 692b 1ebe 9883 b0bd aec1 b43d
00000040: af74 003e 2dbf 0fbe ccb8 42be 29f9 f93d
00000050: 5edc 77bd 01ec 303e 1d22 59bd f03c 073e
00000060: 291b 3b3d 7cb5 543e 1cfb 72bd d6cc 2cbc
00000070: aced 413d fd79 3a3e 050e 73be a209 c43c
00000080: af62 183d 3f3a d9be 64d2 24be 6f59 303c
-0.15015696 0.041784324 -0.070771 0.07481746 -0.16229054 0.061512336 0.25258875 0.1656751
-0.04994911 0.18400216 0.062249348 -0.09254712 0.026382744 -0.15446247 -0.086188495 0.08826004
0.12544511 -0.14037772 -0.19015807 0.12205727 -0.060512893 0.17277528 -0.05301105 0.1320684
0.0456802 0.20772356 -0.059321508 -0.010546884 0.047345802 0.18210597 -0.23735817 0.023930375
0.037203487 -0.4242725 -0.16095883 0.01076351

1.4.weight f4 [36, 36]
00000000: 9918 5b3e 6b06 06be 3211 f83d 6768 8b3d
00000010: 9516 b7bc a97f bbbd 779b d3bd 279f f8bd
00000020: 4557 f93d 9cdc 50be 25c6 04be 7922 793e
00000030: e888 ba3d 04fc 25bd 027e 0a3e 5365 a3bd
00000040: 379d dcbd 92f1 573e cf26 d13d 7e68 3cbd
00000050: ef4e 3e3e 05c6 00be 1ebb f33d 5005 efbd
00000060: 081d 3dbe c91d 15be 93e9 953c 187b 353e
00000070: 8602 9f3d 7b6f ae3c a280 653e 3370 85bd
00000080: 2aad 973d 3349 bb3e 5dde 003e 2779 1dbe
00000090: 5e29 c1bd 8669 c6bd 6c81 36bd f135 0c3d
000000a0: 7ea4 c7bd a9de d0bc b7ce 8dbd aab2 17be
000000b0: 6c4e d53d 9dc8 25bd a782 4e3e 0570 34be
000000c0: 8d3a 883b e279 a93d 03ca c83d dfa6 b5bd
000000d0: 2344 cf3d 0165 dbbd 9c8f 38bd 5cad 043e
000000e0: 2c09 2dbe 7b3b b53d a496 3abe df35 9c3d
000000f0: de92 d6bc 1f95 113e 5422 cb39 e91b 213e
00000100: d734 04be 4272 153e f0d3 9fbd 87db e1bd
00000110: 5c90 8abd 6e08 67bd 1190 be3d 2278 233e
00000120: 91ec 84bd f230 ec3d 96dd b93d 4111 ebbc
00000130: b87d dcbd 9134 80bc e055 dbbd f237 1cbe
00000140: 94cd 5cbd 5c9e a8bd d0b7 053e cd9b b03c
00000150: 2907 00be 5c67 32be bd71 b2bd 8d21 2a3e
00000160: 31d0 05be c10f 853b 5be0 3a3d fcd6 40be
00000170: 5a90 3bbd af39 e83b 9597 2b3e 37ca 98bc
00000180: 6e46 f5bd 0ee4 9dbc 07f4 003e 0a41 3fbd
00000190: 4c46 d2bc 60be 973d b223 86bd ae02 a1bd
000001a0: a1ec 0e3e 1daa fcbd e843 a9bc c3d0 e3bd
000001b0: f7a1 da3c d643 2bbd 28bf 2d3e e4eb 24be
000001c0: 9766 393e de69 23be 3988 973d 00e2 11be
000001d0: a02a 263e 67c3 cbbd 42fb 393c bdc1 003e
000001e0: 267b cebd b30f 113d 1082 c4bd d631 c0bd
000001f0: 55da 543c 9a33 063e caed 303e aa73 debd
00000200: 2819 2cbd fc44 bd3d 0ac8 8d3c b3d4 203d
00000210: c6d2 90bb 07ed 00be 3209 82bd 91fd b9bc
00000220: 8cff d23d 9249 2a3b 7e62 5c3c 60d2 12be
00000230: 3646 40be 91b5 5fbd ecd1 413d 16fe 1dbe
00000240: 3ff5 e2bd 968d 283e 3e5d 8fbc 9818 e73d
00000250: e48b 9dbd f16d 24be 369f 4f3c fb54 e2bb
00000260: 14c4 20be 08ba 81bd e2b7 2c3e 99eb 3ebd
00000270: 5125 cebc c759 333d baf9 13be 50cd 30be
00000280: 6f8d 62bd af73 e53c 9b93 913d e115 0c3e
00000290: a49c d6bc 5640 d6bc 3f81 09be 4225 133e
000002a0: f3a4 c33d 5187 6d3d 145a 79bd a2d8 483d
000002b0: e078 e83d 8058 5d3d 914c 3cbe 66b2 193e
000002c0: 54e0 c83d f1e3 25bd 5205 4cbe 1b74 9ebd
000002d0: 54ee b0bc 36d4 0cbe 8fa9 4ebd 60cc f23d
000002e0: 13bd 2fbe 7ae1 e83d 0890 19be 880d 04be
000002f0: 9828 e639 5542 adbc 3634 d5bb 3c21 43bd
00000300: 10e0 383e 37fa 27be ce24 253d 7bc9 d53d
00000310: 2da3 aabd 6e74 bc3b d7bb 0a3e 76dc 2f3d
00000320: d8a0 183e f7e6 34bd 2611 6a3d 6f7f d93c
00000330: e227 923d 4df0 33bd ef1f 3b3e 09a4 3f3e
00000340: fe55 abbd 3889 1cbe 0d0f 483e 4241 15be
00000350: 309c a3bd 71a9 1d3d aead f4bd 3454 6c3d
00000360: a685 273c 5b7d c3bd 1d71 d73d 890d 6e3d
00000370: d1e5 aabd 2ab5 013e 6b16 1c3e b4d8 263e
00000380: 9542 293d a212 f5bd 23e5 1d3e 60b5 43be
00000390: 0f60 2e3e 0b8a 76bc 57a6 4bbe 45e8 833d
000003a0: 16bb bd3c dae2 c6bb 732b e93d fcb9 a2bd
000003b0: 6a91 23bd 51f3 a0bd 7093 193e 5934 083e
000003c0: 1e58 5cbd 55e4 323e bc6a 15be 204d f43d
000003d0: cd0e e1bc 5b27 2f3e 5906 32bd 7ced a3bd
000003e0: 4323 dd3c b418 5dbe c984 2ebd 72ce 2fbd
000003f0: d407 f83d 74eb 153e e593 0fbe 0795 c23c
0.21396102 -0.13088386 0.12112655 0.068070225 -0.022349635 -0.091552086 -0.10332387 -0.12139731
0.121748485 -0.20396656 -0.12966211 0.24329557 0.09108144 -0.040523544 0.1352463 -0.079783104
-0.10772174 0.21088246 0.1021248 -0.04599809 0.18584798 -0.12575538 0.11900924 -0.11670935
-0.18468106 -0.14562143 0.018299853 0.17722738 0.07764153 0.021293392 0.22412351 -0.06515541
0.07406075 0.36579284 0.12584825 -0.15378247 -0.09431718 -0.09688096 -0.04455702 0.03423113
-0.09748171 -0.025496798 -0.06924193 -0.14814249 0.104153484 -0.040474523 0.20167027 -0.17620857
0.0041573704 0.082752004 0.09804156 -0.08869719 0.10120418 -0.10712624 -0.04505883 0.12956756
-0.1689803 0.088492356 -0.18221527 0.076274626 -0.026193079 0.14217041 0.00038744754 0.15733303
-0.12910782 0.14594367 -0.07804096 -0.110282 -0.067658156 -0.056404524 0.09304822 0.15963796
-0.06490434 0.11532773 0.09075467 -0.02869475 -0.107661664 -0.015650066 -0.10709739 -0.15255716
-0.053906992 -0.0823333 0.130584 0.021558667 -0.12502731 -0.17422241 -0.087131 0.16614361
-0.130677 0.004060716 0.04562412 -0.1883201 -0.04579196 0.0070869545 0.16757043 -0.018651111
-0.11976324 -0.019273784 0.12593089 -0.046692885 -0.025668286 0.07409358 -0.06549777 -0.07861839
0.13957454 -0.12337134 -0.020662263 -0.111238025 0.026688559 -0.04181274 0.16967452 -0.1610561
0.18105541 -0.15958354 0.07399029 -0.14246368 0.16227198 -0.099493794 0.011351408 0.12573905
-0.100820825 0.035415363 -0.0959512 -0.093845055 0.012991508 0.13105622 0.1727821 -0.10861905
-0.04201618 0.09241673 0.0173073 0.039265346 -0.0044196574 -0.12590419 -0.0634941 -0.022703918
0.10302648 0.0025983793 0.013451217 -0.14338064 -0.18776783 -0.054616515 0.047319338 -0.15428957
-0.11081933 0.16460261 -0.017500516 0.11283988 -0.07692698 -0.16057564 0.012672236 -0.006907103
-0.15699798 -0.06334311 0.1686702 -0.046611402 -0.025164278 0.04378679 -0.14450732 -0.1726582
-0.055310663 0.028009264 0.07108232 0.13680221 -0.026197739 -0.026153725 -0.1342821 0.14369681
0.09552946 0.057990376 -0.06087692 0.049034722 0.1135118 0.05403948 -0.18388583 0.1500946
0.09808412 -0.040500585 -0.19923905 -0.07736989 -0.021598019 -0.13752827 -0.050454672 0.11855388
-0.1716197 0.11371131 -0.1499635 -0.12895787 0.00043899263 -0.021149794 -0.006506468 -0.047639117
0.18054223 -0.16404043 0.040318303 0.1043882 -0.083319046 0.005751184 0.13548218 0.042934857
0.14905107 -0.044165578 0.05714526 0.026550023 0.07136513 -0.04393034 0.182739 0.18714918
-0.08366011 -0.1528672 0.19536991 -0.14575675 -0.07988775 0.03849167 -0.11947189 0.05769749
0.010224735 -0.09545394 0.105196215 0.058118377 -0.08344615 0.12666765 0.15242927 0.16293603
0.041323263 -0.119664446 0.1541944 -0.19112158 0.17028831 -0.01504756 -0.19887672 0.06440786
0.023160499 -0.0060695233 0.113852404 -0.0794563 -0.0399336 -0.07858909 0.14997649 0.13301219
-0.053794973 0.17469914 -0.14591497 0.11928773 -0.027472878 0.17104857 -0.043463085 -0.08004281
0.026994353 -0.21591455 -0.042607103 -0.04292149 0.12110868 0.146406 -0.14021261 0.023752702

1.4.bias f4 [36]
00000000: 4cd3 3dbe e933 a7bc b2e5 85bd b8f0 28be
00000010: 7eef bd3c 966b d3bd 5053 4c3e ae1a 903d
00000020: c4f3 263d 1ba1 e73c 9b67 213d c5e8 ac3d
00000030: 8311 adbd 0c66 b13d 920a 303e 5f0e 4c3d
00000040: a755 79be c599 213e a73b 04be 4916 05be
00000050: a124 6dbd f13c ba3d 873d 943c b7ab 863e
00000060: e1a7 c3be f3ab b9bc b639 34bd 2210 233e
00000070: e7dd 3bbe 71dd aa3d 8d01 18be e889 483d
00000080: 1060 693d 5f01 7bbd 587e ebb9 0bbf 79ba
-0.18537635 -0.020410495 -0.065379515 -0.16498077 0.023185488 -0.10323255 0.19953656 0.07036339
0.040759817 0.028275063 0.039405446 0.08442835 -0.08450606 0.08662042 0.17191532 0.049818393
-0.2434908 0.15781315 -0.1291338 -0.12996782 -0.05789626 0.09093655 0.018095745 0.26302883
-0.3821402 -0.022665 -0.04400035 0.15924123 -0.18346368 0.08343018 -0.14844342 0.048959643
0.056976378 -0.061280604 -0.00044916826 -0.0009527064

1.6.weight f4 [24, 36]
00000000: 1e9d 5bbd 9437 223e 125c db3c 59af 3a3e
00000010: 4626 50be 869b f6bc 7e8d d4bd 3d5d 863c
00000020: b4d7 9ebd 538b 1f3e 5c02 e3bd c090 28be
00000030: 6bc9 583c bc8c 13be b834 093e a520 9ebd
00000040: 2037 e1bd 1b93 43be 703a 903d 4b4c d13d
00000050: 5faa afbd a250 dfbd 8476 ad3d 4213 34be
00000060: 7536 253e 8a74 a13d 1d91 533c b87f 923d
00000070: 81bd b63d 8c0c a33d 80af 363d e892 0e3e
00000080: bde8 22be af44 233e 63f3 4fbd 2a2a dcbc
00000090: 3262 08be 19bd 2a3e 6934 adbd 7f49 1b3e
000000a0: 1c5e bbbd e84b 18bd 64ea b33d 3b10 453d
000000b0: 16d8 083e aade bdbb 8bc5 3b3d 2015 72bd
000000c0: 25ee c1bd 322d 83bd 5d91 cabd 8f13 9a3d
000000d0: 2595 34be 1614 29be 6266 0bbe 8b3e f43d
000000e0: fe19 0cbe 217c abbc 33f2 0d3e 814e 85bd
000000f0: 483e 37be d08d 03be a71e eabd 3737 4dbd
00000100: 2cf9 81bd 2b83 d03d e362 1dbe 3a04 ceba
00000110: a415 afbc b598 0ebe 45b0 82bd 2f4f 2ebe
00000120: 8220 03be 8508 b1bc 928f 9bbd 2f2d 28be
00000130: 87dc bc3c 09ed 6abd 3bf8 153e 5d0d cebd
00000140: 17eb 1bbe 1fae 07be 7b0c 89bd 2e10 303e
00000150: 0851 283c d198 403e 677b 113e d0b2 d6bd
00000160: 15ea 81bd 3ffe 0f3e 6d54 0c3c d731 6ebd
00000170: ac4c bd3d 88bd d3bd e1b8 f3bc 0335 353c
00000180: cbca c9bd 5bb4 c3bd 2836 0dbe c3c2 f8bd
00000190: d0e5 53be be04 2ebe a9cf edbd 7ad3 c5bc
000001a0: 23d0 923d b4d8 f63d fff2 0a3d 3ad6 763d
000001b0: b2e8 013e c7f1 ba3c d50e bbbd e5ee 56bd
000001c0: 09bc 03be 19c6 5e3e 983c 1ebb 4a8d 94bd
000001d0: d284 833d 8a71 283e 799c 9ebd 395a 01be
000001e0: ec6e 74bc 87b1 d33c 8846 f63d ab65 bf3d
000001f0: 9b39 a9bd ed4b 923d 85cb 9d3c 7efb 163e
00000200: 373c a4bd cc2f 153e 0391 c9bd baeb 94bd
00000210: 5a12 7e3e da66 15be 0d45 133e 27dc 14be
00000220: 2de5 74bd db9c 9e3d dc15 77bc 930d 243e
00000230: 6ce4 21bd 7d50 43be c844 b1bd 5ef3 043d
00000240: 11d8 4f3d 1f34 113e 7590 133e e302 9b3c
00000250: 1a7c 16be 5b55 34bd 3058 e8bd b539 e3bd
00000260: ebfc 1ebe 6f10 243e b20e ab3c 17f9 153e
00000270: 40d3 063e 4bc9 1dbe 9efe e93d 0526 913d
00000280: 1072 b5bd 5bfb 2e3c 3f72 0dbd 72d6 583d
00000290: ba2f 333e 3c1f 07be eb5e 2e3d d341 b73d
000002a0: 8369 11be f26e 6f3d da74 37be 4b9b 113e
000002b0: 7242 b63d 4811 34bd bfab bf3d 5098 043e
000002c0: d29c dd3d fe94 9ebd 4dca 2dbd ba08 123e
000002d0: 205c a3bd 0658 c5bd 5f51 68bd 2178 193d
000002e0: e3af a5bd 000a 3f3c e3a8 a23d f85a 9cbc
000002f0: f481 053e 3672 97bc ba04 b63c b9a9 b0bd
00000300: af26 753d 5836 2bbd 2c32 ffbc ccc0 dabc
00000310: 3304 ea3d fc5f 413e 55b4 0ebe 1f6a 46bc
00000320: 4725 ddbc b12d 59bd de7a 033e 5de1 ea3d
00000330: 8a8d 98bd 7f86 0a3e 79bd 51bd c5e6 cbbd
00000340: 598c d7bd ddf1 f1bd a0be de3d e961 ee3d
00000350: 49fa 03be 8da2 fb3d a614 36be 0d7a 0e3e
00000360: 49fe c1bd 406d 133e 591c dfbb ccc4 e13b
00000370: 4f0a 083e 66f3 e4bd da18 dd3b fc26 7ebb
00000380: 53ec 3cbc 7cfb f8bd f0a9 0abe b490 1d3e
00000390: 8ad3 1bbe b167 f8bd 3097 0cbd 325a 9e3d
000003a0: 2819 993d 27de e43d 0014 02be 53f3 21bd
000003b0: e530 a53b 9ddd 85bd 6d9d 8f3d 4560 283e
000003c0: 8353 dc3a 8d2a cd3d 5b74 0bbe 1c3b 17bb
000003d0: 8915 783c fcda d33d ea24 26bd c222 d33d
000003e0: c856 c6bc 46df 263d 0b5c d33d 7a44 c7bc
000003f0: a89e 8d3e d723 cfbc ecf5 0a3e 9af8 093e
-0.053616636 0.15841514 0.026777301 0.18230952 -0.203271 -0.030103456 -0.1037855 0.016401881
-0.07755986 0.15580492 -0.110844344 -0.16461468 0.013231616 -0.14409155 0.13399017 -0.0772107
-0.109968424 -0.19099085 0.07042396 0.1021963 -0.085774176 -0.10904051 0.08469871 -0.17585471
0.16134055 0.07883556 0.012913016 0.07153267 0.08922864 0.079613775 0.044600964 0.13923228
-0.15909095 0.1594417 -0.05076922 -0.026875574 -0.13318709 0.16673698 -0.08457262 0.15164755
-0.09148809 -0.037181765 0.08784941 0.04811118 0.1336368 -0.005794366 0.04584269 -0.059102178
-0.094692506 -0.06405105 -0.09891007 0.07523262 -0.17635019 -0.16511568 -0.13613275 0.119259916
-0.1368179 -0.020933213 0.13861923 -0.06509114 -0.17894852 -0.12847066 -0.11431628 -0.050101485
-0.06346354 0.10181268 -0.15369754 -0.0015717812 -0.021372624 -0.1392544 -0.06381277 -0.17022394
-0.1280537 -0.021610508 -0.07595743 -0.16423486 0.023054374 -0.05735496 0.14645474 -0.100611426
-0.15226398 -0.13250016 -0.066918336 0.17193672 0.010273226 0.18808295 0.1420723 -0.104833245
-0.06343476 0.14061831 0.008565051 -0.058153 0.092431396 -0.103388846 -0.029751243 0.011060002
-0.09853133 -0.095558845 -0.1379019 -0.12146523 -0.20693135 -0.16993997 -0.11611874 -0.024148691
0.07168605 0.120530516 0.033923145 0.060262896 0.12686422 0.022820367 -0.09133688 -0.05247392
-0.12864698 0.21755256 -0.0024145003 -0.07253511 0.06421818 0.16449562 -0.077446885 -0.12632073
-0.014919024 0.025841488 0.120251715 0.093455635 -0.082629405 0.07143388 0.019262085 0.14744374
-0.080192976 0.14569014 -0.09842112 -0.07271524 0.24811688 -0.14590016 0.1438181 -0.14537106
-0.05978887 0.077447616 -0.015080895 0.16020803 -0.03952448 -0.19073673 -0.08655697 0.032458656
0.050743166 0.14180039 0.14410575 0.018922275 -0.14695778 -0.044026714 -0.113449454 -0.11094991
-0.15526168 0.16021894 0.02088103 0.14645801 0.13166523 -0.15408818 0.114255175 0.0708733
-0.08859646 0.010680045 -0.03453278 0.052938886 0.17498675 -0.13195509 0.04257099 0.08948102
-0.14200406 0.058455415 -0.17915669 0.14219396 0.08899392 -0.043961793 0.0935893 0.12948728
0.10820927 -0.07743262 -0.042429257 0.14261141 -0.07976556 -0.0963593 -0.056718227 0.03746808
-0.08090188 0.011660099 0.07942369 -0.019086346 0.13037854 -0.018487077 0.02221905 -0.08626122
0.059851345 -0.041799873 -0.031151854 -0.02670326 0.11426582 0.18884271 -0.13935979 -0.012110262
-0.026995314 -0.05302209 0.12839839 0.11468766 -0.074488714 0.13527869 -0.051206086 -0.09956125
-0.10524816 -0.1181371 0.108762026 0.11639769 -0.12888445 0.122868635 -0.17781314 0.13913746
-0.09472329 0.14397144 -0.006808799 0.006889915 0.13285182 -0.11179237 0.0067473473 -0.003878056
-0.011530953 -0.12157342 -0.13541389 0.15387231 -0.15217414 -0.121291526 -0.03432387 0.07732047
0.07475501 0.11175185 -0.12702942 -0.039538693 0.005041229 -0.0653641 0.070124485 0.16442974
0.0016809556 0.100178815 -0.13618605 -0.0023076003 0.015141853 0.10344502 -0.040562548 0.10309364
-0.024211302 0.040740274 0.1032029 -0.024324644 0.27660108 -0.025285644 0.13570374 0.1347374

1.6.bias f4 [24]
00000000: 036a a8bc 642a bfbc 691c cebc 9ded d63d
00000010: b671 ee3d 3c03 883d d260 4c3e 08e9 c7bc
00000020: fe63 c73c b95c d3bc 5001 fbbd 17ba 4c3e
00000030: d212 013d 6c1e a83c b3fd a33c 28fc 15be
00000040: 41e5 4f3e 0a83 38be 214f aabd bdb2 e7bd
00000050: 617a 5dbe 16c5 163e d7ed 8b3d 3d40 9dbd
-0.020558363 -0.023335643 -0.025160031 0.1049454 0.116427824 0.06641242 0.19958809 -0.02440311
0.024339672 -0.02580105 -0.1225611 0.19992863 0.03151209 0.020522319 0.020018434 -0.14646971
0.20302297 -0.18018737 -0.08315874 -0.113133885 -0.21628715 0.1472362 0.06832474 -0.07678268

1.8.weight f4 [24, 24]
00000000: 8df5 16be 2195 67bb 189b 483e 8490 0f3c
00000010: 7a4e 233e d0ec f13c 4fe1 d03d 4c98 093e
00000020: 385b 01be 8d75 f43b 925b 7d3e 5c6d a23e
00000030: 6b64 acbd 9629 173d 8a66 183d 1165 4b3e
00000040: 0740 9e3e 8bb0 a0bd 7335 f33c d4d7 c23c
00000050: fe22 8d3e 996b 97bd d363 e5bd 6908 2d3b
00000060: 4225 59be df79 6abd 65fb 0c3e 5363 9dbc
00000070: 595d 283d 47eb ba3d 502d 473e 264d 823d
00000080: 657d 01be 585f 2f3e 8853 353e 96f0 4d3e
00000090: 5b40 32bd 8b58 823d 9d32 95bb 6786 27be
000000a0: c404 773e baf3 ce3d 3488 563e bd28 2dbe
000000b0: 9369 10be 37e2 09be cef9 073c f202 7cbe
000000c0: 682e 003e 4bbf 95bd 4356 6eba 8efc 09be
000000d0: c7d2 083c 6ea7 62be 484d 4dbe f5ef 3bbe
000000e0: d5ed d33d c8b4 103d 6c5d 743c a902 e9bd
000000f0: 584e cf3c e45f 18be ec34 983d 3425 03be
00000100: ec03 263e 0986 1c3d 2287 5cba abeb 023e
00000110: b971 47bd 9d61 d5bd 2960 383e 47a1 a1bd
00000120: 5d9b 59bd 1105 2ebe 16b5 c53d 3a7a 2f3e
00000130: a4f3 70bd 7a37 143e 8c20 14be ec54 f73c
00000140: f583 213e ce1a c53d dbcf 05bd 57c6 3bbe
00000150: 5ad2 08bd 555e 193e f240 b8bd e6ff 923c
00000160: e686 8f3d 15f5 573e d7cc 33be 4efe 8cbd
00000170: bf6b 7bbe a9ce 7fbd eb38 473c a4c7 3fbd
00000180: 2fa4 40bd 6388 75be e624 913d 824d 94bb
00000190: 468f 11bd c498 613e 545c ad3c 0f9b 3ebc
000001a0: be6d ea3d 5964 81be bb4f 373e 90e5 95bd
000001b0: 023d 303e 91ae 743e f2b8 2f3e 3061 13be
000001c0: 7f20 883c 9fe0 e13d 27aa 3c3d 6b5b 24be
000001d0: 2372 41be ad8f 443e f5af c03a 462d 3f3e
000001e0: cf0c 843d 442d 0e3e 359a 07be 3f8c b33b
000001f0: 4d6e e83d 46e0 07be 1d4b 46be c95c 023e
00000200: 581b b7bc 4944 6bbe f070 563e eba7 18be
00000210: 1a26 dabd 1736 fd3d 913a c0bd fbe1 463d
00000220: 10e1 4fbe 80e3 4b3e 4866 223e 3c24 1abd
00000230: bf5a 0cbc 5c47 d33d 40d9 1bbe e5b3 52bd
00000240: 1c7f 383e e982 54bd a0bf 89bd 0fbd 0a3e
00000250: 2be4 313e 5ac6 5b3d 5ab0 f33c 441f 2f3e
00000260: 4b50 193d 29fa 143e 7278 80bd b374 fabc
00000270: 1f10 863e 5628 31be 846d 1dbe a56f febd
00000280: 3ed1 64bd 8ec0 fabc a5e9 66be fcda 26bc
00000290: d215 973e 288f 97be 1bf6 0f3e c00e 813d
000002a0: d323 0e3d b68e 193d 967f 183e ab9e 233e
000002b0: 2598 61be 6839 dfbd db28 39bd f0cc 9d3d
000002c0: 223f 2bbd aa92 573e 7f24 63be c580 2b3e
000002d0: d3f4 49be cc55 7abe 4379 903b aece 613d
000002e0: 7e25 24be 70e5 b73d 6957 6fbd 6da7 4e3e
000002f0: 10e2 263e 92e7 253b 3a84 493e e5c7 a7bd
00000300: e06f 5a3e ab6c 39be 318d 36be 4ffc 17be
00000310: f6bf 463e c5a5 3e3e e216 313e caf5 fa3d
00000320: ef05 76bd affa 303e f9ae 4dbe b1e5 01be
00000330: ac6e 583c f93b e13d c2cb 01be 1610 39be
00000340: 86d4 28be 2a38 2d3e 4a43 3abe 360b 6dbd
00000350: 514a d63d a6b2 d8bd 21d3 263e 4761 2d3e
00000360: dfdc 1d3e f07c a9bd 4ab3 59bd 76aa 0bbe
00000370: 27b8 283d 79d0 53be 8f1c b0bd bb23 9bbd
00000380: e060 753e 6f99 1a3e 262f 1dbe fed6 d7be
00000390: d22e 0d3e 52b1 22be b3a5 8ebd 7407 b9bc
000003a0: 2ae0 85bd d396 a13e 3d3d 633c 97eb 083e
000003b0: afe4 ba3b f1d6 223c 368b 73be d2ea f6bd
000003c0: 6fd2 d6bd b230 4d3e fe6a 103e 9ffb f23d
000003d0: 6637 453e 7d07 d2bd 6dff c3bd f22e 88be
000003e0: 9f60 41be a886 00be b17b 243e 1f11 5abe
000003f0: 83b2 f4bd f363 803d 732e 253e b14a 5a3d
-0.14742108 -0.003533669 0.19590414 0.008762483 0.15947905 0.029531866 0.10199224 0.13437003
-0.12632453 0.007460302 0.24741963 0.3172406 -0.08417591 0.036904894 0.037207164 0.19862773
0.30908224 -0.07846173 0.029688573 0.023784555 0.2756576 -0.073935695 -0.112006806 0.0026402718
-0.21205619 -0.05724513 0.13767774 -0.0192124 0.04110465 0.09126907 0.19450879 0.06362371
-0.1264549 0.17126215 0.17707646 0.20111308 -0.043518405 0.063645445 -0.0045531527 -0.16359864
0.24122912 0.10105081 0.20950395 -0.16910072 -0.14102773 -0.134652 0.008299304 -0.24610499
0.12517703 -0.07311877 -0.00090918335 -0.13475248 0.0083510345 -0.22134182 -0.20049012 -0.18353255
0.10348097 0.035328656 0.014914852 -0.113774605 0.025305912 -0.1488033 0.07431969 -0.1280716
0.16212434 0.038213763 -0.00084124703 0.12785213 -0.04869244 -0.10419009 0.18005432 -0.07892089
-0.05312668 -0.1699412 0.0965368 0.1713647 -0.058826104 0.14474288 -0.1446554 0.030191861
0.15772994 0.09624253 -0.03266893 -0.1833738 -0.033403732 0.14977391 -0.08996762 0.017944288
0.07008152 0.21089585 -0.17558609 -0.06884442 -0.2455282 -0.062452946 0.012159566 -0.04682125
-0.047031578 -0.23977809 0.07087116 -0.004525841 -0.035537027 0.22030932 0.02116219 -0.011633649
0.11446713 -0.25271872 0.17901509 -0.07319176 0.17210773 0.23894717 0.17160395 -0.14392543
0.016617058 0.11029171 0.046060707 -0.16050498 -0.18891196 0.19195433 0.0014700877 0.18669614
0.064477555 0.13884455 -0.13242419 0.005479365 0.11349163 -0.13269147 -0.19364591 0.12730707
-0.022351906 -0.22975267 0.2094152 -0.14907806 -0.106517985 0.123638324 -0.09386171 0.048555356
-0.20300698 0.19911003 0.1585933 -0.037632212 -0.008566557 0.10316345 -0.15219593 -0.051441092
0.18017238 -0.05188266 -0.06726003 0.13548683 0.17372195 0.05365596 0.029747177 0.1710177
0.03743009 0.14548554 -0.06272973 -0.030573225 0.26184174 -0.17300543 -0.15373808 -0.12423638
-0.05586361 -0.030609395 -0.22550066 -0.010184046 0.29508835 -0.29601407 0.14058726 0.063016415
0.034702133 0.037489615 0.1489242 0.15978496 -0.22030695 -0.10899621 -0.04520498 0.07705104
-0.041808255 0.21052042 -0.22181891 0.1674834 -0.197223 -0.24446791 0.004408987 0.055128746
-0.16029927 0.089793086 -0.05843297 0.20181055 0.16297174 0.0025315029 0.19679347 -0.08192424
0.2133174 -0.1810786 -0.17827298 -0.14842342 0.19409165 0.18617924 0.17293885 0.12253912
-0.060064252 0.17283128 -0.20086278 -0.12685277 0.01320998 0.10997767 -0.12675384 -0.18072543
-0.16487321 0.16915956 -0.18189731 -0.05787202 0.104633935 -0.105809495 0.16291477 0.1693164
0.15416287 -0.08275783 -0.0531495 -0.13639244 0.041191246 -0.20684995 -0.08599197 -0.075751744
0.23962736 0.15097593 -0.15350017 -0.42156214 0.13787392 -0.15887955 -0.06965198 -0.022586562
-0.065368965 0.31560382 0.013869581 0.1337112 0.0057035307 0.009938941 -0.23783574 -0.12056507
-0.10489356 0.20038107 0.14103314 0.11864399 0.19259414 -0.102553345 -0.09570203 -0.26598316
-0.18884514 -0.12551367 0.1606281 -0.21295594 -0.11948111 0.06269064 0.16131 0.053293888

1.8.bias f4 [24]
00000000: 077a 1e3d 6d24 3a3e c088 773d b5fb afbd
00000010: 46c0 bebd 4dcf 46be 1214 4fbc a6e7 363e
00000020: beb3 983c 8d33 99be b4a5 03bc 608f b73c
00000030: 98e2 743c 6e12 2cbe 32ec fc3c 7eeb b23e
00000040: b960 033e 2a2a eb3d 49e6 8bbe 4094 9a3d
00000050: 075b adbb 0fce f43c 56c3 61bd d487 20be
0.038690593 0.18177958 0.06043315 -0.08592931 -0.09314017 -0.19415016 -0.0126390625 0.17861804
0.018640395 -0.29922143 -0.008035112 0.022407234 0.014946602 -0.16803905 0.030874345 0.3494529
0.12829866 0.114826515 -0.2732413 0.07547808 -0.0052903923 0.029883413 -0.055117927 -0.15676814

1.10.weight f4 [12, 24]
00000000: 6e35 7ebe 4dab 8fbe fb1b a83d 238c 5c3e
00000010: 1f32 03bd b336 803e c8cf 123e 37e0 97be
00000020: 4bfc 7d3e 7026 973e 258e 19be 439d 823e
00000030: 1a4f 07be fd09 b5bc 9ab8 de3d dbd0 c3be
00000040: 47c6 5dbe 3393 083e b271 ee3c 8d51 4dbe
00000050: 94b0 25bd 4b6a 91bd eae4 223e 349c 2a3e
00000060: 0091 503c b2ff 59be d101 cbbd 02b8 803d
00000070: 226f 783e 690f 433e c067 7fbd 66df 54be
00000080: fd18 213e 9b54 6b3e 7e1c 153d b01d 033d
00000090: 441f 18be 44dc 31be 8e1a de3d 1c9c ccbe
000000a0: 1d4c 90bd 110d dfbd 2ba8 3c3e 043f 2bbe
000000b0: 7c81 38bd a3fd 0c3e 4bdc 873e 3d79 cf3d
000000c0: 646c 9dbd 14ad 383e f030 92bd 2a94 9f3d
000000d0: d2a8 4cbe 004d babd 65d1 343e 502f 713e
000000e0: c803 b83d b6c6 a63d e369 193e 46f5 a73d
000000f0: 432c 95bd e80c e6bd d99e 7a3e edaf 993e
00000100: 3406 343e a992 833d ced1 43be b849 d2bd
00000110: cde3 b93d 5445 303d b335 a5bd 6952 2bbe
00000120: 2d1d 3dbb 4aed 28be c45f 51bc 5a62 443e
00000130: 26c7 f33d e320 03bd 6273 963e 3d4a 8fbd
00000140: 55c0 a73d 0af5 28be 75f4 72be 3c6d 61be
00000150: 38de 293e 90ad 12be e054 56be a685 efbc
00000160: 9874 4d3e 121a c33d 995d 3fbe 7937 0abe
00000170: f963 b2be 16ef 8d3e 5ca7 5dbd 6a4a 9ebb
00000180: 4354 7dbe 4b0d 72bc c73b 1cbd 04a1 623d
00000190: 111e 0abe 1912 e3bd 719b 11bd 7fb6 613e
000001a0: 4393 383e d671 133e 8f56 7bbe 5a22 273e
000001b0: 2513 b3bc 93d3 3dbd 8a72 83be 8d3b 583e
000001c0: 176a b2bc 0124 b4bc 62a9 93be e1bb 7cbd
000001d0: d437 43bc 3465 6c3e 5e3f f23d 2f20 b23d
000001e0: cb97 833e 1d00 343e a6c6 613e 0c68 37be
000001f0: 90a1 9abe 29dd 76be 74a8 5d3e d00a 1a3e
00000200: 5b7b 7abd 6583 62be 0ba9 d5bd f48f 133c
00000210: 55e5 35be b20e 8c3d 514d 163e 2a11 02be
00000220: 90fc c3bd 26de 0fbd a538 8fbd 027b 4d3e
00000230: 6900 30be 0a0e bd3e 08f3 4a3d 3055 30be
00000240: 8e03 5b3e d0eb 11bd 0f94 103d 1063 273d
00000250: 4a0e 32bd 0442 f93d 6bfd 6b3e a158 d13c
00000260: 9a0e dc3d 0db3 8fbe e8ca a4bd 5aad 70be
00000270: d31a b5bd 1eed 94bd f0ed b43d a12b 0c3e
00000280: 5c0d e03d ac3f 08be 5fcd 40be 070a 3ebd
00000290: 4f3d 3bbe 21de 0d3c e0fb 16be 426c 8d3b
000002a0: eaf6 1cbd d3db 613e 9bab 993a b0e3 393e
000002b0: a656 343e 789b 1e3e abe4 44be cd84 61bd
000002c0: 9f99 e4bd 78a4 a73d cb9d 83bd 9c56 adbc
000002d0: 1ba7 6a3e a9ec 4d3e 9fca 6c3e 5372 7d3c
000002e0: 4291 20bd 5227 9c3d 2425 c2bd a22d a13e
000002f0: c24f a73e 2ec0 bbbe bd7b c03d 4a4a d53b
00000300: bee1 74be 4049 2c3d ad6c d9bc f6e5 2b3e
00000310: 0a5b cdbd e83b 073e 8475 9abe 91e6 8c3d
00000320: 434c dfbd f5ef adbc 5e6f 963e 7998 85bc
00000330: 80a5 41bd 30c1 3dbb 83df 303e 9cb3 8b3d
00000340: 6bac 85be 6f87 2d3c 5d93 753e 2e1d b43d
00000350: d755 d3bc eac8 1fbd 3001 7e3e 089e a63d
00000360: 91fc 973e 5b73 773e 4845 3dbe 7a79 cbbd
00000370: 50b6 3b3e ba18 8d3d 8ae7 f63d 1930 48bd
00000380: 7371 76be 026e 9ebe 6a36 0fbe 4ac1 7fbe
00000390: 7d49 5cbe c9a5 593d 9b96 40bd 4adb 6a3e
000003a0: 40f4 e0bd 67b2 63bd 1b8a afbd 1efe 763d
000003b0: 1ad5 9bbe 381b d43d 9350 7c3d 3477 33be
000003c0: 5d64 aabd 6545 98bd 87c8 213e fa1a 41bd
000003d0: 0f88 82be 4d06 f7bc d809 3f3e 6d55 733e
000003e0: db0f 34bd 100b 5dbd 669a 7cbe 48d7 cebd
000003f0: 5e19 263e 09ad fcbd 8905 3dbd 19da 193e
-0.2482507 -0.2806038 0.08208462 0.21537833 -0.03203022 0.25041732 0.14337075 -0.2966325
0.24803273 0.29521513 -0.1499563 0.25510606 -0.13213769 -0.02209949 0.10875054 -0.38245282
-0.21657668 0.13337402 0.029106949 -0.2005064 -0.0404516 -0.07100352 0.15907636 0.1666115
0.012729883 -0.21288946 -0.09912456 0.06285097 0.24261144 0.19048847 -0.062354803 -0.20788345
0.15732189 0.22981493 0.036404125 0.032010734 -0.14855677 -0.17369181 0.10844909 -0.39962852
-0.070457675 -0.10891164 0.18423526 -0.16723257 -0.04504536 0.1376863 0.26535258 0.10130546
-0.076866895 0.18034774 -0.0713824 0.07791932 -0.19986275 -0.09096718 0.17658003 0.23553205
0.08985096 0.0814337 0.14981799 0.08201079 -0.07283833 -0.112329304 0.24474658 0.30017033
0.17580491 0.064244576 -0.19123003 -0.10267967 0.09076653 0.043034866 -0.08066883 -0.16730656
-0.0028856501 -0.16496769 -0.01277918 0.19178143 0.11903219 -0.032013785 0.29384905 -0.06996582
0.08190981 -0.16499725 -0.23726065 -0.22014326 0.16588676 -0.14324021 -0.20930815 -0.029238533
0.20064008 0.09526457 -0.18688048 -0.13497724 -0.34841898 0.2772147 -0.054114684 -0.004830648
-0.24739175 -0.014773677 -0.038142946 0.055329338 -0.13488032 -0.11087436 -0.03554863 0.22042273
0.18024926 0.14398894 -0.24544738 0.16321698 -0.021859715 -0.04634435 -0.25673324 0.21116467
-0.021779103 -0.021989824 -0.28840166 -0.061702613 -0.011915166 0.23085481 0.118284926 0.08697545
0.25701746 0.17578168 0.22048435 -0.17910784 -0.30201387 -0.24107803 0.21646291 0.15043187
-0.061152797 -0.22120436 -0.10432633 0.009006489 -0.17763264 0.068387404 0.14677931 -0.1270186
-0.09569657 -0.035123967 -0.06993226 0.20066455 -0.17187656 0.36924773 0.04954818 -0.17219996
0.21388075 -0.03562528 0.03529745 0.040865958 -0.04347066 0.121707946 0.2304589 0.025554957
0.107449725 -0.28066292 -0.08046514 -0.23503628 -0.08843007 -0.07271789 0.088344455 0.13688518
0.10940048 -0.13305539 -0.18828343 -0.04639628 -0.18285106 0.008658917 -0.1474452 0.004315884
-0.038321413 0.22056513 0.0011724116 0.18153262 0.17611179 0.15488994 -0.19227855 -0.05505829
-0.111621134 0.08185667 -0.06426581 -0.021159463 0.22915308 0.2010981 0.23124169 0.015469152
-0.03920103 0.07624687 -0.0947974 0.31480128 0.32678038 -0.3667006 0.09398601 0.0065091
-0.23914239 0.042062044 -0.026541078 0.16786942 -0.1002713 0.13206446 -0.30167782 0.068799146
-0.10903218 -0.021232584 0.2938184 -0.016308056 -0.047276974 -0.002895426 0.17272763 0.06821367
-0.26108107 0.010591372 0.23981996 0.08794628 -0.025797768 -0.039009966 0.2480514 0.08135611
0.2968488 0.24165098 -0.1848346 -0.09935279 0.18331265 0.06889482 0.12055881 -0.048873994
-0.24066715 -0.30943304 -0.13985601 -0.24976078 -0.21512409 0.05313662 -0.04701863 0.22935215
-0.10984087 -0.05559006 -0.085712634 0.06030094 -0.3043602 0.10356754 0.06160028 -0.17525941
-0.08319924 -0.07435111 0.15799151 -0.047144867 -0.2549443 -0.030154372 0.18656099 0.23763056
-0.043960433 -0.05396563 -0.24668273 -0.100996554 0.16220614 -0.12337691 -0.046147857 0.15024604

1.10.bias f4 [12]
00000000: 885f aabe e8e3 bfbe 01b1 e33d dbf6 b6bd
00000010: dcdb fa3d 81b2 743c b6af ab3e e083 39bd
00000020: 9d05 c6bc ee1e 683e 9ba6 5bbb bd4b 833c
-0.3327601 -0.37478566 0.11117745 -0.08933803 0.12248966 0.014935137 0.33532494 -0.04529178
-0.024172598 0.22668049 -0.0033516053 0.016027326

1.12.weight f4 [4, 12]
00000000: 4f1c 263f e74b e33e d510 fd3d cfa2 04bf
00000010: 10b3 573d db4b b0bd 5d72 2abf 4f40 2b3f
00000020: f29b 9a3e 1f1a 33bf 5e04 b6be 2f0e 19bf
00000030: cf4d 253f 6565 563f 8726 e0be af62 d0be
00000040: 548f f6be 4871 86bd 8acc 03bf 7f68 ed3e
00000050: 61f9 dd3e ff4a 9fbe 3275 41bf 77f4 13bd
00000060: 79db 243f 7cd9 ec3e e439 78be 19a5 d3be
00000070: 1349 b03d a69c 3fbf 582a 79be d194 333f
00000080: 095f c13e 0864 21bf bcd9 21bf ffb5 a1be
00000090: b652 423f 2051 f93e 43e1 abbe 7a29 01bf
000000a0: d4bd 1dbd c47e 08bf 76a6 1cbf 6747 b23e
000000b0: ddb9 8fbd 80de 91be 0e9d 4abf d9ec a5be
0.64886945 0.44393846 0.12356726 -0.51810926 0.052661 -0.08608218 -0.66580755 0.66895
0.30197102 -0.6996173 -0.35550207 -0.5978727 0.6457185 0.83748466 -0.43779394 -0.4070029
-0.48156226 -0.065645754 -0.51483977 0.46368787 0.43354324 -0.31111905 -0.7556945 -0.03612181
0.6439739 0.46259677 -0.24240834 -0.41336897 0.08607688 -0.748484 -0.24332559 0.7014895
0.3776782 -0.6304326 -0.6322286 -0.31584165 0.75907457 0.48694706 -0.335703 -0.50453913
-0.038511112 -0.5331843 -0.611915 0.348201 -0.070178725 -0.28490067 -0.79145896 -0.32407263

1.12.bias f4 [4]
00000000: b809 07bf 2b6d 5ebf ae14 2dbf aa9e 0abf
-0.52749205 -0.8688533 -0.6760968 -0.5414835
