JSP/trained models/validated_6_90.pt (torch_old, 27293 bytes, 16 tensors)

0.0.weight f4 [5, 5]
00000000: fceb 803f 9682 873f 7e86 853f 4aa0 763f
00000010: b3fe 823f e434 8d3f 7d03 8a3f c239 763f
00000020: 2f91 843f 09a6 8f3f b90c 833f e5ec 803f
00000030: 9c72 6a3f 8f31 833f 7406 813f 11ae 7b3f
00000040: ba65 863f 1f2e 6f3f 9922 813f 35b1 853f
00000050: 2de0 853f de69 863f d77a 823f 4c55 973f
00000060: f647 8d3f
1.0072017 1.0586727 1.0431669 0.9633833 1.0233978 1.1031766 1.0782315 0.9618188
1.0356807 1.1222545 1.0238258 1.0072294 0.9158113 1.0249499 1.0080094 0.9831248
1.0499794 0.9342975 1.0088683 1.0444704 1.0459038 1.0501058 1.0193738 1.1822906
1.1037586

0.0.bias f4 [5, 5]
00000000: 2805 abbd 8c12 0c3c a98c 4c3d 1e7c 30bc
00000010: 7504 ffbd d686 2d3e 8355 183e d1d0 263d
00000020: 9cfe 8cbd 2b6c 54be 2603 643d 8991 f43d
00000030: 4de2 303d 2e91 b2bd 4c3a 47be 7098 c83c
00000040: aeae 8e3d ae25 c63c e421 e3bb 6848 06be
00000050: 520a 12bd ce03 ff3d 7c5c eabc 118a c8bd
00000060: c2b7 f8bd
-0.08350593 0.008549344 0.04993883 -0.010771779 -0.12452022 0.16945967 0.1487637 0.040726487
-0.068845004 -0.20744388 0.055667065 0.11941821 0.043184567 -0.08719097 -0.19455832 0.02448675
0.06966911 0.024187889 -0.0069315303 -0.13113558 -0.035654373 0.124518976 -0.028608553 -0.09791959
-0.12144424

1.0.weight f4 [48, 25]
00000000: e6e8 23be b15e 443e 08be c13d 48c6 e93d
00000010: 05e8 acbd 5fa9 523d 060f 863d 62b0 0c3d
00000020: e85b 19be 4b79 07bc c651 18be 5aa1 f0bd
00000030: eeb7 953d 91df e3bd 984f 633d 55e3 19be
00000040: 60a2 b33d 878c 11be 2d7d 383e c1b4 433e
00000050: 7fcd 9cbd b29b 3cbe 5971 54be d047 133d
00000060: 04ed 1d3e d105 f3bc 2f7b b6bd be6a 13be
00000070: 9cff 07bd ac96 59be 6d03 553e 3ec8 693e
00000080: 1a40 08be 78d2 b63d 3943 273e 183a cbbd
00000090: d027 ccbc 6165 00be c9bf 7f3b 5006 f0bd
000000a0: b84a ffbd c1a4 a1bd 83ca dc3c 9b70 85bd
000000b0: 27dd 79bd ee19 b93b 0c79 4ebe 83a6 bb3c
000000c0: 1caf 7cbd 6ce0 b3bd 82f5 4e3e 6083 3ebe
000000d0: 6af2 ed3d 3024 3e3e 05d7 b63d 544a 15bd
000000e0: 1d7b e23d 5906 b23d 5996 623d 742d 24bc
000000f0: 13a9 4d3e ae5b 0a3d 1a3b d23c 8d66 053e
00000100: 9c21 313e d10e 12be 0b4b 0b3e 8b35 b33d
00000110: b157 e13d 2f02 6e3d 9299 413d 43b1 d1bc
00000120: 0428 103e 456f b1bc 32f0 6bbc 0775 d93c
00000130: f4de 22be 292c cf3d 66d3 d7bd 6198 25bc
00000140: 2892 e83d 172c 11be 3678 e83d 600f c0bd
00000150: f9d0 43bd 19c4 9d3d b4f7 1b3e db9e 37be
00000160: d690 24bc f2a7 6f3e 5ba9 28be cbbc 35bd
00000170: 75dc b6bc ad65 d53d a90d bbbd 2641 bbbb
00000180: 1be5 e43d f1c3 ca3c e724 2ebe bbd5 303d
00000190: cdd0 bf3d 11f5 2bbd 11b0 bd3d c69b ed3d
000001a0: be8c 43be bb97 a33d 882b 57be 7010 da3d
000001b0: 254f f5bd b092 653e 301f bc3d 01da 32bd
000001c0: c116 2d3e 0aef 693d 794a 263e e032 0abe
000001d0: 92ad a43c 2618 44be cf2d 953d 6715 b83d
000001e0: 18f0 cd3b 1a0f 7abd 8733 cc3d b657 3c3d
000001f0: a8a5 3f3e 5e7d 0c3e 5a1c cb3d 7292 b93d
00000200: 5d6b b7bd 039c 423a aee5 1cbe 83db 32be
00000210: d4d5 e4bd 3449 b33c c8a1 293e d366 353d
00000220: cc48 92bd 0e4b 943d 6745 073e 83c0 dd3d
00000230: d1f4 1f3d 4682 103e fa5c 0fbe ef9e e33d
00000240: 5bd0 51bd 2cb4 babd e176 d13d 72d4 2b3e
00000250: 1023 a0bd 6843 3cbe 7dd9 9e3d b0eb 47be
00000260: 4e15 1dbe 7298 a5bd 18af 623e c86d e5bd
00000270: 8f3a 41be 1951 273d 9ff0 ca3c 6c3b eabd
00000280: 552d dbbd 7702 213d 3884 95bb 370e 143e
00000290: ca25 77bd b3a5 3e3e 03f2 3f3c e005 a73d
000002a0: afb4 2f3c c456 65bd e863 1fbc 2831 84be
000002b0: a9fd 1c3e 808d 993d 4902 fabd 12d5 073e
000002c0: 9015 813c 0237 10be d600 1b3d 5233 f43d
000002d0: 4319 23be 91d7 06be d9c4 333d ac92 193e
000002e0: b2a5 bb3d 34bb b7bd f9d0 48bd de06 b7bd
000002f0: 9c5f be3d 5675 bc3d 30b9 653d 2216 f43d
00000300: 605d 813b f409 8cbd 7ee7 463e af1d 863e
00000310: 3ad0 41be e1c0 193d 9198 c93d ed1b 5d3e
00000320: b152 cb3d 84f7 44bc d78d 003e afed 623d
00000330: 8fbb 053e 2701 2e3c ae88 47bd a937 0a3d
00000340: d155 0e3e e57d a53c d35f 42be 88fd 673e
00000350: d234 193e 2efb 0a3e 87dc 933c 1d03 b03d
00000360: 51c0 b7bd fc1b 5dbd fef7 c0bd 4b8c 24bd
00000370: 317e 2b3e 0142 743e 404b 423d 48b1 443e
00000380: 9b09 8bbd fb66 0dbe 9864 cc3d 2bc1 78be
00000390: ae14 d73d 9127 183e 75ee 0bbe e6ac cb3a
000003a0: 11e8 66bd 11de 5a3e 2a83 593d d01b b5bd
000003b0: d532 063d 0ae9 713d ad17 913b 5854 3a3e
000003c0: 6d97 40be db0f 4ebe 90da f63c afac 453e
000003d0: ebfb 003e b495 a93d c7dc 5abe 6188 f63d
000003e0: 2642 b0bc c621 283e 7cbc e7bd 8e24 9cbc
000003f0: 1c1a 53bd edb3 06be 50b1 4e3d c510 343e
-0.16006812 0.19176747 0.09460074 0.11414772 -0.08442692 0.051431056 0.06545834 0.0343479
-0.14976466 -0.008268665 -0.14874944 -0.11749525 0.073104724 -0.11126626 0.05549583 -0.15028127
0.08771205 -0.14213763 0.18016501 0.19111921 -0.07656383 -0.18418768 -0.20746364 0.035957158
0.15422446 -0.02966586 -0.08910214 -0.14396188 -0.033202752 -0.21248883 0.20802088 0.22830293
-0.13305703 0.089268625 0.16334237 -0.0992319 -0.024921328 -0.12538673 0.0039024225 -0.11719954
-0.12465423 -0.078927524 0.026952034 -0.065156184 -0.061001923 0.005648843 -0.20163363 0.022906547
-0.061690435 -0.087830395 0.20210841 -0.18604803 0.116185024 0.18568492 0.089277305 -0.036447838
0.11058638 0.08692617 0.055319164 -0.0100206025 0.20084028 0.03377884 0.025662947 0.13027401
0.17297977 -0.14263465 0.13602845 0.08750447 0.11003054 0.05810755 0.047265597 -0.02559722
0.14077765 -0.021659503 -0.014400529 0.02654506 -0.15905362 0.10115845 -0.10538368 -0.010107131
0.11356002 -0.14176975 0.113510534 -0.093779325 -0.047806714 0.07703418 0.1523121 -0.17931692
-0.010044297 0.2340391 -0.16470854 -0.0443695 -0.022321919 0.10419784 -0.09133465 -0.0057145534
0.11176511 0.024751635 -0.17006265 0.04317258 0.093659975 -0.04198176 0.092620976 0.11601977
-0.19096658 0.07987925 -0.210127 0.106476665 -0.11977986 0.22419238 0.09185636 -0.043664936
0.16903211 0.05711273 0.16239347 -0.1349597 0.020102296 -0.19149837 0.07284128 0.08988457
0.006284725 -0.06104956 0.099707656 0.045982085 0.18715537 0.13719699 0.09917517 0.09061135
-0.08956025 0.000742376 -0.15321991 -0.1746655 -0.11173597 0.021885492 0.16565621 0.044287514
-0.07142791 0.07240878 0.13210069 0.10827734 0.039051834 0.14112195 -0.14000311 0.111142986
-0.051224094 -0.09116396 0.102277525 0.1678026 -0.07819188 -0.18385088 0.07756326 -0.19523501
-0.15340158 -0.08085717 0.22137105 -0.1120258 -0.18869995 0.040848825 0.02477294 -0.11437115
-0.10702006 0.03930899 -0.004562881 0.14458548 -0.060338773 0.18617897 0.011715415 0.081554174
0.010724231 -0.05599095 -0.009728409 -0.25818753 0.15331139 0.07497692 -0.12207467 0.13264874
0.015757352 -0.14083484 0.037842594 0.11923851 -0.15927605 -0.1316817 0.0438889 0.14997357
0.09162463 -0.08971253 -0.049027417 -0.08936857 0.0929558 0.092020676 0.05608481 0.11918284
0.0039478987 -0.06837836 0.19424245 0.26194522 -0.18927088 0.03753746 0.09843553 0.21592684
0.099278815 -0.012021903 0.12554108 0.055402454 0.13059829 0.010620392 -0.048714332 0.033744488
0.13899924 0.020201633 -0.18981867 0.22655308 0.14961556 0.1357238 0.018049492 0.08594344
-0.08972228 -0.053981766 -0.09422301 -0.040172856 0.16747357 0.23853303 0.047435045 0.19208252
-0.067889415 -0.13808815 0.09980124 -0.24292438 0.10501991 0.14858843 -0.13665183 0.0015539199
-0.05637366 0.21373774 0.053103603 -0.088431954 0.03276332 0.059060134 0.004427871 0.18196237
-0.18807764 -0.20123236 0.030133516 0.19304155 0.12596099 0.08280507 -0.21373282 0.12037731
-0.021515917 0.16419134 -0.113152474 -0.0190604 -0.05153857 -0.13154574 0.050462067 0.17584522

1.0.bias f4 [48]
00000000: 9802 c5bd e81d 2abe eed3 a2bd f50c 553e
00000010: 7b34 e43c f11a 533d 94d5 173e 0912 cfbe
00000020: 97c8 7c3d d321 99be 6fc3 2f3c 2461 0ebe
00000030: 31b0 55be 003a 0fbc 7ba4 213e 4ab9 afba
00000040: 4d9e 25be f69f 853e ec13 7c3d 5e91 a8bd
00000050: 637a bdbd 3d6a f4bc 03df 013d 149d 163d
00000060: 812b 843c 5e60 dfbd 2d8b 013d a138 4b3e
00000070: c662 513d f4aa 0d3d 3ce0 abbd 268b 08be
00000080: 6491 313e e53c 133e 0157 63be e3ff a7bd
00000090: 3956 b7bd 185e d03c 42a0 883d 59fd 83bd
000000a0: 9905 99bd f5af 373e 6a50 b1bc fb67 dd3d
000000b0: 479e 8bbd b5bb a1bd 49cf 9e3e 8885 e53d
-0.09619635 -0.16612971 -0.07950579 0.20805724 0.027857056 0.051539365 0.14827567 -0.40443447
0.061714735 -0.29908618 0.010727747 -0.13904244 -0.20867993 -0.008741856 0.157854 -0.0013406661
-0.16173668 0.26098603 0.061542436 -0.082308516 -0.09251859 -0.029835815 0.03170682 0.036770895
0.016134026 -0.109070525 0.03162687 0.19845821 0.05111959 0.03458686 -0.08392379 -0.13334331
0.17340618 0.14378698 -0.22201158 -0.082031034 -0.089519925 0.025435492 0.06671192 -0.064448066
-0.07471771 0.17938216 -0.02164479 0.10810848 -0.068172984 -0.078971304 0.3101752 0.1120711

1.2.weight f4 [36, 48]
00000000: 7a79 80bc 4c9e e9bb b9bb a0bb 84c8 b2bd
00000010: 2004 74bb 8a51 003e dfb1 0abe ea0e 1c3e
00000020: 9216 ba3d 6c77 23bd 2f98 27bd 7de9 553d
00000030: fb7d a13d a2d6 97bd 4bfe 0c3e b440 743d
00000040: 740f e03d 6c1b 76bd d8ca 883b b5ec dcbd
00000050: 6b6f d73d adb5 0d3e 2c4b e6bb f355 3b3e
00000060: 726e d5bd 8d3d 623d bf3b 14be 24c3 b8bd
00000070: cc58 213e 47b1 f53d ac8b 2a3d 8ada 12be
00000080: d82a 02be 4fd9 ec3d 4157 853d 7b11 183d
00000090: 897f bdbd b87d 14be 68a9 6a3d c43d 10bd
000000a0: 1424 113d a66f d1bd bc03 0a3e d130 13be
000000b0: aa60 c1bd c31a 90bc 6bed 00be 5968 cc3d
000000c0: 2413 023e 3629 7ebd b32e ee3d 38b2 02be
000000d0: 5cf0 09be a39c 46bd 3acf 733d 0004 1f3e
000000e0: 9cfd 9e3d 99e3 5b3b 92aa 2c3e ef94 b0bd
000000f0: 4b3a 02be 7318 63bd f704 9ebd 12c0 f03d
00000100: 6783 94bc 1e6b dd3c c3ab dcbd 7739 cabd
00000110: 96bd ebbd 40d0 a3bd b60b a83d c5a4 0e3e
00000120: ff13 aeba c5c7 0dbe dd73 563d d79f 0dbe
00000130: 708a 633c 2d65 ecbc f355 0b3e ce7f 5dbd
00000140: 5d1b 693d f4e2 573c ea5d ccbd d420 bdbb
00000150: e392 4b3d 27b0 0b3e 913a a8bd a595 e6bd
00000160: d8a4 40bc 4a7c d33c 201c 2bbd a5a2 9dbd
00000170: 7c33 aabd 069c 183d 9c41 d7bd 1a2a 0fbd
00000180: 0894 a13d 5d46 a73d 8b78 02be 3164 afbd
00000190: 23c2 c93d a378 a2bd 1a97 b9bd 3e6e 54bd
000001a0: f673 15bd 498d 14bd d248 96bd 326f b0bd
000001b0: a5d6 b83d 4129 5c3d 8b83 7fbd 98ea 823d
000001c0: 0921 92bd cc62 acbd e1c7 c53d b5b7 953d
000001d0: 49c9 663d df38 123e 5de0 d8ba 77de d23d
000001e0: 1e8c 72bd 271d 353d b407 fb3d 0725 b53c
000001f0: 0988 dd3d 6c19 e3bd b9a9 cc3d 759f 09be
00000200: 982e de3c 77f4 e2bd 84c7 ffbd 2d3e f9bd
00000210: 007e a9bd 9438 563d f643 b5bc 2568 afbd
00000220: 8d15 1c3d 4e38 3e3d ddec e83d 9d59 873d
00000230: 6867 163e 4212 b93d ae99 873d f5f4 afbd
00000240: 87cb f9bb 0d08 553d eb98 923c 6eca e63d
00000250: 46a9 e23d 4d35 ac3c 10fa cf3d 9c29 abbd
00000260: 5497 24bc 9f59 00be 01d7 fb3c 0163 c63d
00000270: 7fa9 a6bd 6f87 abbc 293c 183c 9728 1dbc
00000280: 483f 15bd f628 b03c 66aa fe3d 9487 80bd
00000290: c1af c43c 61fd 15be 5cf3 523d 5132 f13b
000002a0: c962 653c 9d8f b63d 607a d53c 2fe4 68bd
000002b0: a2c6 1ebe cc8c ce3d e118 2dbe 446e 56bd
000002c0: ad58 0b3d 8f3f 09bd 6e86 cabd b57c a43d
000002d0: 700d 21bc 321b 85bd 8e34 823d bd6b 67bd
000002e0: 0869 1abe 7497 1e3d 725e f1bd e2f3 4b3d
000002f0: cb30 8e3c 294e 00be 8e6f 643d 85b2 d83c
00000300: 071a 023e 1bf7 fdbd 016e 9e3d 4bfc 9c3d
00000310: 4b07 dfbc 281f 03be 80c3 8ebd 41dd c2bd
00000320: 0018 05bd 708e 09be b79f b8bc b92a cc3d
00000330: 304a 783c f4e2 0b3e 8147 153e 0c1a 27bc
00000340: aae1 99bd 4aa4 d8bb fbea 463d 9af6 b7bd
00000350: 2150 833b f032 47bc 95f9 463d cee1 df3d
00000360: fae5 413d 5ccd 03be 7589 a4bd f07f 7a3d
00000370: b21b 06bd fa01 f83c 37d1 cd3d ccfe 1b3c
00000380: e20c 843d 4af0 d4bd af64 87bd a859 173d
00000390: 3eca a23c 649d 373d 0aaa b83d c6e9 14be
000003a0: 9639 f9bd 702b 163e 1575 9d3d 1758 123d
000003b0: 3fc0 84bc 565d e53d e702 57bb 7c4c bbbd
000003c0: 2690 98bd 6632 b03c ac78 7b3d 4e0e cb3d
000003d0: cf5a 42bd f30c a2bd c00a 003e d897 053e
000003e0: a61e c6bd 8207 893d 7fec d2bd c510 1c3d
000003f0: 472a 61bd 573d 4ebd 5348 9d3d fe49 743c
-0.015682925 -0.007129466 -0.004905191 -0.087296516 -0.0037233904 0.12531105 -0.13544415 0.15240064
0.09086336 -0.03990881 -0.040916618 0.052224625 0.07885357 -0.07413985 0.1376888 0.05963202
0.109404474 -0.060084745 0.0041745715 -0.10787336 0.10519298 0.13838835 -0.007028004 0.18294506
-0.104214564 0.05523448 -0.14475916 -0.09021595 0.1575653 0.119967036 0.041637108 -0.14341179
-0.12711656 0.11564886 0.06510783 0.037126046 -0.09252841 -0.14501083 0.057290465 -0.035215154
0.035434797 -0.102263734 0.13477987 -0.1437409 -0.09442265 -0.017590886 -0.12590568 0.0998084
0.12702614 -0.06205102 0.11630001 -0.12763298 -0.13470596 -0.048489224 0.0595238 0.1552887
0.07763216 0.0033552407 0.16861942 -0.08622157 -0.1271755 -0.05544324 -0.07715791 0.117553845
-0.018129064 0.027028617 -0.107749484 -0.09874242 -0.1151077 -0.07998705 0.08205359 0.13930042
-0.0013281106 -0.13845737 0.05235659 -0.13830505 0.013887987 -0.028856838 0.13607006 -0.054076962
0.05691086 0.013176668 -0.0997885 -0.0057717357 0.04970063 0.13641416 -0.08214296 -0.11259011
-0.011758052 0.025816102 -0.04177487 -0.076970376 -0.08310601 0.03725817 -0.10510561 -0.03495226
0.07889563 0.081677176 -0.12741296 -0.08564032 0.09851482 -0.07933166 -0.090620235 -0.051862948
-0.036487542 -0.036267553 -0.07338108 -0.08614959 0.09025315 0.05375028 -0.06238131 0.063924015
-0.07135207 -0.084172815 0.096572645 0.0731043 0.056344304 0.14279507 -0.0016546358 0.10296338
-0.059215657 0.044217255 0.12257329 0.022112383 0.10816962 -0.11088833 0.099933095 -0.13439734
0.027121827 -0.11081784 -0.124892265 -0.12170062 -0.08275986 0.05230005 -0.022127133 -0.08564786
0.03810649 0.046440415 0.11373303 0.06608889 0.14687884 0.090366855 0.06621109 -0.08591644
-0.0076231393 0.05200963 0.017895183 0.11269079 0.110674426 0.02102151 0.101551175 -0.08357546
-0.010045845 -0.12534188 0.03074217 0.09686852 -0.081377976 -0.020938603 0.009291687 -0.009592197
-0.036437303 0.021503907 0.12434845 -0.062758595 0.024009587 -0.14647438 0.051501617 0.0073607345
0.014000603 0.08914111 0.02605933 -0.056858238 -0.1550546 0.100854486 -0.16904022 -0.05235125
0.034020115 -0.03350788 -0.09888922 0.080315985 -0.009829864 -0.06499328 0.0635768 -0.05649923
-0.15079129 0.038718656 -0.11785592 0.04979313 0.01735725 -0.12529816 0.05577045 0.026452312
0.12705241 -0.12400647 0.07735825 0.076653086 -0.027225157 -0.12804854 -0.069708824 -0.09514857
-0.03249359 -0.13433242 -0.022537095 0.09969086 0.015154406 0.13660794 0.14578058 -0.010199081
-0.07513745 -0.0066113817 0.04856394 -0.089825824 0.004007355 -0.012158141 0.048577864 0.10931741
0.047338463 -0.12871307 -0.0803403 0.061157167 -0.032741256 0.03027438 0.1004967 0.0095211975
0.0644777 -0.10397394 -0.06611001 0.036950737 0.019871827 0.044827834 0.090168074 -0.14542302
-0.12169187 0.14665008 0.07688347 0.03572854 -0.016204951 0.11199443 -0.0032808126 -0.091454476
-0.07449369 0.021508407 0.06139438 0.09914838 -0.047449883 -0.07912626 0.12504101 0.13046205
-0.096738145 0.06690885 -0.10299014 0.03810193 -0.05497196 -0.050351467 0.076798104 0.014910219

1.2.bias f4 [36]
00000000: 11c0 83bd 4f3f c6bd d3b8 d43d 402f 37bd
00000010: c2c4 053e 6eba 73bd 9945 d8bd 6a19 51bd
00000020: 3226 abbc e312 103d 16d7 25be b5b7 b23d
00000030: 865e b23b 89f6 96bd c350 133d 0c77 fabb
00000040: 8d5e 3f3e 2f05 e8bd 2428 79be f423 65bc
00000050: ae62 103d 0a03 1d3e 2733 c2bc 2605 383d
00000060: 1b00 ea3d 164d 093e 74de c53d 72b1 e9bd
00000070: 9fb0 2e3d f7dd b73d 0958 ad3d a958 22be
00000080: cc71 81bd 2e40 17bd 7a37 b7bd 59f2 8fbd
-0.06433118 -0.09680044 0.10386815 -0.044722795 0.13063338 -0.059503965 -0.1056015 -0.051049627
-0.020892236 0.03517426 -0.1619533 0.087264456 0.005443397 -0.073712416 0.035965692 -0.007643586
0.18688412 -0.11329114 -0.24331719 -0.013985623 0.03525036 0.1533319 -0.023706032 0.044926785
0.11425801 0.13408312 0.0966157 -0.11410798 0.042648908 0.08977883 0.08464057 -0.15854134
-0.06320533 -0.03692644 -0.08946128 -0.07028646

1.4.weight f4 [36, 36]
00000000: c55d d2bc f05b 87bd 44cd bcbd 2139 91bd
00000010: 4a5a f43d f850 4a3d c6c8 d13c 6b47 853d
00000020: b398 2b3d 5441 fabd d8c9 30be 4ee5 dbbd
00000030: 6877 113e 6468 8bbc c23b 433d e152 d93d
00000040: d122 273e 5989 653d 416e febc 655f 933d
00000050: 258a 953d 28c0 1c3e bd8d 393c 7d52 8dbd
00000060: 2b91 41bd 8558 2dbc 5dd6 f5bd 254b 05bd
00000070: 91e4 fcbd b1f8 7e3c 4d32 b63d 8764 9fbd
00000080: 4e3b 873d 52f9 d43d 3cd3 073d 4e94 113d
00000090: b120 103e c912 91bd a947 8dbd ce74 0a39
000000a0: fe2f 323b 7bd8 7e3d 0466 b83d a62a 2a3b
000000b0: bd0c 78bd b89e 0d3e 5920 0b3e f363 4dbe
000000c0: f190 cb3d 5a58 b1bc b2d7 253e 1569 443e
000000d0: a975 8dbd d129 e4bd 21d3 553e c398 9e3d
000000e0: de2b ccbc 23e6 5cbe 7ccf de3d 0a57 983d
000000f0: db8f 3bbe a089 8e3d a92e 10be b188 c43d
00000100: d0c6 0d3e c572 db3c 7ed5 683c c2f8 273d
00000110: c6dd 1cbe 8d1e 10be 3391 953d f131 303e
00000120: 0cd5 0d3e a3e4 21be 7a93 123e 112f b43d
00000130: 56ca 973d c471 dd3d 23d8 2fbd f10f 1dbe
00000140: 92b9 d33c 09bc 99bd 6f7e b6bd cff8 97bd
00000150: 3aa0 1abe 06e4 163c 57bd 433d 676e 7f3c
00000160: 1158 10be 4245 32be 3f08 0abe 3d01 173e
00000170: 5773 9dbd 4675 05be f906 1cbe e743 9b3d
00000180: e9f9 01bd c7fb a3bd ed34 38bb bf7a fd3d
00000190: 9cdf 34be 7811 27bd 94f7 e5bd b47c 303e
000001a0: a795 383e 7f4c 8b3d 7107 4ebe edb1 c0bc
000001b0: ac0d 523e 472a ee3c 3172 1cbe d5b6 bebd
000001c0: 8fe5 293c aa33 bf3c 0b29 213e 4ecf 87bd
000001d0: 9c6b 28be 4d41 363e 4b67 083e 6ce8 3bbc
000001e0: 1944 41bc 10ae bc3d 5321 123e db1c 1c3e
000001f0: ff3c a1bd b9a8 07be 11b8 073e 45e2 dbbd
00000200: 9313 edbd f047 2dbd 3715 903c 13db 263e
00000210: 5417 01bd 2888 a03d 6f0a bb3d 3ec1 f53d
00000220: a224 60bd c415 bdbd a876 d23d 32c9 313e
00000230: f86d bebc 7eaa c1bc 250e 44be 42f5 493a
00000240: e448 31be 6104 d03c c0da 13be ba0a 043e
00000250: 5ab1 163e 0a39 96bd a6cf 79bd d9a8 ebbc
00000260: ee8a 153c dd5a 36bd c716 a93d 4d46 1e3e
00000270: d46a 1b3e 68bb 3bbe a560 9f3b 1b2b bdbb
00000280: 8840 4f3d 2ef3 5c3b 82c1 42be ac58 27bd
00000290: 0d1d e0bd 7d51 0f3e 1f88 0dbd f9fe 06be
000002a0: 4332 f43c f0d1 303e ec85 a6bd 299b 483e
000002b0: d0b0 89bd 5a3d 0f3e 313b 0c3e b255 f4bd
000002c0: 88b0 24be 65a1 3bbd 9e37 8cbd e148 0a3e
000002d0: 1e6f 11bd c9b8 d3bd 8a53 3abe 3e91 d73d
000002e0: 99eb c93d 59c9 9c3d 05f2 c33c 1349 8e3d
000002f0: 215c bebd 1cc8 20be 7ea5 f73d 41f3 76ba
00000300: c6ca e73d fd10 2abe 279c 24be cf77 4c3d
00000310: ef7e fabd 7f5c 4c3d 248b 9ebd cca7 04be
00000320: 45ef fbbc ccd0 993d 2799 aebd aa0b 33bd
00000330: 7a08 423e 7858 fa3d fafd 483d 5e6b b4bd
00000340: 5ec3 b53d deed 10bc 1ff7 cf3d 88be 24be
00000350: b2cf 153d 7236 443c c805 81bd 15a5 623d
00000360: 9a4c 03bd a6da c73d 9741 42bd c268 f63d
00000370: cb87 d13c 9a18 183d 40dc 41bd 2cf2 883c
00000380: 7af5 603d 030a f3bd 2863 8a3d 0d69 253d
00000390: 2842 14be 38bc 0e3a c555 80bc e873 65bd
000003a0: b9a9 24be b3cb 19be e1f4 d33d 08f7 f23d
000003b0: 107a a73d ffae 553d d82f 30bc 2c9c d7bd
000003c0: c668 723d ea72 17be 8ec7 783c 5204 b33b
000003d0: 6fa4 b0bd c494 823d b97f ab3c 59f4 35bd
000003e0: df2c f13c cca1 4d3d 1910 e53d 05c0 03be
000003f0: 4ae4 bd3d 4048 133e 6ec4 bf3d a546 a3bc
-0.025679478 -0.066093326 -0.09218839 -0.070909746 0.11931284 0.049393624 0.025608432 0.065077625
0.041893672 -0.122194916 -0.17264497 -0.10737096 0.14205706 -0.01701755 0.04766441 0.10611511
0.16321875 0.056039188 -0.031058433 0.071959294 0.073017396 0.15307677 0.011325297 -0.06900499
-0.047257584 -0.010580187 -0.12003777 -0.032542367 -0.12348283 0.015562222 0.08896313 -0.07782846
0.06603108 0.103991166 0.033160433 0.035541825 0.14074971 -0.07083661 -0.06898434 0.00013204219
0.002718925 0.06221817 0.09003833 0.0025965362 -0.060559023 0.13830078 0.13586558 -0.20057659
0.09939755 -0.021648575 0.16195562 0.1918071 -0.069072075 -0.11140788 0.2088132 0.07743981
-0.024923261 -0.21572165 0.10879418 0.074384764 -0.18316595 0.06959844 -0.140803 0.09596384
0.13845372 0.026788125 0.014211057 0.04100872 -0.15318975 -0.14074154 0.07303085 0.17206551
0.13850802 -0.15809874 0.1431407 0.0879804 0.074116394 0.10812715 -0.042930733 -0.15338112
0.025845323 -0.07506568 -0.08910834 -0.07420503 -0.15100184 0.009209638 0.04778799 0.015590287
-0.14096095 -0.17409232 -0.13479708 0.14746566 -0.07688015 -0.13033018 -0.15237035 0.07581311
-0.031732474 -0.08007007 -0.0028107718 0.123769276 -0.17663425 -0.040788144 -0.112288624 0.1723507
0.18025838 0.068017 -0.20120026 -0.023522342 0.20513028 0.029072894 -0.15277936 -0.09312216
0.010369672 0.023340065 0.15738313 -0.06631337 -0.164473 0.17798348 0.13320653 -0.011468988
-0.011796021 0.09212887 0.14270525 0.15245382 -0.07872962 -0.13247956 0.1325381 -0.10736517
-0.11575999 -0.042304933 0.017588241 0.16294508 -0.031516388 0.0783847 0.091328494 0.11999749
-0.054722436 -0.09232667 0.10276538 0.17361906 -0.023245797 -0.023640867 -0.1914602 0.0007704088
-0.17312962 0.025392713 -0.14438915 0.12894717 0.14716092 -0.07335098 -0.060989045 -0.028767036
0.009127362 -0.044520248 0.082562976 0.15456505 0.1517747 -0.18333209 0.004863816 -0.005772961
0.05059865 0.0033714282 -0.1901913 -0.04085605 -0.10943041 0.13995929 -0.034553643 -0.13183202
0.029809123 0.17267585 -0.08131012 0.19590439 -0.067231774 0.13988248 0.13694455 -0.119304076
-0.16082966 -0.045808215 -0.06846546 0.13504364 -0.03550636 -0.10337979 -0.1819593 0.105257496
0.0985939 0.076555915 0.023919115 0.069475316 -0.09294916 -0.15701336 0.12092112 -0.0009420403
0.11317973 -0.16608043 -0.16075192 0.049918946 -0.12231242 0.0498929 -0.07741383 -0.12954634
-0.030753741 0.07510528 -0.08525305 -0.043712296 0.18948546 0.12223905 0.049070336 -0.08809541
0.08875154 -0.008845774 0.101545565 -0.16088307 0.036575027 0.011975871 -0.06299931 0.055333216
-0.032055475 0.09758501 -0.047425833 0.120317 0.025577446 0.037132837 -0.047329187 0.016717039
0.054921605 -0.11867144 0.06757194 0.040383387 -0.14478362 0.0005444917 -0.015665898 -0.05601874
-0.16080369 -0.15019111 0.10349441 0.11863524 0.081775784 0.052168842 -0.010753594 -0.10527834
0.05918195 -0.1478993 0.015184296 0.0054631615 -0.08625113 0.06376031 0.020934926 -0.04442248
0.029440342 0.05020313 0.11184711 -0.12866218 0.09272058 0.1438303 0.09363638 -0.019931147

1.4.bias f4 [36]
00000000: 7d3c 40bd 6cac d9bd 68f9 1a3e b19d 2dbd
00000010: aceb 413d ff37 b3bd ffa2 d33d 0892 bbbd
00000020: 4e3f 2fbe cdc4 6d3d 0d78 eebd afd4 b83d
00000030: 29e4 f0bc 9ef9 87bc 0e1b afbd 96f0 8a3d
00000040: 6b29 10be d251 383e 845e 06be 6e96 f9bb
00000050: 15cf 6bbc 0dcd 0abe d92a 843e 8bc0 f33d
00000060: b3b5 fa3d a9fc 38be a799 29bc 70fe febd
00000070: 8a41 d13d a683 8ebd 70ef 0ebe aa9b 0f3e
00000080: 04a0 c5bd ce26 343e 33a6 76bd 3e0f 28be
-0.046932686 -0.1062859 0.15134203 -0.042386714 0.047343895 -0.08750915 0.103338234 -0.091587126
-0.17113993 0.058049012 -0.116439916 0.09024941 -0.02940567 -0.016598519 -0.08550082 0.067841694
-0.140783 0.17999962 -0.13121992 -0.0076168096 -0.014392634 -0.13554783 0.2581394 0.11901959
0.122416876 -0.18065132 -0.010351575 -0.12450874 0.10217579 -0.06958704 -0.13958526 0.14024225
-0.09649661 0.17592928 -0.060217094 -0.16412064

1.6.weight f4 [24, 36]
00000000: 5ac1 083e d22c aebe 1edd 1d3e 72bd 0bbe
00000010: 585e 623e 2d76 393e 4d0c 4b3b 674b b7bd
00000020: 6169 29be 64ee 95bc 25d4 d0bc fee1 92bd
00000030: 6ba4 23be 8b99 b93d acbc 9abe 3b33 993e
00000040: 4d2d 35be dd64 c43e c946 81be 3472 b9bc
00000050: 42e8 5ebd 893b 6e3d 328a dd3e daa4 90bd
00000060: 405e 9d3d 1dd4 23be 835f 133e e56d 84be
00000070: 225f 193e 7bf7 813e 05db 7ebd acff 493e
00000080: 0988 f3bd 7a4a 5c3e 6150 eb3c e522 8bbe
00000090: 2e30 a13d ea9d 2dbe 657d 823d 75fd 80bc
000000a0: 6fe4 273e 2abc 4f3e 8763 8cbc ff95 f8bd
000000b0: bf89 073e 8bc2 edbd 6464 203e 3f43 e2bd
000000c0: e7d6 06be 3424 82bd f745 29bd 1416 06be
000000d0: 1230 353e 751f 96bd 229a dbbd 98cd b03d
000000e0: c95d ed3b b2bf ed3c 129b 8d3d 48d3 c93d
000000f0: 7240 a73d b4d8 0c3e 2220 eb3d e0cc 65bd
00000100: 89f5 2abe 0787 bbbd 6abb 203e 82c1 f33d
00000110: 1416 c33d 3953 d43c f706 35be 7b78 983d
00000120: a6c7 433d d60f e5bd 25c9 1fbe 785d 8dbd
00000130: 4193 033e 6b7e 343b d7e2 ea3d 820d 36be
00000140: cbcf 123d ce8c a73d c91a 2c3d cd72 183e
00000150: ac14 823d d340 1f3e 47e3 ccbd 6352 313e
00000160: bab8 ad3d 0aec 23bd 01ab 23be 6e7f 063d
00000170: 2434 633d c438 00be 972a c43d 4995 693d
00000180: 54ba 15be f2d9 b9bd a0ef 07be 3a4b 27bd
00000190: 905a f9bd 555c 96bd 30fe 2f3e 1629 e8bd
000001a0: 6d02 bbbd 68b5 c3bd 346a d7bd eb57 d63d
000001b0: 9143 08be f328 4f3d f20d cbbd fc2c e5bd
000001c0: 0cbc 64bd 1133 3f3e 5ea3 d9bd aa87 cf3d
000001d0: c841 4abc 349b a3bd 2e07 58bd 44b5 cebd
000001e0: 0c51 0bbe 3a62 cabb fe75 33bc f660 1ebe
000001f0: 9110 e6bd 7a63 29bd 8be8 17be 9b57 fd3d
00000200: 45da 13bd 2aac 603d 7420 6e3d cb9b 9f3d
00000210: f64a 18be 97b7 a93d 21be c93d 7481 babd
00000220: 56db 40bd e2cc 1dbd 6159 81bc 1b88 7cbd
00000230: 5868 cabd d038 2a3e 2dc4 f7bd 6947 293e
00000240: 1b85 1f3a 65c1 e73d d31b d1bc 1169 42be
00000250: b935 8d3d cfa8 46bb cf73 22be dbf9 f3bc
00000260: ce90 b9bd 7fc3 823d ca8e cd3d dc61 f43c
00000270: 4414 9ebd 1220 b23d cb0a f7bd 1248 343e
00000280: 3671 9a3d ec69 b93d d0e6 263d d983 063e
00000290: e87b 20be 57d9 51bd fe74 203e 2f62 72bd
000002a0: 011b 2abd 701a 123e 3ed0 283d ad48 71bd
000002b0: 62b8 05be 90ca 02be 684c 173d fa7b 2c3e
000002c0: 37d0 27bd dc46 b53d 353b 18be d73e 14be
000002d0: 82ce 8c3d 2641 0ebe 9a35 04be 359f 923d
000002e0: 242b b33d a10a 2ebe 33f3 f33c 1940 7cbd
000002f0: 1bd4 b2bc c145 1cbc 0182 f3bd b2d4 dabd
00000300: adb8 12be a404 38b8 f0ad 2bbd 1870 f83d
00000310: 1aee 19be f60a a2bd 5a0b d13b 9a7c f6bd
00000320: 1e1d 74bd 31d2 5c3c 825d b9bd c068 343e
00000330: c8b5 033e 691a e03d 0ded e03b 609b 39bc
00000340: 1b1e 0e3e fffe 85bd 5634 52bd d42a c83d
00000350: 035b 853d b8e6 2bbb 006c 2ebd 6709 edbc
00000360: 3ef3 eb3d cc88 fe3d 88ea ff3b 103d 2cbe
00000370: 96f4 2cbd ecd2 093e e670 bc3d 94f5 06be
00000380: 6a08 893d 265b a03d 52b4 033e cfe6 ac3d
00000390: 08e1 d0bc 8e6c 703d a9d8 99bd 96ff fc3d
000003a0: f79a 1a3e a884 e7bd bacf ccbd b123 1fbd
000003b0: af57 fc3d 1733 243e ef0a 4e3e 6cbd 15be
000003c0: 2864 11be 2b4e 083e c07a 643d 3dc5 81bd
000003d0: d341 04be 220b 053e 71cd e13d 8514 7dbd
000003e0: ee02 ddbd 7be1 333e 7e4d c53d 4d95 28be
000003f0: 1f8c 22bd 4a90 1ebd 205a 213d 72e8 15be
0.13355008 -0.3401857 0.15416381 -0.13646486 0.22106302 0.18111487 0.0030982674 -0.08949929
-0.16544105 -0.01830215 -0.025491783 -0.07172011 -0.15980689 0.09062489 -0.3022207 0.29921898
-0.17693062 0.38358203 -0.25249317 -0.022637464 -0.054420717 0.058162246 0.43269497 -0.07062693
0.076839924 -0.15998884 0.14391904 -0.25865093 0.14977697 0.25384125 -0.062220592 0.19726437
-0.11891181 0.21512786 0.028724851 -0.2717506 0.07870518 -0.1695477 0.06371573 -0.015745858
0.16395734 0.20286623 -0.017137302 -0.121379845 0.1323614 -0.11609372 0.15663296 -0.110479824
-0.13167916 -0.063545614 -0.04132649 -0.1309436 0.17694119 -0.07330219 -0.10722758 0.08632964
0.007243846 0.029022072 0.06914343 0.09854752 0.08166589 0.1375454 0.11480738 -0.056103587
-0.16695227 -0.09156614 0.15696493 0.11902143 0.095256954 0.02591859 -0.17678438 0.07444855
0.04779782 -0.11184661 -0.15604074 -0.069025934 0.12849142 0.0027541171 0.114690475 -0.1777859
0.035842698 0.08181153 0.04201773 0.14887543 0.06351599 0.15552072 -0.10004287 0.17316584
0.084824994 -0.040020026 -0.15983202 0.03283637 0.055469647 -0.12521654 0.09578436 0.057027135
-0.1462186 -0.09074773 -0.13275003 -0.040843226 -0.121754766 -0.0734183 0.17186809 -0.113359615
-0.09131322 -0.09556085 -0.105183035 0.10465988 -0.13307025 0.05057616 -0.09914769 -0.11190221
-0.055843398 0.18671824 -0.10626863 0.10133298 -0.012344785 -0.07988587 -0.052741222 -0.100931674
-0.13605136 -0.0061762603 -0.0109534245 -0.15466675 -0.112336285 -0.041354634 -0.14834802 0.12370225
-0.03609683 0.05485169 0.05813642 0.07793387 -0.14872345 0.0828697 0.09850717 -0.091067225
-0.047084175 -0.03852547 -0.01578969 -0.061653238 -0.09883183 0.16623235 -0.120979644 0.16531147
0.0006085203 0.11316184 -0.025525963 -0.18985392 0.068950124 -0.003031302 -0.1586449 -0.029782226
-0.090608224 0.06384944 0.100370005 0.02983182 -0.07718709 0.08697523 -0.120626055 0.17605618
0.075411245 0.09053406 0.040747464 0.13136233 -0.15672266 -0.051232662 0.15669629 -0.059175666
-0.04152966 0.14267898 0.04121422 -0.0589072 -0.13058618 -0.12772584 0.0369381 0.16844168
-0.040970054 0.08851406 -0.14866336 -0.14477096 0.06875326 -0.1389204 -0.12911072 0.071592726
0.08748463 -0.16996242 0.029779052 -0.061584566 -0.021829655 -0.009538115 -0.11890031 -0.106851
-0.1432826 -4.387334e-05 -0.041913927 0.12130755 -0.15032235 -0.07912247 0.006379527 -0.120354846
-0.05959808 0.013477848 -0.09051038 0.17618084 0.12862313 0.10942537 0.006864196 -0.011328548
0.13878672 -0.06542777 -0.051319443 0.09773794 0.065115 -0.0026230048 -0.042583466 -0.028935147
0.11521004 0.12428436 0.0078099407 -0.16820168 -0.042225443 0.13459367 0.09201221 -0.13179618
0.06691058 0.07829885 0.12861755 0.08442461 -0.025497928 0.058697276 -0.07512028 0.12353437
0.15098177 -0.11304599 -0.10000558 -0.038852397 0.12321412 0.16035114 0.20121358 -0.1462304
-0.14198363 0.13311069 0.055781126 -0.06336448 -0.12915735 0.12992528 0.11025513 -0.061787147
-0.107915744 0.17566483 0.09633921 -0.16463204 -0.03968441 -0.038711824 0.03939259 -0.14639452

1.6.bias f4 [24]
00000000: 03cc 823d 82f0 21be ab3b 6cbd e4f2 193d
00000010: 0dba 16bd 63d9 83bd 6bdd 293e ea90 ce3d
00000020: d981 15bd b260 0abe 0dea ae3d 49c3 4b3d
00000030: 3009 47bd 7de0 2ebe 6477 f53c de25 8a3d
00000040: e4d6 283e d94c c03d 7e0f e0bb c3b6 1f3e
00000050: a970 2bbd c255 49bc a0aa 17be 95c7 22be
0.063865684 -0.15814403 -0.05767409 0.037585154 -0.036798526 -0.064379476 0.1658837 0.10086234
-0.036500785 -0.13513449 0.085407354 0.049746785 -0.048592746 -0.17077823 0.029964156 0.06745504
0.16488224 0.093896575 -0.0068377843 0.15597062 -0.041855488 -0.012288513 -0.14811182 -0.15896447

1.8.weight f4 [24, 24]
00000000: 875c c0be 2fbe e3bd ce99 41be 2acf adbb
00000010: 6675 3d3d 26cc 06be c641 ed3b 732f b3bd
00000020: 4c5f 3ebe 7b31 cbbc bdca 0abb c84e 3bbe
00000030: 6ef2 a3bd 6655 d1bd 8009 033d 112f 743c
00000040: 2394 95bd 6498 33be 4975 c1bc a81b a9bd
00000050: f71a e7bd 35e2 593e 0121 2bbd 72a9 163d
00000060: d9c8 9ebd 667a 663d 988d e43b 490d e3bd
00000070: c8a9 053e 6ed3 3abe e562 433c 6134 19be
00000080: 9af7 49bd 04f0 193e 4045 1fbe 6fb1 1dbe
00000090: 95c9 91bd ed8e 3abe 4d4a 103e 5dda 08bd
000000a0: 2e3b a23d 1d82 47be a0ab 16be 31d1 473e
000000b0: 7837 f93d cdb2 20be 9da3 a03d db86 633d
000000c0: 814f 01bc c02a cabd 4d1d b4bd b011 1bbe
000000d0: a5fa 143e 5894 ee3b 5142 f73d fd25 4dbe
000000e0: db6d db3b d46b ba3d cc2b 54bd 96a1 2a3e
000000f0: 02bb e8bc 6281 cf3d 6724 ec3d b445 903d
00000100: cb81 dd3d ca33 503e 7832 ed3d c29f 19be
00000110: e70d c1bd 634e f73b 2b05 a53d 411a 54be
00000120: a97d 533e 3058 173e fe6a 2d3e aa7b 483e
00000130: caf3 b0bd 8903 1bbe ffec 1bbe 2f03 8c3d
00000140: 13eb 99bc 0a53 e53d 3b34 473e c6fb 13bd
00000150: ed5e c83d 835b 5fbd 5ec5 7c3d 3771 0f3e
00000160: ce62 743c 7027 273d d00f 19be c15c 86bd
00000170: 7ad8 cdbd c519 133e 1c8c 153e bb10 9b3c
00000180: b2ce 9fbe ab7b ebbd 2315 73be f0a9 27be
00000190: 30cd 37bd 9714 d0bd b4e1 30be 072a 5bbe
000001a0: 7b29 6bbe 21a0 093e d670 4fbd 1872 8dbd
000001b0: 2ab0 553e aaa2 b53d e332 893e f533 663d
000001c0: bfdc e53d 30f3 03be 0b79 883d cad0 db3d
000001d0: 7932 a8bd 1ffc 1c3e 0e14 01be 3e7a 57be
000001e0: de80 b73d ced9 08be 9184 1bbd 1fa5 6b3d
000001f0: 1f1c f7bd 6378 363d 71fa 0bbe aacc 22be
00000200: 56c4 26be d356 843c 6768 23bd 8b78 3a3d
00000210: 7d23 17bc a082 633d f9f9 123e c97a d7bd
00000220: 4835 49be 9de8 013e 0de1 6cbd 90aa 5cba
00000230: 9d44 273d a988 3ebd f9f3 403e dbe9 d6bd
00000240: 58d3 8fbe be2b 6abe 6f20 1e3c c521 713c
00000250: d4e2 2cbe 952a d5bd a9ab 3bbd a6e4 e1bd
00000260: 1333 173e 91ec 03be fef6 ab3d b093 2a3e
00000270: 2e83 dfbd 95cd db3d 0ae1 afbd 2e32 ab3b
00000280: 75b0 883d 0352 24be acab 7ebd 8862 a43d
00000290: e320 eb3c dd31 2c3d ca16 a33d 3743 26be
000002a0: 79ee bd3d e68a 20be 8f51 c7bc 6a29 cbbd
000002b0: 8551 013e aaca 2abe 3f98 b43d 941a 643e
000002c0: 0e89 3bbe 59da 3a3e ec3c 513d aa53 3c3e
000002d0: 1f77 393e f272 ebbd 5dfd a1bc 1a71 33bd
000002e0: c316 b2bc 2b6c 35bc 0eeb 733d e003 7a3c
000002f0: 53bd 273d dda5 653d 1901 303e d023 9a3c
00000300: 996e 023b 5714 59be 5a3b 0f3e 626a a53d
00000310: 3c37 1ebe 0ef0 51bb 88d2 45be 2644 813c
00000320: 7b62 0f3e 309c 60be 6d95 6abd 366a eabd
00000330: f9af 743c 77bb 92bd 8c7a 533e 68cc 99bd
00000340: 8beb 4e3e 19fa c43d fc1f 34be e99a dfbd
00000350: dcef f3bd f3a7 343d 0bc7 ca3d 90a4 cdbd
00000360: c2f3 843e 2c3c d3bd 31ed 90bd 60f3 2f3e
00000370: 437d 983c cb62 5bbd 344a 493e af6d bcbd
00000380: eb3c cabc 636b 94bd 5224 17be c001 e6bd
00000390: 6eb7 bc3d 766f 073e 8e67 f1bc 43e6 d7bd
000003a0: 3ed2 0fbe e916 103d 2a94 c93d 924a 47be
000003b0: 76df dfbd d093 dbbc 5b5f 253e 0dcb c43d
000003c0: c551 793e bdd9 b63d 9c7f 973d cbde 953d
000003d0: af62 843c 8705 c2bd 8927 26be 3524 7a3d
000003e0: f28a a93d 304b 1d3e 939d 19be d65c 003d
000003f0: 5043 24be 534e fabc 2fde b5bb 665f db3d
-0.37570593 -0.11120259 -0.18906328 -0.005304237 0.046254538 -0.13163814 0.007240507 -0.087492846
-0.1859104 -0.024803868 -0.002117797 -0.18291771 -0.08005224 -0.102213666 0.03199148 0.0149038
-0.073036455 -0.17538601 -0.023615496 -0.08257228 -0.1128444 0.21277697 -0.04177952 0.03678269
-0.077531524 0.056269072 0.006974887 -0.11086518 0.13053048 -0.18244717 0.011925434 -0.14961387
-0.049308397 0.15032965 -0.1555376 -0.15399717 -0.07118527 -0.18218584 0.14090843 -0.033411372
0.07921444 -0.19483228 -0.14713907 0.19513394 0.12168783 -0.15693207 0.07843707 0.05554853
-0.00789249 -0.09871435 -0.08794651 -0.15143466 0.14548738 0.0072808675 0.12073196 -0.20034023
0.0066964454 0.09102598 -0.05179958 0.16663203 -0.028409485 0.101321 0.11530381 0.07044545
0.10815772 0.20332256 0.11581892 -0.15002349 -0.0942648 0.007547186 0.08057626 -0.2071314
0.20653404 0.14779735 0.16935346 0.19578424 -0.08640249 -0.15138067 -0.15227126 0.06836545
-0.01878885 0.11197479 0.19453518 -0.03612878 0.09783731 -0.05453063 0.06171166 0.14008032
0.014916135 0.040809095 -0.14947438 -0.0656066 -0.10051055 0.14365299 0.14604229 0.018928876
-0.31212384 -0.11498197 -0.23738532 -0.1637342 -0.044873416 -0.10160177 -0.17273599 -0.21402751
-0.22965042 0.1343999 -0.050644718 -0.06906527 0.20867983 0.08868916 0.26796636 0.056201894
0.112237446 -0.12885737 0.06663712 0.10733183 -0.08212752 0.15330552 -0.12605307 -0.21042725
0.08960126 -0.13364336 -0.037968222 0.05753052 -0.120659105 0.044548403 -0.13669755 -0.15898386
-0.16285834 0.016154682 -0.039894488 0.045525115 -0.00922477 0.055544496 0.1435317 -0.10521466
-0.19649231 0.12686391 -0.057831813 -0.000841775 0.04083692 -0.046517048 0.18843068 -0.10493823
-0.2809093 -0.22868249 0.009651287 0.014717524 -0.16883403 -0.104085125 -0.045818005 -0.11029939
0.14765577 -0.12883212 0.083967194 0.16657901 -0.109136924 0.10732571 -0.08587845 0.0052244877
0.066742815 -0.1604691 -0.062175438 0.08026606 0.028702205 0.04203974 0.07963331 -0.16236578
0.09274001 -0.15677986 -0.024330882 -0.099200085 0.12628753 -0.16678873 0.08818101 0.22275764
-0.18314001 0.18247356 0.05108349 0.1839129 0.18111847 -0.114965335 -0.019774133 -0.043809034
-0.02173937 -0.011073153 0.059550337 0.015259713 0.040952038 0.056066383 0.17187919 0.018815905
0.0019902347 -0.21199165 0.13987485 0.080769315 -0.15450758 -0.0032033953 -0.19318593 0.015779566
0.14002411 -0.21934581 -0.05727141 -0.114460394 0.014934533 -0.07164662 0.20652217 -0.075096905
0.2020704 0.09618015 -0.17590326 -0.10918219 -0.11910984 0.04410548 0.09901246 -0.100411534
0.25967222 -0.10314211 -0.07076491 0.17182684 0.018614417 -0.053561013 0.19657212 -0.09200608
-0.024687251 -0.07247045 -0.14759949 -0.112308025 0.09214674 0.13226113 -0.029468324 -0.10541966
-0.14045045 0.0351781 0.09842713 -0.1946204 -0.10931294 -0.02680388 0.16149656 0.09609041
0.24347599 0.08928249 0.073973864 0.07317885 0.016160337 -0.094737105 -0.16226019 0.061069686
0.08278455 0.15360713 -0.15001516 0.031338535 -0.16041303 -0.030554926 -0.005550168 0.10711555

1.8.bias f4 [24]
00000000: 5be9 9d3d adad 983d dfd4 5cbd 5ee9 243d
00000010: bc94 133e ba5e 5dbe ba04 52bd c64e 033e
00000020: 249e 153e 665b 58be c783 b13c cdd0 4f3e
00000030: effb 15be c134 373d ff21 46be fbae 47be
00000040: 283e 523e 0ef3 34be d635 1c3e 0cea cfbc
00000050: c747 2c3d 753d 503e 7641 813a 7a4d c63d
0.07710525 0.07455001 -0.053913947 0.04026162 0.14412206 -0.21618167 -0.05127404 0.12823018
0.14611107 -0.21128616 0.021669282 0.20294495 -0.14646886 0.044728044 -0.19348906 -0.19500344
0.20531523 -0.17670843 0.15254912 -0.025380157 0.04206064 0.20335944 0.0009861428 0.09682746

1.10.weight f4 [12, 24]
00000000: bf63 21bd 782c 2abe f219 38be aac2 183e
00000010: e726 75be 4bcb dbbd d48f 70be b79e 423e
00000020: 2ae8 0e3d 7e37 373e 05cf 583e c055 08be
00000030: cba3 c9bd 39ae 913d deee 913e 3b11 87bd
00000040: b1bb 3cbd f476 b1bd b46c f3bd 107d 45bd
00000050: 6fa8 b93c 3458 1dbd daa1 493e 645e c73d
00000060: 4069 5e3d d839 b0bc a5bd ffbd 4b1d 373e
00000070: ab84 a1bd 67e3 2b3c c01c abbd d5d7 1b3e
00000080: 9d59 ff3d 413a 083d 2217 f73d d721 00be
00000090: 46a9 4e3e a1bc 9dbd 875b 453e a06c 4a3e
000000a0: d7f6 07be 1b72 703e 1b74 9a3d 44b5 c73a
000000b0: c2f2 84bd d496 3bbe 29e9 bcbc 49fd f8bc
000000c0: 9ec6 5b3d 5f34 643e 4ba8 54be 06dd 56be
000000d0: 4594 b63d acbc 843d 4405 853e f44b 003e
000000e0: 1ca7 1bbd e1ed 8dbe 74f3 9f3d 8c19 b63d
000000f0: f0ec 28be 0d14 2a3e 02fa 78be 7811 3cbe
00000100: 1ee4 283e 217c 3bbe ee58 7c3d 0d8d 823d
00000110: 8232 ea3d 87cd c83d 9f7f dc3d e3aa 5cbe
00000120: a107 82be 9761 293e e633 3bbe 9d66 e7bd
00000130: 8a19 bebe 9b28 093b fcb3 9bbd e18c f6bd
00000140: acb6 37be c20c a13d 405c ccbc 516e df3d
00000150: f57b 83bd ef22 5fbe ccb5 753e fc1d d83d
00000160: db76 22bd 9a56 3e3e 2ac3 063e 146e c0bd
00000170: 90bd 883e 407c 1fbe bd72 e53d 269c a63b
00000180: 4a5a 5b3d 2590 febc c4ed 013e e988 e5bd
00000190: b9f6 eab9 2ccd 803c 8f7f 8e3e 4852 40be
000001a0: 659e 893d 46ee 82be 7dd0 063d 5fc0 853d
000001b0: fa1a 49be e0a9 3abe f029 a7be d964 40be
000001c0: 9c9d 0d3e fa34 09be b32c 2bbd 4ebc 41bd
000001d0: 1388 4d3e 4ee6 02bd 5acb 2bbe f0b4 55be
000001e0: fd64 803e cc6b 003e 14bc 78bd c6dd 38be
000001f0: 8d90 90bc d336 8fbd 3ce1 6ebc e625 6ebd
00000200: f3a0 133e 1a1a eb3d 9a2e 4ebe f609 103e
00000210: e938 72be 71a3 31be 702e 3fbe 402c 8dbe
00000220: 767d 083e 8173 113e 3132 d9bd fdc1 7f3d
00000230: 2e2b 35bd 195a 193e f72f 88bd 4642 acbc
00000240: bc53 a53d 769e 1dbd 522d b5bc aeea cc3d
00000250: 92e1 7d3d 5ea6 bfbd ca86 0fbd 78d4 093c
00000260: 10b0 353e 0745 73be e753 debd fe28 59bd
00000270: edde 5cbc bc1a 9ebd dfc7 42be 3054 82bd
00000280: 93a7 88bd 6968 bcbd 151b edbd 2802 82bd
00000290: 72d6 6b3b d629 343e feee 36bd e75b 70be
000002a0: 3e6c 6a3e c738 453e 4a7a 183d 33bb 55be
000002b0: 6005 6f3e a32c 5cbe 77ae 03be 1c1c b23d
000002c0: 41ca 403e 747b 4dbe ab6a f5bd 2edd 4bbd
000002d0: 4a2c 3bbd 5877 193e 753b 90be 0e96 65bd
000002e0: 2ff5 dd3d 9eba c1ba c95d a13d 451d 0a3d
000002f0: 95f0 783e 402e c33d 9242 ac3d 3d6c 9d3b
00000300: 530f 833d 2f2b 59bd 01e0 e73d d309 473d
00000310: 2446 9f3e ce61 633e e550 113d 2228 9cbd
00000320: 3cbc 283d 957a b53d 12dd 14be dd3b 153e
00000330: 8eda f93d 0ce5 5ebd 3172 1fbe 9c31 45be
00000340: 0685 343e 1dff c13d d0ea 663d 3cd8 473d
00000350: 28bf 0ebd fa40 883e 7700 633d 4d07 a13d
00000360: 03a6 9e3d cb76 16be 787b 50be 929d 2cbe
00000370: aa82 693e 0d3b e1bd 3f6c 753d 7331 113e
00000380: 9765 8fbd 3cdc 973c 5d33 23be 85ba 093e
00000390: 2daf 2abd 2342 3dbb 96a2 2dbe 0746 c6bd
000003a0: 4d5c 7c3e ba63 9a3d 8b35 16bd 5da9 74bd
000003b0: d4d0 51be e712 d73c 94e4 1b3e 6162 4cbe
000003c0: 8e23 883e 0802 4a3e c3cc 51bd 7dcf b73c
000003d0: 132f 323e 2d0c 9ebd a706 973d e024 883d
000003e0: ba4b 663e c5fd 703d 096c debd f0a9 e0bd
000003f0: 321e 8ebe d1b6 253e df94 3abe 82b3 3abd
-0.039401766 -0.16618526 -0.17978647 0.14918008 -0.23940621 -0.107321344 -0.23492366 0.19005857
0.034889378 0.17892262 0.21172722 -0.13313961 -0.09845694 0.071133085 0.28502554 -0.06595083
-0.046077434 -0.08665267 -0.11885968 -0.048214972 0.022663323 -0.038414195 0.19690648 0.097348005
0.054299593 -0.021511957 -0.12487344 0.17882268 -0.078866325 0.010491229 -0.08355093 0.15219052
0.12468264 0.03325868 0.12064959 -0.12512909 0.2018176 -0.07701994 0.19273196 0.19768
-0.13277756 0.23481028 0.075416766 0.0015236516 -0.06491615 -0.18319255 -0.023060398 -0.030394213
0.053656213 0.22285603 -0.20767324 -0.20982751 0.08914999 0.06481299 0.2598058 0.12528974
-0.038001165 -0.2772055 0.07810107 0.088915914 -0.16496634 0.16609211 -0.2431412 -0.18366039
0.1649327 -0.1830907 0.061608247 0.063745596 0.11435415 0.09804826 0.10766529 -0.21549563
-0.25396445 0.16541134 -0.18281516 -0.11298869 -0.3712886 0.0020928744 -0.07602689 -0.12038589
-0.17940778 0.078637615 -0.024946332 0.10909713 -0.06420127 -0.2179067 0.23995131 0.10552594
-0.03966413 0.18587723 0.13160387 -0.09395996 0.26707125 -0.15574741 0.11203525 0.0050845323
0.053552903 -0.031074593 0.12688357 -0.11207754 -0.0004481578 0.015722834 0.27831694 -0.18781388
0.067196645 -0.25572413 0.032913674 0.065308325 -0.19639197 -0.18228865 -0.32649183 -0.1878847
0.13829654 -0.13399115 -0.041790675 -0.047298722 0.2007144 -0.031957917 -0.16776791 -0.20869803
0.25077048 0.12541121 -0.06072624 -0.1805335 -0.017647052 -0.06992879 -0.014580067 -0.05814161
0.14416866 0.11479588 -0.20134965 0.140663 -0.23654522 -0.17347504 -0.18670058 -0.27572823
0.1332911 0.14204217 -0.106052764 0.06244086 -0.044230632 0.14975776 -0.066497736 -0.021027695
0.08072612 -0.0384812 -0.022116337 0.10005699 0.0619827 -0.09357904 -0.035040654 0.008412473
0.17742944 -0.237568 -0.10855847 -0.05301761 -0.013480884 -0.07719943 -0.19021557 -0.06363714
-0.06672587 -0.09199602 -0.11577431 -0.063480675 0.0035985974 0.17594084 -0.044661514 -0.23472558
0.22892854 0.1925994 0.037226 -0.20872192 0.23341894 -0.21501403 -0.12859522 0.08696768
0.18827154 -0.20066625 -0.11983236 -0.04977148 -0.045696534 0.14986932 -0.28170362 -0.056051306
0.10837781 -0.0014780348 0.07879216 0.03371932 0.24310525 0.09530306 0.08411135 0.004804163
0.06399407 -0.0530197 0.11322022 0.048593353 0.311082 0.22205278 0.035477538 -0.07624842
0.04119514 0.08861271 -0.14537457 0.14573617 0.12199889 -0.054417655 -0.15570904 -0.19257206
0.1762887 0.09472487 0.05637628 0.0487902 -0.03485027 0.26612073 0.055420365 0.07862721
0.07746508 -0.14693753 -0.203596 -0.16856983 0.2280375 -0.10997591 0.059917685 0.1417902
-0.070017986 0.018537633 -0.15937562 0.13450058 -0.041670967 -0.0028878532 -0.16956553 -0.096813254
0.24644585 0.075385526 -0.036672156 -0.05973183 -0.20489818 0.02625413 0.15223914 -0.19959404
0.26589626 0.19727337 -0.051220667 0.022437805 0.1740077 -0.07717166 0.07374316 0.06647658
0.22489825 0.058835763 -0.1086045 -0.10969913 -0.27757412 0.1618302 -0.18220852 -0.04558135

1.10.bias f4 [12]
00000000: c3e8 c1be 6e54 55be 098c 2d3e 28a8 95be
00000010: 62bb 1f3e f327 973e 0c2a 693e f853 243d
00000020: c6ae 95bb 8aa0 053e 3f92 9d3e 72f7 00be
-0.37872896 -0.20832989 0.1694795 -0.29229856 0.15598825 0.29522666 0.22769946 0.04011914
-0.0045679538 0.13049522 0.3077564 -0.12594393

1.12.weight f4 [4, 12]
00000000: f982 c33e dbc8 f33d 57e4 56be 1eeb 0c3f
00000010: e7eb 11bc e6ef 09bf 7a29 2abe d6dc dc3d
00000020: 2588 b1be 0b6f 89be 80ef 14bf ad66 eb3e
00000030: 4a56 d83e 5a73 de3e 4e2b 17bf 85fc 1a3e
00000040: 19d3 8dbe c817 edbe 9ab9 84be 2200 babe
00000050: 19e4 3fbc a5f7 6ebe 0ca0 02bf 3cae 3a3e
00000060: 111f 203f 19df 9f3e 1fc2 d1be 4f92 2a3f
00000070: 05df 00bf 4c4e 48bd b033 6ebe 2b4d cbbe
00000080: cc8f 6bbc 06d9 fdbc 0af6 02bf cf67 c23e
00000090: 6fb0 8d3e 1786 f83d 708d d1be 9c6b e93d
000000a0: 52d2 dfbe 124d 15bf 489e 4abe d983 86be
000000b0: d09e b5be fa67 88be 10ba b6be 25b9 193f
0.38185862 0.119035445 -0.20985542 0.5504626 -0.008906341 -0.5388168 -0.16617385 0.107843086
-0.34674183 -0.26842532 -0.5817795 0.45976773 0.42253333 0.4344738 -0.5905045 0.15135391
-0.27700117 -0.46307206 -0.25922853 -0.36328226 -0.011712098 -0.23336656 -0.5102546 0.18230528
0.62547404 0.31224898 -0.40968415 0.666295 -0.503403 -0.048902795 -0.23261905 -0.39707312
-0.014377546 -0.030987274 -0.51156676 0.37969825 0.2767367 0.121349506 -0.4092822 0.11397478
-0.4371515 -0.58320725 -0.19786942 -0.26272467 -0.35472727 -0.26641828 -0.3568883 0.60048133

1.12.bias f4 [4]
00000000: 1eaa 24bf 879c 0cbf 984f 3dbf 82a5 4ebf
-0.6432208 -0.5492634 -0.73949575 -0.80721295
